online_weights/spot_halfcheetah_medium/actor_target_s1000000.pth (torch, 290247 bytes, 6 tensors)

actor.0.weight f4 [256, 17]
000000 7b d1 3a be f9 fb 2e bf b5 ff 5c 3e 82 69 30 bc
       -0.18243973 -0.6835323 0.2158192 -0.0107673425
000010 c7 f7 36 3b 81 a9 15 be 54 2c 89 3d d4 e7 09 bd
       0.0027918683 -0.14615442 0.06697908 -0.033668354
000020 61 ad 00 3e c1 e7 8e 3e 30 a3 8c be bd 7f 46 bf
       0.12566139 0.2791119 -0.27468252 -0.77538663
000030 28 a7 9c bd bf ec bd 3d 31 c3 1b be f7 57 3b bd
       -0.0764907 0.09273671 -0.15211178 -0.045738187
000040 d9 05 98 be 99 b7 93 3d 94 bc 82 3e a8 2b a3 3e
       -0.2969196 0.07212753 0.255345 0.31869245
000050 b4 9b 01 3e 0d 34 95 3d 87 35 95 39 b0 65 20 3e
       0.12657052 0.072853185 0.00028459376 0.1566379
000060 09 8e 59 3e 50 e6 b4 be 62 34 84 3c 76 66 21 bc
       0.21245588 -0.35331964 0.01613826 -0.009851089
000070 e1 fc 0a be 63 fd 22 3e f1 6d 3a 3d 61 a5 02 be
       -0.13573028 0.15916972 0.045515005 -0.127584
000080 82 a5 a9 3d 5a 8a d8 3e 8e 53 f3 be 5a fe 01 c0
       0.08283521 0.42293054 -0.47524685 -2.0311494
000090 aa c0 00 bf 7e f8 dd be 47 cd 61 bd df fb 01 bd
       -0.5029398 -0.43353647 -0.05512741 -0.031734344
0000a0 c0 48 c6 3a 01 d6 0c bc 41 d1 37 3b 34 c6 0b be
       0.0015127882 -0.008595944 0.002804831 -0.13649827
0000b0 ec e4 19 be e2 cd 20 be 2c db cb be 06 c9 cb bc
       -0.15028733 -0.15703538 -0.39815652 -0.024876129
0000c0 ca 05 20 3d db 9c 9b bc 86 02 5b 3c 05 8c be 3d
       0.03906802 -0.018995693 0.013367301 0.0930405
0000d0 35 e1 5d be 3d 54 e6 be 05 e8 61 be 3e 10 10 be
       -0.21667941 -0.44986144 -0.22061165 -0.14068696
0000e0 e2 af 34 be 5f 8c 14 3d 89 78 4c 3e c6 49 38 be
       -0.17645219 0.03626668 0.19967856 -0.17996892
0000f0 da 9d 95 3e 3b 04 ee bc 64 97 47 3f 9e a0 67 3e
       0.29221994 -0.029054752 0.7796538 0.22619864
000100 6b a2 99 3d 1d e0 d8 be f2 0d 0d be 5a 71 bb 3d
       0.07501682 -0.42358485 -0.13774851 0.091524795
000110 32 69 02 3f ad 42 6d 3e 3c ad cd 3d e4 dd 3b 3e
       0.50941765 0.23169966 0.100428075 0.18346363
000120 af 4c 82 bd 9a e2 dc 3d 37 35 ab bc ff f1 14 bc
       -0.063622825 0.10785408 -0.020899398 -0.0090908995
000130 72 47 5d be 0d b1 24 3f 72 ec 9f 3d 5c 12 fb 3d
       -0.21609285 0.6433266 0.0780877 0.12259361
000140 bf bd d7 3d 63 66 32 3e 07 e2 0c 3c 79 d1 1a be
       0.10534238 0.1742187 0.008598811 -0.1511897
000150 f8 e6 c8 bc a3 76 c0 bd da 2c 15 be ec db bf 3c
       -0.024524197 -0.09397628 -0.14567891 0.023420297
000160 29 2c 11 be 54 f7 20 bd 1c 81 05 3d 38 5d bf bd
       -0.14177002 -0.03929837 0.03259383 -0.09343952
000170 c3 8c 4a bc 15 51 2c bc 84 cd b6 bb ec 6b b8 be
       -0.012362662 -0.010517378 -0.0055786986 -0.36019838
000180 61 a5 22 bd 50 d0 e4 3d 93 47 8d 3d e2 d4 94 be
       -0.0397085 0.11172545 0.06898417 -0.29068667
000190 52 b8 1a 3e 85 63 0d 3e f9 aa b9 3d 7a ec be 3b
       0.15109375 0.13807495 0.090658136 0.00582653
0001a0 02 9c bb bd 33 f8 6b 3c 90 e5 0d 3c ce 16 ce 3e
       -0.091606155 0.014402437 0.008660689 0.40251774
0001b0 ba c5 a7 3d 2d 07 f9 3c 4d 6b 23 be 52 03 03 be
       0.0819201 0.03039893 -0.15958901 -0.12794235
0001c0 64 bf c4 3e 52 5d 9c 3e 4e 0d b7 3d 98 c7 d3 bb
       0.3842727 0.30539948 0.089380845 -0.0064630024
0001d0 00 57 a5 3e d7 e7 3c bd a2 17 57 bd be d0 5d 3e
       0.32292938 -0.046119537 -0.052512772 0.2166166
0001e0 df d8 8d 3e c4 ee c2 3d e5 b8 11 3f 44 a9 f1 bd
       0.27704522 0.09518197 0.5692275 -0.11799863
0001f0 16 d7 c8 3b 3e 0e cf 3d 35 2c 9e 3c f8 f9 1c bd
       0.006129156 0.10110138 0.019308189 -0.038324326
000200 72 47 93 3c 03 94 f7 3d c2 00 93 bd d4 8e d5 bb
       0.017978404 0.12088778 -0.07177879 -0.0065172706
000210 5e c5 8b 3d 37 88 fb 3d 8a 04 be 3d df 0a 0d bd
       0.06824754 0.1228184 0.092782095 -0.034434196
000220 61 55 6d bf 04 40 a0 bf 1b 95 ff bc 99 1e e4 be
       -0.927084 -1.2519536 -0.031199029 -0.44554594
000230 75 6d 31 3e af ee 9c 3c fa ed f7 3d 28 8d cf bd
       0.17326911 0.019156782 0.12105937 -0.10134345
000240 88 f2 24 3f 03 64 fc 3d 3f d5 4e 3e ae 0d d1 be
       0.64432573 0.12323763 0.20198534 -0.4083075
000250 7a ba 24 3d 2e 83 68 be 66 c7 d3 bd 97 e0 33 be
       0.0402169 -0.22706291 -0.103407666 -0.17566143
000260 53 b8 d2 bc bb eb 09 be e9 77 82 bf e0 5d bd be
       -0.025722658 -0.1346883 -1.0192844 -0.36985683
000270 e0 26 33 be 20 8e a0 3d 9c 0c 96 3d d7 5f 32 bd
       -0.17495298 0.07839608 0.07326624 -0.04354843
000280 77 fb 31 3d 5b 69 9a 3c 78 01 03 3e 3b 5f 4e bf
       0.043452706 0.018849066 0.12793529 -0.8061406
000290 d0 f6 72 3e 3a a0 6c be d1 25 89 bd 98 59 60 bf
       0.23726964 -0.23107997 -0.06696666 -0.8763671
0002a0 4b b6 42 be 7d 0b d7 3d fe 56 a5 bd c9 c6 12 3e
       -0.19014852 0.10500238 -0.08073233 0.14333643
0002b0 29 d7 b3 3e 49 83 28 3f 8b c2 e4 3d ca bd 91 3e
       0.35125092 0.65825325 0.111699186 0.2846511
0002c0 f0 01 11 3e 63 3a 5c bd c4 f9 c1 3e 9a af d7 bd
       0.14160895 -0.05376662 0.3788587 -0.1053154
0002d0 db 6d ba 3d cd c1 81 be 9f 2d 10 bc 98 dd 5f 3e
       0.091029845 -0.2534317 -0.008799939 0.21861875
0002e0 14 fc ef bd 2c 4d db bd ef e5 e4 3d 92 cf 8b be
       -0.11718002 -0.10708079 0.11176669 -0.273068
0002f0 4a cd 05 3e 7d 1c 5b be 9e f4 15 3e 1d 0a b1 3d
       0.13066593 -0.21397586 0.14644095 0.08644507
000300 bd e8 ae bc fe 85 1e be 00 32 d3 bd af e9 a5 3e
       -0.021351213 -0.15480801 -0.10312271 0.3240485
000310 8c 69 d6 3e 7e 86 53 be b2 4f fc be e3 aa c1 3d
       0.418774 -0.20656773 -0.49279553 0.09456422
000320 af 74 fd bd 12 21 24 be 0c 81 96 bc d2 ae 4a bd
       -0.12375771 -0.1602824 -0.018372081 -0.049483128
000330 c5 2d f6 3a 63 e8 dd 3e 9a 63 23 be 12 75 7d 3e
       0.0018781951 0.4334136 -0.15955964 0.2475169
000340 e2 54 f5 3b 42 9f 17 bf ff 28 8e bd 50 7b b4 bd
       0.0074869255 -0.59227383 -0.06941413 -0.088125825
000350 cf ea 2d 3e 23 8c f1 3d a3 66 41 3e 8e 96 cc be
       0.16984104 0.11794307 0.18886809 -0.39958614
000360 72 d9 ba bd d9 83 b3 bd 2e 0a 82 3d 1d 47 14 3e
       -0.09123506 -0.08765382 0.06349598 0.14480253
000370 5f 9b 72 3d f0 03 0c 3e 4a 8a 76 be e2 ab e4 bd
       0.059230205 0.13673377 -0.2407619 -0.111655965
000380 f6 cf de be 77 33 08 bd a6 a5 f2 3e d7 06 02 3e
       -0.43518037 -0.033252206 0.47392005 0.12697922
000390 68 ea 56 bd 02 bd be be b6 72 8f 3e 7a 6b db 3d
       -0.05246964 -0.37253577 0.28017205 0.10713859
0003a0 87 60 01 3e b9 7f 23 3e fd 9c 29 3d 21 a8 06 be
       0.12634479 0.15966691 0.04140948 -0.13150074
0003b0 80 46 a1 3d 6b 31 fc bb 9c 81 2d 3e 6f 43 a5 3e
       0.07874775 -0.007696321 0.16943973 0.3227801
0003c0 3f 76 dc 3e a1 19 5f 3e df 29 dd ba 36 5e 59 3e
       0.43058965 0.2178712 -0.001687344 0.21227345
0003d0 23 ab b9 3d 6f 93 e9 bd ec 93 b4 3d 30 54 64 3e
       0.09065845 -0.11405074 0.08817276 0.2229774
0003e0 fe b9 ac 3e 69 2d ef 3c 17 a2 9c bd a3 5a fc bd
       0.3373565 0.029196458 -0.07648104 -0.12321975
0003f0 14 c7 b2 3e c6 84 1d be f4 33 6c 3d 1a 24 52 bf
       0.3491751 -0.1538268 0.057666734 -0.82086337

actor.0.bias f4 [256]
000000 c3 c0 33 bf 70 23 a6 bf b4 5f 1d bf 6b 89 dc be
       -0.70216006 -1.2979565 -0.61474156 -0.43073592
000010 8f 65 2a bf ac f1 75 be 90 37 87 be 5b 6c f5 be
       -0.66561216 -0.24017972 -0.26409578 -0.4793423
000020 7c 15 9a bf 0d 78 86 bf bc 6e c9 be a6 8c d3 be
       -1.2037807 -1.0505387 -0.39342296 -0.41318244
000030 87 e9 80 bf c3 a5 3a bf a4 60 36 bf 9c 4d 83 bf
       -1.0071267 -0.7290918 -0.7124121 -1.025806
000040 87 7c d7 be c9 68 22 bf 9b 3d 85 bf 90 f4 2a bf
       -0.42087194 -0.6344114 -1.0409425 -0.6677942
000050 98 4e 21 bf 73 ee c0 be c9 6a 19 bf 9b 90 fc be
       -0.6301055 -0.37681922 -0.59928566 -0.49329075
000060 d6 fb 3e bf 14 f9 1e bf d2 b5 09 bf 58 52 83 bf
       -0.7460302 -0.62098813 -0.5379306 -1.0259504
000070 b9 20 54 bf f6 41 9c bf 9c 55 cb be 1d 0d 4e bf
       -0.8286243 -1.220763 -0.39713752 -0.8048876
000080 25 13 08 bf eb f6 31 bf a9 d6 26 bf fd 0a 53 bf
       -0.5315421 -0.6951739 -0.65171295 -0.8243864
000090 2c be 1f bf 19 27 fd be 56 12 fa be 29 67 26 bf
       -0.62399554 -0.49443892 -0.48842114 -0.6500116
0000a0 4c b3 a9 be c1 b0 41 bf 80 c4 b1 be af 9c 55 bf
       -0.33144605 -0.7566033 -0.3472023 -0.83442205
0000b0 44 36 07 bf 86 52 10 bf 58 d9 5f bf a3 92 53 bf
       -0.5281718 -0.5637592 -0.87441015 -0.82645625
0000c0 6a ac 28 3e 49 fa b9 be d1 49 44 bf dd 25 44 bf
       0.16472021 -0.36323765 -0.76675135 -0.76620275
0000d0 3c d3 14 bf 0d 90 9e bf 15 98 1a bf c1 15 09 bf
       -0.5813482 -1.2387711 -0.6038831 -0.5354882
0000e0 15 dd 80 bf ce 9e 23 be 07 f0 09 bf 1f 5f 74 bf
       -1.0067469 -0.15978548 -0.5388188 -0.95457643
0000f0 8c f8 9d bf d9 6a db be 39 46 3d bf 1f bc 44 bf
       -1.2341475 -0.42854956 -0.73935276 -0.7684955
000100 82 4d a6 be f5 63 a3 bf df 8f b3 be 7d 07 9d bf
       -0.3248101 -1.276488 -0.35070702 -1.226791
000110 d7 51 3a bf 2e 05 55 bf 03 f7 6a bf 65 27 0e bf
       -0.7278113 -0.8321103 -0.9178316 -0.5552886
000120 4e b9 f2 be 4f 17 01 bf 03 b5 2e bf 04 23 6f bf
       -0.47407 -0.5042619 -0.6824495 -0.93412805
000130 75 e4 88 bf c6 21 11 be a3 92 31 bf ee ec b9 be
       -1.069472 -0.1417304 -0.69364375 -0.36313576
000140 b0 28 96 bf c6 64 fe be dc 54 33 bf 5b ab a8 be
       -1.1731167 -0.4968626 -0.7005136 -0.32943234
000150 81 ec 28 bf 6e 34 1d bf fa 10 de bd 09 a8 a9 bf
       -0.65985876 -0.61408126 -0.10843082 -1.3254405
000160 9f 1a bb be c0 c8 aa be 1a 0d 1e bf ef f8 44 bf
       -0.36543748 -0.33356285 -0.6173874 -0.7694234
000170 24 56 83 be e1 b5 82 bf e5 39 f9 be 4f 42 b1 be
       -0.25651658 -1.0211755 -0.48676983 -0.34620902
000180 8f a1 22 bf 50 23 96 bf 9a ef 47 bf 46 cb 6a bf
       -0.6352777 -1.1729527 -0.7809998 -0.9171642
000190 97 76 60 bf cb 39 84 bf a8 5f e4 be 31 88 aa bf
       -0.87680954 -1.0330137 -0.4460423 -1.3322812
0001a0 08 95 85 bf e9 dd 6b bf 14 de 92 bf 1b 6f 60 bf
       -1.0436106 -0.92135483 -1.1474023 -0.87669533
0001b0 59 a0 6c bf f5 ba 30 bf f0 65 ad be 65 15 38 be
       -0.9243217 -0.69035274 -0.33866835 -0.17976911
0001c0 76 e6 31 bf ca d3 5f bf d0 85 f3 be 3c f1 48 bf
       -0.6949228 -0.8743254 -0.47563028 -0.78493094
0001d0 ab bc 52 bf f4 74 b6 be 82 f1 a8 bf 9c 99 bf bf
       -0.82319134 -0.35636103 -1.3198702 -1.4968753
0001e0 d4 36 41 bf 9e e8 a8 be f8 ac 9c bf d1 74 09 bf
       -0.75474286 -0.32989973 -1.2240286 -0.5369387
0001f0 24 7a 10 bf 73 b5 80 be 5d 81 c4 be 57 e5 81 bf
       -0.5643637 -0.25138435 -0.38379946 -1.0148114
000200 23 6e 37 bf e1 8e a5 be d4 b4 e7 be ce 19 cb be
       -0.7165243 -0.3233557 -0.45255148 -0.39668125
000210 3f 21 b3 be b0 59 48 bf 08 8d e1 be da 33 25 bf
       -0.34986302 -0.7826185 -0.4405291 -0.64532244
000220 7b 5c 57 be c9 5c 75 be 1d bf 2c bf f5 ea 39 bf
       -0.21031372 -0.23961176 -0.67479116 -0.7262414
000230 cd 88 8c bf 99 2d 04 bf 00 f6 08 bf c1 5b 6e bf
       -1.0979248 -0.51632077 -0.53500366 -0.93108755
000240 21 53 48 bf b6 f8 98 bf b4 cf 81 bf c8 f3 2e bf
       -0.78251845 -1.19509 -1.0141511 -0.6834073
000250 94 1a ec be 54 8c 38 bf 20 51 14 bf 6a 9b 17 3e
       -0.46114028 -0.72089124 -0.57936287 0.1480538
000260 79 31 17 bf 1f bd 18 bf b9 32 3e bf 90 85 55 3d
       -0.59059864 -0.59663576 -0.74296147 0.05212933
000270 0f 6f 0d bd 9b 08 08 bf 0f ff 33 bf 4d 1e 9a bf
       -0.03452974 -0.5313813 -0.70311064 -1.2040497
000280 5c 2e c1 be c4 90 36 bf 3c 41 2a bf 13 13 16 bf
       -0.37730682 -0.71314645 -0.6650579 -0.58622855
000290 a9 e3 ee be 38 08 15 bf b0 d3 ca be 48 86 5e bf
       -0.46658066 -0.58215666 -0.3961463 -0.86923647
0002a0 c7 3c 86 bf f8 4b 9d be eb 0d fb be 41 0d 0a bf
       -1.0487298 -0.30722022 -0.49034056 -0.53926474
0002b0 b3 7d be be db d9 4e bf e2 fd 14 bf db c4 4f bf
       -0.37205276 -0.8080117 -0.58199894 -0.8115975
0002c0 a9 78 30 bf e8 20 63 bf 49 bc 70 bf 8a f0 7e bf
       -0.6893411 -0.88722086 -0.940373 -0.99585783
0002d0 f4 cd 4c bf 37 78 49 bf d2 96 d7 be 5a ac 15 bf
       -0.8000176 -0.7869906 -0.42107254 -0.5846611
0002e0 d4 ab 38 bf e7 a8 bd be f8 9d a9 be f5 36 7a bf
       -0.7213719 -0.37042925 -0.33128333 -0.9774011
0002f0 a5 1b f2 be 47 ef 17 bf a0 9e 71 bf 08 f0 72 bf
       -0.47286716 -0.59349483 -0.9438267 -0.9489751
000300 74 2a 36 bf 44 b7 85 bf 6c 4e f9 be f9 ba d5 be
       -0.7115853 -1.0446553 -0.48692644 -0.4174421
000310 68 8a d3 be 7d 09 3e bf 27 60 e0 be 3a ae 5c bf
       -0.41316533 -0.7423323 -0.43823358 -0.8620335
000320 b7 95 af be 9e 2e 64 be 0f cc 41 bf b5 b0 a6 be
       -0.3429391 -0.22283408 -0.75701994 -0.32556692
000330 1e f4 18 bf 7c 7e 7f bf 4e 6c 82 be 6b 37 68 be
       -0.59747493 -0.99802375 -0.25473255 -0.2267739
000340 61 93 f7 be 3f e1 4d bf 17 5a aa be 93 d1 38 bf
       -0.4835463 -0.80421823 -0.33271858 -0.72194785
000350 b9 0f 66 bf 81 cc 9f be 62 6d 36 bf 9e 46 b0 be
       -0.8986774 -0.31210712 -0.71260655 -0.34428877
000360 1c b7 b8 be 88 47 90 be 0c e6 9b be 14 97 18 bf
       -0.360772 -0.28179574 -0.3044895 -0.59605527
000370 2d d4 1e bf ef f3 75 bf 96 aa 98 bf ca d4 c2 be
       -0.62042505 -0.9607534 -1.1927059 -0.3805297
000380 19 30 44 bf 01 b4 88 bf 6b d5 83 bf 96 83 68 bf
       -0.7663589 -1.0679933 -1.0299505 -0.90825784
000390 e4 1c 3b bf d6 34 98 bf df eb ac be 3e 7e ee bd
       -0.7309096 -1.1891124 -0.33773705 -0.116451725
0003a0 01 d0 11 bf 79 70 02 bf 7a cf b4 be a7 38 17 bf
       -0.56958014 -0.5095287 -0.35314542 -0.5907082
0003b0 24 4f a8 be be 17 16 bf a2 6c 96 be 4f ef 65 be
       -0.3287288 -0.5862998 -0.29379755 -0.2245457
0003c0 9b c0 11 bf 65 ae fc be 93 d2 2b bf 6c 27 3d bf
       -0.5693452 -0.49351802 -0.67118186 -0.7388828
0003d0 4b 4f 22 bf ea 76 a1 bf a4 3e 7b bf 53 0a 89 bf
       -0.6340224 -1.2614415 -0.98142457 -1.0706276
0003e0 6c 64 1d bf 77 01 af be dc 30 d3 be 6b 41 52 bf
       -0.61481357 -0.34180805 -0.41248214 -0.8213107
0003f0 44 fd 3c bf 11 e6 24 bf ef f9 06 bf 31 e3 75 bf
       -0.7382395 -0.64413553 -0.5272512 -0.9604979

actor.3.weight f4 [256, 256]
000000 ea 22 50 bf d7 bd 0c 3e 9e d9 38 3c 30 b2 ac 3c
       -0.81303275 0.13744293 0.011282353 0.02108106
000010 c2 f1 4f 3d e2 7c 22 3e 75 95 bf 3c 50 df 6b bd
       0.050767668 0.15867952 0.023386696 -0.057586014
000020 fe 88 3d be c6 a0 3a 3d 51 d8 a1 bc f5 86 2c 3d
       -0.1850929 0.04556348 -0.019756468 0.042120893
000030 e6 4f c3 be 7e 71 a3 3d 9f 6f 90 3e 49 a8 e3 3d
       -0.38146895 0.07980631 0.2821016 0.11116082
000040 8f e5 66 be 76 ff 47 be 08 6e e8 bc 3f 9a af bd
       -0.22548507 -0.19531044 -0.02837278 -0.08574342
000050 c5 c2 ab bb 1d 79 3b 3e 2e 8b 3e bd 42 41 22 3e
       -0.005241724 0.1830792 -0.04651945 0.15845206
000060 16 6c 79 bd 29 1f ca bd 29 29 b8 3c de 5e af 3d
       -0.060894094 -0.098692246 0.022480564 0.08563016
000070 a6 3f e3 3d 1d 5b 33 be c8 a2 35 bf 52 61 80 bd
       0.11096124 -0.17515226 -0.7095151 -0.062685624
000080 00 62 2c be 4e 89 17 be 1a 01 35 be 8d 52 19 3e
       -0.16834259 -0.14798471 -0.17676201 0.14972897
000090 9e 6d 8b bd 7f cf 89 3d 4b 55 bf 3d e1 1b 34 3e
       -0.06808017 0.0672903 0.0934244 0.1758876
0000a0 e0 05 df 3d 32 43 8c ba 8d f7 14 3d 59 82 47 bd
       0.108897924 -0.0010701178 0.036368895 -0.048708294
0000b0 9d a4 1b 3e 36 d3 31 3e f6 7b dd 3e 88 06 84 bd
       0.15199514 0.17365727 0.43258637 -0.06446558
0000c0 a6 86 c8 3e 77 c5 05 bf 0c fd 6a bf bd 89 e6 bd
       0.3916523 -0.5225443 -0.9179237 -0.1125674
0000d0 ad 1b a3 bd 06 ef 66 bc 87 d7 9f 3c 73 89 97 3d
       -0.07964263 -0.014095074 0.019511951 0.07399263
0000e0 2c 4f 2b 3e 88 e0 1d bd 3b 39 21 be f2 7a 7a bc
       0.1672942 -0.038544208 -0.15744488 -0.0152881015
0000f0 67 e9 34 3e 58 84 5e bb f6 24 9e be d2 64 a5 3d
       0.17667161 -0.0033953395 -0.30887574 0.080758706
000100 1a 28 fd bd 02 17 a9 3c 7b 99 f1 bd 88 8c 01 bf
       -0.123611644 0.020640854 -0.11796852 -0.5060506
000110 2e 43 bb bd 28 de 66 3d d1 0e a0 3d d3 ee 3a 3e
       -0.09143673 0.05636421 0.07815326 0.18255167
000120 26 d2 47 bd 90 41 5e 3e 6a f0 8f 3e 0e c1 7f 3e
       -0.048784398 0.21704698 0.2811311 0.24975988
000130 4f 27 c3 3e 73 c5 33 3e bb b2 c8 3e 56 bf 34 bd
       0.38115928 0.1755579 0.3919886 -0.044127785
000140 92 3b 30 3d b8 a3 af 3e 5a 48 d5 bd a1 5b 68 bd
       0.04302556 0.34304595 -0.104141906 -0.05672801
000150 9c ce 40 bf 3e c0 20 3d 90 25 87 3e 2a ce 6c be
       -0.7531526 0.039245836 0.26395845 -0.2312552
000160 54 b9 18 bc 52 eb ab bd e6 8e 76 bd e3 9b f7 bd
       -0.009321529 -0.08394493 -0.060194872 -0.1209028
000170 51 19 1b 3e b9 18 7c be dd a0 e6 bd e8 ac 33 3d
       0.15146376 -0.24618806 -0.11261151 0.043866068
000180 cd 77 d8 3d 2f d9 63 be 78 e3 f2 3d e6 b4 f3 3c
       0.10569725 -0.22250818 0.118597925 0.029749345
000190 52 1b b4 bd 15 f6 5a be 3e 8a 4c 3d bd a0 0e bf
       -0.087942734 -0.21382935 0.049936526 -0.5571402
0001a0 6e b7 ae be 9c c5 4a 3e da 8c 51 bd 4b a8 f3 be
       -0.3412432 0.19801944 -0.051159717 -0.47589335
0001b0 03 3a f6 3d 4a f1 3b bf f2 02 24 3e e5 55 11 3d
       0.120227836 -0.7341505 0.16016749 0.035482306
0001c0 20 a8 ac 3d 05 77 d6 3d e9 ad 69 be d3 58 97 3d
       0.08430505 0.1047192 -0.22820248 0.07389989
0001d0 15 e5 48 be dc f0 f5 bc 8e 5e 9e 3e 92 be 72 bf
       -0.19618638 -0.030022077 0.30931515 -0.9482204
0001e0 83 1d 22 bf 1f cf 8b be 43 fa 37 bd 06 f6 63 bc
       -0.6332628 -0.27306458 -0.044916403 -0.013913637
0001f0 98 a9 e1 bd 91 33 ab 3c f4 09 6a bc 7b c7 6d 3e
       -0.110186756 0.020898612 -0.0142846 0.23220627
000200 e4 ba 70 be 50 ca e0 3e 5c 49 1d 3e 8a 60 06 3e
       -0.23508793 0.43904352 0.15360016 0.13122764
000210 74 36 80 bd 18 03 85 3d c3 33 5a bd a3 7d ec bd
       -0.06260386 0.06494731 -0.05327202 -0.11547401
000220 8f 9a 89 3d 3d cf 53 3c da f1 22 bd fe 1a 51 3c
       0.06718933 0.012927827 -0.03978143 0.012762783
000230 33 20 ad 3e e1 00 c9 bb 9b 9d cc bd 55 19 df 3e
       0.3381363 -0.006134138 -0.09990998 0.43574014
000240 e3 ad 4e be 3c ea c4 3e e7 f7 af be d9 92 8d 3e
       -0.2018352 0.38459957 -0.34368822 0.27651098
000250 f0 9f 72 bf a4 05 11 bd 54 fc 03 3c 81 76 eb bc
       -0.94775295 -0.03540577 0.008055765 -0.02874303
000260 d9 1f c5 bc e6 83 8c bd 44 6b 98 3e 75 8f 07 bc
       -0.024063038 -0.06861095 0.29769337 -0.008273949
000270 a5 8d fc bb 40 01 86 3d ca c6 bd be 52 98 3f 3e
       -0.007707315 0.06543207 -0.37065727 0.1871045
000280 94 e8 b4 bc c6 8e c4 3b de 9e 81 be 29 95 90 3d
       -0.022083558 0.005998465 -0.2531652 0.070597
000290 14 12 96 3e f7 61 08 3b aa 36 38 be ba 25 74 3c
       0.29310668 0.0020810345 -0.17989603 0.014901573
0002a0 5a d6 03 be 4e 45 1d bd 18 cb 9f 3d 7d 32 03 be
       -0.12874737 -0.038396172 0.07802409 -0.12812229
0002b0 d1 34 0b 3d 57 d3 38 bd 85 76 1e 3e ff c3 d0 bc
       0.033985917 -0.045123424 0.15474899 -0.025484083
0002c0 a9 4e 9e 3e dd 21 11 be e8 93 03 be e4 88 58 bd
       0.30919388 -0.14173074 -0.1284939 -0.052864924
0002d0 90 50 89 bf 0a 6c 57 be 7c e5 2c be 7e 22 04 be
       -1.0727711 -0.21037307 -0.16884416 -0.12903783
0002e0 4f ef 46 bf fb 7e 7e 3d 92 f8 94 bd b4 7a f8 bd
       -0.77708906 0.062132817 -0.072739735 -0.12132779
0002f0 18 4a 26 bb cb 0f 82 3d a0 b1 54 bd 1f 31 c1 3e
       -0.0025373753 0.063506685 -0.05192721 0.3773279
000300 c6 3f 2f 3e dc 3e 4c 3e b9 70 dd bd 24 cf 57 3d
       0.17114171 0.19945854 -0.10812516 0.05268778
000310 6c 8c 0c bd 3f 97 57 be 5c 4a 9e 3d ba 6e 18 be
       -0.034313604 -0.2105379 0.07729027 -0.14885989
000320 a5 83 dd 3d 09 c1 08 bc 0d 8d 99 be 0f 50 87 be
       0.10816125 -0.008346804 -0.29990426 -0.26428267
000330 3b 1d 46 3d a9 82 72 be ee 92 96 3e c9 1f 93 be
       0.04836772 -0.23682655 0.29408973 -0.28735188
000340 db ed 8d bd a7 93 9e 3d 77 71 8c bd d1 c3 b9 bd
       -0.06930133 0.07743006 -0.06857579 -0.09070552
000350 e0 d4 05 be 74 28 5f bd cb dc 79 3d 73 df 94 bd
       -0.13069487 -0.05448194 0.06100158 -0.07269182
000360 2c 1f 6d 3e 65 e3 b9 3c ea 07 4c 3d 3e e5 9e be
       0.23156422 0.022691438 0.049812235 -0.31034273
000370 de f5 41 bd 67 a0 98 be c0 50 3c be 42 01 e5 bd
       -0.047353618 -0.29809877 -0.18390179 -0.111818805
000380 27 95 00 bf 41 cf 25 3b 2c 4a c1 3d 40 02 be be
       -0.5022759 0.0025300535 0.09437975 -0.37111092
000390 a1 fd e0 be f6 57 e5 bb e1 b4 0f be 82 45 4a 3d
       -0.43943503 -0.006999011 -0.14033844 0.049382694
0003a0 c6 a3 bb bd f8 61 2d bc 05 16 c5 bd 8a 73 9b 3d
       -0.09162097 -0.01058244 -0.096233405 0.07590397
0003b0 48 b5 c8 be b8 0c 4d bd 3c 08 da bc 99 7b b8 3b
       -0.39200807 -0.050060958 -0.026615255 0.0056299684
0003c0 16 ac 0e 3b a6 e4 06 bf 82 1b 2a be 97 75 7b 3c
       0.0021770052 -0.5269264 -0.16612056 0.01534786
0003d0 0b c6 e4 3e 73 dd e2 3e 8b 8d b4 3d e0 11 fa 3d
       0.44682345 0.44309577 0.0881606 0.12210441
0003e0 32 65 f2 bd d8 8e 5f 3b a9 11 1f 3f 06 8a a8 3e
       -0.11835708 0.003411224 0.6213632 0.32917804
0003f0 46 9c 3a 3e 6f bc e8 3e f2 f4 92 be f0 5c c6 be
       0.18223676 0.45456263 -0.28702503 -0.3874278

actor.3.bias f4 [256]
000000 79 a4 6c 3e c5 63 9f 3d 45 28 85 3e dd db cb bd
       0.23109616 0.077827014 0.26007286 -0.09954045
000010 7a 8e a9 3e 4e f3 d0 3e e6 0f bd 3d 3c 61 ea 3d
       0.33116513 0.40810627 0.09231548 0.11444327
000020 58 9f 0a 3e 9f b5 14 be 0d 7a 10 bf 6e ca d4 3d
       0.13537347 -0.14522408 -0.56436235 0.10390173
000030 16 c2 cc 3e c8 97 84 bf 50 1f 34 3e 12 71 da be
       0.39991826 -1.035882 0.1759007 -0.4266439
000040 a9 18 2b 3e 32 10 bd be 3a 71 95 3e 7c 95 26 3d
       0.16708626 -0.3692642 0.29187948 0.040669903
000050 62 cb 28 3e 0d 32 9e bd c4 c7 0e 3e 51 7f 9f 3d
       0.16483834 -0.0772439 0.13943392 0.077879556
000060 3b 5a d2 3e 44 33 2a 3b 74 72 97 3e d7 24 a6 3e
       0.41084465 0.0025970498 0.29579508 0.32449982
000070 e8 9e a0 3d 28 c9 9e 3e 8c 87 53 bf 90 c0 54 be
       0.07842809 0.31012845 -0.82628703 -0.20776582
000080 3d 6b 0d be 56 89 1b 3f 8d 4a 0a 3e 28 62 84 3e
       -0.1381044 0.60756433 0.13505001 0.25856137
000090 5a 28 65 3d f5 1e 92 3e 39 a8 17 3e 2c dd 6b 3e
       0.055946685 0.28539243 0.14810266 0.23033589
0000a0 a8 a9 dd 3e 65 8e 30 3f e8 1e 11 3e c3 9e 9a bb
       0.432935 0.68967277 0.14171946 -0.004718633
0000b0 fb 2d b9 be 90 d8 d4 3e e5 0d 01 3f 0b ed 80 3e
       -0.36167893 0.41571474 0.50411826 0.2518085
0000c0 ea f0 f0 3e 90 b6 3b 3e 22 40 e2 be 26 ae aa 3c
       0.47058803 0.18331361 -0.44189554 0.020834994
0000d0 fc ee c7 3e cc 5b 18 3b 30 91 20 3e 19 05 80 3e
       0.39049518 0.0023248075 0.15680385 0.2500389
0000e0 e6 d8 d9 3e 6c b1 c2 3e 1a 43 05 bf c3 33 66 3c
       0.42548293 0.38025987 -0.52055514 0.014050427
0000f0 12 89 9d 3d cd 81 14 bf 06 ae d8 3e 6a f2 a7 3d
       0.0769216 -0.5801056 0.4232027 0.08200534
000100 ca 5f 0e be 90 b3 ac 3d 0b f4 ae be 05 47 87 3e
       -0.13903728 0.08432686 -0.34170565 0.2642137
000110 44 b9 91 bd 88 2d d2 bb ae 62 b9 bd 15 e3 e1 3d
       -0.07115415 -0.006414119 -0.09052025 0.110296406
000120 04 6f a3 3e 22 ed af bc c1 a1 90 3e ff be d4 3d
       0.31920636 -0.021475378 0.28248408 0.10387992
000130 76 77 c2 3e 06 c4 dc be 72 56 81 3e 41 9e 86 3e
       0.37981766 -0.43118304 0.25261265 0.26292613
000140 57 7b 47 bd 7a a4 6d 3e 24 dd 96 bd 74 dc ce be
       -0.04870161 0.23207274 -0.07366398 -0.40402567
000150 80 48 80 3e e6 66 00 bf 36 07 cf 3c 03 bb ed bd
       0.25055313 -0.5015701 0.025271993 -0.11607935
000160 3b fc d1 3e 47 64 90 3c 86 c6 ec 3e 3b c9 1e 3c
       0.4101275 0.017625941 0.4624521 0.009691532
000170 de 2f d7 3d 15 e0 f9 3e a0 0f 1c 3e 7e 63 03 be
       0.10507177 0.48803774 0.15240335 -0.12830922
000180 9d dd 28 be 2a 94 40 3e 10 7a 52 bf 48 af d0 bc
       -0.16490789 0.1880652 -0.822175 -0.025474206
000190 5c f9 ac 3e 3e f5 eb 3e d6 ec 41 3e 8e c9 86 3e
       0.33783996 0.46085542 0.18938002 0.2632565
0001a0 81 59 52 3e fb 0e c7 bd 3a 28 24 3e 5d 07 85 3e
       0.20541956 -0.09719654 0.1603097 0.2598218
0001b0 37 d5 02 3d 5e 5d 91 3e 60 15 86 3e 2e 47 4b be
       0.03194162 0.28391546 0.26188183 -0.19851372
0001c0 08 70 f3 bc 22 5b 6e bd 9f 56 86 bf bc e2 ba 3c
       -0.029716507 -0.05819238 -1.0495185 0.022813194
0001d0 f8 1c b2 3e a0 b4 02 bd 6a 84 57 3e 0a 25 d3 3e
       0.34787726 -0.03191054 0.21046606 0.41239196
0001e0 5c 61 d1 3e 94 9a 8a be 5a c4 e7 bd 0c 54 58 3d
       0.40894592 -0.2707106 -0.11316748 0.05281453
0001f0 ef c6 3e 3e 41 0b 6a 3e ee e1 af bd 51 fe bd 3e
       0.18630575 0.22855856 -0.085880145 0.3710809
000200 7b 62 59 3e 75 8a 2f 3e 60 86 df bd 91 6a eb bd
       0.21228974 0.17142661 -0.10914302 -0.11494935
000210 84 9b 46 bd ef 56 4a 3e 92 3d 8b bc 52 46 0a 3e
       -0.048488155 0.19759725 -0.016997132 0.13503388
000220 d2 f8 8a 3e e1 ba 0a 3e 3d 15 1b 3e bd 3c b6 3e
       0.2714296 0.13547851 0.1514482 0.35593215
000230 9a d6 18 bf c7 f6 40 be cf 9e 42 3d a1 3e 70 3e
       -0.59702456 -0.18844138 0.047514733 0.23461391
000240 0c d4 52 3e 7b 56 68 bc 50 91 0a 3f 8f 57 9d 3e
       0.20588702 -0.014180775 0.5412798 0.30730864
000250 50 eb 9c 3b d3 be 0c bf 9f cc 86 3e 84 23 9a 3e
       0.0047887936 -0.54978675 0.26327989 0.3010522
000260 73 3e f7 3e b1 bd 80 3e 55 c9 86 3e 13 ac 50 be
       0.48289832 0.25144723 0.2632548 -0.20378141
000270 0a 1d e9 3e cf 3a fb 3e ac 66 d3 bf 32 60 40 3e
       0.45529968 0.49068305 -1.6515708 0.18786696
000280 3f ff 66 3e e9 21 04 3e 6c d1 fc 3e ec 03 6a be
       0.22558306 0.1290356 0.49378526 -0.22853059
000290 b8 09 cf 3e 2b 48 1d be c3 e1 ec 3d 20 4a 9b 3e
       0.40437102 -0.15359561 0.11566498 0.3032999
0002a0 ef e5 86 3e 01 d7 80 3e 8c ab b3 3e 47 81 54 3e
       0.263473 0.25164035 0.35091817 0.2075244
0002b0 ac de aa 3e 4a 29 91 3e 56 69 a2 3d 9c a9 59 be
       0.3337301 0.28351814 0.079302475 -0.21256107
0002c0 5d 2d b7 3d 9c 70 da 3d fb 96 d0 3d f1 11 98 3d
       0.08944199 0.1066601 0.10185047 0.07425297
0002d0 90 ac ba 3e 01 f4 51 3e 54 0a 08 3f 6c 54 fc 3e
       0.3645978 0.20503236 0.5314076 0.4928316
0002e0 0b b0 11 be a6 14 01 bf 4e 32 02 3e d7 04 b4 3b
       -0.14227311 -0.5042213 0.12714502 0.005493741
0002f0 02 2c 04 3e fc 38 5c be d7 04 c3 3e 8a 33 75 3e
       0.12907413 -0.21506113 0.3808963 0.23945442
000300 64 94 a5 3a f0 c3 e2 3e 3a c4 d7 be f4 28 5a 3e
       0.0012632725 0.44290113 -0.42141896 0.21304685
000310 5a 1b 88 3e 4c 8a 98 3d 38 94 c0 3d 9c 9e f0 3e
       0.26583368 0.07448253 0.094032705 0.4699601
000320 b8 59 2c 3e 50 5a f9 3e 43 fc 92 3e 0c 77 dc 3e
       0.168311 0.48701715 0.28708085 0.43059576
000330 e4 40 28 3e a7 56 a8 3d dd be 78 3d 13 dd 3a 3e
       0.16431004 0.082196526 0.060728896 0.18248396
000340 dc 1e 03 3d fe cb 1a 3f 20 88 c1 3e 21 d6 9c 3e
       0.03201185 0.6046752 0.37799168 0.30632117
000350 62 d4 a9 3e 8b 26 a6 3e 76 19 a2 3d 0f 6e 26 3e
       0.33169848 0.3245128 0.079150125 0.16252922
000360 2c 95 8b 3e b8 5e ba 3d 14 14 af 3e fa c4 22 3e
       0.27262247 0.091000974 0.34195006 0.15895453
000370 df 97 b5 3d fc 5b ee bc 54 4c 01 3f c5 34 c6 3e
       0.08866858 -0.029096596 0.5050709 0.38712135
000380 ca c7 fc bc 6d 15 8e 3c 14 b1 be 3d 76 3d ae 3e
       -0.030856986 0.017344201 0.09311119 0.34031266
000390 76 4d 0d 3f 4d 69 9f 3c 8e 36 98 3d 86 05 54 3d
       0.5519632 0.019459391 0.074322805 0.05176308
0003a0 c2 37 b6 3e de fb 36 be 85 bb 63 3e be bc 79 3e
       0.35589415 -0.17869517 0.22239502 0.24388406
0003b0 e2 56 42 be a9 10 99 3d ac c0 7e bd b3 2e 75 3d
       -0.18978456 0.07473881 -0.062195465 0.05985899
0003c0 92 06 26 be 1a a0 ee 3c bf 61 1b 3f 38 e8 22 3e
       -0.16213444 0.029129077 0.60696024 0.15908897
0003d0 91 b9 11 3e 48 b3 1f 3e 23 4b 10 3f 0c 56 6c bf
       0.14230944 0.15595734 0.5636465 -0.923188
0003e0 87 58 9b 3e 8b 1f af bd c6 d2 a6 3e 15 03 9d 3e
       0.30340979 -0.08550938 0.32582682 0.30666414
0003f0 aa c6 aa 3e 9f 59 db 3d 98 41 2a 3e d4 26 51 3c
       0.33354694 0.10710453 0.16626585 0.012765605

actor.6.weight f4 [6, 256]
000000 c9 1b 10 3d 1b 5d 8d bc f8 84 79 3c e5 be e9 be
       0.035182748 -0.01725631 0.015229456 -0.45653453
000010 2c 2b a2 bd 12 88 1f 3d e1 9d 81 bd 94 94 00 be
       -0.07918391 0.038948126 -0.06328941 -0.12556678
000020 ef 2d c2 3d 63 08 8d 3d b1 b9 0b 3e f4 eb 55 3d
       0.094814174 0.06886365 0.13645054 0.052226976
000030 b2 70 8d 3d 44 93 0f 3e b0 9d f2 3d 09 74 0d ba
       0.069062606 0.14021021 0.11846483 -0.0005396014
000040 53 47 2c bd d2 31 a5 bc 37 7e ec 3c 6a a4 ad 3c
       -0.042060208 -0.020165358 0.028868778 0.021196563
000050 01 87 d6 3d b0 73 29 bd 3e ad ef 3d df a9 96 3c
       0.10474969 -0.041370094 0.11702965 0.018391548
000060 64 e9 0c bb d5 e0 64 bd 8b 66 21 bc c6 d3 e9 3d
       -0.0021501416 -0.05587848 -0.009851108 0.11417346
000070 04 c6 3f 3e c7 8a 8e 3b bd 89 17 3e 40 9d 89 3d
       0.1872788 0.0043500396 0.14798637 0.06719446
000080 14 6d 00 c1 c5 b7 42 3c 74 ab 1f bc 95 52 ed 3c
       -8.02663 0.011884634 -0.009745467 0.028970042
000090 9f b4 35 3c 4a e2 bc be 79 45 78 bf 3c e9 55 be
       0.011090427 -0.36891395 -0.96981007 -0.20889753
0000a0 a0 30 3b bd c5 7b be 3c 50 83 75 3b 13 27 79 bd
       -0.04570067 0.023252377 0.0037462302 -0.06082828
0000b0 da 70 0c bd b1 9d 30 3e 43 54 fd 3c 43 9f 05 be
       -0.03428731 0.17247654 0.030923968 -0.13049035
0000c0 91 92 77 3c 3a 6c d8 3d f9 fb 86 3d b3 af 06 bd
       0.015110628 0.105675176 0.06591029 -0.032882404
0000d0 37 17 f8 bd d3 b1 ee 3b 66 cc df 3a dc f6 9c bd
       -0.12113803 0.007284382 0.0017074465 -0.07664272
0000e0 0e 4b 95 ba 62 4c c7 bd 52 2d d8 3d d5 0f f3 bd
       -0.0011390166 -0.09731366 0.10555519 -0.11868254
0000f0 81 e3 0f bd 07 e6 6d 3d fb dd 48 bd cb 35 54 3d
       -0.035129074 0.0580807 -0.049039822 0.051809113
000100 d7 60 12 3d 5a cc 1b 3f f6 60 48 3c f8 21 9c 3c
       0.035736885 0.6085869 0.012230149 0.019059166
000110 3a 27 90 3b 1e 3c f2 3d 26 8b 09 be f9 43 fb bd
       0.0043992074 0.11827873 -0.13431987 -0.12268824
000120 f8 fa 38 3c 83 65 b7 bc 4a 4b 31 3d 1c 16 a1 be
       0.011290304 -0.022387272 0.043284692 -0.3146218
000130 94 56 00 3d d1 f1 26 3d f9 ae ff 3c 1c 61 48 3c
       0.031332567 0.040757958 0.031211363 0.012230184
000140 55 89 4f bd fe ef ae bd e6 9f fc bc 78 3b 19 c0
       -0.05066808 -0.085418686 -0.030837964 -2.3942547
000150 11 96 37 3e 78 8e c5 38 ec f9 cd 3d 1c bb ff 3d
       0.1792834 9.420229e-05 0.100574344 0.1248686
000160 21 be 32 be bf 0c 46 3c a8 53 42 3d 91 dc 86 bd
       -0.17455341 0.012088 0.047443062 -0.065850385
000170 ea 90 d5 3c 4e af 8f bd cf 8d 53 3e 5b 10 e0 3c
       0.026070077 -0.070158586 0.20659564 0.027351549
000180 36 3c 97 3c b9 f9 01 3d 08 63 8c bc 3e c4 7d bc
       0.018461328 0.031732295 -0.017137066 -0.015488682
000190 a8 21 3e bc 13 16 95 3c 38 ac 19 3d 2e 07 a0 3d
       -0.011604704 0.018199002 0.037517756 0.078138694
0001a0 62 a0 fd bc 87 f0 6f bf 31 2d 69 bc 33 67 de bd
       -0.030960266 -0.9372639 -0.014231966 -0.108595274
0001b0 67 d3 d2 3b da 99 b4 bb 1a 9f c3 3d c0 d1 2a bb
       0.0064338925 -0.0055115046 0.095518306 -0.0026064962
0001c0 e3 0d a8 bc 8c da b0 3d b1 a1 e9 bc cb d7 3b 3c
       -0.020514434 0.086354345 -0.028519483 0.011465023
0001d0 63 2d f1 ba 4f b8 90 be a2 4f 00 be a1 a1 4c 3e
       -0.0018400367 -0.28265616 -0.12530378 0.19983532
0001e0 f0 cf 31 3d f8 81 97 3b 90 3c a0 3d 3a ef 8e 3d
       0.043411195 0.004623648 0.078240514 0.069792226
0001f0 46 9b 9d 3d 65 89 6d bd 08 c0 cf bc 9f ce 47 3c
       0.07695632 -0.057992358 -0.025360122 0.012195258
000200 e3 45 f3 bd de 98 db bc 8e 4f 44 be 80 81 0f 3c
       -0.11878564 -0.026806291 -0.19170973 0.008758903
000210 c7 5a 8d bd 6f 91 3d be c9 ac 14 3e 42 5e a2 bf
       -0.0690208 -0.1851251 0.14519037 -1.2685015
000220 09 21 28 3a 2c 2d 7c bd 81 b0 c3 39 d2 02 f7 3c
       0.0006413614 -0.061566517 0.00037324804 0.030152712
000230 0e c4 35 3d 27 56 28 3e 1b 6f 25 be 9a 22 58 3d
       0.044376425 0.16439115 -0.16155665 0.052767374
000240 94 9e aa bc 97 9a 61 bd da ec 51 3d 52 54 6b 3d
       -0.020827569 -0.05507907 0.05125127 0.05745346
000250 f4 30 26 bc 81 a8 26 be d8 15 cd 3c f3 a8 b1 bc
       -0.010143507 -0.16275217 0.02503483 -0.021687007
000260 1c 1e be 3d 6a 1a ff 3c 04 ec fe bd 2a 34 57 3c
       0.09283087 0.031140525 -0.1244736 0.0131349955
000270 cb 16 51 3d 1f 6d 0f 3e 7c 46 8e 3c 82 66 2d bc
       0.051047128 0.1400647 0.017367594 -0.010583522
000280 05 5b 8d 3c 50 70 ad bc 72 85 f7 3d 73 1f 94 3d
       0.017255316 -0.021171719 0.120859995 0.07232561
000290 73 bb 38 bd b6 3e 7f 3c a8 c5 18 bd 2f 1a a5 3d
       -0.04510064 0.015578916 -0.037297875 0.08061635
0002a0 d6 75 90 3c 89 ba ef bc ae e6 ab 3d 98 a6 e2 3d
       0.017634314 -0.029263752 0.08393608 0.110669315
0002b0 42 36 d3 3c 18 37 8f 3c fc dd 0a bc 55 9d 95 3c
       0.025782708 0.017482325 -0.008475777 0.018263498
0002c0 09 47 2d 3c a5 80 54 bc b0 a0 d1 bc b1 77 1a be
       0.010576018 -0.012970124 -0.025589317 -0.15084721
0002d0 da 5d 0e 3d dc 02 ce bc ed 67 3f bd d8 c6 68 be
       0.034757473 -0.025147848 -0.04672997 -0.22732103
0002e0 54 56 7b be ee 9c 61 bd 26 70 8e be a5 5d 3d 3e
       -0.2454465 -0.0550813 -0.27819937 0.18492754
0002f0 df 15 2d 3d e7 8a a2 3d 46 e7 69 be bf cb 36 3c
       0.042257186 0.0793665 -0.2284213 0.011156975
000300 07 58 07 3d c6 68 a6 bd fc 69 1b bc 23 60 09 3e
       0.033042934 -0.08125453 -0.009485718 0.1341558
000310 15 0d 84 bc 24 4a c7 3d 6d 6e 2e 3e 5d 2b 4a bc
       -0.01611952 0.09730938 0.17034312 -0.01233944
000320 d5 60 55 be 93 b4 75 ba 6a 5d e4 3d 6f 9d ee bb
       -0.2083772 -0.0009372916 0.1115063 -0.007281951
000330 35 13 2c bc d5 24 e1 bd d7 11 0c 3c 5e 16 b7 bc
       -0.010502626 -0.10993353 0.008549175 -0.022349533
000340 2c 64 16 3d a0 88 5d bd a8 b7 f9 3d 62 30 e6 bb
       0.036716625 -0.054085374 0.12193233 -0.0070248106
000350 c3 a1 b7 bc 8b 36 c1 39 c6 71 7f bd 22 8a 30 3e
       -0.022416001 0.00036852466 -0.062364362 0.17240193
000360 cf 1f 98 ba 60 3b b5 bd 19 b7 07 3b ab 2f 67 3e
       -0.0011606159 -0.088492155 0.00207085 0.22576778
000370 40 18 79 bf 9e 62 63 3d 77 71 20 be b4 b7 9a 3c
       -0.9730263 0.05551397 -0.15668283 0.018886425
000380 64 a7 86 bc d5 f3 04 3e e7 e4 0b 3d 8e a0 23 bd
       -0.01643724 0.1298364 0.034153845 -0.03994804
000390 4f 15 a7 3d e9 46 4f 3d ba fb b7 b9 d5 37 9f 3d
       0.08158361 0.050604735 -0.0003509203 0.07774321
0003a0 78 38 89 3d d9 f6 79 bc 4b 36 a3 3c 3f 50 41 bd
       0.06700224 -0.015256607 0.01992335 -0.04719567
0003b0 04 8d 4f 3e d1 b8 7e bd 88 c0 34 3c 79 d3 37 bd
       0.20268637 -0.062187973 0.011032231 -0.04487941
0003c0 69 99 19 bd 0a 88 b7 3e 79 3d fe 3d 58 c1 40 bb
       -0.03749982 0.35845977 0.12414069 -0.0029412117
0003d0 0c 7b 4f 3e 75 c1 d3 bc c3 5e 03 bd e8 84 28 3e
       0.20261782 -0.025849083 -0.032072794 0.1645695
0003e0 44 9b fd ba a5 4e 84 3b a0 da e6 3c 58 f7 1f 3d
       -0.0019348641 0.0040376955 0.02818042 0.039054245
0003f0 69 08 10 bd 1b 40 0c 3c 45 a9 c2 bd 3d 8d 2d bd
       -0.03516427 0.008560206 -0.09504942 -0.042371023

actor.6.bias f4 [6]
000000 71 9a c3 be 76 19 9a be d8 09 1d bf 44 38 37 bd
       -0.38203767 -0.3009755 -0.61343145 -0.044731393
000010 b3 fd 84 be 9c 66 0a bd
       -0.25974807 -0.033789262
