online_weights/spot_halfcheetah_medium/actor_s1000000.pth (torch, 290191 bytes, 6 tensors)

actor.0.weight f4 [256, 17]
-0.18464583 -0.6855213 0.21678105 -0.009854817 0.0029750427 -0.14494115 0.06555554 -0.032391828
0.12560333 0.2771333 -0.272569 -0.7759194 -0.0765725 0.090886444 -0.15491372 -0.044932317
-0.29755282 0.07525872 0.25426108 0.31818455 0.12873426 0.070743635 -0.0022502302 0.15287322
0.21618421 -0.35447657 0.010791368 -0.012406682 -0.13812156 0.1623964 0.04505286 -0.12902647
0.08081919 0.42450973 -0.47184816 -2.033089 -0.50260824 -0.43431696 -0.053327825 -0.03168946
0.0038237097 -0.011067093 0.0037096378 -0.13556573 -0.14982896 -0.15483887 -0.3999269 -0.024491517
0.039463814 -0.020126753 0.011515013 0.09209357 -0.21557182 -0.44934794 -0.22139582 -0.1391197
-0.17775647 0.03411659 0.19855781 -0.17683798 0.2904558 -0.029272605 0.78255737 0.22406098
0.07605228 -0.4211353 -0.13786753 0.09118838 0.51205856 0.22973068 0.10147819 0.18440877
-0.06698366 0.11152984 -0.019299077 -0.0035747057 -0.21884046 0.64772284 0.080571584 0.12028661
0.10521801 0.17203848 0.00569987 -0.15109055 -0.025335858 -0.09554289 -0.14699575 0.023186881
-0.13926241 -0.039637495 0.03411534 -0.092683345 -0.009854494 -0.011270036 -0.0067975926 -0.36272946
-0.040333614 0.11220757 0.06974506 -0.2886154 0.15205984 0.14062709 0.09121955 0.006919224
-0.09318742 0.01458492 0.008915873 0.40353468 0.08218553 0.02993716 -0.16178033 -0.12584142
0.38414207 0.3057316 0.0888945 -0.0059152013 0.3211236 -0.04650191 -0.05390233 0.21446534
0.27958724 0.09259617 0.5719067 -0.11850222 0.003723215 0.0968757 0.020919068 -0.03986683
0.017913563 0.12323852 -0.073349796 -0.008080264 0.07108165 0.119759955 0.09471083 -0.035110887
-0.9274254 -1.2528625 -0.028173644 -0.44925505 0.1711446 0.01966999 0.12220121 -0.103791654
0.64464366 0.122416176 0.19987187 -0.40849993 0.042201962 -0.23036139 -0.104949854 -0.1795653
-0.023994511 -0.13311955 -1.0207323 -0.3694974 -0.1741989 0.07948615 0.07400301 -0.038463954
0.044400092 0.018035663 0.12747517 -0.8078449 0.23758759 -0.23126917 -0.067830615 -0.8748577
-0.1914856 0.104131594 -0.075226456 0.14270572 0.35235834 0.65832746 0.10936148 0.28551707
0.14123423 -0.051121876 0.3784053 -0.10848335 0.092069104 -0.25438532 -0.006278121 0.2155606
-0.12109265 -0.11275403 0.11223863 -0.2728588 0.12870724 -0.21716014 0.14710237 0.08500756
-0.026921967 -0.15232033 -0.106260255 0.32403848 0.4201497 -0.20326921 -0.49358562 0.09728772
-0.121785216 -0.16286828 -0.015945911 -0.050224498 0.0023671861 0.4366318 -0.16315013 0.25042686
0.007339202 -0.5947521 -0.06435986 -0.08773149 0.1648869 0.1184456 0.18985392 -0.40170002
-0.08989462 -0.08495754 0.060757156 0.15180655 0.057992548 0.13645947 -0.23847102 -0.1091524
-0.43931776 -0.03406363 0.47509944 0.124636754 -0.05225298 -0.37303993 0.2805305 0.10575401
0.12954824 0.15809138 0.03811404 -0.13464992 0.0788953 -0.0045114616 0.17035724 0.3179494
0.43374592 0.2173939 -0.0026859858 0.21355712 0.09139074 -0.11672519 0.090955704 0.22532274
0.33192515 0.028484121 -0.072298564 -0.12616923 0.34648123 -0.15623833 0.059469447 -0.8225839
00000000: cc13 3dbe 537e 2fbf dafb 5d3e 1976 21bc
00000010: eff8 423b 746b 14be fc41 863d 4bad 04bd
00000020: 299e 003e 6ae4 8d3e 2a8e 8bbe a7a2 46bf
00000030: 0bd2 9cbd ac22 ba3d b4a1 1ebe f30a 38bd
00000040: d858 98be 3e21 9a3d 822e 823e 16e9 a23e
00000050: ead2 033e 0ae2 903d 9978 13bb cc8a 1c3e
00000060: 655f 5d3e f47d b5be 47ce 303c 6545 4bbc
00000070: bd6f 0dbe 3e4b 263e 5989 383d 841f 04be
00000080: 8884 a53d 5759 d93e 1596 f1be 211e 02c0
00000090: efaa 00bf cb5e debe 476e 5abd cfcc 01bd
000000a0: 3497 7a3b c152 35bc 651d 733b bed1 0abe
000000b0: c36c 19be 158e 1ebe 38c3 ccbe 6fa2 c8bc
000000c0: cfa4 213d dce0 a4bc 77a9 3c3c 8e9b bc3d
000000d0: dcbe 5cbe ef10 e6be 96b5 62be 6575 0ebe
000000e0: cb05 36be d6bd 0b3d bd52 4b3e 0415 35be
000000f0: 9fb6 943e 1acd efbc ae55 483f 3e70 653e
00000100: 4cc1 9b3d 0c9f d7be 252d 0dbe f9c0 ba3d
00000110: 4516 033f 853e 6b3e ccd3 cf3d a7d5 3c3e
00000120: bb2e 89bd c269 e43d 1919 9ebc 9c45 6abb
00000130: b717 60be 2ad1 253f b702 a53d d458 f63d
00000140: 8a7c d73d db2a 303e fac5 ba3b 7bb7 1abe
00000150: 258d cfbc feab c3bd 0e86 16be 6af2 bd3c
00000160: ce9a 0ebe ed5a 22bd 87bc 0b3d c4d0 bdbd
00000170: be74 21bc f5a5 38bc 57be debb adb7 b9be
00000180: dc34 25bd 15cd e53d 7fd6 8e3d 66c5 93be
00000190: 93b5 1b3e 8c00 103e 51d1 ba3d a8ba e23b
000001a0: 0cd9 bebd 97f5 6e3c e213 123c 199c ce3e
000001b0: e350 a83d c63e f53c bea9 25be 93dc 00be
000001c0: 45ae c43e da88 9c3e 520e b63d 4ed4 c1bb
000001d0: 506a a43e c978 3ebd b1c8 5cbd cd9c 5b3e
000001e0: 0f26 8f3e 10a3 bd3d 7a68 123f 4bb1 f2bd
000001f0: 2f01 743b c466 c63d 775e ab3c 674b 23bd
00000200: 77bf 923c 7a64 fc3d 6b38 96bd 1563 04bc
00000210: 4293 913d b544 f53d c0f7 c13d 6fd0 0fbd
00000220: c06b 6dbf cc5d a0bf 6acc e6bc c204 e6be
00000230: 8840 2f3e f522 a13c a144 fa3d b890 d4bd
00000240: 5e07 253f 55b5 fa3d 36ab 4c3e e726 d1be
00000250: f7db 2c3d dbe3 6bbe f3ef d6bd f7df 37be
00000260: 2390 c4bc 7e50 08be 5ba7 82bf c32e bdbe
00000270: 3261 32be a2c9 a23d e48e 973d 618c 1dbd
00000280: dfdc 353d 87bf 933c da88 023e ecce 4ebf
00000290: 294a 733e d3d1 6cbe c7ea 8abd adf6 5fbf
000002a0: cd14 44be f242 d53d 5410 9abd 7321 123e
000002b0: 5068 b43e 2688 283f e9f8 df3d 4b2f 923e
000002c0: b59f 103e 2c65 51bd 57be c13e 852c debd
000002d0: ba8e bc3d cb3e 82be b2b8 cdbb ebbb 5c3e
000002e0: 6cff f7bd 96eb e6bd 5edd e53d 26b4 8bbe
000002f0: d5cb 033e 3a5f 5ebe 01a2 163e 7218 ae3d
00000300: 758b dcbc dcf9 1bbe fa9e d9bd 5fe8 a53e
00000310: dd1d d73e ce25 50be 41b7 fcbe c93e c73d
00000320: 876a f9bd f1c6 26be 00a1 82bc 34b8 4dbd
00000330: cb22 1b3b 348e df3e d410 27be f337 803e
00000340: b07d f03b ac41 18bf 1acf 83bd 91ac b3bd
00000350: 1dd8 283e 9b93 f23d 1169 423e a0ab cdbe
00000360: ac1a b8bd 38fe adbd 7fdc 783d 2d73 1b3e
00000370: 9889 6d3d 08bc 0b3e bf31 74be 4b8b dfbd
00000380: 42ee e0be 4e86 0bbd 3c40 f33e 8e41 ff3d
00000390: 3907 56bd 17ff bebe b2a1 8f3e 8f95 d83d
000003a0: 4ba8 043e b5e2 213e 781d 1c3d abe1 09be
000003b0: dc93 a13d e2d4 93bb 2172 2e3e 44ca a23e
000003c0: f213 de3e 829c 5e3e 5d07 30bb b8ae 5a3e
000003d0: 112b bb3d 9e0d efbd fc46 ba3d 01bb 663e
000003e0: 18f2 a93e 8857 e93c 4511 94bd 8232 01be
000003f0: fd65 b13e f1fc 1fbe 3c96 733d dc94 52bf

actor.0.bias f4 [256]
-0.7011346 -1.2962933 -0.6145587 -0.43352246 -0.66096264 -0.24015914 -0.26546293 -0.47733992
-1.2009126 -1.0501207 -0.3927415 -0.4105811 -1.0032432 -0.7280962 -0.7103229 -1.0245825
-0.4220116 -0.63120896 -1.0391738 -0.6673877 -0.630246 -0.37642363 -0.59952486 -0.4931956
-0.74534523 -0.6222916 -0.5377842 -1.0232606 -0.8280989 -1.2192287 -0.3948021 -0.8046512
-0.5285218 -0.6947165 -0.65383565 -0.8243096 -0.62321925 -0.49540827 -0.48937204 -0.6479736
-0.33018854 -0.757955 -0.3460189 -0.83091 -0.5270543 -0.5610112 -0.8741217 -0.82461625
0.16605201 -0.3664198 -0.7668484 -0.7652023 -0.58305585 -1.236065 -0.6056022 -0.5348397
-1.0060233 -0.15998934 -0.53793 -0.952936 -1.2340199 -0.4283172 -0.7374848 -0.7700419
-0.3248866 -1.2768023 -0.3521905 -1.2248824 -0.72874784 -0.83110106 -0.9190627 -0.55372447
-0.4705431 -0.5051707 -0.68104154 -0.9344675 -1.0717063 -0.1385731 -0.69403553 -0.36298713
-1.1740305 -0.49721098 -0.6989628 -0.32952878 -0.6601482 -0.6116022 -0.109169625 -1.3244247
-0.36286718 -0.33495128 -0.6151552 -0.76415265 -0.25898334 -1.022926 -0.48760632 -0.3496295
-0.6341263 -1.1736345 -0.77965 -0.918322 -0.8788348 -1.0341905 -0.44621843 -1.3317307
-1.0454341 -0.9215962 -1.1477821 -0.87536 -0.92427015 -0.6882429 -0.3351147 -0.18080996
-0.6939695 -0.8740339 -0.47583383 -0.7825352 -0.82305825 -0.35716602 -1.3193291 -1.4951801
-0.7540729 -0.3257452 -1.225318 -0.53642124 -0.565601 -0.2537666 -0.38354403 -1.0126848
-0.7165871 -0.32561576 -0.44877684 -0.3958651 -0.34817356 -0.78146917 -0.44074082 -0.6456175
-0.21077539 -0.23997131 -0.67677796 -0.72364444 -1.0969464 -0.51931673 -0.5356687 -0.93289477
-0.7830278 -1.193781 -1.0130582 -0.683146 -0.459058 -0.72097605 -0.58104026 0.1461174
-0.58724606 -0.59588146 -0.74345267 0.050726883 -0.03452658 -0.53090775 -0.70426685 -1.2048186
-0.37620822 -0.71172225 -0.6661128 -0.5872153 -0.46705675 -0.5831527 -0.3995602 -0.86867404
-1.0460823 -0.30890217 -0.4909918 -0.53851634 -0.3704588 -0.80820376 -0.58083856 -0.8113714
-0.68962383 -0.8880802 -0.9419347 -0.9972383 -0.79641026 -0.7867885 -0.42267236 -0.5840931
-0.7190305 -0.3719648 -0.330578 -0.97805315 -0.4726997 -0.5898734 -0.94620967 -0.9470601
-0.7132298 -1.0464771 -0.48446313 -0.41819826 -0.41300023 -0.7429116 -0.43998045 -0.86156833
-0.34154415 -0.2185955 -0.7562188 -0.32322642 -0.6012202 -0.9997214 -0.25478148 -0.22479399
-0.48321387 -0.8048095 -0.33336958 -0.7215655 -0.89805967 -0.31022066 -0.7124402 -0.343014
-0.3618886 -0.28236088 -0.30495682 -0.59503776 -0.6215042 -0.96315277 -1.1934718 -0.37908122
-0.7640341 -1.072812 -1.0276736 -0.90664214 -0.73300403 -1.1864744 -0.33844605 -0.118059896
-0.5692692 -0.509606 -0.35077435 -0.58884364 -0.32726288 -0.58640116 -0.29258308 -0.22282645
-0.5666391 -0.49124056 -0.669839 -0.73686343 -0.63554984 -1.2572421 -0.9791932 -1.066064
-0.61320764 -0.34070864 -0.41315794 -0.82530373 -0.7374003 -0.64684385 -0.5277613 -0.96125406
00000000: 8f7d 33bf f0ec a5bf b853 1dbf a8f6 ddbe
00000010: d934 29bf 47ec 75be c2ea 87be e665 f4be
00000020: 81b7 99bf 5b6a 86bf 6a15 c9be b037 d2be
00000030: 466a 80bf 8364 3abf b9d7 35bf 8525 83bf
00000040: e811 d8be e996 21bf a603 85bf ecd9 2abf
00000050: cd57 21bf 99ba c0be 767a 19bf 2284 fcbe
00000060: f2ce 3ebf 814e 1fbf 3aac 09bf 34fa 82bf
00000070: 4afe 53bf b00f 9cbf 8023 cabe 9ffd 4dbf
00000080: 344d 07bf f1d8 31bf c661 27bf f405 53bf
00000090: 4c8b 1fbf 27a6 fdbe f98e fabe 99e1 25bf
000000a0: 790e a9be 5709 42bf 6429 b1be 85b6 54bf
000000b0: 08ed 06bf 6e9e 0fbf 71c6 5fbf 0d1a 53bf
000000c0: 8a09 2a3e 609b bbbe 2d50 44bf 4ce4 43bf
000000d0: 2643 15bf 6137 9ebf bf08 1bbf 41eb 08bf
000000e0: 5fc5 80bf 3fd4 23be c8b5 09bf 9df3 73bf
000000f0: 5df4 9dbf 644c dbbe cecb 3cbf 7721 45bf
00000100: 8957 a6be 426e a3bf 5052 b4be f2c8 9cbf
00000110: 388f 3abf 0ac3 54bf b147 6bbf e3c0 0dbf
00000120: 06eb f0be de52 01bf bd58 2ebf 4339 6fbf
00000130: ac2d 89bf 1be6 0dbe 50ac 31bf 73d9 b9be
00000140: a246 96bf 7092 febe 3aef 32bf ffb7 a8be
00000150: 79ff 28bf f691 1cbf 5394 dfbd c086 a9bf
00000160: bac9 b9be bc7e abbe d07a 1dbf 829f 43bf
00000170: 7799 84be 3def 82bf 89a7 f9be a302 b3be
00000180: 1a56 22bf a839 96bf 2497 47bf 2717 6bbf
00000190: 51fb 60bf 5b60 84bf be76 e4be 2776 aabf
000001a0: c9d0 85bf bbed 6bbf 86ea 92bf 9817 60bf
000001b0: f89c 6cbf b030 30bf 2794 abbe 3f26 39be
000001c0: fca7 31bf b0c0 5fbf 7ea0 f3be 3a54 48bf
000001d0: f2b3 52bf 77de b6be c7df a8bf 1062 bfbf
000001e0: ec0a 41bf 13c8 a6be 38d7 9cbf e752 09bf
000001f0: 3acb 10bf b2ed 81be e25f c4be a89f 81bf
00000200: 4172 37bf 1cb7 a6be 14c6 e5be d5ae cabe
00000210: ce43 b2be 5d0e 48bf c8a8 e1be 3047 25bf
00000220: 81d5 57be 0abb 75be 5241 2dbf c340 39bf
00000230: bd68 8cbf f1f1 04bf 9521 09bf 31d2 6ebf
00000240: 8374 48bf d1cd 98bf e4ab 81bf a8e2 2ebf
00000250: a609 ebbe e391 38bf 0ebf 14bf cd9f 153e
00000260: c255 16bf b08b 18bf ea52 3ebf fec6 4f3d
00000270: be6b 0dbd 92e9 07bf d54a 34bf 7f37 9abf
00000280: 5d9e c0be 6e33 36bf 5e86 2abf be53 16bf
00000290: 1022 efbe 7f49 15bf 2893 ccbe 6c61 5ebf
000002a0: 06e6 85bf 6d28 9ebe 4763 fbbe 35dc 09bf
000002b0: c7ac bdbe 71e6 4ebf d6b1 14bf 09b6 4fbf
000002c0: 308b 30bf 3959 63bf a222 71bf 024b 7fbf
000002d0: 8be1 4bbf f96a 49bf 8368 d8be 2087 15bf
000002e0: 6212 38bf 2c72 bebe 8541 a9be b161 7abf
000002f0: b205 f2be f101 17bf cc3a 72bf 8872 72bf
00000300: 3a96 36bf f6f2 85bf 8d0b f8be 151e d6be
00000310: c474 d3be 742f 3ebf 1e45 e1be be8f 5cbf
00000320: e0de aebe 80d7 5fbe 8e97 41bf ef7d a5be
00000330: 91e9 19bf beed 7fbf b872 82be 6530 66be
00000340: cf67 f7be ff07 4ebf 6baf aabe 84b8 38bf
00000350: 3de7 65bf 3ed5 9ebe 7b62 36bf 889f afbe
00000360: 7649 b9be 9b91 90be 4d23 9cbe 6554 18bf
00000370: e61a 1fbf 2e91 76bf afc3 98bf ef16 c2be
00000380: bd97 43bf e751 89bf cf8a 83bf b319 68bf
00000390: 27a6 3bbf 65de 97bf cd48 adbe 63c9 f1bd
000003a0: a0bb 11bf 8a75 02bf b298 b3be 75be 16bf
000003b0: 008f a7be 631e 16bf 73cd 95be 9e2c 64be
000003c0: 430f 11bf e283 fbbe 927a 2bbf 15a3 3cbf
000003d0: 65b3 22bf 4fed a0bf 68ac 7abf c974 88bf
000003e0: 2dfb 1cbf 5d71 aebe 7089 d3be 1b47 53bf
000003f0: 44c6 3cbf 8f97 25bf 5d1b 07bf bf14 76bf

actor.3.weight f4 [256, 256]
-0.8154278 0.14126885 0.008000785 0.022866843 0.05598777 0.15921228 0.02562378 -0.055905525
-0.18780485 0.046369925 -0.02169053 0.041933496 -0.38180053 0.085130475 0.2821073 0.10791717
-0.22780593 -0.19992654 -0.02876946 -0.08486864 -0.010884168 0.18218862 -0.048180465 0.15502648
-0.061312877 -0.09899004 0.022187103 0.0856632 0.11095456 -0.17562951 -0.7068859 -0.061359044
-0.17203471 -0.14666414 -0.17457032 0.15137991 -0.07036835 0.06764956 0.09161018 0.1752142
0.1078812 -0.002564334 0.033427075 -0.048797723 0.1521192 0.17248932 0.43499196 -0.067537434
0.3932729 -0.5239973 -0.9175498 -0.11519397 -0.082090214 -0.013488669 0.019564902 0.07290241
0.16472694 -0.03756826 -0.15707283 -0.013727315 0.1796968 -0.005192549 -0.3078147 0.07952246
-0.12535296 0.019489592 -0.1181046 -0.5066527 -0.08826961 0.052851226 0.07571846 0.18070254
-0.04612354 0.21699359 0.2800961 0.24829303 0.37955067 0.18054591 0.38998094 -0.045551546
0.04471213 0.346157 -0.10589243 -0.05765451 -0.7517365 0.035484444 0.26610532 -0.23052876
-0.005752091 -0.08319857 -0.06191169 -0.12001751 0.15087815 -0.24985337 -0.110637225 0.042306818
0.10306707 -0.22558162 0.11516305 0.027604109 -0.08756143 -0.2150579 0.048266713 -0.5518851
-0.3411579 0.19981186 -0.0518825 -0.47663456 0.1202786 -0.7255611 0.15930267 0.038288146
0.085887246 0.09996159 -0.22732231 0.07195007 -0.19413643 -0.029670823 0.3108099 -0.94487727
-0.6333736 -0.27408272 -0.047002304 -0.01611695 -0.10848013 0.02278085 -0.018625094 0.23178393
-0.23157148 0.4391387 0.15308143 0.12982132 -0.06357386 0.06686404 -0.054809865 -0.115772165
0.069842644 0.015203253 -0.041229393 0.013140311 0.33702868 -0.00935541 -0.09690072 0.43655714
-0.1978886 0.3857475 -0.3433542 0.27966195 -0.94652736 -0.03694607 0.008028266 -0.026708186
-0.024447843 -0.06816281 0.29979888 -0.009563832 -0.007265163 0.067164354 -0.3699757 0.18702166
-0.021417214 0.004551913 -0.24980381 0.071413696 0.2939189 0.0017016677 -0.18168572 0.015155083
-0.12710465 -0.03608399 0.07939487 -0.12654917 0.034543067 -0.049983263 0.15641399 -0.025345664
0.31079954 -0.14159939 -0.12884809 -0.058978062 -1.0755576 -0.21005923 -0.1716457 -0.12500645
-0.7794427 0.06469849 -0.07295911 -0.12180745 -0.00024684993 0.064376995 -0.054597646 0.3796279
0.17123827 0.20054169 -0.106422715 0.052908473 -0.03234445 -0.20758918 0.07643822 -0.14698976
0.10971455 -0.005069638 -0.29939842 -0.261468 0.046897855 -0.2402526 0.29142866 -0.28449428
-0.06606049 0.07672031 -0.06760803 -0.09438874 -0.13222998 -0.05276348 0.059523385 -0.07421983
0.23197031 0.020421393 0.04993704 -0.31118348 -0.049474224 -0.29996973 -0.18283181 -0.1116556
-0.50563437 0.0013206415 0.097001694 -0.37376037 -0.43759888 -0.008758307 -0.1403483 0.052660048
-0.09024488 -0.012966608 -0.09827207 0.07463432 -0.39194223 -0.049659077 -0.029036272 0.005746921
-0.00068181916 -0.5283707 -0.16569777 0.013727961 0.4442096 0.44687784 0.08985815 0.12417373
-0.11986844 0.005442379 0.62286603 0.33146062 0.17715791 0.45585474 -0.28395256 -0.3867605
00000000: e0bf 50bf c8a8 103e b915 033c 3f53 bb3c
00000010: 6f53 653d 8b08 233e f6e8 d13c 31fd 64bd
00000020: ea4f 40be 64ee 3d3d 57b0 b1bc 75c2 2b3d
00000030: 5c7b c3be e358 ae3d 5e70 903e ad03 dd3d
00000040: f545 69be 8bb9 4cbe eead ebbc 9ccf adbd
00000050: 8253 32bc a78f 3a3e e158 45bd 43bf 1e3e
00000060: 3623 7bbd 4abb cabd bac1 b53c 3070 af3d
00000070: 253c e33d 39d8 33be 79f6 34bf 9f53 7bbd
00000080: de29 30be 202f 16be 90c2 32be 5603 1b3e
00000090: 481d 90bd da8b 8a3d 1e9e bb3d 5a6b 333e
000000a0: d2f0 dc3d 630e 28bb d4ea 083d 1fe0 47bd
000000b0: 23c5 1b3e 0aa1 303e 44b7 de3e 1151 8abd
000000c0: 115b c93e b024 06bf 8be4 6abf d1ea ebbd
000000d0: ea1e a8bd 94ff 5cbc 9346 a03c dc4d 953d
000000e0: 2eae 283e 2de1 19bd b3d7 20be 88e8 60bc
000000f0: 7002 383e 4226 aabb e399 9dbe acdc a23d
00000100: 875c 00be a3a8 9f3c d3e0 f1bd feb3 01bf
00000110: b3c6 b4bd 877a 583d 4812 9b3d 160a 393e
00000120: 09ec 3cbd 9133 5e3e c268 8f3e 8740 7e3e
00000130: 7754 c23e 07e1 383e 95ab c73e 4294 3abd
00000140: 1124 373d 7e3b b13e 21de d8bd 2327 6cbd
00000150: ce71 40bf 2358 113d f53e 883e bb0f 6cbe
00000160: 097c bcbb 0364 aabd 1d97 7dbd becb f5bd
00000170: cd7f 1a3e 90d9 7fbe c595 e2bd ea49 2d3d
00000180: d414 d33d defe 66be 9bda eb3d 0322 e23c
00000190: 6853 b3bd 2338 5cbe 51b3 453d 5848 0dbf
000001a0: 40ac aebe 7b9b 4c3e bf82 54bd 7209 f4be
000001b0: a054 f63d 5fbe 39bf 3d20 233e 08d4 1c3d
000001c0: a7e5 af3d a9b8 cc3d 2ec7 68be 8f5a 933d
000001d0: b3cb 46be 3a10 f3bc 7a22 9f3e 7ae3 71bf
000001e0: c624 22bf 9254 8cbe 7d85 40bd b207 84bc
000001f0: d52a debd e89e ba3c a793 98bc c458 6d3e
00000200: 1321 6dbe cad6 e03e 61c1 1c3e e1ef 043e
00000210: 0333 82bd 04f0 883d 4f80 60bd f519 edbd
00000220: a909 8f3d 1117 793c 27e0 28bd 764a 573c
00000230: 068f ac3e 6f47 19bc e273 c6bd 6b84 df3e
00000240: 4fa3 4abe b280 c53e 1fcc afbe da2f 8f3e
00000250: 9e4f 72bf c354 17bd fd88 033c 20cb dabc
00000260: d846 c8bc f198 8bbd 3d7f 993e 9eb1 1cbc
00000270: 9b10 eebb 778d 893d 746d bdbe 9b82 3f3e
00000280: 2773 afbc 3728 953b 92cc 7fbe 5841 923d
00000290: 8a7c 963e 7e0a df3a d20b 3abe 064d 783c
000002a0: b927 02be cecc 13bd c799 a23d 1b96 01be
000002b0: 087d 0d3d 40bb 4cbd fd2a 203e b6a1 cfbc
000002c0: 1e21 9f3e 6eff 10be c1f0 03be fb92 71bd
000002d0: dfab 89bf c419 57be e4c3 2fbe b101 00be
000002e0: 8f89 47bf a480 843d 966b 95bd 2f76 f9bd
000002f0: a36b 81b9 16d8 833d c8a1 5fbd 975e c23e
00000300: 1659 2f3e cd5a 4d3e 27f4 d9bd 8eb6 583d
00000310: 9d7b 04bd 4292 54be a48b 9c3d 7c84 16be
00000320: 06b2 e03d 351f a6bb c04a 99be 22df 85be
00000330: f717 403d c704 76be 2336 953e 3ca9 91be
00000340: b94a 87bd 8a1f 9d3d 1476 8abd e24e c1bd
00000350: 4c67 07be 851e 58bd cbce 733d 9100 98bd
00000360: a089 6d3e c44a a73c c88a 4c3d 7153 9fbe
00000370: 7ca5 4abd a295 99be 4338 3bbe b1ab e4bd
00000380: 4171 01bf 6019 ad3a d3a8 c63d 855d bfbe
00000390: f60c e0be 017f 0fbc 77b7 0fbe 10b2 573d
000003a0: 4fd2 b8bd e571 54bc de42 c9bd e1d9 983d
000003b0: a7ac c8be 5167 4bbd 7add edbc ab50 bc3b
000003c0: 1cbc 32ba 4d43 07bf adac 29be 3eeb 603c
000003d0: 716f e33e 2ccd e43e 8d07 b83d cc4e fe3d
000003e0: 967d f5bd fc55 b23b 2674 1f3f 35b5 a93e
000003f0: e268 353e cb65 e93e 3b62 91be 7905 c6be

actor.3.bias f4 [256]
0.232068 0.076285124 0.26062578 -0.10065416 0.33131182 0.40778458 0.09384111 0.11571413
0.1354965 -0.14695649 -0.564764 0.10233673 0.40134165 -1.0380524 0.17538702 -0.42510217
0.16637059 -0.368225 0.29514456 0.039634243 0.16324466 -0.07790132 0.14069591 0.07832515
0.4099969 0.0018006113 0.29665354 0.3227184 0.076196216 0.30788606 -0.8264271 -0.206625
-0.13557422 0.60971755 0.1372881 0.25885594 0.056770556 0.28213274 0.14730525 0.22605905
0.4333814 0.688999 0.1422674 -0.004120431 -0.36241028 0.41668046 0.50256234 0.25199518
0.46984774 0.1833974 -0.4397588 0.017891834 0.3907163 0.0053127403 0.15591829 0.2504137
0.42491433 0.3808944 -0.5213366 0.01396968 0.07916772 -0.57995474 0.42284113 0.08292759
-0.13961993 0.082783274 -0.34383693 0.26547688 -0.07092766 -0.0049209488 -0.08989599 0.10875733
0.3213973 -0.022065166 0.28405064 0.104975745 0.380472 -0.43112218 0.24981469 0.26339254
-0.04860844 0.23276664 -0.07461617 -0.40343785 0.25165668 -0.49803582 0.026341496 -0.11588369
0.4137508 0.019022532 0.46067607 0.012852511 0.105166264 0.48724225 0.15004958 -0.12489155
-0.16588093 0.18807153 -0.81977445 -0.024670398 0.33583793 0.45954728 0.18939579 0.26582408
0.20472437 -0.09539847 0.16345055 0.26177266 0.032537248 0.2854372 0.26321137 -0.19659823
-0.02857923 -0.059571568 -1.0510217 0.022049323 0.35120958 -0.032272823 0.21290608 0.41152626
0.40918687 -0.2718806 -0.11174919 0.0545944 0.18392082 0.22856602 -0.08490312 0.36957285
0.21426238 0.1678228 -0.10812362 -0.116017275 -0.04929009 0.19803971 -0.01927816 0.13531046
0.27207324 0.13649079 0.14979902 0.35852394 -0.5948479 -0.18902126 0.04644749 0.23456079
0.205135 -0.013897053 0.54488605 0.30696663 0.005184533 -0.5460655 0.26542616 0.30104288
0.4807003 0.25213045 0.26471978 -0.20515727 0.45359084 0.49032465 -1.6549326 0.18635304
0.2268075 0.12912154 0.49042466 -0.22802931 0.4050374 -0.15314078 0.11331668 0.3041826
0.26229754 0.2539889 0.35383785 0.2075246 0.33400226 0.2843564 0.07909463 -0.211979
0.0889382 0.10408182 0.10222467 0.073599875 0.36468935 0.2059386 0.5320837 0.4924979
-0.14135914 -0.50359654 0.12653595 0.005276355 0.12857424 -0.2149641 0.3799798 0.23885356
-0.0007863617 0.4445034 -0.42044315 0.21292911 0.2650736 0.07488253 0.094565004 0.470186
0.17157294 0.4880568 0.2863245 0.42979082 0.16386162 0.08252602 0.06094662 0.18403243
0.034356993 0.60486984 0.377446 0.3053525 0.33424625 0.32599714 0.079774484 0.16245295
0.26995507 0.09153381 0.34149942 0.16264583 0.08829892 -0.02792026 0.5038936 0.38467795
-0.03047386 0.014333548 0.093360595 0.34152916 0.5535745 0.021802565 0.07622147 0.051978607
0.35500884 -0.17927897 0.22243512 0.24554254 -0.18828353 0.074476525 -0.061351094 0.061007462
-0.16244857 0.028602196 0.60624343 0.15983915 0.14448194 0.15671885 0.563931 -0.9234033
0.30651462 -0.08805594 0.32600692 0.3045475 0.33335507 0.10382976 0.1691018 0.012936595
00000000: 3ca3 6d3e 603b 9c3d be70 853e c523 cebd
00000010: b4a1 a93e 24c9 d03e c52f c03d 88fb ec3d
00000020: 98bf 0a3e c37b 16be 6094 10bf eb95 d13d
00000030: a77c cd3e e7de 84bf a898 333e fea6 d9be
00000040: 0d5d 2a3e fd87 bcbe 301d 973e 8457 223d
00000050: 9c29 273e ba8a 9fbd 9712 103e f068 a03d
00000060: 1deb d13e 7d02 ec3a f9e2 973e 593b a53e
00000070: c30c 9c3d 3ea3 9d3e ba90 53bf 8195 53be
00000080: f8d3 0abe 7316 1c3f 4095 0c3e c488 843e
00000090: 3e88 683d b473 903e 30d7 163e 067c 673e
000000a0: 2be4 dd3e 3d62 303f 8cae 113e ae04 87bb
000000b0: d78d b9be 2457 d53e eda7 003f 8305 813e
000000c0: e28f f03e 87cc 3b3e 1128 e1be e591 923c
000000d0: f80b c83e 7f16 ae3b 0ba9 1f3e 3936 803e
000000e0: 5f8e d93e 9704 c33e 5176 05bf 16e1 643c
000000f0: b022 a23d ea77 14bf a27e d83e f1d5 a93d
00000100: 87f8 0ebe 478a a93d 650b b0be 96ec 873e
00000110: 8542 91bd e93f a1bb 641b b8bd 2abc de3d
00000120: 308e a43e 02c2 b4bc 166f 913e 86fd d63d
00000130: 3acd c23e 0cbc dcbe 6ccf 7f3e 63db 863e
00000140: a519 47bd 615a 6e3e 5dd0 98bd 688f cebe
00000150: 25d9 803e 8dfe febe 1fca d73c 6e54 edbd
00000160: 25d7 d33e 24d5 9b3c bcdd eb3e 5793 523c
00000170: 6961 d73d d177 f93e 99a6 193e 24c7 ffbd
00000180: b1dc 29be d395 403e bddc 51bf 9319 cabc
00000190: f3f2 ab3e c849 eb3e f8f0 413e 181a 883e
000001a0: 44a3 513e 4660 c3bd 955f 273e 1107 863e
000001b0: c745 053d d324 923e a4c3 863e 0c51 49be
000001c0: fd1e eabc 5101 74bd e187 86bf c8a0 b43c
000001d0: bed1 b33e 8230 04bd 0d04 5a3e 92b3 d23e
000001e0: f180 d13e ef33 8bbe c2dc e4bd 619e 5f3d
000001f0: bd55 3c3e 360d 6a3e b0e1 adbd a738 bd3e
00000200: 9967 5b3e bdd9 2b3e eb6f ddbd 779a edbd
00000210: 68e4 49bd ecca 4a3e 3bed 9dbc d38e 0a3e
00000220: 2f4d 8b3e 3ec4 0b3e ea64 193e 7390 b73e
00000230: f447 18bf ca8e 41be b93f 3e3d b430 703e
00000240: e90e 523e 77b0 63bc a77d 0b3f bb2a 9d3e
00000250: 04e3 a93b f3ca 0bbf f0e5 873e 4b22 9a3e
00000260: 5a1e f63e 3e17 813e 5a89 873e bf14 52be
00000270: 0f3d e83e d50b fb3e d5d4 d3bf 55d3 3e3e
00000280: 3a40 683e 7038 043e f118 fb3e 8480 69be
00000290: 1061 cf3e f0d0 1cbe 9312 e83d d2bd 9b3e
000002a0: dd4b 863e d50a 823e 3c2a b53e 5481 543e
000002b0: 5802 ab3e 2997 913e 5efc a13d 0611 59be
000002c0: 3b25 b63d d928 d53d 2b5b d13d 88bb 963d
000002d0: 90b8 ba3e 91e1 523e a336 083f af28 fc3e
000002e0: 73c0 10be b4eb 00bf a492 013e 46e5 ac3b
000002f0: f7a8 033e 8d1f 5cbe b68c c23e 0796 743e
00000300: d723 4eba f395 e33e 5344 d7be 170a 5a3e
00000310: bab7 873e 035c 993d 4cab c13d 38bc f03e
00000320: d1b0 2f3e 95e2 f93e 2099 923e 8b0d dc3e
00000330: 57cb 273e 6703 a93d 2aa3 793d ff72 3c3e
00000340: ebb9 0c3d c0d8 1a3f 9a40 c13e 2a57 9c3e
00000350: 5322 ab3e 19e9 a63e ce60 a33d 115a 263e
00000360: 8d37 8a3e 1476 bb3d 03d9 ae3e a18c 263e
00000370: 10d6 b43d 07b9 e4bc 2cff 003f 82f4 c43e
00000380: 51a4 f9bc 42d7 6a3c d733 bf3d e9dc ae3e
00000390: 0fb7 0d3f 4b9b b23c 011a 9c3d 85e7 543d
000003a0: b8c3 b53e e894 37be 08c6 633e 816f 7b3e
000003b0: 66cd 40be 2687 983d 494b 7bbd f6e2 793d
000003c0: eb58 26be 274f ea3c c532 1b3f e0ac 233e
000003d0: 13f3 133e e87a 203e c85d 103f 2964 6cbf
000003e0: 7cef 9c3e ac56 b4bd 61ea a63e a6ed 9b3e
000003f0: 84ad aa3e b2a4 d43d 0629 2d3e 03f4 533c

actor.6.weight f4 [6, 256]
0.034543633 -0.018958619 0.013986523 -0.45462382 -0.07817774 0.039702155 -0.06404002 -0.12588829
0.09209911 0.06702956 0.13615407 0.050796084 0.06747117 0.14384754 0.117390044 -0.0009956578
-0.04171048 -0.021091491 0.027279634 0.022003284 0.10405497 -0.043946836 0.11884259 0.019420171
-0.006030621 -0.05777779 -0.006209422 0.11354745 0.18349084 0.0041329074 0.14835416 0.06631888
-8.021454 0.011874203 -0.010746164 0.029105948 0.011267742 -0.3693921 -0.9692789 -0.20876554
-0.04483936 0.024143413 0.0009207578 -0.060744695 -0.03558184 0.17296498 0.02890465 -0.13160999
0.012390184 0.1052315 0.06635758 -0.032141224 -0.12070461 0.009189957 0.00013730853 -0.07592079
-0.00091684243 -0.10150746 0.10541478 -0.11708394 -0.034028154 0.0578829 -0.04624212 0.052433014
0.03398873 0.60890377 0.013351239 0.017547233 0.002088363 0.11969353 -0.13328834 -0.122423336
0.011321107 -0.02510594 0.04315423 -0.31641266 0.03291096 0.040786598 0.028988445 0.01117813
-0.053952064 -0.08731537 -0.033710256 -2.3937309 0.17566071 -0.0031580597 0.09900914 0.124466345
-0.17214072 0.010453413 0.04669002 -0.06856897 0.026888506 -0.072777875 0.20681202 0.025643561
0.015571391 0.030246684 -0.015689962 -0.016946184 -0.010078573 0.018293688 0.038489632 0.08163104
-0.032514755 -0.93831193 -0.016025135 -0.109942846 0.0031809804 -0.0075856545 0.09845017 -0.004283718
-0.02074139 0.08550684 -0.026316056 0.011886709 -0.0019131545 -0.28289747 -0.12491817 0.19669047
0.043809526 0.0028456121 0.079498194 0.06909084 0.0765894 -0.054983195 -0.025202276 0.014789313
-0.119106434 -0.033338975 -0.19116507 0.010034554 -0.070019156 -0.18416524 0.14317788 -1.2716178
0.0010775273 -0.0592693 0.0010524151 0.030664371 0.0426178 0.16481242 -0.16333552 0.049643185
-0.020302216 -0.05656771 0.051814247 0.05612296 -0.009106508 -0.16338454 0.025015758 -0.02114264
0.092247516 0.029176814 -0.12325364 0.013504503 0.05154438 0.14114456 0.016509837 -0.013787619
0.013866646 -0.016596058 0.12008491 0.07186565 -0.048682183 0.011502563 -0.041610956 0.08083265
0.017301245 -0.03378486 0.08389551 0.11167885 0.025431683 0.019352032 -0.007188482 0.020074788
0.008743986 -0.014086785 -0.024958288 -0.144707 0.0367597 -0.025024224 -0.04623094 -0.23013586
-0.24221623 -0.05185067 -0.28186673 0.18703146 0.044019505 0.08176496 -0.22631495 0.010150906
0.033123795 -0.08380266 -0.010173465 0.1336916 -0.017601067 0.09751516 0.17071262 -0.013701546
-0.20732144 -0.00045382796 0.11101621 -0.0042269384 -0.011943783 -0.11490316 0.009513516 -0.025625102
0.03387041 -0.05308575 0.12340629 -0.009602307 -0.025274925 -0.0028763213 -0.06434082 0.16965434
-0.0051170317 -0.08931728 0.006672066 0.22803916 -0.9732911 0.054896988 -0.15726241 0.017859597
-0.017960252 0.12994763 0.035508227 -0.04221862 0.08579684 0.05357156 0.0018432306 0.08076905
0.0649602 -0.016331505 0.020119186 -0.04522134 0.20209306 -0.061185274 0.0075640613 -0.047069274
-0.037812438 0.36017025 0.12595288 -0.004848835 0.20303608 -0.026284685 -0.02967635 0.16586867
-0.0029511356 0.0037381654 0.0260783 0.040106602 -0.036494784 0.01074074 -0.100395784 -0.04169094
00000000: a07d 0d3d 1b4f 9bbc bb27 653c 74c4 e8be
00000010: a71b a0bd ba9e 223d 6a27 83bd dce8 00be
00000020: 759e bc3d cb46 893d f96b 0b3e 8e0f 503d
00000030: 532e 8a3d c54c 133e 316a f03d bb80 82ba
00000040: 9cd8 2abd 10c8 acbc 8a79 df3c 3b40 b43c
00000050: c61a d53d 9901 34bd be63 f33d 0d17 9f3c
00000060: 849c c5bb 67a8 6cbd 6878 cbbb 918b e83d
00000070: 06e5 3b3e 576d 873b 27ea 173e 31d2 873d
00000080: e057 00c1 048c 423c ae10 30bc 996f ee3c
00000090: 569c 383c f620 bdbe a922 78bf a2c6 55be
000000a0: 7aa9 37bd 68c8 c53c 035f 713a 6ecf 78bd
000000b0: 43be 11bd bb1d 313e 72c9 ec3c c5c4 06be
000000c0: 3300 4b3c 9d83 d73d 7ce6 873d 84a6 03bd
000000d0: fb33 f7bd 7991 163c 7afa 0f39 5c7c 9bbd
000000e0: 4158 70ba 25e3 cfbd b4e3 d73d b4c9 efbd
000000f0: 1b61 0bbd 9f16 6d3d 6168 3dbd 00c4 563d
00000100: c437 0b3d 1ee1 1b3f 28bf 5a3c 37bf 8f3c
00000110: ebdc 083b e221 f53d bd7c 08be 16b9 fabd
00000120: 2a7c 393c f9aa cdbc 7dc2 303d d700 a2be
00000130: a5cd 063d d90f 273d 2d79 ed3c 7a24 373c
00000140: d7fc 5cbd 67d2 b2bd c413 0abd e332 19c0
00000150: 67e0 333e 73f7 4ebb 4ec5 ca3d 36e8 fe3d
00000160: a845 30be cb44 2b3c 093e 3f3d e36d 8cbd
00000170: 4945 dc3c 910c 95bd 88c6 533e 7212 d23c
00000180: 261f 7f3c e5c7 f73c 3c88 80bc b9d2 8abc
00000190: 9920 25bc a5dc 953c 4ea7 1d3d 2d2e a73d
000001a0: 312e 05bd 3635 70bf 2547 83bc b729 e1bd
000001b0: ff77 503b 1591 f8bb 3ea0 c93d 6e5e 8cbb
000001c0: d9e9 a9bc 361e af3d c594 d7bc 79c0 423c
000001d0: d0c2 faba f0d7 90be 19d5 ffbd 3a69 493e
000001e0: 9e71 333d 737d 3a3b f3cf a23d 807f 8d3d
000001f0: e7da 9c3d 0f36 61bd 0175 cebc e04e 723c
00000200: 13ee f3bd 738e 08bd c7c0 43be f867 243c
00000210: 3466 8fbd d095 3cbe 399d 123e 5fc4 a2bf
00000220: d13b 8d3a 5ec4 72bd 31f1 893a d933 fb3c
00000230: 0190 2e3d 96c4 283e 6d41 27be a756 4b3d
00000240: d550 a6bc 8bb3 67bd 2d3b 543d 30e1 653d
00000250: 7733 15bc 474e 27be d9ed cc3c 5433 adbc
00000260: 44ec bc3d 3704 ef3c 686c fcbd fe41 5d3c
00000270: 3320 533d 3388 103e a33f 873c 77e5 61bc
00000280: ee30 633c 75f4 87bc 14ef f53d 4c2e 933d
00000290: f866 47bd 3f75 3c3c 4070 2abd 978b a53d
000002a0: 57bb 8d3c fe61 0abd 69d1 ab3d e2b7 e43d
000002b0: 1b56 d03c 2788 9e3c 5c8d ebbb e273 a43c
000002c0: ef42 0f3c 42cc 66bc 5375 ccbc 122e 14be
000002d0: 5791 163d 9aff ccbc a75c 3dbd bca8 6bbe
000002e0: 8807 78be 5e61 54bd d650 90be 2d85 3f3e
000002f0: cc4d 343d 6374 a73d 1bbf 67be fc4f 263c
00000300: d1ac 073d bba0 abbd 9bae 26bc 73e6 083e
00000310: 1d30 90bc 07b6 c73d 4acf 2e3e 737c 60bc
00000320: 124c 54be c2ef edb9 775c e33d 2182 8abb
00000330: dbaf 43bc 5952 ebbd 94de 1b3c bceb d1bc
00000340: b3bb 0a3d 7270 59bd 70bc fc3d ff52 1dbc
00000350: 5c0d cfbc aa80 3cbb 1fc5 83bd deb9 2d3e
00000360: c6ac a7bb faeb b6bd 59a1 da3b 1983 693e
00000370: 9b29 79bf aadb 603d 6609 21be 4a4e 923c
00000380: 6121 93bc fe10 053e 1371 113d 6fed 2cbd
00000390: 41b6 af3d da6d 5b3d 8e98 f13a 3e6a a53d
000003a0: da09 853d a6c9 85bc fed0 a43c 033a 39bd
000003b0: 7cf1 4e3e 699d 7abd f2db f73b b6cb 40bd
000003c0: 37e1 1abd 3c68 b83e cbf9 003e fae2 9ebb
000003d0: b1e8 4f3e fb52 d7bc d11b f3bc 7ad9 293e
000003e0: d767 41bb 02fc 743b 29a2 d53c d246 243d
000003f0: 8e7b 15bd eef9 2f3c 4e9c cdbd 1ec4 2abd

actor.6.bias f4 [6]
-0.3825502 -0.30112568 -0.61384964 -0.044950366 -0.2583959 -0.03261227
00000000: 9fdd c3be 252d 9abe 4025 1dbf e01d 38bd
00000010: 784c 84be 7294 05bd
