online_weights/spot_halfcheetah_medium/critic_s1000000.pth (torch, 581681 bytes, 10 tensors)

q1_.0.weight f4 [256, 23]
000000 a5 22 1d be ea a6 ff 3e 5a bb 83 3f 64 35 b8 bd
       -0.15345247 0.49932033 1.029155 -0.089945585
000010 35 1d ed bd 12 d8 c3 be f4 1e 67 3d 2c b1 88 bc
       -0.115778364 -0.38250786 0.056426004 -0.016686045
000020 8f 43 be 3d b5 da 34 3e 9c 64 1c 3f 83 ab 00 40
       0.092902295 0.17661555 0.6109102 2.0104682
000030 49 12 5f 3f ab 29 ec 3d b1 ee 83 be e9 8e 46 3c
       0.87137276 0.11531385 -0.25768045 0.012119033
000040 8e c7 0e bd b1 68 ba be 78 04 36 be af cb 3a 3d
       -0.03485828 -0.36407998 -0.17775142 0.045604404
000050 28 5d f2 3d 2b f3 57 3d 46 f0 14 3c 1f 90 1e 3d
       0.118341744 0.052722137 0.009090489 0.038711663
000060 b8 e4 94 be ee 8a 18 3c 1d 9f 9e bd ca bd d2 bd
       -0.2908075 0.009310467 -0.07745192 -0.10290106
000070 98 ec 9f 3f dd 0a 2e 3e f2 0e 41 3e 44 1a 98 bc
       1.2494078 0.16996332 0.18853357 -0.018567212
000080 0c 10 86 3e 7f 08 24 bf 8d 8b 9e bf 4a 86 01 bf
       0.26184118 -0.64075464 -1.2386338 -0.50595534
000090 f5 f3 2b bd f8 35 1c 3f fa ae 48 be 9e 7a ea bc
       -0.041980702 0.6101985 -0.19597998 -0.028622922
0000a0 9d 0a 08 be 4a 6c ae 3d c7 e3 9b bd 5a b1 36 be
       -0.13285299 0.08516748 -0.076118045 -0.17841092
0000b0 78 9d b2 be df 73 b4 bd fd cb 10 3d b2 b6 0d 3e
       -0.34885764 -0.08811163 0.03535079 0.13839224
0000c0 a1 ef 80 be 4c d3 82 3c a0 1c 88 3e 07 c0 9d 3d
       -0.25182822 0.015969895 0.2658434 0.07702642
0000d0 1a 6d 16 3e 26 26 e8 3d 6a 47 8e bf 24 cf 83 3d
       0.14690056 0.11335401 -1.1115544 0.06435993
0000e0 3f 0b a4 3e 18 49 d6 3e e6 01 6e 3e a3 7a d8 3d
       0.3203983 0.4185264 0.23242912 0.10570266
0000f0 a8 e9 00 3f d5 95 5f 3e e7 d9 14 3e 09 e7 9c bd
       0.5035653 0.218345 0.14536248 -0.07661254
000100 d5 c4 40 be 14 d3 95 3d 87 b3 92 bd ad fe ae bd
       -0.18825085 0.073156506 -0.071631484 -0.08544669
000110 4e f9 b7 bd ae 66 23 3f d7 ef 38 be aa 8a 09 3f
       -0.08983098 0.6382855 -0.18060242 0.5372721
000120 9d c9 e8 3d ef 51 82 3e 1b 61 95 3e e9 4c 69 be
       0.1136658 0.25453135 0.29175648 -0.22783245
000130 6a b7 bd 3d d9 56 47 3c 93 b2 22 bf 12 13 40 be
       0.09263499 0.012166702 -0.6355373 -0.18757275
000140 d6 ba 0d 3f e2 b6 e2 3e 80 46 21 3e d5 d3 09 be
       0.55363214 0.44280154 0.1574955 -0.13459714
000150 ce fa 22 be 9c 7d 22 3e 01 6e 00 3f a3 19 02 3f
       -0.15915987 0.15868229 0.5016785 0.5082037
000160 28 02 3b 3e 3a 97 18 3f 5d fd 22 bf 5c 0d d2 3e
       0.18262541 0.59605753 -0.6366785 0.41025817
000170 5c a4 22 bf 58 24 f9 bf c0 bd 57 3f 85 86 7c be
       -0.6353204 -1.9464216 0.8427391 -0.2466069
000180 53 2f 17 bd 1e 23 a7 be f9 5c dd bd fe 32 d2 bc
       -0.036910366 -0.3264398 -0.10808749 -0.02565908
000190 10 05 32 bd 36 13 0c bf dc 55 3e bf d3 c9 a3 bf
       -0.04346186 -0.54716814 -0.7434976 -1.2795967
0001a0 57 f2 63 bf a0 93 81 bd ba 3b af be 58 34 d4 bd
       -0.89041656 -0.06326985 -0.34225255 -0.10361546
0001b0 f2 6b 04 bd 06 73 05 be 7d d9 21 be 8d c7 5f bd
       -0.032329507 -0.13032159 -0.15805621 -0.054633666
0001c0 7a 17 83 3d 92 8f 8b 3d b4 0f 8f bc cc 7c 82 bf
       0.06400962 0.06814493 -0.017463543 -1.0194335
0001d0 c0 cd b6 3e 55 97 e7 bb 39 d5 e7 be 8a 6e ca bc
       0.3570385 -0.0070676007 -0.45279863 -0.024710912
0001e0 c1 77 50 3d 0a 8c 3a 3b 8c de e5 bd 57 1b 6e 3d
       0.050895456 0.0028464817 -0.11224088 0.058131542
0001f0 99 51 d1 bd 33 4e 9b 3e fe 37 ce 3e cb d5 a1 3d
       -0.10220642 0.303331 0.40277094 0.07902106
000200 12 ff 3c be 95 f7 12 bf 7d 83 21 3f 3d d4 81 3e
       -0.18456677 -0.5740903 0.6309126 0.25357237
000210 85 65 32 bd 34 f6 ae be 5f be 9c be fc 07 e0 bd
       -0.043553848 -0.34172213 -0.30613992 -0.10939023
000220 71 01 e6 3e 3b b9 f6 3c 4a b2 9f be 01 1b 31 3e
       0.44922975 0.030117622 -0.3119071 0.17295457
000230 1b a5 2b bf cc 45 49 3e da d1 cc 3b 61 ac a3 3e
       -0.67048806 0.19655532 0.006250602 0.31967452
000240 16 e8 c1 bd ef 5e 1f bc 42 6d 2d bf 16 e9 52 be
       -0.09468095 -0.009727224 -0.6774484 -0.20596728
000250 2f bd 7e 3e 48 5f 9c 3e de 5d d9 3e f3 8a 9e bd
       0.24876855 0.30541444 0.42454427 -0.07741346
000260 12 14 ec bc 38 71 96 be ca 70 62 3c e4 b5 9b 3c
       -0.028818164 -0.29383254 0.013820836 0.01900763
000270 01 7c 45 bd ae d8 de 3e 83 8c 8b 3d 1e 98 bf 3d
       -0.048213962 0.43524688 0.0681391 0.09355186
000280 f8 84 2d be 2d ed 3d be 67 bb 8d be 3d 1a 82 3f
       -0.16945255 -0.18547507 -0.2768204 1.0164257
000290 af a3 47 3e f1 71 26 3e 17 14 79 be 1c 94 3f be
       0.19496034 0.16254403 -0.2432407 -0.18708843
0002a0 4b f4 1b 3e 2e 35 73 bc 28 e9 e8 3e a4 35 a1 3e
       0.15229909 -0.014844222 0.45490384 0.31486237
0002b0 35 29 91 be ed ba 63 3d 71 45 18 be 97 69 2b 3f
       -0.2835175 0.05559819 -0.1487024 0.6695799
0002c0 39 05 f6 3d 1b 75 e1 bc 4c 12 b8 be cc 47 95 be
       0.12012715 -0.02752166 -0.3595146 -0.2915634
0002d0 46 ca 34 be 0a 66 9b 3d 24 ba 43 3f ca 67 80 be
       -0.17655286 0.07587822 0.76455903 -0.25079185
0002e0 0c 95 e9 3e ec cf c6 bf a8 ac af be 0a 58 b1 3c
       0.45621526 -1.5532203 -0.34311414 0.021648426
0002f0 d0 9a a8 bb 45 91 66 be 99 2d 46 be b3 47 73 be
       -0.005145408 -0.22516353 -0.19353332 -0.2375782
000300 fd d4 94 bd 08 f3 91 3d 91 6e 65 bd 76 4e f1 3d
       -0.07267187 0.07126433 -0.056013647 0.11782543
000310 e6 83 10 bd d0 40 16 be b1 38 50 be 84 77 1f be
       -0.03528204 -0.14673162 -0.20334126 -0.15572935
000320 12 5b c5 bc 34 78 15 3d 76 db 53 3e 9d e3 ea 3d
       -0.024091277 0.036491588 0.20689186 0.11469195
000330 f1 38 a6 3e 75 29 36 bf 11 ed 18 3d f5 ba bf 3e
       0.32465318 -0.7115701 0.03733546 0.37447324
000340 14 6a a1 3f eb be 19 3f 77 38 83 3d b3 8f e3 3c
       1.2610497 0.6005694 0.06407254 0.027778482
000350 57 6b fb be a1 9a 71 bd 85 a1 47 bc 01 5c 50 3e
       -0.4910533 -0.058985356 -0.012184505 0.20347597
000360 32 8f 78 3e 27 fb db 3e 9f ab 52 bd 23 e5 d4 3e
       0.24273375 0.42965052 -0.051433202 0.41581067
000370 1e e8 ba 3d 52 ca 19 3f 5c 4a 33 3e c0 83 82 3d
       0.09126304 0.6007434 0.17508835 0.063727856
000380 3f da 9f 3b 85 16 a9 3e c8 68 5f bd d4 6f 87 be
       0.004878312 0.33024994 -0.054543287 -0.26452506
000390 1a c9 00 be 51 22 0a 3e a5 3b 1d 3f b7 a5 76 bf
       -0.12576714 0.13489653 0.61419135 -0.9634661
0003a0 3a 14 87 3c 37 73 30 bb 92 8d 76 3d ad 5f 6a 3f
       0.016489137 -0.0026924142 0.060193606 0.9155224
0003b0 8f a6 df bd 21 f4 c3 bc 0a 3c 1e bf dc f4 9e 3e
       -0.109204404 -0.02392012 -0.6181036 0.31046188
0003c0 67 74 86 bd 3e 75 47 3e 31 ff 5e bd c3 31 08 3e
       -0.06565171 0.19478318 -0.05444259 0.13300233
0003d0 f3 4c 56 3f 20 2f 77 3d a8 4c 16 be 0c e8 81 be
       0.83711165 0.060347676 -0.1467768 -0.2537235
0003e0 1e 33 07 3e 73 33 1d 3e 5f 29 94 3e da e7 aa 3e
       0.13203093 0.15351658 0.28937814 0.33380014
0003f0 90 cc 43 bd 07 ad 92 be cf 12 49 3f 76 49 40 bf
       -0.047802508 -0.28647634 0.78544325 -0.7511209

q1_.0.bias f4 [256]
000000 29 78 41 bf 6b a8 c9 bf 43 28 13 3e 55 6d b5 bf
       -0.75573975 -1.5754522 0.14370827 -1.417399
000010 41 c2 46 be ea 59 25 bf b2 f3 84 bf f3 01 ce bc
       -0.1941004 -0.6459032 -1.038687 -0.025147414
000020 97 80 b2 3e 85 f6 ea bf 56 23 15 be 11 e3 49 be
       0.3486373 -1.8356482 -0.14564261 -0.19715525
000030 0a cf 7b 3d c7 a2 8e 3e 63 42 7e 3e 01 4d b0 3e
       0.061476745 0.27858564 0.24830012 0.3443375
000040 f5 26 79 3d f7 25 1f bf 53 c6 17 bf 23 b2 13 3e
       0.060828168 -0.62167305 -0.59286994 0.14423423
000050 79 e4 a3 bd c0 6c e1 be df 28 92 bf 68 1f fe bd
       -0.08002562 -0.44028282 -1.1418723 -0.12408334
000060 ca 14 61 be 91 5f 21 bf 3d 41 99 bf 3e 2e 87 bd
       -0.21980587 -0.6303645 -1.1973034 -0.06600617
000070 0d da ba be 51 60 21 bf 5e d0 ed be 3c be 96 bf
       -0.36494485 -0.6303759 -0.46448034 -1.1776805
000080 64 48 89 bd 8b a6 ab 3d d4 f5 7b 3d b7 aa 60 3f
       -0.067032605 0.08381375 0.061513737 0.8776049
000090 0d 6a 5a bf d4 d9 2a bf 71 16 0a bf e7 12 3a 3e
       -0.8531807 -0.6673863 -0.5394049 0.18171273
0000a0 00 6e 03 bf 9e 39 95 bf 49 b5 d3 be dc aa ad bc
       -0.5133972 -1.1658208 -0.41349247 -0.021199636
0000b0 f4 51 f0 3e 9c 6e 4e be 29 2a cf be 19 3a b4 bf
       0.46937525 -0.20159382 -0.40461853 -1.408023
0000c0 10 84 ac be 61 e7 1d be 11 d3 8a bf 0c 64 c2 be
       -0.33694506 -0.15420295 -1.0845662 -0.37966955
0000d0 9b 50 3f 3f 21 69 db be 3d d8 1f bf 91 2d 18 bf
       0.7473237 -0.42853644 -0.6243933 -0.5944453
0000e0 74 23 4d be f8 77 20 3e f8 ff 78 bf d9 40 a1 3e
       -0.20033056 0.15670764 -0.9726558 0.31494787
0000f0 08 90 6a 3d cd ca 24 bc 94 30 da 3e c4 5c b8 be
       0.057266265 -0.010058117 0.42615187 -0.36008275
000100 be 90 ae be cb cc 59 bf 89 ba 3c be 4c 28 3f bf
       -0.34094805 -0.85078114 -0.18430533 -0.74670863
000110 38 20 da be f5 0f 82 bf 96 57 13 3f a7 99 7a 3e
       -0.42602706 -1.016112 0.5755552 0.24472676
000120 5b b4 31 bf 07 22 9a bf a8 b1 70 3f e3 18 e5 3e
       -0.69415826 -1.2041634 0.9402108 0.4474555
000130 51 62 26 bf 5b 3c 59 bf f4 fc 22 be d6 bf d3 3e
       -0.6499377 -0.8485772 -0.15916806 0.41357297
000140 3d 43 73 be 26 c3 2c bf 73 83 3f 3f 0e c5 a0 be
       -0.23756118 -0.6748527 0.7480995 -0.3140034
000150 aa d8 9f bc d4 3f d7 be 5e a8 9d 3e 8f ae 4b bf
       -0.019512493 -0.42040884 0.30792516 -0.7956323
000160 b1 02 54 3f da c2 3e bf 93 82 40 bf a0 d2 a3 3e
       0.82816607 -0.7451607 -0.7519924 0.31996632
000170 e9 68 d9 be c5 5b 47 bf f0 e2 00 3e 39 e0 2a bf
       -0.42462853 -0.77874404 0.1258657 -0.66748387
000180 ae e2 47 bf 46 9d 7b bf 6e 4c 73 3e 19 91 6b be
       -0.7808026 -0.98286855 0.23759624 -0.23004569
000190 41 bb 14 3e e9 21 95 be 56 c4 39 3e 0e d2 09 be
       0.14524557 -0.29127434 0.18141302 -0.13459036
0001a0 53 44 c1 be 31 81 01 3f 8f 39 b2 bf b2 09 a6 3e
       -0.3774744 0.50587755 -1.3923815 0.32429272
0001b0 60 03 68 bf 2d 1f 1e bf ab df 2f be a8 26 1b bf
       -0.9063015 -0.6176632 -0.17175166 -0.6060586
0001c0 b0 ab 1f bf e3 02 6b be fc 4a 05 bf 5b 18 c8 be
       -0.6237135 -0.2295032 -0.5206754 -0.39081082
0001d0 1f c2 52 be 2d 15 a4 be c0 01 4c bf 50 28 e5 be
       -0.20581864 -0.32047406 -0.7969017 -0.44757318
0001e0 72 76 46 3e d7 04 ef 3e 19 c2 a9 3e 91 86 ca 3d
       0.19381121 0.4668338 0.33155897 0.09888948
0001f0 98 fb a7 be d4 7e 71 bf b4 8b bc be 1b cd 8a bf
       -0.32809138 -0.9433415 -0.36825335 -1.0843843
000200 2d d9 cb 3e 83 6d 5e be bf 44 3f bf bf 43 89 3e
       0.3981413 -0.21721463 -0.74714273 0.268095
000210 5f 06 a1 be 3e 57 0b bf 69 91 d7 be d0 80 70 be
       -0.31450173 -0.54429996 -0.42103127 -0.23486638
000220 94 55 42 3f 33 ae 07 bf 87 a9 93 be ed 0b 05 3f
       0.7591183 -0.5300018 -0.28840277 0.5197132
000230 9d 70 44 bf ed 1b b2 be 17 79 95 3e dd 6d 35 bf
       -0.76734334 -0.3478693 0.29193947 -0.70870763
000240 56 ee dd be 6e 7d bf 3e 5a 45 1f bf cd 9a 94 3e
       -0.43345898 0.37400383 -0.622152 0.29024354
000250 df 84 05 bf 32 0c 54 bf f2 88 e3 3e 8d 47 ed 3d
       -0.5215587 -0.8283111 0.44440418 0.11585913
000260 38 fb 72 bf 07 1f a9 3e 95 03 ae be d9 3c 18 bf
       -0.9491458 0.33031484 -0.33987108 -0.59467846
000270 c4 ba bb bc cb 90 bd be ee 25 b0 bf 5a 0b 76 bf
       -0.022916205 -0.3702453 -1.3761575 -0.9611107
000280 98 34 82 bf 66 e9 95 bd 93 ae 13 3e a1 50 40 bf
       -1.01723 -0.07319908 0.14422064 -0.7512303
000290 f2 5e 87 bf 37 7b 4d 3f ae a1 10 bf 90 a9 57 bf
       -1.057585 0.80266136 -0.56496704 -0.84243107
0002a0 55 1e 30 3f 89 f0 67 bf c3 0d 80 bd b7 37 c1 3e
       0.68796283 -0.906014 -0.06252625 0.3773782
0002b0 62 fb 43 bf ec 29 63 be 2a 3d 0e bf c3 0e fe bc
       -0.76555455 -0.2218396 -0.5556208 -0.031012898
0002c0 20 0f 81 bd 33 b5 3e 3d fd 6a a4 3e de 1d 41 bf
       -0.06301713 0.046559524 0.32112876 -0.754362
0002d0 ca e6 e9 be 25 d5 2a 3f 73 cd 6e bd d9 a0 0b 3f
       -0.4568389 0.6673148 -0.0583014 0.5454231
0002e0 2a 6b 06 c0 e8 b1 20 bf 9a d4 44 3e 7b 35 aa bf
       -2.1002908 -0.62771463 0.19221726 -1.3297571
0002f0 00 b2 9a be aa fe c8 3e a1 fc fc be 2d cc f1 bf
       -0.30213928 0.39256793 -0.4941149 -1.8890435
000300 eb 18 ad be 7a 0d 3c bf 4b a5 2d 3f 67 38 cc be
       -0.33808073 -0.73458064 0.6783034 -0.39886782
000310 28 e1 75 bd 58 6d 73 3e 88 86 53 bf 1d 97 1d bf
       -0.06002918 0.2377218 -0.82627153 -0.61558706
000320 68 71 d6 bf a6 7c 34 bf 8e 8e 7c be 92 3a 76 be
       -1.6753359 -0.705027 -0.24663755 -0.2404578
000330 10 76 21 bf 37 21 ed be 14 f0 db be eb d3 a6 3e
       -0.63070774 -0.46314403 -0.42956603 0.32583556
000340 50 d1 ac bf 2c 4c 9e 3c 30 00 8c bf 79 dc 46 bf
       -1.3501377 0.019323431 -1.0937557 -0.77680165
000350 1b dd af 3e 7e e0 1c 3f 5b 92 8c 3d fd ba 41 bf
       0.34348378 0.6128005 0.068638526 -0.75675946
000360 ad a0 0e bf ab 7a f2 3c a0 46 f3 be 78 ac 13 3f
       -0.5571392 0.029599508 -0.4751482 0.5768504
000370 ed 1a 33 bf 9d 38 ad bf 14 c2 cf 3e 67 98 8d bf
       -0.6996296 -1.3532902 0.40577757 -1.1062135
000380 77 b0 5b bf f5 20 ae 3e a3 a7 a4 be da e3 1d bf
       -0.8581614 0.3400952 -0.32159147 -0.616758
000390 c4 87 ed be 12 90 63 bf 65 66 96 be a1 b7 eb be
       -0.46392643 -0.8889171 -0.29374996 -0.46038535
0003a0 e7 97 81 3e 23 c5 0c bf 85 a1 3b 3e e6 96 0b bf
       0.25311205 -0.54988307 0.18323334 -0.5452713
0003b0 c4 8c 0d 3f 8c 54 bf bd e2 64 98 3a 3b c0 7c 3d
       0.55292916 -0.09342298 0.0011626745 0.061706763
0003c0 7b 45 02 c0 50 25 b7 bc 0c 2f 06 3f 9f 13 cf bd
       -2.0354908 -0.02235666 0.5241554 -0.10111164
0003d0 5b 99 07 bf d4 e0 95 bf 6d 32 33 bf 8b ef af 3e
       -0.52968377 -1.1709237 -0.6999882 0.34362444
0003e0 c7 bb 07 be 7a eb 1d be f3 ab b4 3e d1 40 2e bf
       -0.13255225 -0.15421858 0.35287437 -0.6806765
0003f0 9b 1e bb be a1 f6 da be dd 90 83 bf d6 f6 a9 bf
       -0.36546788 -0.42766288 -1.0278584 -1.3278453

q1_.2.weight f4 [256, 256]
000000 89 e9 79 bd 87 fd 26 bb 34 29 82 be 37 84 4c bd
       -0.061013732 -0.0025480704 -0.2542206 -0.049930777
000010 76 da 48 bd be 06 58 bc f8 55 4f bd 1d ef 8a bd
       -0.049036466 -0.013185201 -0.050619096 -0.067838885
000020 48 75 16 be 88 b6 92 bd 45 c6 b2 bd 3f 3c 6c 3d
       -0.14693177 -0.07163721 -0.08729223 0.057674643
000030 cd 64 c8 bc 8b aa fe 3a 8b a8 76 bd 15 da 9d be
       -0.024462128 0.0019429488 -0.06021933 -0.30830446
000040 57 ed 8f bd c7 7b a8 3c 86 3d 3b be 01 98 4e bd
       -0.07027691 0.020566834 -0.18285188 -0.05043793
000050 1d 4a 5f bc c1 23 74 bd 07 d5 21 bd 1a ac 48 bc
       -0.01362851 -0.05960441 -0.0395098 -0.012248063
000060 9e 58 5f 3d 0f 52 28 be f7 fe 01 bd 18 77 8c 3b
       0.05452787 -0.16437553 -0.031737294 0.004286658
000070 5f db 26 be 46 a3 2f be 63 96 ef bd 89 f4 73 3d
       -0.16294621 -0.17152128 -0.11698606 0.05955938
000080 45 14 c0 3b d2 11 29 be 69 8a 47 bd 9d 09 bd bb
       0.0058617913 -0.16510704 -0.048715983 -0.0057689683
000090 21 14 16 be 4f bf 54 3e d9 9c 93 bd 0e c0 bf bd
       -0.14656116 0.20776103 -0.07207651 -0.093628034
0000a0 42 7c aa bd 10 5c 82 3d 98 b4 4a 3c 55 de 32 bd
       -0.083244815 0.06365216 0.0123721585 -0.043669064
0000b0 66 c0 93 3c 32 09 16 be 85 00 92 3d 16 14 2c bc
       0.018036079 -0.14651945 0.07129005 -0.010502836
0000c0 21 66 0d bc fe 3d 92 bd 3b 4f 1b 3d 4e 3a 06 3d
       -0.008630306 -0.0714073 0.037917357 0.032770447
0000d0 d7 63 27 bb 7a ba 1a be 8c 93 cf bd 4b 2c a5 3c
       -0.0025541687 -0.15110198 -0.10135564 0.020162722
0000e0 07 c1 5b be 06 db d8 bc 42 49 7c bd f5 db b6 bc
       -0.21460353 -0.026471626 -0.0615933 -0.02232168
0000f0 38 f0 d9 bc 47 2c f6 bd e9 76 a7 bd 9b 20 b7 bd
       -0.026603803 -0.12020164 -0.08176977 -0.08941766
000100 31 d4 2e bc a0 80 a3 3c 11 1e 65 be a3 51 87 3d
       -0.010670708 0.019958794 -0.2237475 0.06607368
000110 94 2f 7a bd e1 ce d3 bd bf cb ac 3c a6 2d fb bd
       -0.06108053 -0.103421934 0.021093247 -0.12264566
000120 8f 2c 3b bd 63 a5 55 bc be f8 d3 bd fb d5 81 bd
       -0.04569679 -0.01303992 -0.10350178 -0.06339642
000130 5a d3 0f 3e 1f 8d 71 bd 91 99 c0 bc 74 1d c3 be
       0.14045468 -0.058972474 -0.023510726 -0.38108408
000140 d2 0e 8e 3d c3 00 57 be f4 a4 b6 3d 7b a2 ba b9
       0.069364205 -0.20996384 0.08918181 -0.00035597742
000150 09 11 2f be ec a3 e2 bc a0 b1 b7 3c 6d 33 26 bd
       -0.17096342 -0.027666055 0.022423565 -0.040576387
000160 2e 3a bd 3d 22 84 c9 bc c7 51 07 be 9e f3 34 be
       0.092396125 -0.024599139 -0.1321479 -0.17671058
000170 a7 1d 41 be 91 9a 9e bd aa 16 13 3e 17 d3 82 3d
       -0.18858968 -0.07744325 0.14364114 0.063879184
000180 e9 f4 73 be af bd fc 3c 8a 2b e4 bc 8f 14 21 bd
       -0.23823895 0.030852167 -0.027852792 -0.039326247
000190 c6 de 02 bd 1c 24 79 bd c3 73 fe bc eb 3b 4a 3d
       -0.031950735 -0.060825452 -0.031061059 0.04937355
0001a0 3d 13 96 3d 6e 12 91 3c 41 a0 93 bc cf eb a7 bc
       0.07327888 0.017708983 -0.018020751 -0.020498184
0001b0 7b 78 70 3d 51 fc 10 be 2c 36 90 bc 44 55 30 bc
       0.05870865 -0.14158751 -0.017603956 -0.010762516
0001c0 72 e4 9a be 17 ae 76 3c 37 cf ba 3a a4 42 59 be
       -0.30252415 0.015056155 0.0014252429 -0.21216828
0001d0 36 08 ad 3d 7e a0 b3 bd 65 c3 ce bd f3 81 ca bc
       0.08448832 -0.08770846 -0.10095862 -0.024720168
0001e0 16 25 97 bc e8 2c 94 3c 45 04 7f 3d 92 38 5d be
       -0.018450301 0.01808782 0.06225993 -0.21603611
0001f0 4c 49 60 bd 35 10 b1 3d 1b ce 2a bd 2e f8 14 3d
       -0.0547574 0.08645669 -0.041700464 0.036369495
000200 e5 76 be bd 68 28 48 bd 02 30 83 3c 99 f2 1d bd
       -0.09300021 -0.04886666 0.016014103 -0.038561437
000210 6a 88 9f 3d d8 14 1a be 17 9d 1b bd 29 08 8e 3c
       0.07789691 -0.15047014 -0.03799161 0.017337875
000220 7f e6 b3 3d a0 f8 4b be e2 a5 bc 3d 61 4c 84 bd
       0.08784198 -0.19919062 0.09211327 -0.064598806
000230 61 aa f8 bd f5 b7 63 bc fd 95 d1 3c aa 7f 64 bd
       -0.12141872 -0.013898839 0.025584215 -0.055785812
000240 fc 6b 9c 3d 55 30 7c 3b f1 e8 39 3d 47 9d bf 3c
       0.07637784 0.0038480957 0.045388166 0.023390425
000250 43 b2 ff 3c 02 1f 08 bc d0 81 ab bc 21 6a ea 3b
       0.031212931 -0.008308174 -0.020935923 0.007153765
000260 d9 8c f8 bb e8 67 c2 bd a3 6a 97 bc 0a f8 90 bd
       -0.0075851497 -0.09492475 -0.018483466 -0.0707856
000270 7f b7 98 bd 84 cb 81 bd a3 5a ca bd 16 34 47 be
       -0.07456874 -0.06337646 -0.09880569 -0.19453463
000280 c2 bd 69 be f9 99 d5 bd 33 dc 05 bd e6 82 a8 3c
       -0.22826293 -0.104297586 -0.0326807 0.02057023
000290 f0 14 fb bd 17 b1 cf bd 40 93 8e bd 16 11 b7 bd
       -0.12259853 -0.10141199 -0.069616795 -0.08938806
0002a0 9d b2 3f 3d 12 29 cc bd 31 6e 16 3d f4 51 07 be
       0.0468012 -0.09968771 0.03672618 -0.13214856
0002b0 29 b6 35 3d 8c 44 6e bd 1f a7 d6 bc 54 24 2b bd
       0.044363175 -0.05817084 -0.026202736 -0.041782692
0002c0 16 90 0b bc 1c e9 0a bd 58 61 12 3e b9 cb d8 3d
       -0.0085182395 -0.033913717 0.14294946 0.10585732
0002d0 32 67 13 be 19 e6 02 bd dd 3a 4f be b5 eb d7 bd
       -0.14394835 -0.03195772 -0.20237298 -0.105430044
0002e0 19 05 57 bd 3d 16 01 3d e1 4a af bc f8 23 ec 3c
       -0.052495096 0.03151535 -0.02139801 0.028825745
0002f0 d4 69 de bd 59 4b ab bc 03 16 66 bc 23 f8 23 3e
       -0.10860029 -0.020909952 -0.014043334 0.16012625
000300 04 29 a5 bd 53 7d 4d be 09 c0 d9 bd e5 3d 01 be
       -0.08064464 -0.20067339 -0.10632331 -0.12621267
000310 a7 5c 6c bd df 62 d7 bd 1e ae 65 bb 51 ab c8 bc
       -0.057705548 -0.10516905 -0.003504641 -0.024495753
000320 81 e1 84 3c ef b2 74 3e 32 ba f1 3b 29 2d 18 be
       0.01622081 0.23896383 0.0073769325 -0.14860977
000330 ed 18 25 3e 48 ef 84 bd 85 cd eb bc 8d d1 c7 bd
       0.1612279 -0.06490952 -0.028784523 -0.097567655
000340 00 78 0a 3d 5e 42 88 bd 81 f7 2d 3d c9 9b c5 3c
       0.033805847 -0.066532835 0.042472366 0.024122136
000350 e9 64 0a bc 76 36 61 bc 7f ad 90 3d 1f b7 7d bb
       -0.00844691 -0.013745895 0.07064342 -0.0038713885
000360 03 e8 8d 3d 6e 95 4a be a8 d6 73 be bf 66 cb bd
       0.06929018 -0.19783565 -0.23812354 -0.09931707
000370 c3 e1 1b 3e 39 11 b7 3d 0f f6 13 3d 64 70 e4 bd
       0.1522284 0.08938832 0.03612333 -0.11154249
000380 bd ea 38 be e2 4d cc bd 83 2c 75 3d bf 58 34 3b
       -0.18058296 -0.099757925 0.059856903 0.0027518717
000390 49 e8 54 be 1b 20 44 be e3 7e 82 3d 07 05 a6 bd
       -0.20791735 -0.19152872 0.06371858 -0.08106428
0003a0 b6 0a 65 bd bb b6 9b bd d8 19 39 3d d6 73 d3 bd
       -0.055918418 -0.076032124 0.045190662 -0.10324828
0003b0 8b 19 a1 3d c8 fc 92 bc c9 4d 9a bc 8d 49 28 be
       0.078662 -0.017942801 -0.018835919 -0.16434307
0003c0 b6 01 98 bd 89 0e 61 3c 1f 3f 91 3d 3b 7a 83 be
       -0.07422201 0.013736376 0.070921175 -0.25679192
0003d0 e4 f7 18 be f1 dd 52 be 0e 3c 2b bc 2a 60 24 be
       -0.14938313 -0.20592476 -0.01045133 -0.16052309
0003e0 ea bc 78 bd af d7 81 bd 18 d6 42 bd c5 a2 55 bd
       -0.060727037 -0.063399665 -0.047567457 -0.052157182
0003f0 e7 92 ad bd 62 0b 35 bd 74 17 56 bd 0f 49 df bc
       -0.08475285 -0.04420031 -0.05226846 -0.027256517

q1_.2.bias f4 [256]
000000 5b a5 29 3d 1f ac 37 bf c5 d5 41 3e 99 34 2f 3a
       0.04141746 -0.7174701 0.18929203 0.0006683558
000010 4e a1 a5 be 04 c2 12 bf 98 32 98 be 10 9e b1 3d
       -0.32349628 -0.57327294 -0.297261 0.08672726
000020 99 42 9b 3d bd 23 ee 3b 6c 5a 86 be c7 92 fe 3d
       0.07581062 0.007267444 -0.2624086 0.12430339
000030 e9 6b 3a 3f ce 08 1f be ae a6 05 be d3 b8 4d 3d
       0.7282091 -0.15530702 -0.13051865 0.05022509
000040 c9 96 e2 3e 92 fd 1a be b5 4e a0 be 16 4f d7 3d
       0.44255665 -0.15135792 -0.3131005 0.10513131
000050 14 be 08 be 97 a8 93 3d 53 e7 21 be 02 77 a9 3d
       -0.13353759 0.0720989 -0.158109 0.08274652
000060 4c 1f b2 bd de b0 8e be b8 10 1f bf 66 0b c0 3c
       -0.08697376 -0.27869314 -0.62134886 0.023442935
000070 79 d1 dd 3d 03 00 d3 3d 35 61 21 bf dc 84 f3 3d
       0.10830969 0.103027366 -0.6303895 0.11890575
000080 72 44 4d bd 93 f7 f3 be b9 3f 90 3d 85 e5 37 bf
       -0.050114103 -0.47649822 0.07043404 -0.71834594
000090 bb de 07 bc 06 17 2d 3c ee f3 0e 3e 2a 96 6f 3d
       -0.008292849 0.010564571 0.1396024 0.058492817
0000a0 73 fb 47 bd 79 14 67 3d c5 07 83 3e 86 81 08 bf
       -0.048823785 0.05641601 0.25591865 -0.5332264
0000b0 00 a1 9e 3b ee 04 34 be 02 56 72 3d 91 c4 91 3d
       0.00484097 -0.17580006 0.059164055 0.0711757
0000c0 4e b2 8f bc 28 bf 35 bf c5 97 16 bc bd 79 99 3d
       -0.017541077 -0.70994806 -0.009191458 0.07493923
0000d0 06 41 27 be 85 fc 2e bf a1 3a 32 be fd 5d 82 be
       -0.16333398 -0.68354064 -0.17405178 -0.25462332
0000e0 7c 7f a6 be b1 a9 53 3e 6a 18 3d be 73 13 9a be
       -0.32519138 0.20670201 -0.18466344 -0.30092964
0000f0 5f 2b 17 3f 5a d5 81 3f 5f 0c 69 bf 6f 61 6e bf
       0.59050554 1.0143235 -0.910345 -0.9311742
000100 1b 39 90 3d 25 11 82 bf cd f9 02 3e 43 76 54 3e
       0.07042142 -1.0161482 0.12790604 0.20748238
000110 bd 03 2c bf db 1a 31 bf 9e 6a ba 3e 31 4d 00 3f
       -0.67193204 -0.69181603 0.36409467 0.50117785
000120 e9 9d fd b8 7c 41 a0 bf 60 78 f6 3c 37 45 64 bd
       -0.00012093393 -1.2519984 0.030086696 -0.05573007
000130 4e 99 a7 3d 5a 50 75 3d 61 df 7e be 50 36 8d 3e
       0.081835374 0.059891082 -0.248899 0.275805
000140 48 f8 1c bf e8 e3 b8 3d 46 45 fb be 7d 59 7b be
       -0.6131635 0.09027845 -0.4907629 -0.24545856
000150 c3 ad 85 bc 72 85 5e be d8 ed a0 3d 23 e9 41 3e
       -0.016318208 -0.21730593 0.07857865 0.18936591
000160 6c 53 e7 3c 03 a4 ea bd 3f c9 86 bc ed 9b df be
       0.02823802 -0.11457064 -0.016453383 -0.4367365
000170 d1 53 ff 3d 68 81 52 3e 91 01 ab be 77 06 76 bc
       0.124671586 0.20557177 -0.33399633 -0.01501619
000180 e6 e4 ac be 98 46 1e 3f 80 a7 15 3f 55 56 bd be
       -0.33768386 0.6182647 0.5845871 -0.3697993
000190 82 cf 3b bf ab af 2a 3f e3 3d 96 3d 7a e5 a4 3e
       -0.73363507 0.666743 0.07336023 0.32206327
0001a0 3b 4d 80 3d ee c0 a9 3d 6a f3 07 bf 80 b2 cf be
       0.062647305 0.082887515 -0.53105795 -0.40565872
0001b0 25 02 46 be 5a 2a 7f 3d 20 da 93 3e fa c6 59 bf
       -0.19336756 0.06229625 0.28877354 -0.8506924
0001c0 6d d2 02 bf 18 5c 49 3c 3a 56 f8 3c 8e 0b 2a bf
       -0.51102334 0.012290023 0.030314554 -0.6642388
0001d0 56 68 f2 3e 99 0b 96 3c 7a a7 8b be f5 6b 1c 3f
       0.47345227 0.018316077 -0.27276212 0.6110223
0001e0 96 20 24 3d bf e6 68 3e df e0 33 3d d7 36 90 3d
       0.04007014 0.22744273 0.043915626 0.0704171
0001f0 d4 35 74 3d c5 3e 1c bf d7 1f 90 bd 8d 89 81 3d
       0.059621647 -0.6103328 -0.07037323 0.06325064
000200 be 2d bc 3c 40 47 05 be d4 a6 f8 3d 06 58 37 bf
       0.02297103 -0.13015461 0.12141195 -0.7161869
000210 11 cb 22 be 94 40 91 be 47 b5 57 bb 70 45 c2 bd
       -0.15897776 -0.28369582 -0.0032914446 -0.094859004
000220 0d 0a 72 3d 03 96 8b be 3b e6 9c be 10 97 96 3d
       0.059091616 -0.27262887 -0.30644402 0.07353032
000230 09 f8 6a bd 31 87 a4 bd 0d ec 0a 3f 6a 2a c1 bd
       -0.05736545 -0.08033598 0.54266435 -0.09431918
000240 cd af c8 3d 3f f5 48 3f 8f 69 71 3d f0 2a 86 3d
       0.09799156 0.78499216 0.05893856 0.065511584
000250 26 36 20 3e 82 df 0a bf 01 11 2c bd a8 f5 84 be
       0.15645656 -0.54247296 -0.042008404 -0.2596867
000260 4c 71 5a 3d 3f 06 17 3f f2 94 0b 3d 30 6b 31 3d
       0.053330705 0.58993906 0.034077592 0.043315113
000270 a9 b3 2d bf 49 8b a4 3d e5 30 9f 3d 58 cc a4 be
       -0.67852265 0.08034379 0.07772998 -0.32187152
000280 cc 8e 61 3c 9d d2 d9 be 9b 7e e6 3d 1d 03 70 3d
       0.013766956 -0.42543498 0.11254617 0.05859672
000290 e0 59 84 be 2e 49 2b be d7 64 d7 3d 37 51 ba 3e
       -0.2584982 -0.16727135 0.105172805 0.36390087
0002a0 18 88 98 bc 62 75 f4 bd ba 63 08 3e bf ba 1a 3f
       -0.018619582 -0.119364515 0.13319293 0.604412
0002b0 e2 15 c3 3d e2 fe 26 bc 24 8e 24 bd 2c 55 b4 be
       0.09525658 -0.010192605 -0.04017462 -0.3522123
0002c0 e6 73 0e bf b5 0c 18 bd 28 b7 1a bd f0 0b ce be
       -0.55645597 -0.037121493 -0.037772328 -0.40243483
0002d0 af 8a 08 3e e6 65 93 3d 9c ca 01 3c e5 a5 97 bd
       0.13334154 0.0719717 0.007921841 -0.07404689
0002e0 23 6a f2 be a9 b2 35 bf 7c 19 65 3d f2 19 4a 3d
       -0.473466 -0.7097574 0.055932507 0.04934115
0002f0 a3 39 ea 3d 52 e3 71 3d 98 3d f0 3e 8e a8 d0 3e
       0.114367746 0.05905468 0.46921992 0.40753597
000300 d3 9b 24 bf 56 52 14 3f 90 7b d2 3d c1 6d 27 be
       -0.6430027 0.57938135 0.10277474 -0.16350462
000310 59 15 e5 be 26 bf af 3d 68 10 28 3d 6e d1 5b 3d
       -0.4474285 0.085813805 0.04103127 0.053666525
000320 fc c9 9c be 51 a9 e7 be 08 d9 1f bf cd d9 13 3f
       -0.30622852 -0.45246366 -0.6244054 0.5775421
000330 3a 1c 0b 3d 44 18 87 bf 05 d6 07 bf 15 39 87 bf
       0.033962466 -1.055428 -0.5306094 -1.0564295
000340 5e 63 05 bf ce 11 ff 3e 37 c3 e5 bc ae 82 0c bf
       -0.5210475 0.4981827 -0.028047187 -0.548869
000350 96 66 bb 3c f1 b4 0a 3e 20 c1 47 3f 12 82 9f 3e
       0.022876065 0.13545586 0.7802906 0.31153923
000360 81 f2 42 3f e8 4c cd 3d 94 d9 ef 3e e5 7e 97 be
       0.7615128 0.10024434 0.46845686 -0.29589
000370 3c cd 5c bd eb ed 8a 3d d0 98 0f be a3 fb 8a be
       -0.053906664 0.067836605 -0.14023137 -0.2714511
000380 58 a1 5e 3d 6b 40 2a bf ec 43 02 3e 66 b0 0f 3f
       0.05435309 -0.66504544 0.12721223 0.5612854
000390 b1 66 91 bd c2 99 e0 3d e5 32 02 bf d1 57 5a 3f
       -0.07099665 0.10966827 -0.5085891 0.8529025
0003a0 98 01 09 3e 7a 77 d1 3d b4 18 07 be f8 dc 26 bf
       0.13379514 0.102278665 -0.13193017 -0.6518092
0003b0 fc 4b fe 3d 6d 33 a1 3e cf f9 c3 bb 39 66 0e 3f
       0.124168366 0.31484547 -0.0059807072 0.5562473
0003c0 80 80 53 bb 30 79 e7 be 8c be 38 be 04 56 5e bf
       -0.0032272637 -0.45209646 -0.18041438 -0.8685
0003d0 d1 90 1c be 47 49 7d 3d 61 d4 60 3d 25 fc 1a 3f
       -0.15289618 0.06183746 0.05489004 0.6054099
0003e0 88 5d 60 bf 28 fd af 3e 58 99 02 3f c4 b0 39 3f
       -0.8764272 0.3437283 0.51015234 0.7253535
0003f0 90 26 87 bd 2a ee 51 3d ab e1 77 bd 94 cd 10 3f
       -0.06599152 0.05125252 -0.060517948 0.5656369

q1_.4.weight f4 [1, 256]
000000 6c 60 34 bb f3 8f b4 bf 43 ac eb 39 75 04 8b ba
       -0.0027523292 -1.410643 0.00044951038 -0.0010606187
000010 1c 6d 9e be 24 b1 09 bf 72 48 54 bf 39 e6 dc 3b
       -0.3094262 -0.5378592 -0.8292304 0.006741312
000020 8b f3 ea bb 09 a5 00 3c 78 48 c1 bf 94 9c dd 3e
       -0.007170146 0.007851847 -1.5100241 0.43283522
000030 81 db d4 3d 13 26 db be 10 98 b3 3f 8f ff 34 bc
       0.103934295 -0.42802486 1.4030781 -0.011047258
000040 d3 80 16 3e 4f 8f 70 bf 92 46 25 bf 64 0e ec be
       0.1469758 -0.9396867 -0.64560807 -0.4610473
000050 49 a0 8f bf 25 97 fe bc ae 76 91 be a5 0f 07 3b
       -1.122079 -0.03107793 -0.28410858 0.002060869
000060 01 a2 fe be e5 db 9d bf 7e 62 45 be 2a 89 58 be
       -0.49732974 -1.2332731 -0.19275853 -0.21146074
000070 2a bf ef bb 1b 0a 47 bb 3a 3a f0 be 0a 42 8a ba
       -0.0073164897 -0.0030371014 -0.46919423 -0.0010548246
000080 da d0 8c bf 2f 7d 6c be 8c 80 be 3b 67 b8 7d be
       -1.1001236 -0.23094629 0.005813664 -0.24777375
000090 5f a3 2f 3f d4 9e 46 3c d7 b3 18 3c 6d 3a c8 38
       0.6860866 0.0121228285 0.009320221 9.547626e-05
0000a0 d7 2d 19 bf c3 08 0e bb e3 36 15 3f 0a f8 81 be
       -0.5983557 -0.0021672703 0.58286875 -0.2538455
0000b0 5b 6a c8 be 86 d0 02 c0 70 58 57 bb 2c 2f bc 3f
       -0.39143643 -2.0439773 -0.003285911 1.4701896
0000c0 a2 81 e0 3c cb 9a 8b be 42 1d b2 bf ef ef 03 3e
       0.027405564 -0.27266535 -1.3915179 0.12884496
0000d0 de 4c 56 c0 0f 53 c9 be c4 e1 14 be 52 d9 34 bf
       -3.3484416 -0.3932118 -0.14539248 -0.70644104
0000e0 4e 2b b8 be 5a 65 cc be 32 60 b6 bf c8 0e 7d bf
       -0.3597054 -0.39921075 -1.4248106 -0.9885068
0000f0 94 4b b5 3d 33 9d a8 3e 69 ca 82 be 13 92 99 be
       0.08852306 0.32932433 -0.25545052 -0.29994258
000100 d5 c0 17 bc e8 de db be d3 30 61 bb 98 70 49 bf
       -0.009262283 -0.429435 -0.0034361377 -0.7868743
000110 f0 a1 d3 be d6 c5 87 be 84 95 02 3e 7f 76 70 3c
       -0.41334486 -0.26518124 0.12752348 0.014676689
000120 3e 22 94 bb ab 71 bc be 6d 9f d9 3b 19 3b 82 bb
       -0.0045206835 -0.36805472 0.0066413195 -0.00397433
000130 fa 8f e6 3f 68 9c cf 3e f2 60 1b c0 0d 61 b8 3a
       1.8012688 0.40549016 -2.427792 0.0014067009
000140 e6 d7 08 bf 67 c8 33 3b 06 07 d5 be fe 53 a8 be
       -0.53454435 0.0027432682 -0.4160692 -0.3287658
000150 ff a8 84 ba 6b 48 40 bf bc 11 11 bc f5 29 97 3e
       -0.0010121166 -0.751105 -0.008854326 0.29524198
000160 e3 54 6b bd 73 12 68 3f 24 3b bd bb 30 66 f7 be
       -0.057454 0.9065315 -0.0057748724 -0.4832015
000170 0e 28 2e 3f 9e eb 2f 40 d7 e5 11 bf 7c ed c7 ba
       0.6802987 2.748756 -0.5699133 -0.0015253271
000180 71 a9 98 be 1c fe 8c 3d 32 d2 cf 3e 14 32 4b be
       -0.29816774 0.06884405 0.40590054 -0.19843322
000190 82 5a 92 be 3b 9d d9 3d 53 cd 86 3b 66 0b a2 be
       -0.28584677 0.106256925 0.004113832 -0.3164932
0001a0 bf ab f2 3b fd a3 dd be c4 34 83 be 28 dd 1f bf
       0.0074057276 -0.43289176 -0.25626194 -0.6244683
0001b0 d0 83 d0 be d3 f4 a2 ba 62 b6 29 bb 29 4e 8a bf
       -0.40725565 -0.0012432582 -0.0025896062 -1.0805103
0001c0 08 12 96 be 5e f5 8a bc ee a7 97 3b 57 b4 b1 be
       -0.29310632 -0.016962703 0.004628173 -0.347079
0001d0 f0 94 86 3e ec 56 f2 3c 4d c8 01 bf 66 f2 8a 3d
       0.26285505 0.029582463 -0.5069626 0.06784515
0001e0 fb c8 79 3c 9f 46 56 b7 0d 3e 0d 3c 57 22 16 3c
       0.015245671 -1.2771837e-05 0.008620751 0.009163461
0001f0 2b 47 88 bf fd 47 aa be 27 35 26 bf d1 ec 2d be
       -1.0646719 -0.33258048 -0.64924854 -0.1698487
000200 c5 0e 87 3b 8a 0e 1c be df 83 c9 be e4 7f e0 bf
       0.0041216337 -0.15239921 -0.39358422 -1.7539029
000210 33 1c ca be bf ea a7 be 4c 35 a3 bc 1d 3e 81 3f
       -0.3947464 -0.32796285 -0.019922875 1.009708
000220 8d 57 a3 3f 35 75 95 be a2 69 a8 3f ff e9 de 3a
       1.2761093 -0.29190984 1.3157237 0.0017006992
000230 2c c8 e2 be 3e 4b 91 be 32 f9 6a 3d 36 62 2c 3f
       -0.44293344 -0.28377718 0.057366557 0.6733736
000240 ad 78 17 bc d4 82 28 3e a0 a3 63 3f b0 1d aa 3f
       -0.00924508 0.16456157 0.88921547 1.329031
000250 ba 6e 29 3f ce 58 54 be 67 04 03 bf 85 ff 65 be
       0.6618458 -0.20737001 -0.5117859 -0.22460754
000260 1f 39 0d 3b 85 78 5c 3d 03 bc 0a bb 79 4d d0 bb
       0.002154894 0.053825874 -0.0021169193 -0.0063568917
000270 c6 ea f7 be f6 73 62 3b 6d f2 15 bc d6 0a b7 be
       -0.48421305 0.0034553981 -0.009152037 -0.35750455
000280 19 eb 9b 3f 61 73 95 3f dc 28 48 bf 3a 4e bc ba
       1.2181121 1.1675836 -0.78187346 -0.0014366575
000290 2c bd 15 be 7b 8e c1 be 70 87 09 3b 09 2b c4 3d
       -0.14622945 -0.37804016 0.0020985268 0.09578521
0002a0 29 76 d6 be 7d 88 a9 be 14 49 12 3c ec 7a 27 3e
       -0.41887024 -0.33111945 0.008928556 0.16355485
0002b0 70 40 3f bd 5f be 8c ba 04 59 86 bc b0 f8 28 c0
       -0.04669231 -0.0010737887 -0.016399868 -2.6401787
0002c0 3d 7a 9a be 1e c4 a4 bb 00 e6 1b 3c 9a 6c e7 be
       -0.30171385 -0.005028262 0.0095152855 -0.45200044
0002d0 a6 cf 32 bf 5e 58 95 3b 0d a3 83 bf c5 88 30 bd
       -0.69848096 0.0045576533 -1.0284134 -0.043099184
0002e0 2a 91 5b c0 6c 62 56 bf ab 8e 9b 3f 88 c0 d0 bb
       -3.430735 -0.8374393 1.2152914 -0.0063706078
0002f0 80 e2 7c bf 7e a4 c0 ba 2d e7 13 3e 67 85 ec 3d
       -0.9878311 -0.001469746 0.14443655 0.11548882
000300 7b d2 f2 be c6 07 65 bf bf 1a b5 bb 4b cd 8d be
       -0.4742621 -0.89464986 -0.00552687 -0.2769569
000310 03 47 01 bf 93 ca 48 3f b5 f3 82 3b 1c bf 7c 3e
       -0.5049898 0.78434104 0.0039963373 0.24682277
000320 39 af 96 3f e0 1e 95 be 2d de c5 be ee 56 f9 3d
       1.1772224 -0.29125118 -0.3864607 0.12174784
000330 ce a8 9a bb 81 01 48 bf be 7c 9e be 73 f9 de be
       -0.00471983 -0.78127295 -0.30954546 -0.4354969
000340 12 91 28 bf e1 8d ae 3d 62 ca 7b 3f 9f 6d 00 bf
       -0.6584636 0.08523155 0.98355687 -0.5016727
000350 e2 5b d2 bc e5 8a b3 be 8c a3 70 3e e9 3b c6 be
       -0.025678579 -0.35066906 0.23499888 -0.38717583
000360 fd 9b 4d 3e 44 3a f3 ba d6 d3 92 3e cb f5 94 be
       0.20079036 -0.0018556793 0.28677243 -0.29093775
000370 be f3 ca bc c0 df 12 bc 0d ca 1a be 24 f8 8c be
       -0.024774428 -0.008964479 -0.15116139 -0.27533066
000380 8f 35 0c 3c 99 f4 b7 be 71 97 be be fd 1a de 3d
       0.008557691 -0.359288 -0.37224916 0.10844991
000390 2e aa 9c be e1 b8 19 bf 46 85 88 bf d1 b8 65 3e
       -0.30598587 -0.6004773 -1.0665672 0.22433783
0003a0 72 3e 8b be f9 88 4a 3b a5 07 ec bf ec 81 4b bf
       -0.2719608 0.0030904396 -1.8439833 -0.7949512
0003b0 2c cf 0f 3c 5c d7 26 3e fe 19 83 3c 31 78 f0 3d
       0.008777421 0.1629309 0.016003605 0.11741675
0003c0 86 37 19 ba 8e 02 1e bf aa 62 a1 bf ec 41 52 bf
       -0.00058447605 -0.6172265 -1.2608235 -0.8213184
0003d0 2e 1a 70 3f c5 fa 83 bb 61 31 01 3c 5a 33 92 3d
       0.9378995 -0.004027697 0.007885308 0.07138701
0003e0 e5 13 83 bf 83 07 16 3f 48 a4 01 3e fe fa 2d 3f
       -1.0240446 0.5860521 0.12660325 0.6796111
0003f0 d8 1c 37 3f 63 12 36 bd 86 8c 63 bc da f9 f7 3d
       0.7152839 -0.04445113 -0.013888484 0.12108202

q2_.0.weight f4 [256, 23]
000000 11 50 f4 be 9e e2 87 3e 7f a1 af 3e d4 b5 e4 3e
       -0.47717336 0.26540083 0.343029 0.44669974
000010 11 38 30 bf c9 6c e3 3d 08 e6 58 3e ee b3 87 3e
       -0.6883555 0.111047335 0.211815 0.26504463
000020 45 25 14 3e 1f 82 07 be c3 52 13 bf ee 65 a5 be
       0.14467342 -0.13233231 -0.5754816 -0.3230433
000030 3d 5b 02 bf 6f 6f 8a 3e a4 f8 a6 be 3c 70 ad bc
       -0.5092047 0.27038142 -0.32611573 -0.021171682
000040 2a 88 c7 3d 9c a1 4d 3e c2 a5 f6 be fb bb f0 bd
       0.09742768 0.2008118 -0.48173338 -0.117546044
000050 05 02 85 3e 82 eb 2a be 33 07 99 3d c7 12 4a 3f
       0.25978103 -0.16691402 0.07472076 0.789349
000060 13 be 26 3f 36 6a 15 be f2 6b 95 3e 9b 74 05 be
       0.6513378 -0.14591298 0.29183918 -0.13032763
000070 22 1f 39 bf e9 60 94 ba f2 60 c0 bd 20 c1 fc 3c
       -0.7231313 -0.0011320385 -0.09393491 0.030853808
000080 7a d6 53 be 3f ff 5a be 4d a5 3f bf e0 2d 0e bf
       -0.20687285 -0.21386431 -0.74861604 -0.5553875
000090 21 1c fd bc db b7 c1 3e 3c 27 51 be 86 22 d6 bd
       -0.030897202 0.37835583 -0.20425123 -0.104558036
0000a0 90 c0 b2 3e 8f 9c 6d be cd db 4f be 07 bc a8 bb
       0.3491254 -0.23204254 -0.20298691 -0.0051493677
0000b0 8a 78 60 be 53 1a 96 bd 18 d3 3b bf a4 ae 20 c0
       -0.21920982 -0.0732924 -0.7336898 -2.5106592
0000c0 79 ba c1 3d 87 92 aa bd 2b fe 29 be 30 fb 94 be
       0.09459395 -0.08328729 -0.16600864 -0.2909789
0000d0 2b 37 83 bd 68 8b 0d bd dd d5 8b bd cf 10 fd be
       -0.06407007 -0.034556776 -0.068279006 -0.49426886
0000e0 6e f1 03 bf 5f 1d 39 bf aa 1f 30 bf ea 10 2f bd
       -0.5154027 -0.7231044 -0.68798316 -0.04274074
0000f0 98 27 f1 bc be e1 81 bb c8 54 a0 bc 3b 40 20 be
       -0.029437825 -0.003963678 -0.019571677 -0.15649502
000100 73 e4 f4 be a8 4c 37 bd db 52 9c 3e ca 86 0d bd
       -0.47830543 -0.04475084 0.30531964 -0.034552373
000110 15 e0 4a bc d9 ed c6 3d f7 5b 93 bf 2e ce a1 be
       -0.012382527 0.097133346 -1.151244 -0.31602615
000120 42 08 1e be 97 26 56 3e 06 af 7b bd b8 19 ab bc
       -0.15432838 0.20913158 -0.061446212 -0.020886287
000130 c1 bc c8 3e 9c c7 b4 be c1 05 25 bd 24 63 b3 39
       0.39206508 -0.3530854 -0.04028869 0.00034215406
000140 22 18 db be e9 18 aa 3c 61 1e 78 bd 35 0b dc bd
       -0.4279185 0.020763831 -0.060575847 -0.10744325
000150 0d 92 a1 3c d7 55 1e 3e ba 41 9d be 28 09 39 bf
       0.019722963 0.15462433 -0.30714208 -0.72279596
000160 fd 05 ae 3d 74 a2 23 3e 4c 10 fe 3d 0d 6d 52 bb
       0.08497236 0.1597994 0.12405452 -0.0032108456
000170 32 25 38 bc 34 e9 61 3e 56 95 56 3e 59 e2 5b 3e
       -0.011239337 0.22061616 0.20955405 0.21473064
000180 20 8e 4b 3d f7 c7 2c bf 53 d6 83 be 53 b6 6f be
       0.049696088 -0.6749262 -0.25749454 -0.23409395
000190 9f 2d 8d 3d fc ea 5d be 40 18 60 3e 1f 6e e1 bc
       0.06893467 -0.2167167 0.2188425 -0.02751833
0001a0 98 f5 22 3e 11 b3 96 be f7 20 f5 3c 3c 1c 14 3e
       0.15913999 -0.29433492 0.029922945 0.14463896
0001b0 ee 05 84 be a6 69 ab be c1 9a 0e 3e d1 e5 9d bd
       -0.25785774 -0.3347904 0.13926221 -0.077098496
0001c0 11 c5 84 3e 81 2f 8f 3d e8 37 11 3e 7a 32 7f 3e
       0.259316 0.069914825 0.14181483 0.24921599
0001d0 ce d4 f9 bd ce ae 00 be 70 58 6f 3e c1 3c dc bc
       -0.121987924 -0.12566683 0.2337358 -0.026884438
0001e0 c3 da d4 be 75 98 e6 bc f1 9c 3e bd 9a c6 37 3f
       -0.41573152 -0.028148869 -0.04653639 0.71787417
0001f0 b9 3d ac 3e 34 63 1b 3e b3 bd 0e bd 9f 30 05 3f
       0.3364084 0.15174562 -0.03484888 0.52027315
000200 7c ad 0d be 1d 06 92 bd 58 31 d3 3d 89 a6 ed 3c
       -0.1383571 -0.07130072 0.10312146 0.029010074
000210 35 06 80 be 65 e0 47 be 41 24 ea bd 0c fd af 3e
       -0.25004736 -0.19519193 -0.11432696 0.34372747
000220 fe 43 c1 bd c2 a2 66 be 65 05 3f bf a8 01 48 40
       -0.094367966 -0.22523025 -0.74617606 3.125101
000230 0e 9c 77 bd e3 ea cb 3c 1c 6d 3e 3b 4b e1 30 3f
       -0.06045156 0.024892276 0.0029056733 0.6909377
000240 02 ec 98 3e e3 ae de 3d 93 41 b2 bc 1b 78 76 be
       0.2986756 0.10873201 -0.021759784 -0.24069254
000250 16 72 99 3e f7 c7 84 bc 58 a4 97 3c d8 72 15 3d
       0.29969853 -0.016208632 0.018510982 0.036486477
000260 9b 35 3c 3f c5 1d c8 3e df 33 fd 3d 84 87 5f 3d
       0.73519295 0.39085212 0.12363409 0.054572597
000270 35 5d d1 bb 47 9f 46 3c cb 8d ae 3d 5d 5a a3 3e
       -0.006389285 0.012122936 0.085231386 0.3190488
000280 e7 87 05 3e e1 bd 58 bf e8 b1 25 3e fe 8d 6f 3e
       0.13040124 -0.8466473 0.16181147 0.2339401
000290 e9 db 45 bf 95 27 64 be 57 45 24 be 5e 14 04 bd
       -0.7728868 -0.22280724 -0.16042076 -0.032245986
0002a0 9f f2 68 3d 62 88 df be 7e c2 be 3d e7 39 d1 3d
       0.056872007 -0.4365874 0.0931444 0.10216122
0002b0 e9 4f b0 3f d6 b1 4d 3f 3f 7b 64 3e 89 4d 8a be
       1.3774387 0.8034948 0.2231264 -0.2701228
0002c0 2d 9c ba 3d 30 24 39 3c a5 81 e8 3e ac 8b fe bd
       0.091118194 0.011300132 0.4541141 -0.12428984
0002d0 47 b7 e5 bd 25 06 87 bd 12 5f f3 3e 85 2d 00 3d
       -0.11216598 -0.06592969 0.4753347 0.03129341
0002e0 d0 e4 0b bf 1d 3b 25 c0 40 41 75 be bc f6 c6 be
       -0.54646015 -2.581733 -0.23950672 -0.38860118
0002f0 f5 72 24 bc 4b 71 0e be a7 de 9e bd c1 62 8a bd
       -0.0100371735 -0.13910405 -0.07757311 -0.06757117
000300 4a d6 9d bd 27 6b 12 bf 75 54 f1 be 6f 21 10 bf
       -0.07706888 -0.5719475 -0.47134748 -0.56301016
000310 c5 ec 1c bf 0b 5f c1 bd 59 75 92 be aa ec bf bc
       -0.6129878 -0.09441956 -0.28605154 -0.02342828
000320 18 8b 66 bd 0d dc 94 be 80 1c 02 be 86 aa fa 3c
       -0.056284994 -0.29074135 -0.12706184 0.03059889
000330 39 b9 f0 3b fd 88 d2 bd 0a 0f 0c bd dd ed d6 bd
       0.007346299 -0.10280035 -0.03419403 -0.104945876
000340 ad 34 f4 3d 3e bb a4 3d 0b 4d 16 bf c4 b5 64 be
       0.119241096 0.08043526 -0.5871131 -0.22334963
000350 55 c4 47 3d e4 65 b2 3d c7 ef 5b 3d d1 64 f5 3e
       0.04877122 0.0871084 0.053695466 0.4792848
000360 c4 12 c5 3d 52 39 a5 bd 3b 31 14 bf d6 32 9c 3e
       0.0962272 -0.080675736 -0.5788762 0.30507535
000370 38 08 e5 3d d5 9a 93 3e 76 4c 83 3d 38 ae bc bd
       0.11183208 0.28829065 0.06411068 -0.09212917
000380 1c 68 17 be 37 c7 1a 3f 67 6c 63 3d 08 88 80 3d
       -0.14785808 0.6046023 0.055523302 0.06275946
000390 6c a6 e4 bd 10 4b 79 bc f4 dc 6e 3f 1d 4f 5c 3f
       -0.11164555 -0.01521565 0.933059 0.8605822
0003a0 e3 05 b8 bd 28 fe e8 3e 8d bc 80 3e 70 9e 5d be
       -0.08985498 0.45506406 0.25143853 -0.2164247
0003b0 ac d5 53 be 21 b5 b6 39 a4 78 60 3e fd 5a a5 3e
       -0.20686978 0.00034848697 0.21921021 0.3229598
0003c0 8f 0a ce be 15 18 55 bd d6 97 26 be 60 7b 1a be
       -0.4024243 -0.05202492 -0.16268858 -0.15086126
0003d0 c4 e9 f8 be e0 83 3e be a9 b0 26 bd 1f d4 bc 3e
       -0.4861585 -0.18604994 -0.04069582 0.36880586
0003e0 93 a8 f0 3d 0d 97 1e bc b1 25 b3 3d f9 09 b7 3d
       0.11750903 -0.009679568 0.087474234 0.08937449
0003f0 d8 c7 cc bd 7e 2b 09 3f 08 30 44 3f f7 46 49 bd
       -0.09999055 0.5358199 0.7663579 -0.049139943

q2_.0.bias f4 [256]
000000 5a 08 9e be 67 3f c7 be c8 c3 f7 3c 03 e3 c0 be
       -0.30865747 -0.3891556 0.030244723 -0.37673196
000010 ec 94 eb 3d 67 b2 d4 3e 0c 78 82 3e 76 66 3b 3c
       0.11503014 0.4154236 0.25482213 0.011438003
000020 7c 71 02 bc fd 74 26 be 3e dc 1c bd 40 35 6a be
       -0.007961627 -0.16255565 -0.038295977 -0.22871876
000030 88 e1 62 be da 25 12 bf 07 af a8 bb 8f 5f e5 be
       -0.22156346 -0.57089007 -0.005147818 -0.44799468
000040 d2 32 95 3e e2 6a 24 bf a4 3f 06 bf af a5 a7 be
       0.29140335 -0.6422559 -0.5244086 -0.32743594
000050 63 bd 7c bf bb 3f aa be 0b dc 30 bf 04 60 84 3d
       -0.9872648 -0.33251747 -0.6908576 0.06463626
000060 00 e5 32 3f 58 83 82 be be 76 16 bf 13 37 a8 be
       0.69880676 -0.25490832 -0.58774936 -0.32854518
000070 0e 61 88 bf a7 9d a4 bf 9c c6 08 bf b5 cb 99 bf
       -1.0654619 -1.2860612 -0.53428054 -1.2015291
000080 82 4f be 3d d6 02 8b bf 41 11 f1 be f5 a9 63 bf
       0.09292509 -1.086024 -0.47083476 -0.8893121
000090 23 42 26 bf 96 3e bb 3d f1 2f 74 3e f8 0e 7c 3f
       -0.64944667 0.09142797 0.23846413 0.9846034
0000a0 ce 44 50 bf 9a 63 48 be 48 e7 8c bf 1a b1 a1 bd
       -0.8135499 -0.19569245 -1.1008081 -0.078951076
0000b0 66 e6 83 bf 0d c6 4a bf 55 32 7f 3e f8 9a d5 be
       -1.0304687 -0.7920845 0.24921544 -0.41719794
0000c0 1e a5 ea be 71 6c c8 3e 8d 9e 88 bf 58 cc 84 bf
       -0.458291 0.39145234 -1.0673386 -1.0374861
0000d0 c3 b2 17 3e 40 6e 72 be 60 aa 1c bf b2 50 f4 bd
       0.14814286 -0.2367487 -0.6119747 -0.11929454
0000e0 c0 5c 14 bf 79 75 2d bf 3b c0 7a 3f 5d c8 73 be
       -0.57954025 -0.67757374 0.9794957 -0.23806901
0000f0 7f 1e ab bf f9 37 37 bf a0 26 2b bf 4c 39 4e be
       -1.3368682 -0.7156978 -0.6685581 -0.20139045
000100 a2 86 b3 be 48 83 81 be d0 f2 91 3e 44 4c 0d bf
       -0.35063654 -0.25295472 0.28505564 -0.551945
000110 74 3b 66 3f ae c4 b7 be 4a c8 0f bf d6 eb 17 be
       0.8993447 -0.35892242 -0.5616499 -0.14836058
000120 63 8d 23 bf 00 49 a3 bf 0a 28 22 bd 3c 52 e9 be
       -0.63887614 -1.2756653 -0.039588965 -0.45570552
000130 be 81 b8 bf 31 6e ce be a8 7f 56 bf 21 20 5f bf
       -1.4414594 -0.40318444 -0.8378854 -0.871584
000140 d1 95 3c bf c2 71 4d 3e c2 05 1e be ac a4 9c bf
       -0.736661 0.20062926 -0.15431884 -1.2237754
000150 8f 8f 91 bf 7a c9 86 bf eb 84 c3 be 47 8a 0e be
       -1.1371936 -1.0530236 -0.38187346 -0.13919936
000160 37 1d e6 3e 2f cf 45 bf 78 d6 1e bf 28 9d 88 3e
       0.44944164 -0.7726926 -0.62046003 0.266824
000170 1d 96 0d 3e 86 35 d9 3e f2 ca 3b 3e 28 06 2e 3f
       0.13826795 0.42423648 0.18339136 0.67978144
000180 8e 02 67 bd 03 d2 23 3e e0 d8 84 bf 4b 95 8e 3d
       -0.05639892 0.15998082 -1.0378685 0.06962069
000190 58 73 70 be b7 06 c1 3e cb b3 9a be 14 95 16 bf
       -0.234815 0.37700436 -0.30215296 -0.58821225
0001a0 25 53 ec be e2 2b a8 bd 65 66 5a 3d 2d 20 bb 3e
       -0.46157184 -0.08211495 0.053320307 0.36547986
0001b0 02 c0 00 be 4b 5a ad bf 9c 27 5c bf a5 af ce be
       -0.12573245 -1.354318 -0.8599794 -0.4036838
0001c0 85 7c 42 3e 60 63 3c be 9f 30 e8 3e 4d 0c 17 3f
       0.18992813 -0.18397284 0.45349595 0.59003145
0001d0 a2 a5 67 3e d9 82 5a bf 8a 08 bd 3e 70 2d 3a 3f
       0.22621778 -0.8535591 0.36920577 0.7272558
0001e0 ae 95 6d bf 8e e4 8a bf 76 d0 74 3d fc e3 85 3e
       -0.9280652 -1.0850999 0.059769116 0.261505
0001f0 04 19 e0 bd a5 5d 36 bf 9d 67 f7 3e 6d d4 11 bf
       -0.10942271 -0.7123664 0.48321238 -0.5696476
000200 e7 ac d6 be 37 31 c0 be c2 bd 03 bf ee 93 a2 3e
       -0.4192879 -0.37537548 -0.5146142 0.31753486
000210 e2 a0 fe 3e 52 87 a7 bf 01 53 13 bf bc 27 73 bf
       0.4973212 -1.3088171 -0.5754853 -0.94982505
000220 3d 7d 9e bf ed 03 6a 3e 17 7d 4a bf 4a a5 9e 3e
       -1.238197 0.2285306 -0.7909712 0.3098548
000230 33 61 db 3d 05 7a b6 bf 8c 3a 8a be ba 96 67 bf
       0.10711899 -1.4255987 -0.26997793 -0.90464365
000240 34 91 a6 be 96 39 17 3f 6c 4d 01 bf ed 44 95 bf
       -0.32532656 0.59072244 -0.5050876 -1.166166
000250 3e e3 9c 3e 9a c5 15 bf 02 bc fa 3e 35 d4 55 3c
       0.30642122 -0.5850464 0.48971564 0.013051082
000260 15 d7 79 be dc e5 b9 bd 42 cd d7 bd 93 bd 0c be
       -0.24398454 -0.09077045 -0.10537197 -0.13744192
000270 36 fe 0a 3e 5c d5 02 3e a6 17 93 bf 7c 10 08 c0
       0.13573536 0.12776703 -1.1491592 -2.1260061
000280 dc f7 1d be f4 3d 6e bc 4f e9 9b 3e 70 f1 9c bd
       -0.15426582 -0.014541138 0.30451438 -0.07663238
000290 44 34 8c be 75 fe 80 3f e8 d4 3b bf 02 3d 51 bf
       -0.27383626 1.0077654 -0.73371744 -0.81733716
0002a0 7f 58 04 bf 99 9d 98 be f8 39 4a bf 56 b0 30 bf
       -0.51697534 -0.29807737 -0.78994703 -0.6901907
0002b0 8c b2 ee be c8 ec 1f 3e 4a bc 90 bf 86 62 13 3e
       -0.46620595 0.15617669 -1.1307461 0.14393052
0002c0 fd de b2 bf 3c ba 40 3e a3 a9 66 bf 2c 16 eb bd
       -1.3974301 0.18821043 -0.90102595 -0.11478838
0002d0 ac 71 80 bf fe 11 8b bd ca f0 ab be 83 e4 6f 3d
       -1.003469 -0.06790541 -0.33582145 0.058567535
0002e0 ee e8 2d 3f 2d ee 92 bf 96 a8 43 bf 59 7f 02 bf
       0.6793355 -1.1478935 -0.76429117 -0.5097557
0002f0 88 55 0b bd bf 2b 8d bf b5 0e 0d 3f 7d c8 0f 3f
       -0.034017116 -1.1028975 0.55100566 0.56165296
000300 17 35 04 c0 de 0a 4d bf e9 d6 3b 3e 19 26 fe bf
       -2.0657403 -0.80094707 0.183437 -1.9855376
000310 8d 35 20 bf de 62 13 bf 67 6d 46 bf 88 4d 49 3e
       -0.6258171 -0.57572734 -0.77510685 0.19658482
000320 69 5d 18 bf a3 42 87 3e 13 bb 2c be 60 50 78 bf
       -0.5951753 0.26418027 -0.16868238 -0.9699764
000330 3c 6e 8f bf 21 81 3b bf 27 61 37 3c e0 f1 31 bf
       -1.1205516 -0.7324391 0.0111925965 -0.69509697
000340 a7 86 0c bf 92 60 9f bd bb 5b 99 be cd 3b 4d be
       -0.54892963 -0.07782091 -0.29952797 -0.20042343
000350 6f 62 fa be 28 17 a4 bf 37 43 90 be 32 9c 23 be
       -0.48903224 -1.2819567 -0.2817628 -0.15977553
000360 e4 fb b3 be 90 f3 3e be 79 0d c7 be ad 0b f1 bd
       -0.35153115 -0.18647599 -0.38877466 -0.11769805
000370 9c d6 6d bf 8b 5b 2d 3f bb 92 d1 3e c8 52 30 3d
       -0.9290559 0.6771781 0.4093226 0.043047696
000380 2d 61 87 3e 38 5a aa be 3d 34 02 bd b0 03 86 bf
       0.26441327 -0.33271956 -0.0317881 -1.0469875
000390 62 da 67 be 08 42 99 bf 1a 2d 42 3e fe 7c 28 bf
       -0.226419 -1.1973276 0.18962517 -0.6581572
0003a0 e3 f3 2d bd 8f 5b 0d bf 36 34 e9 3d 73 36 e6 3e
       -0.042468917 -0.5521783 0.113869116 0.44963416
0003b0 5f 96 ba 3c 0f 02 35 3e 91 a2 c0 be 2c 00 83 bf
       0.02277678 0.17676567 -0.37624028 -1.0234427
0003c0 a9 46 1d bf 15 29 bf be be a6 a9 3e d2 57 02 bc
       -0.61435944 -0.3733603 0.33135027 -0.007955508
0003d0 7e bd cd bf 01 e2 13 bf 79 50 64 3f 49 f5 1b bf
       -1.6073453 -0.5776673 0.8918529 -0.6092115
0003e0 24 fb c1 be 65 23 43 3e c6 44 89 3d 37 68 8f be
       -0.37886918 0.1905647 0.067025706 -0.28009197
0003f0 22 e9 30 bf 9f d7 2a 3f 0f cb d7 3d ab 1f ce be
       -0.6910573 0.6673526 0.10536777 -0.40258536
