online_weights/spot_hopper_medium-replay/actor_target_s1000000.pth (torch, 281031 bytes, 6 tensors)

actor.0.weight f4 [256, 11]
0.14513665 -0.1386708 0.5774666 -0.008366574 -0.3327333 0.3630317 -0.4269548 -0.16667657
0.25076637 0.12608333 -0.08080185 -0.2286321 0.1553275 -0.010090271 -0.008092093 0.20952041
0.14794777 -0.010648438 0.15818949 -0.20588502 -0.24880758 -0.56175536 0.009221267 0.13057673
0.29828912 -0.03198917 -0.10424556 0.3317174 -0.14497457 0.07415213 -0.16311444 -0.15377785
-0.48367798 0.26419628 0.102275245 0.39605162 0.14129327 0.058784157 0.15086803 -0.018886372
0.30434275 -0.1175569 -0.17329511 -0.05787744 -0.2979109 -0.10631957 0.29954568 -0.17578329
-0.1406069 -0.23886757 -0.058043927 0.52318627 -0.69460976 -0.20108142 0.16365393 0.20713152
-0.15103695 1.1851193 0.23223701 -0.23490715 0.02891309 0.7111659 0.28888217 -0.39747488
-0.22498201 -0.14262858 -0.3420224 -0.2512519 -0.13188773 -0.13312487 0.00641906 0.11945783
-0.045419235 0.10461196 -0.10455066 -0.055321004 0.51616 -0.5795073 0.32926756 0.7608392
0.10760971 -0.51435006 -0.21773644 -0.013445492 -0.012788535 -0.43398446 0.04689096 0.95937794
0.16133408 0.015325735 -0.10344999 -0.050354775 -0.07562175 0.019612875 -0.3923333 -0.21798077
0.029310076 0.014627225 -0.0727614 -0.028222824 0.2835551 0.25517386 0.5816246 -0.21678504
-0.54591185 0.5678296 -0.09445163 0.2996669 -0.55152225 0.03217181 -0.61992925 0.69832647
0.2840718 0.5537833 -0.028839462 0.089511834 0.107629016 0.1349717 0.00031116186 -0.47468787
0.10986388 0.087872356 0.115206 -0.17281845 0.05718142 0.21874103 -0.16525225 0.14708506
0.12948272 -0.009345959 -0.03069205 -0.9950717 -0.06380215 -0.14706607 -0.022167847 0.22277458
0.65221035 -0.102877595 0.63439375 0.117638685 0.03927595 0.044257306 -0.22837178 0.08176139
-0.14030518 0.33144042 0.18868852 0.33459702 0.5371825 0.14637488 0.0051399693 0.04578171
-0.009490006 -0.26809326 -0.23217686 -0.089877404 -0.014238193 0.09668722 0.7853857 -0.55191064
-0.20965174 -0.05475745 -0.013704402 -0.0075545036 0.2230362 -0.015138938 0.36771542 0.39557007
-0.01927107 0.17706017 0.123621136 0.019208103 0.3236173 -0.16969773 -0.17331748 0.13659905
-0.39800808 -0.3846562 -0.396635 0.27399158 -0.31018472 -0.28793716 0.36864817 0.35805282
-0.65523416 -0.4166905 -0.13509414 -0.054980464 -0.13672161 -0.21510388 -0.0912727 -0.044807125
0.0038769713 -0.37542444 -0.13657053 0.20911045 0.11123086 0.009077728 0.14453913 -0.15544052
-0.046172056 0.04695596 -0.08877773 -0.5589114 -0.17658107 -0.028068129 -0.20859453 -0.17478468
-0.8080239 0.117129 -0.12183332 -0.009894561 -0.15222204 -0.2425508 0.04094168 -0.067888446
-0.058317553 -0.06948107 -0.46818337 -0.090687215 -0.23740451 0.5537105 1.3785646 0.46044016
0.01702109 0.614934 0.06601805 -0.56084055 0.57452023 0.38474402 -0.6888293 -0.24401349
0.3937824 0.39477092 -0.1731821 -0.34374684 0.5635057 -0.22316575 -0.31420866 0.086833656
-0.16672632 -0.2618156 0.24979727 0.20495291 0.8013489 0.5942626 -0.18161194 -0.4260459
0.22443205 -0.67203647 0.35780716 0.4601715 -0.0313702 -0.047444783 -0.23281513 0.4082345
00000000: b49e 143e b8ff 0dbe dad4 133f f413 09bc
00000010: 055c aabe 4adf b93e d299 dabe 43ad 2abe
00000020: 7364 803e fd1b 013e 717b a5bd 891e 6abe
00000030: 2c0e 1f3e aa51 25bc b394 04bc 858c 563e
00000040: 9f7f 173e c976 2ebc 6dfc 213e 86d3 52be
00000050: 6ac7 7ebe 33cf 0fbf cc14 173c e8b5 053e
00000060: 5ab9 983e 1307 03bd b27e d5bd ddd6 a93e
00000070: 3774 14be 12dd 973d 7907 27be f177 1dbe
00000080: a4a4 f7be bc44 873e af75 d13d 47c7 ca3e
00000090: 2faf 103e a8c7 703d 267d 1a3e 98b7 9abc
000000a0: d0d2 9b3e acc1 f0bd 4674 31be e510 6dbd
000000b0: c787 98be 13be d9bd 0d5e 993e 8900 34be
000000c0: 41fb 0fbe b399 74be 78bf 6dbd 89ef 053f
000000d0: f2d1 31bf 4ae8 4dbe e594 273e 491a 543e
000000e0: 6ea9 1abe fdb1 973f 8acf 6d3e 808b 70be
000000f0: 25db ec3c f80e 363f 5de8 933e d481 cbbe
00000100: af61 66be 3a0d 12be 8f1d afbe 17a4 80be
00000110: 940d 07be e351 08be fa56 d23b 4fa6 f43d
00000120: 8509 3abd cc3e d63d a81e d6bd 4798 62bd
00000130: 1023 043f 975a 14bf c295 a83e 5cc6 423f
00000140: 7b62 dc3d 72ac 03bf 4df6 5ebe 7b4a 5cbc
00000150: 0187 51bc 3633 debe bc10 403d cb99 753f
00000160: c334 253e cb18 7b3c 97dd d3bd cf40 4ebd
00000170: 93df 9abd 2eab a03c e9df c8be 5a36 5fbe
00000180: af1b f03c 07a7 6f3c ee03 95bd 8d33 e7bc
00000190: 222e 913e 26a6 823e 5ae5 143f e6fc 5dbe
000001a0: e1c0 0bbf 485d 113f db6f c1bd f16d 993e
000001b0: 9030 0dbf 96c6 033d afb3 1ebf 86c5 323f
000001c0: dc71 913e bec4 0d3f bc40 ecbc fb51 b73d
000001d0: 9a6c dc3d 0536 0a3e 7023 a339 4a0a f3be
000001e0: 5000 e13d 6cf6 b33d 20f1 eb3d 52f7 30be
000001f0: 1137 6a3d a6fd 5f3e e337 29be 779d 163e
00000200: 1e97 043e cb1f 19bc e56d fbbc 05bd 7ebf
00000210: b4aa 82bd 7d98 16be 5899 b5bc 051f 643e
00000220: 42f7 263f 7db1 d2bd a167 223f 8dec f03d
00000230: d2df 203d 2647 353d 4bda 69be 8472 a73d
00000240: 29ac 0fbe 8fb2 a93e 9037 413e 4d50 ab3e
00000250: cb84 093f 4ce3 153e 306d a83b 9a85 3b3d
00000260: f87b 1bbc 8543 89be c5bf 6dbe a511 b8bd
00000270: 4f47 69bc f303 c63d 0a0f 493f 044a 0dbf
00000280: f2ae 56be 5949 60bd 6e88 60bc c58b f7bb
00000290: 9a63 643e 4f09 78bc 3245 bc3e 2988 ca3e
000002a0: 5dde 9dbc 434f 353e 142d fd3d 505a 9d3c
000002b0: 2bb1 a53e 3ec5 2dbe 237a 31be 9fe0 0b3e
000002c0: b7c7 cbbe a8f1 c4be be13 cbbe a048 8c3e
000002d0: 88d0 9ebe 806c 93be 74bf bc3e b352 b73e
000002e0: 6dbd 27bf 7558 d5be 1e56 0abe 3233 61bd
000002f0: c000 0cbe 3144 5cbe 2eed babd ad87 37bd
00000300: c914 7e3b a237 c0be 25d9 0bbe 0d21 563e
00000310: 01cd e33d c0ba 143c 1102 143e cd2b 1fbe
00000320: e91e 3dbd e554 403d 19d1 b5bd d114 0fbf
00000330: abd1 34be 22ef e5bc ce99 55be c1fa 32be
00000340: a8da 4ebf 54e1 ef3d bf83 f9bd cc1c 22bc
00000350: 18e0 1bbe 3d5f 78be 77b2 273d 1909 8bbd
00000360: 63de 6ebd 174c 8ebd bbb5 efbe 38ba b9bd
00000370: 2b1a 73be f9bf 0d3f ce74 b03f d0be eb3e
00000380: d06f 8b3c 516c 1d3f 7934 873d 3f93 0fbf
00000390: c213 133f 2bfd c43e 1e57 30bf acde 79be
000003a0: d99d c93e 6a1f ca3e a656 31be 96ff afbe
000003b0: e941 103f 9085 64be f5df a0be d8d5 b13d
000003c0: 4eba 2abe b20c 86be dbca 7f3e 2ddf 513e
000003d0: 3425 4d3f 9821 183f 7bf8 39be b022 dabe
000003e0: 84d1 653e 950a 2cbf 8032 b73e 999b eb3e
000003f0: 0a7e 00bd 7655 42bd 1767 6ebe 1d04 d13e

actor.0.bias f4 [256]
0.08996351 -0.35695684 -0.4283375 -0.29035318 -0.685861 -0.75134444 -0.51999813 -0.48115885
-0.5954257 -0.2110849 -0.5570737 -0.65160966 -0.9367946 -0.78032786 -1.1376044 -0.47702572
-0.5803547 -0.14687055 -0.34850234 -0.7109915 -1.2392707 -0.85076964 -0.5455017 -0.58008116
-0.25776413 -1.1644169 -0.36087447 -0.5358513 -0.39757738 -0.4716904 -0.5016427 -0.745118
-0.63183326 -0.6488961 -0.28576732 -0.42605394 -0.55234206 -0.45382446 -0.2812935 -0.29302207
-0.63966274 -0.4753958 -0.3498353 -0.732816 -0.74384546 -1.2108907 -1.0636127 -0.52052855
-0.21719441 -0.5225495 -1.3412117 -0.69779974 -0.5735815 -0.58119047 -0.7288448 -0.4814136
-0.41803125 -0.37796304 0.06762769 -0.82417727 0.19306214 -0.5230833 -0.8061287 -0.5129858
-0.33749178 -0.048585165 -0.9605606 -0.69078326 -0.7378642 -0.5483014 -0.53771216 -0.73928726
-0.6607054 -0.7900928 -0.36389515 -0.30299044 -0.16544026 -0.07531596 -0.65620387 -0.5577503
-0.21632631 -0.7906965 -0.8834379 -0.7213342 -1.2953277 -0.5010552 -1.1734844 -0.6670467
-0.24344866 -0.6014289 -0.52452 -0.44153446 -0.46371713 -0.98127854 0.010383476 -0.36833918
-0.6560152 -0.36324424 -0.6957464 -0.23553997 -0.27704397 -0.9083565 -0.70502806 -1.0796874
-0.27371854 -1.3385272 -0.8247219 -0.5861538 -0.69953495 -0.7246906 -0.7497399 -0.3165628
-0.6166698 -0.6219272 -0.39417183 -0.29320222 -0.21724395 -0.7932413 -1.1011515 -0.14495064
-0.65447253 -0.5952174 -0.31539425 -0.59096545 -0.22237241 -0.9605541 -0.70213896 -0.84097373
-0.9859957 -0.4999322 -0.42150852 0.31111574 -0.31103957 -0.8527878 -0.9565436 -0.91517395
-0.78823036 -0.97844905 -0.40380087 -0.04044215 -0.9060283 -0.6608375 -0.35057494 -0.69414204
-0.60165983 -1.1036977 -1.0798965 -0.78047353 -0.7558817 -0.53454024 -1.1612412 -0.3361987
-0.75688237 -0.4356495 -1.2276324 -1.1785392 -0.22115344 -0.55377567 -0.055825222 -0.5230301
-0.8348441 -0.7055431 -1.0311841 -0.7281853 -0.1622406 -0.8598877 -0.9913595 -0.32425264
-1.0785786 -0.4789269 -0.90550494 -0.33854604 -0.63052964 -0.59826267 -0.0027700567 -1.0960492
-0.95186925 -0.39412683 -1.2208738 -0.19031908 -0.4928908 -0.83260447 -0.3956775 -0.014310612
-0.21869369 -0.2519152 -0.5458121 -0.43656644 -0.5242314 -1.0459228 -1.0349154 -0.018685527
-0.834706 -0.6115169 -0.72633284 -0.3065328 -0.19010757 -1.1320039 -0.09263456 -0.4443174
-0.77115315 -0.35323796 -0.57560605 -0.6670797 -0.60620594 -0.5291044 -0.37535235 -0.29997593
-0.5002177 -0.6645813 -0.59546745 -0.3551909 -0.50034547 -0.4953887 -0.76898056 -0.4348743
-0.63845605 -1.1971173 -0.533913 -0.9564407 -0.5231253 -0.6786603 -0.7437687 -0.5980183
-1.0909022 -0.7997408 -0.23437713 -0.5564965 -0.6103062 -0.91666955 -0.79726666 -0.43479612
-0.4642708 -0.7449379 -0.2661364 -0.6908327 -0.5119677 -0.6261563 -0.5188561 -1.2533234
-0.7486706 -0.8486992 -1.0843574 -0.13746025 -0.36042958 -0.8247349 -0.4879077 -0.64754844
-0.71351767 -1.0158939 -0.4636068 -1.1209365 -0.3976014 -0.40109965 -0.64119387 -0.7762583
00000000: ca3e b83d 0cc3 b6be 0e4f dbbe 2ca9 94be
00000010: 9694 2fbf 1c58 40bf 991e 05bf 745a f6be
00000020: d26d 18bf a426 58be 629c 0ebf e4cf 26bf
00000030: c5d1 6fbf 91c3 47bf 059d 91bf b73c f4be
00000040: 2092 14bf 3c65 16be e66e b2be 8a03 36bf
00000050: 6ca0 9ebf 0acc 59bf 00a6 0bbf 3380 14bf
00000060: a9f9 83be 9d0b 95bf 8ac4 b8be 8d2d 09bf
00000070: 438f cbbe 6781 f1be a86b 00bf 0ec0 3ebf
00000080: d3bf 21bf 0e1e 26bf 1850 92be be23 dabe
00000090: 4a66 0dbf ae5b e8be b405 90be fd06 96be
000000a0: f0c0 23bf 1467 f3be 9d1d b3be d499 3bbf
000000b0: a86c 3ebf 77fe 9abf 7624 88bf 5c41 05bf
000000c0: 3668 5ebe cec5 05bf d3ac abbf 01a3 32bf
000000d0: 3dd6 12bf e6c8 14bf 9395 3abf d87b f6be
000000e0: 3108 d6be 5f84 c1be 6380 8a3d 48fd 52bf
000000f0: 15b2 453e cae8 05bf 735e 4ebf 0a53 03bf
00000100: b9cb acbe 3d01 47bd 4de7 75bf 2cd7 30bf
00000110: abe4 3cbf 7b5d 0cbf 81a7 09bf ee41 3dbf
00000120: fd23 29bf 8643 4abf 7750 babe 9021 9bbe
00000130: 2c69 29be 413f 9abd fafc 27bf b9c8 0ebf
00000140: a584 5dbe 166b 4abf fc28 62bf 5ca9 38bf
00000150: 4ccd a5bf 2745 00bf bd34 96bf 93c3 2abf
00000160: 9b4a 79be 3ff7 19bf f146 06bf ce10 e2be
00000170: 556c edbe 1235 7bbf 741f 2a3c f496 bcbe
00000180: 9df0 27bf 26fb b9be 701c 32bf 6431 71be
00000190: b5d8 8dbe 0d8a 68bf b87c 34bf 3233 8abf
000001a0: d624 8cbe dc54 abbf f920 53bf 2d0e 16bf
000001b0: b914 33bf 5385 39bf f4ee 3fbf 8514 a2be
000001c0: 12de 1dbf 9f36 1fbf e4d0 c9be 9a1e 96be
000001d0: 3375 5ebe dd11 4bbf 88f2 8cbf f16d 14be
000001e0: 838b 27bf 2b60 18bf 5b7b a1be 8349 17bf
000001f0: 98b5 63be e0e6 75bf 61bf 33bf 0e4a 57bf
00000200: 376a 7cbf 1df7 ffbe f7cf d7be 904a 9f3e
00000210: 9440 9fbe 4d50 5abf 0be0 74bf d748 6abf
00000220: 77c9 49bf a37b 7abf fdbe cebe aba6 25bd
00000230: 78f1 67bf a52c 29bf 8f7e b3be 4bb3 31bf
00000240: 6106 1abf f745 8dbf 0c3a 8abf 1dcd 47bf
00000250: 7781 41bf a1d7 08bf 8da3 94bf 3c22 acbe
00000260: 0bc3 41bf 740d dfbe 0f23 9dbf 5fda 96bf
00000270: 0c76 62be 3ec4 0dbf fda8 64bd 4de5 05bf
00000280: 58b8 55bf 799e 34bf d7fd 83bf 5a6a 3abf
00000290: 6622 26be 9a21 5cbf bcc9 7dbf 7104 a6be
000002a0: dd0e 8abf e835 f5be 2ccf 67bf e855 adbe
000002b0: 646a 21bf be27 19bf d789 35bb 574b 8cbf
000002c0: b4ad 73bf feca c9be 9845 9cbf 01e3 42be
000002d0: 2f5c fcbe 9125 55bf 3e96 cabe 0f77 6abc
000002e0: 3df1 5fbe 07fb 80be 57ba 0bbf a385 dfbe
000002f0: 0734 06bf cce0 85bf 1c78 84bf 6412 99bc
00000300: 4baf 55bf 5f8c 1cbf f3f0 39bf def1 9cbe
00000310: 8fab 42be 81e5 90bf 30b7 bdbd 927d e3be
00000320: 4b6a 45bf 9bdb b4be eb5a 13bf bcc5 2abf
00000330: 5030 1bbf 6373 07bf 2f2e c0be 7296 99be
00000340: 440e 00bf 0022 2abf 8e70 18bf 95db b5be
00000350: a416 00bf 96a3 fdbe e9db 44bf d8a7 debe
00000360: db71 23bf 243b 99bf 86ae 08bf 4cd9 74bf
00000370: 8aeb 05bf aebc 2dbf a067 3ebf ba17 19bf
00000380: afa2 8bbf d0bb 4cbf 8f00 70be 8e76 0ebf
00000390: 073d 1cbf dbaa 6abf ab19 4cbf 999d debe
000003a0: e7b4 edbe 40b4 3ebf 0843 88be 69da 30bf
000003b0: 5110 03bf c74b 20bf c1d3 04bf e76c a0bf
000003c0: e0a8 3fbf 5a44 59bf 39cc 8abf 61c2 0cbe
000003d0: 3a8a b8be d421 53bf 0acf f9be bcc5 25bf
000003e0: 18a9 36bf d008 82bf df5d edbe d97a 8fbf
000003f0: 6992 cbbe ef5c cdbe 4825 24bf ddb8 46bf

actor.3.weight f4 [256, 256]
0.11039943 -1.0187331 -0.18136771 -0.25213036 -0.268803 0.055619318 -0.0983282 0.08054713
-0.52800524 -1.1827544 -1.2297462 -0.24481517 0.2674638 0.036385927 -0.18596934 -0.17776741
0.116737224 -1.1633031 0.75136065 -0.21980877 0.6415413 -0.12681973 0.0614536 -0.16201127
-0.47900024 -0.27690595 -0.033422716 -2.2369828 0.4558256 0.08778075 0.09329863 0.70368314
0.04838255 0.15554102 -1.3100991 0.05159136 -0.030209525 -0.054859087 -0.34069407 -0.0034300652
0.18469857 0.022423614 -0.17186409 -0.032593954 -0.091473855 1.3663334 -0.6832986 0.043800868
-0.5488281 0.073781304 -0.26974168 0.42417365 -0.20662145 -1.2518812 0.12511721 -0.16475438
-0.096647225 0.47946283 0.10502408 0.1765039 -0.03739737 0.03630869 0.033329695 -0.0039350484
-0.14700684 0.005203388 0.10228431 0.36518005 -0.42379612 -0.024164813 -0.2922364 -0.7104294
-2.2790241 0.6490117 -1.9365954 -0.36466095 -2.152495 -0.011803326 -0.7449516 -0.021461481
0.12052581 0.5280025 0.11851195 -0.30487177 -1.6669409 -0.24027829 -0.10406146 -0.3197066
0.23595709 0.61669666 -0.40312213 -0.67448175 -1.1659598 -0.0185928 0.026738891 -0.14618641
-1.5516975 0.051975425 0.112624556 0.8768687 -0.48371467 -3.6599033 -1.4349092 -1.9277916
-0.13088806 -1.6466773 -0.09479695 0.28200185 -0.09173566 0.12708245 -0.15218766 -0.075274274
0.19962543 -0.6121583 -0.111112215 -0.08314761 0.36796468 -0.030203609 0.33976653 -0.8427809
-0.015008002 0.0019375775 -0.056557953 -0.94949234 0.04904418 -0.8931169 -0.05706247 -0.46994817
-0.18793218 0.1599266 0.0012626788 -0.0017781009 0.39146364 -0.35118416 -2.0939116 -0.51813954
0.27616635 -0.06924224 -0.020480813 -0.1704483 0.17689268 -0.06307742 0.6781222 -0.94537866
-0.62304366 -0.2874737 -1.074804 -0.0468 0.35013688 -1.1153221 0.5047449 0.0492623
-0.43160406 -0.011805023 -0.13136722 -0.23644274 0.043649804 -0.009172074 -0.008085377 -0.011175017
0.14667922 -2.2806213 0.554059 0.36871532 -0.021162812 -0.27464017 -0.18094854 -0.25459278
-0.3950312 -0.32414436 -1.7637609 -1.1224685 -1.1742625 -0.015693111 0.17051946 0.16575801
-2.5301242 -0.71363646 0.09800298 0.28408602 0.016209593 -0.3042526 0.006828516 0.03494332
0.15074909 -0.14981648 -0.4730753 0.32012668 -0.057944175 -0.7404775 -0.16562808 0.30428377
0.13899915 -0.047110736 -0.40350556 0.04270826 -0.14718889 1.3591105 -0.034151077 0.068737835
0.14518523 0.15975153 -0.15077947 1.5663723 0.2879779 -0.007981674 0.08663742 0.06675463
-0.042899374 0.10979248 -0.09627933 -1.0788685 -0.57345194 -0.0066479403 -1.8622774 0.38358197
-0.8610076 0.022741904 -0.060066666 -0.06227702 -0.18289453 -0.03780738 0.041139223 -0.6159328
-0.028817656 -0.0422041 -0.12347511 -0.059533916 1.6312621 0.2119388 0.3958395 0.015036679
-0.21362224 -0.06728605 -1.2064823 -0.079336666 0.09100436 0.119735405 -0.8594251 -0.7822932
-1.587728 -0.015860379 0.0006191469 -0.4943623 -0.15022188 -0.5255235 0.1919701 -0.147302
0.08615076 0.063445956 -1.3928285 -0.101880826 -0.016079193 -0.44504508 0.005415795 -0.092276864
00000000: 1919 e23d d965 82bf 75b8 39be 3b17 81be
00000010: 8ca0 89be 15d1 633d 4c60 c9bd e5f5 a43d
00000020: 5a2b 07bf 7f64 97bf 5368 9dbf d4b0 7abe
00000030: 04f1 883e 6909 153d bf6e 3ebe a908 36be
00000040: ed13 ef3d 1ee7 94bf 2c59 403f 8d15 61be
00000050: 0d3c 243f 08dd 01be c5b6 7b3d 48e6 25be
00000060: 853f f5be 9ec6 8dbe 42e6 08bd ba2a 0fc0
00000070: f961 e93e 65c6 b33d 5a13 bf3d 9424 343f
00000080: c82c 463d 2546 1f3e 54b1 a7bf 7651 533d
00000090: f779 f7bc ecb3 60bd 746f aebe f2ca 60bb
000000a0: 9f21 3d3e bab1 b73c 24fd 2fbe 3d81 05bd
000000b0: a556 bbbd 03e4 ae3f a8ec 2ebf 8a68 333d
000000c0: 0080 0cbf a71a 973d 951b 8abe 4a2d d93e
000000d0: 9394 53be a53d a0bf ba1e 003e 5fb5 28be
000000e0: fbee c5bd 277c f53e dd16 d73d 70bd 343e
000000f0: fc2d 19bd 6cb8 143d b884 083d 94f1 80bb
00000100: f688 16be 2f81 aa3b 707a d13d e1f8 ba3e
00000110: cefb d8be 49f5 c5bc 02a0 95be b3de 35bf
00000120: 88db 11c0 a125 263f 5ce2 f7bf d7b4 babe
00000130: 7ac2 09c0 bd62 41bc 26b5 3ebf fdcf afbc
00000140: 3cd6 f63d 2c2b 073f 65b6 f23d 2718 9cbe
00000150: 525e d5bf 830b 76be 2d1e d5bd 95b0 a3be
00000160: bc9e 713e d5df 1d3f 0666 cebe d6aa 2cbf
00000170: 2c3e 95bf ed4f 98bc 850b db3c e4b1 15be
00000180: 069e c6bf 2fe4 543d b4a7 e63d 787a 603f
00000190: 73a9 f7be db3b 6ac0 1bab b7bf e0c1 f6bf
000001a0: 8507 06be 52c6 d2bf e724 c2bd 8c62 903e
000001b0: e8df bbbd e721 023e 15d7 1bbe 6629 9abd
000001c0: 9c6a 4c3e 68b6 1cbf cd8e e3bd 4b49 aabd
000001d0: de65 bc3e 8f6d f7bc e1f5 ad3e 7dc0 57bf
000001e0: 1fe4 75bc 50f6 fd3a 50a9 67bd ee11 73bf
000001f0: 8de2 483d 4fa3 64bf 56ba 69bd 0c9d f0be
00000200: 4b71 40be ccc3 233e 7880 a53a 2a0f e9ba
00000210: ec6d c83e 69ce b3be a602 06c0 cba4 04bf
00000220: ad65 8d3e e0ce 8dbd 61c7 a7bc 008a 2ebe
00000230: 5b23 353e bc2e 81bd 6b99 2d3f 5604 72bf
00000240: ca7f 1fbf c12f 93be 2d93 89bf 5bb1 3fbd
00000250: 2445 b33e e0c2 8ebf f636 013f 44c7 493d
00000260: 35fb dcbe db69 41bc 2185 06be 0c1e 72be
00000270: 23ca 323d 7746 16bc 8778 04bc 6b17 37bc
00000280: 1433 163e b3f5 11c0 d0d6 0d3f 41c8 bc3e
00000290: a25d adbc a39d 8cbe 934a 39be fc59 82be
000002a0: 8841 cabe 40f6 a5be ebc2 e1bf 0cad 8fbf
000002b0: 3c4e 96bf d78e 80bc a79c 2e3e 78bc 293e
000002c0: 8eed 21c0 e1b0 36bf c9b5 c83d b973 913e
000002d0: fbc9 843c ffc6 9bbe bec1 df3b ba20 0f3d
000002e0: f85d 1a3e 7e69 19be ed36 f2be a5e7 a33e
000002f0: df56 6dbd ef8f 3dbf 689a 29be 15cb 9b3e
00000300: cb55 0e3e 30f7 40bd 4898 cebe dbee 2e3d
00000310: afb8 16be 55f7 ad3f 00e2 0bbd 6cc6 8c3d
00000320: 70ab 143e e895 233e ef65 1abe e37e c83f
00000330: d771 933e 91c5 02bc f66e b13d a7b6 883d
00000340: 41b7 2fbd e1da e03d 192e c5bd 5d18 8abf
00000350: bfcd 12bf f7d6 d9bb 1b5f eebf db64 c43e
00000360: fe6a 5cbf 3b4d ba3c 7708 76bd 3016 7fbd
00000370: b448 3bbe e9db 1abd 9a81 283d c6ad 1dbf
00000380: 0113 ecbc 35de 2cbd 85e0 fcbd d6d9 73bd
00000390: 32cd d03f 7c06 593e 7aab ca3e 675c 763c
000003a0: cabf 5abe 45cd 89bd 036e 9abf 437b a2bd
000003b0: 7e60 ba3d d637 f53d 4903 5cbf 5e44 48bf
000003c0: ac3a cbbf a0ed 81bc 3f4e 223a 0e1d fdbe
000003d0: c4d3 19be b588 06bf cf93 443e 56d6 16be
000003e0: cf6f b03d f4ef 813d 3448 b2bf e5a6 d0bd
000003f0: 83b8 83bc f3dc e3be fb76 b13b a7fb bcbd

actor.3.bias f4 [256]
0.53188264 0.54192305 -0.56524587 -0.22451308 -0.17485487 0.3165813 0.6272576 -0.234669
0.06487358 0.3654253 0.6619145 0.39335573 0.2957084 0.8834794 -0.40203753 -0.18293428
-0.269303 0.10433441 0.1569025 0.33832556 -0.3407149 0.5248958 0.23467739 0.6667455
0.88984257 0.10010477 -0.12186554 -0.10801811 0.10574992 -1.7534593 1.0087332 0.031120058
0.0153458 0.013621753 0.20993787 0.6809548 0.39589536 -0.61359024 0.04259723 -0.3629885
0.7831095 -0.47384125 0.10907871 0.2894545 0.37797824 0.015174862 0.121788956 -0.16122511
0.6668324 -0.2378976 0.08517572 0.7959226 0.08913361 0.14862587 0.30373216 0.20956889
-0.09229224 0.40926844 0.28393915 0.6798087 -0.008380239 0.6045672 0.19092105 0.08474986
-0.15154123 -0.018782804 0.17269662 -0.05485004 0.5613669 0.39849207 0.30683634 0.38304275
0.18743618 0.06202535 0.31074664 0.49841225 -0.34311473 -0.07485125 0.51729065 -0.59291786
0.6185539 0.008108499 -0.13348363 -0.00570716 -0.007594269 0.0723851 -0.28821558 0.4176002
-0.020850293 -0.2657608 0.40187535 0.13412432 0.52192384 -0.09947299 0.3041971 -0.2630012
0.42769942 -0.37907082 -0.03419119 0.6059149 0.21379295 0.33281246 0.42012995 0.77189183
0.023132313 0.39071387 0.22407241 0.3229943 -0.20505062 0.77355653 0.67300576 -0.17901745
0.13021895 0.015778273 0.131983 0.48554435 -0.011507933 -0.15670912 0.22488497 0.89753336
0.93146396 0.2849483 -0.3065652 0.21087314 0.6000874 -0.35806102 0.4181408 -0.012731867
-0.44160366 0.3018098 0.6939833 0.11143092 0.30325115 -0.48699704 0.6611898 0.13701057
-0.9098721 0.638378 0.16153811 0.3141574 0.4337883 0.5676207 0.23764205 0.603622
0.41273335 -0.33980528 0.73737603 -0.261811 0.9733299 0.12460754 0.71151626 0.52008635
-0.13730593 -0.90686965 0.24485493 0.70938 0.0013783188 0.15775295 -0.53691906 0.28909567
0.21941021 0.5889034 0.31575936 -0.06818425 0.029055757 0.74091613 0.2898445 -0.2636048
-0.06855618 0.1232899 0.37205398 0.31132302 0.32268643 0.37105742 0.7179001 0.9103061
-0.49000603 0.5239542 -0.01751849 0.6072726 0.4661045 0.120258935 0.42180654 0.5704892
1.2140657 -0.30171013 0.37561947 0.22476324 0.19434133 0.42607868 0.21963564 0.37224078
-0.6629417 -0.5275686 -0.08463958 0.5063981 -0.14108138 -0.4937488 0.12229725 -0.26700434
-0.061442126 0.38686594 -1.2808561 -0.015008366 -0.042501196 0.428291 -0.5205852 0.2719092
-0.91364396 0.61843765 0.49720675 -0.14200374 0.134989 0.5162431 -0.19177963 0.29274127
-0.87465316 0.3041383 0.09478906 -0.07094125 0.69993496 -0.40283832 0.7178346 0.31145874
-1.1266485 0.18724377 0.4104298 -0.30359527 0.82536286 -0.65371096 0.054171443 0.00047835198
0.26367393 0.17622204 -0.8962158 1.2241722 -0.5629187 0.6870039 0.6515995 0.40341118
0.108373255 -0.13062735 0.2765397 0.24445961 -0.030202784 0.4350051 0.2481843 0.49336588
-0.012319449 0.39397275 0.36264735 0.29167286 0.3850561 0.21606044 0.3817729 -0.39875132
00000000: 7629 083f 78bb 0a3f f4b3 10bf c2e6 65be
00000010: 280d 33be f216 a23e f493 203f 124d 70be
00000020: 71dc 843d 0619 bb3e 3b73 293f ec65 c93e
00000030: 1767 973e b52b 623f ddd7 cdbe 2053 3bbe
00000040: 15e2 89be 47ad d53d 0dab 203e 0239 ad3e
00000050: 2f72 aebe 925f 063f 454f 703e d5af 2a3f
00000060: b9cc 633f bb03 cd3d a494 f9bd 9938 ddbd
00000070: 6a93 d83d 5b71 e0bf 2b1e 813f 7eef fe3c
00000080: f36c 7b3c c62d 5f3c f4f9 563e 0e53 2e3f
00000090: ccb2 ca3e 4014 1dbf 6f7a 2e3d a1d9 b9be
000000a0: dd79 483f 529b f2be a964 df3d 6133 943e
000000b0: 5d86 c13e fc9f 783c 7d6c f93d 3218 25be
000000c0: 87b5 2a3f 6e9b 73be 9c70 ae3d 95c1 4b3f
000000d0: af8b b63d 6131 183e c882 9b3e 3a99 563e
000000e0: b703 bdbd a28b d13e 7960 913e f107 2e3f
000000f0: 454d 09bc ebc4 1a3f cf80 433e 5691 ad3d
00000100: a02d 1bbe 65de 99bc 62d7 303e 6faa 60bd
00000110: beb5 0f3f 2707 cc3e a719 9d3e 2e1e c43e
00000120: 45ef 3f3e 4b0e 7e3d 2f1a 9f3e e42f ff3e
00000130: bcac afbe 9d4b 99bd 296d 043f 77c9 17bf
00000140: 8c59 1e3f 83d9 043c efaf 08be 2103 bbbb
00000150: 58d9 f8bb a43e 943d fe90 93be b2cf d53e
00000160: 3cce aabc cd11 88be 9bc2 cd3e e357 093e
00000170: cd9c 053f 7fb8 cbbd b9bf 9b3e 18a8 86be
00000180: 6bfb da3e 9215 c2be 100c 0cbd 3d1d 1b3f
00000190: 8aec 5a3e 6566 aa3e 461b d73e b49a 453f
000001a0: fa7f bd3c a60b c83e 3d73 653e 825f a53e
000001b0: caf8 51be cd07 463f 1b4a 2c3f 5a50 37be
000001c0: 1e58 053e 7041 813c 8d26 073e 4599 f83e
000001d0: c58b 3cbc 5b78 20be 3f48 663e bfc4 653f
000001e0: 6c74 6e3f bee4 913e 1df6 9cbe 21ef 573e
000001f0: 549f 193f c653 b7be 8d16 d63e 5299 50bc
00000200: e019 e2be d086 9a3e e4a8 313f e535 e43d
00000210: bc43 9b3e ad57 f9be bc43 293f 804c 0c3e
00000220: 61ed 68bf be6c 233f 3f6a 253e 3dd9 a03e
00000230: 8019 de3e 974f 113f 7058 733e f986 1a3f
00000240: c951 d33e f5fa adbe adc4 3c3f 170c 86be
00000250: 262c 793f 3d32 ff3d ee25 363f 6124 053f
00000260: ed99 0cbe 9c28 68bf 40bb 7a3e ed99 353f
00000270: b4a8 b43a fd89 213e 8773 09bf 5904 943e
00000280: 12ad 603e 60c2 163f 36ab a13e 2fa4 8bbd
00000290: 5706 ee3c aeac 3d3f 8066 943e 35f7 86be
000002a0: 2f67 8cbd 6a7f fc3d dc7d be3e bb65 9f3e
000002b0: 2837 a53e 3dfb bd3e 4dc8 373f d209 693f
000002c0: 12e2 fabe dd21 063f f082 8fbc 3876 1b3f
000002d0: 40a5 ee3e 514a f63d 07f7 d73e 950b 123f
000002e0: 8166 9b3f c079 9abe 3251 c03e 5628 663e
000002f0: 6a01 473e fc26 da3e 2ae8 603e 5896 be3e
00000300: 8cb6 29bf bc0e 07bf 8457 adbd 4ea3 013f
00000310: a377 10be a5cc fcbe fb76 fa3d cbb4 88be
00000320: bdaa 7bbd 4b13 c63e 18f3 a3bf a6e5 75bc
00000330: bc15 2ebd f548 db3e 1245 05bf af37 8b3e
00000340: 92e4 69bf ee51 1e3f e291 fe3e 6e69 11be
00000350: 8e3a 0a3e 8228 043f e161 44be 2fe2 953e
00000360: 45e9 5fbf 04b8 9b3e c420 c23d a549 91bd
00000370: f02e 333f d340 cebe 02c4 373f 8577 9f3e
00000380: 0536 90bf d5bc 3f3e db23 d23e d770 9bbe
00000390: fb4a 533f 9a59 27bf e0e2 5d3d 51cb fa39
000003a0: 4500 873e 8d73 343e 666e 65bf adb1 9c3f
000003b0: 711b 10bf 7ddf 2f3f 3acf 263f e98b ce3e
000003c0: ccf2 dd3d 2dc3 05be 9d96 8d3e 9f53 7a3e
000003d0: d46b f7bc fdb8 de3e 0624 7e3e 749a fc3e
000003e0: 84d7 49bc ccb6 c93e eaac b93e 2556 953e
000003f0: 1326 c53e f33e 5d3e bd77 c33e 2229 ccbe

actor.6.weight f4 [3, 256]
-0.036695518 -0.27214158 0.08111694 -0.10891501 0.22836696 -0.04612584 0.002640163 -0.06093866
0.028674357 -0.11001546 -0.08843667 -0.008295434 -0.12578174 -0.14535351 0.013355348 0.049145196
0.052556075 0.00850063 0.08159475 -0.017983321 -0.08361858 0.047630228 0.13325647 -0.049223512
0.18522653 -0.03797172 0.01838563 0.08619304 -0.04583937 0.15722422 -0.12573516 -0.16827269
-0.0028553014 -0.07835549 0.13658378 -0.20911975 0.16473524 0.03303654 -0.22134277 -0.0030277497
0.024726171 -0.048037414 0.012954936 -0.037182968 0.13261461 -0.030514061 -0.12624136 0.27508682
-0.06053859 -0.18749829 -0.0046440028 -0.13566037 0.022471905 -0.047748312 0.18735632 0.003097486
-0.041700955 0.003963426 -0.087315165 0.010557445 -0.14780737 0.09699903 0.017651115 -0.013451442
0.40710524 -0.00046944612 0.044525396 0.8561407 -0.025458178 0.0667189 -0.049766608 0.13549696
0.09030272 -0.006110913 0.003969398 0.005937865 0.105273135 -0.01572021 0.062451806 0.12677267
-0.7926471 2.2715418 0.0027878273 0.035097625 -0.08095623 -0.018806577 0.23279361 -0.008398311
-0.049756806 -0.004413731 -0.13700442 0.06698113 0.09205807 -0.2491941 0.21626972 0.017417189
0.020673886 -0.0045659817 0.0044782716 0.052453723 -0.011694052 -0.028786093 -0.021124566 -0.08648839
0.0023815818 -0.040252864 -0.019671015 0.07998176 -2.9373436 0.009967598 0.00629722 -0.038910583
-0.034682363 -0.035817683 0.028967494 -0.0306595 -0.02487113 0.11281778 0.20863903 0.204591
-0.091517106 -0.021262797 -0.0041906494 -0.06889201 0.03303036 -0.062290233 0.009312814 -0.008923081
0.07625074 -0.055432506 0.07388768 0.11838365 -0.14056619 -0.10798665 -0.002228907 0.20464002
-0.0012009984 -0.020369776 0.03554926 -0.015246477 -0.047408562 -0.18355145 0.008019151 0.15517949
-0.08046224 0.038704146 0.006515501 0.22501437 0.07449704 -0.021863582 0.0060014627 0.13942789
0.31065786 0.31278607 0.16507825 0.013887283 0.05820997 -0.038469505 -0.04700136 0.013268062
0.011008563 -0.13395508 0.007556639 -0.2418622 0.0036687828 -0.09043569 -0.122041024 -2.79825
0.01418838 0.0015254415 0.1941012 -0.07753148 -0.14919123 -0.037091162 0.20058168 -0.15927036
0.35118303 0.0018573595 -0.0029398878 -0.0016841239 -0.0072850143 -0.121478066 0.002946749 -0.103749156
-0.0028987804 0.39079383 0.0030479112 -0.102197066 0.17315498 0.0026167363 0.006251449 0.02448742
0.4605665 0.11317639 -0.100552306 -0.17395295 0.19403145 -0.040441643 0.0889132 -0.06593104
-0.14774288 0.109299704 0.2545614 0.001618622 -0.08283203 0.00065569987 0.011547392 0.026476873
-3.5926041e-06 -0.021307256 -0.27190113 -0.025538938 -0.015076849 -0.24576478 0.026443813 0.017185917
0.06664729 0.015987482 -0.0024313007 -0.006223623 -0.043297198 -0.0003540625 0.0865429 0.20183922
0.00048499394 0.001772655 -0.0025346708 -0.21514401 -0.08769617 0.12997289 -0.07296607 0.07313993
0.08806593 0.07047963 -0.14525828 0.231034 0.1151144 0.0041189184 -0.28317186 0.029888876
-0.00033690943 0.19249664 0.010225254 0.083656654 0.09537492 -0.00079970923 0.00036965258 -0.08574456
0.023256155 -0.17581667 -0.14431818 -0.1737172 -0.09172238 0.029002871 0.24236228 -0.16632617
00000000: 0a4e 16bd 2456 8bbe a320 a63d d50e dfbd
00000010: 07d9 693e 73ee 3cbd 9606 2d3b d19a 79bd
00000020: 7ce6 ea3c c94f e1bd 491e b5bd 92e9 07bc
00000030: eecc 00be 8dd7 14be 64d0 5a3c 794c 493d
00000040: 0a45 573d 3a46 0b3c 261b a73d c251 93bc
00000050: 3840 abbd ea17 433d 6274 083e 989e 49bd
00000060: 06ac 3d3e 3c88 1bbd 769d 963c fa85 b03d
00000070: 10c2 3bbd 63ff 203e b8c0 00be ad4f 2cbe
00000080: 0220 3bbb d878 a0bd 9edc 0b3e 7d23 56be
00000090: 5bb0 283e 5351 073d aea7 62be 366d 46bb
000000a0: 8a8e ca3c e1c2 44bd f140 543c 2b4d 18bd
000000b0: 20cc 073e a0f8 f9bc 6a45 01be 2ed8 8c3e
000000c0: 50f7 77bd 8dff 3fbe b82c 98bb 8dea 0abe
000000d0: 0017 b83c bc93 43bd 56da 3f3e 31ff 4a3b
000000e0: 9fce 2abd a1df 813b 4bd2 b2bd 22f9 2c3c
000000f0: d15a 17be 6da7 c63d 1299 903c 7063 5cbc
00000100: 1970 d03e fe1f f6b9 4360 363d 092c 5b3f
00000110: ab8d d0bc eba3 883d 12d8 4bbd b7bf 0a3e
00000120: a2f0 b83d 0e3e c8bb b911 823b 6c92 c23b
00000130: 7199 d73d abc7 80bc 77cd 7f3d b2d0 013e
00000140: ecea 4abf f160 1140 fbb3 363b 87c2 0f3d
00000150: 61cc a5bd 4010 9abc 7361 6e3e 1299 09bc
00000160: cbcd 4bbd 0fa1 90bb e34a 0cbe 672d 893d
00000170: f188 bc3d bd2c 7fbe cf75 5d3e 7eae 8e3c
00000180: 485c a93c 3b9e 95bb 77be 923b b7d9 563d
00000190: 6998 3fbc d0d0 ebbc 6d0d adbc d320 b1bd
000001a0: 5014 1c3b 30e0 24bd 1c25 a1bc 7acd a33d
000001b0: 70fd 3bc0 234f 233c e958 ce3b b460 1fbd
000001c0: 180f 0ebd 90b5 12bd 3d4d ed3c a229 fbbc
000001d0: 8abe cbbc 020d e73d 78a5 553e 4e80 513e
000001e0: 526d bbbd 512f aebc b751 89bb 4117 8dbd
000001f0: d84a 073d 0b24 7fbd c694 183c 1d32 12bc
00000200: 5929 9c3d 320d 63bd 6d52 973d 2173 f23d
00000210: 95f0 0fbe 1b28 ddbd db12 12bb 278d 513e
00000220: d26a 9dba 84de a6bc 1a9c 113d 5ccc 79bc
00000230: 7b2f 42bd e9f4 3bbe c262 033c 5fe7 1e3e
00000240: 63c9 a4bd 3d88 1e3d fc7f d53b 2b6a 663e
00000250: e791 983d 411b b3bc eba7 c43b 2fc6 0e3e
00000260: 8c0e 9f3e 7f25 a03e 460a 293e 7d87 633c
00000270: 946d 6e3d 3392 1dbd 8084 40bd 4962 593c
00000280: 435d 343c 852b 09be af9d f73b b9aa 77be
00000290: f66f 703b 5936 b9bd a5f0 f9bd 8716 33c0
000002a0: 6176 683c 53f1 c73a 77c2 463e d3c8 9ebd
000002b0: 96c5 18be e7ec 17bd 4965 4d3e c517 23be
000002c0: 43ce b33e a572 f33a 22ab 40bb d2bd dcba
000002d0: 21b7 eebb 7ec9 f8bd 3f1e 413b 707a d4bd
000002e0: 77f9 3dbb 2116 c83e 77bf 473b b24c d1bd
000002f0: 8a4f 313e 8d7d 2b3b f5d8 cc3b d899 c83c
00000300: 5fcf eb3e 06c9 e73d 5eee cdbd b920 32be
00000310: 2eb0 463e 23a6 25bd 2018 b63d da06 87bd
00000320: e949 17be 86d8 df3d df55 823e f127 d43a
00000330: d7a3 a9bd 46e3 2b3a 4631 3d3c 07e6 d83c
00000340: 7818 71b6 8e8c aebc a036 8bbe 0937 d1bc
00000350: e304 77bc c3a9 7bbe b2a0 d83c 7bc9 8c3c
00000360: 607e 883d 2ef8 823c 7556 1fbb 89ef cbbb
00000370: 6758 31bd 77a1 b9b9 673d b13d f1ae 4e3e
00000380: c946 fe39 6f58 e83a b81c 26bb b64e 5cbe
00000390: 0d9a b3bd 9d17 053e 3c6f 95bd 63ca 953d
000003a0: e95b b43d a057 903d 96be 14be 2d94 6c3e
000003b0: 19c1 eb3d fef7 863b e7fb 90be 84d9 f43c
000003c0: 38a3 b0b9 d71d 453e d387 273c 2e54 ab3d
000003d0: ed53 c33d 94a3 51ba eecd c139 d89a afbd
000003e0: b183 be3c 4909 34be 25c8 13be ece2 31be
000003f0: f1d8 bbbd 6e97 ed3c d12d 783e 6851 2abe

actor.6.bias f4 [3]
-0.14697771 0.091694765 0.04353032
00000000: 5381 16be 77ca bb3d d94c 323d
