online_weights/spot_hopper_medium-replay/actor_s1000000.pth (torch, 280975 bytes, 6 tensors)

actor.0.weight f4 [256, 11]
00000000: 31c5 173e 18f7 0fbe b7ab 133f 202d 1bbc
00000010: cfa2 aabe bb78 ba3e ddec d9be 24bf 29be
00000020: b1f7 803e 4e13 003e c6fa a4bd 87f5 68be
00000030: b44f 1b3e 907c 16bc 376d 51bc 54ea 583e
00000040: 3d83 183e 4b9b 5abc 0990 203e 8949 54be
00000050: 8b15 7fbe c1b6 0fbf ec17 0d3c 6ee8 013e
00000060: c9c7 993e 78bb 02bd 025c d3bd bc3b a93e
00000070: 4fe6 14be 81c2 923d 82e1 27be f5ff 1ebe
00000080: 86d1 f8be 89c7 873e 286b d43d 0710 ca3e
00000090: d088 0e3e 4dd8 6f3d a70a 1d3e 04b0 a0bc
000000a0: dde2 9c3e 9fdb efbd 8868 2fbe d529 6dbd
000000b0: 7de2 97be 8d31 debd 7e59 993e 08b5 33be
000000c0: 25b7 0fbe e0ca 74be 651d 79bd a869 063f
000000d0: 3a8f 31bf d082 4ebe cf24 2c3e c824 553e
000000e0: 59e7 1bbe e298 973f 86ec 6b3e 937a 70be
000000f0: bdd1 fc3c 2e47 363f 9368 953e b899 cabe
00000100: d898 67be c697 13be 6f54 afbe da60 81be
00000110: a5ee 03be 4ebb 06be 1b06 c23b 763c ef3d
00000120: 673d 3cbd d934 d13d c9c1 d9bd ae96 5ebd
00000130: be2a 043f d4e7 14bf 8a5d a83e 451e 433f
00000140: 06e9 da3d ab89 03bf 82ed 5ebe f7ed 41bc
00000150: eb76 02bc 693f ddbe f19b 533d 6911 753f
00000160: b198 223e 291a 653c 2669 d1bd a42b 4dbd
00000170: 98e1 9cbd bd21 9b3c 92d8 c8be b4de 5dbe
00000180: 1970 f73c 7d60 773c 4586 94bd 2273 e4bc
00000190: b922 923e 98d8 833e 918e 143f 91ff 5bbe
000001a0: ce52 0cbf de73 103f 9ea8 c9bd 952f 983e
000001b0: 5076 0dbf 4f70 083d a5a9 1ebf ed4f 323f
000001c0: 81f7 923e 36c9 0d3f 21e6 dbbc 9846 b43d
000001d0: c64b de3d b9a8 083e 2963 383b 56d9 f3be
000001e0: d855 e23d b759 af3d 6eb7 eb3d 9e98 2dbe
000001f0: a107 6b3d 7150 5f3e 552f 2cbe 309b 183e
00000200: ba6b 063e 2ece 12bc d691 d2bc 89e8 7dbf
00000210: d0c8 77bd 20a3 17be 036b a5bc fe44 603e
00000220: e1b7 273f 11b7 cfbd fad9 223f b324 f83d
00000230: 691d 193d 1cc7 443d 1eaa 68be c9ae a33d
00000240: 182a 0dbe 2900 a83e f70e 443e 6b04 ab3e
00000250: f4eb 093f af15 133e 28e5 af3b 0ffa 3a3d
00000260: 1c49 09bc 9490 8abe f7d3 6dbe ae16 babd
00000270: 602d 80bc 6aae c33d 0801 493f a773 0dbf
00000280: acdb 57be 6538 65bd 46b8 76bc 87ca debb
00000290: 613a 633e cf32 73bc 5a4c bd3e 09d4 c93e
000002a0: 4797 9bbc db60 363e 3be2 fe3d 0abd 983c
000002b0: 555c a43e cd09 30be 3af7 30be d788 0b3e
000002c0: 8727 cbbe 041d c3be 97d6 ccbe 78f2 8c3e
000002d0: 1c21 9ebe ee23 93be 4a3c bb3e 6912 b83e
000002e0: 914f 28bf 615b d6be 9bb8 0cbe 25df 5bbd
000002f0: caed 10be 8221 5bbe a7c2 bbbd 1954 2ebd
00000300: 7709 4f3b d613 c0be 656e 0dbe 18e5 553e
00000310: 383f de3d c125 323c bc9c 173e 3a86 23be
00000320: 9da2 42bd 291a 383d 7429 adbd f798 0ebf
00000330: e6dc 34be 1cf4 e4bc 773d 55be d5dc 35be
00000340: f92d 4fbf 9b6e ea3d 8b0d fdbd 10ee cdbb
00000350: 431d 1cbe c050 75be d145 193d e4f0 86bd
00000360: ad20 6fbd fe89 90bd 4f4a efbe bc7a bcbd
00000370: b58c 71be 7e1c 0e3f 2f41 b03f 48c1 ea3e
00000380: 6fa6 993c bf1a 1e3f db61 883d 33ea 0fbf
00000390: 59a7 123f 6f2d c53e 61c2 30bf 6443 78be
000003a0: 7d06 cb3e 0e7b ca3e 59ac 32be 5947 aebe
000003b0: 6bfd 0f3f b9cd 65be bc02 a3be 5f44 a93d
000003c0: 2538 2bbe baa1 85be 9850 813e b845 533e
000003d0: 104e 4c3f e382 173f 5eca 39be 45e2 d8be
000003e0: 207b 633e 78c2 2dbf fc4c b53e 0865 ec3e
000003f0: c63d 01bd 9022 3abd 3031 6dbe 310d d03e
0.14821316 -0.14059103 0.5768389 -0.009471208 -0.33327338 0.36420235 -0.42563525 -0.1657682
0.25188974 0.12507364 -0.08055644 -0.22749911 0.15167123 -0.009184971 -0.0127823865 0.21183139
0.14893813 -0.013342689 0.15679945 -0.20731176 -0.24910562 -0.56138235 0.00861166 0.12686321
0.30035236 -0.031917065 -0.103202835 0.33053386 -0.14540981 0.07166005 -0.16394618 -0.15527327
-0.48597354 0.2651942 0.10372001 0.39465353 0.13919377 0.05855589 0.15336095 -0.01961518
0.30641833 -0.11711811 -0.1712972 -0.057901222 -0.29664984 -0.10849295 0.2995109 -0.17549527
-0.14034708 -0.23905516 -0.06081905 0.5250497 -0.6935917 -0.20167089 0.16810916 0.20814812
-0.15224971 1.1843531 0.23039445 -0.23484258 0.03086173 0.7120236 0.29181346 -0.39570403
-0.22616899 -0.14413366 -0.34244105 -0.25269204 -0.12884004 -0.13157389 0.005921138 0.11681454
-0.045956995 0.10215158 -0.10632665 -0.054342918 0.5162772 -0.5816624 0.32883865 0.7621806
0.10688977 -0.5138194 -0.2177029 -0.01183652 -0.007962923 -0.4321244 0.05166239 0.9572969
0.1587856 0.013983288 -0.102251336 -0.050090447 -0.07660216 0.018936986 -0.3922773 -0.21666986
0.03020482 0.015098688 -0.072521724 -0.02788693 0.28542116 0.25751185 0.5803004 -0.2148421
-0.5481385 0.564268 -0.09846614 0.29723802 -0.55258656 0.03331023 -0.61977607 0.6965321
0.28704455 0.5538515 -0.026843132 0.08802527 0.108542964 0.13345613 0.0028135276 -0.47626752
0.1105153 0.085620336 0.11509596 -0.1695275 0.057380322 0.2180803 -0.1681493 0.1490295
0.13127032 -0.00896029 -0.025704306 -0.99182945 -0.060494244 -0.14808321 -0.020192629 0.21901318
0.6551495 -0.10142339 0.63613856 0.12116375 0.037381563 0.048041448 -0.22721145 0.07992322
-0.13785589 0.32812622 0.19146334 0.33401808 0.5387566 0.1436374 0.0053678937 0.04564863
-0.008379247 -0.2706343 -0.2322539 -0.09086357 -0.015646636 0.09554751 0.785172 -0.55254596
-0.21079892 -0.055961985 -0.015058583 -0.0067990455 0.22190239 -0.014843657 0.36972314 0.39419582
-0.018993033 0.17810385 0.12445494 0.018644828 0.32101694 -0.17191239 -0.1728181 0.13626419
-0.39678594 -0.38108075 -0.4000747 0.2752874 -0.30884635 -0.2873835 0.36569434 0.35951546
-0.6574641 -0.41866592 -0.13742296 -0.053679604 -0.1415321 -0.21399501 -0.09167986 -0.04256067
0.0031591335 -0.37515134 -0.13811643 0.20888174 0.10851902 0.010873259 0.14805883 -0.15969172
-0.04751836 0.044946823 -0.08455172 -0.55702156 -0.17662391 -0.027948432 -0.20824228 -0.17760022
-0.80929524 0.114468776 -0.12356099 -0.006284483 -0.15245537 -0.23956585 0.037420098 -0.06588915
-0.05838077 -0.0705757 -0.4673638 -0.09203097 -0.23588832 0.55512226 1.3769892 0.45850587
0.01875612 0.6175956 0.066592894 -0.56216735 0.572866 0.38511226 -0.690466 -0.24244457
0.39653388 0.39547008 -0.17448558 -0.3403881 0.5624606 -0.22441758 -0.31838024 0.08264994
-0.16720636 -0.2609995 0.252568 0.20632064 0.79806614 0.5918409 -0.18143603 -0.4236013
0.22214937 -0.6787486 0.35410297 0.4617083 -0.031553052 -0.045443118 -0.23163295 0.40635064

actor.0.bias f4 [256]
00000000: 4440 be3d 411c b6be 349c dbbe 2125 94be
00000010: 7847 2fbf df0e 40bf e943 05bf d1a7 f7be
00000020: 7400 19bf 04f6 57be 41ab 0ebf a261 27bf
00000030: ce12 6fbf 122d 48bf cb93 91bf 9f16 f4be
00000040: 3105 14bf 8d19 15be 1bae b0be 3a8c 36bf
00000050: 136e 9ebf 486b 59bf e8f7 0abf 1a0e 14bf
00000060: 5f47 83be 0fab 94bf 8f0a babe b798 08bf
00000070: 8bf7 cbbe c23d f0be 8e49 01bf 574b 3ebf
00000080: 7c62 21bf c904 26bf 91c5 91be 9c07 dabe
00000090: fd11 0dbf 1417 e7be 937e 90be 8c73 95be
000000a0: 48ec 23bf b00c f3be 1b64 b3be fd21 3dbf
000000b0: 28f3 3dbf 6fa7 9abf 4873 88bf 7b81 05bf
000000c0: 35ee 5bbe 978e 05bf ef76 abbf 9873 32bf
000000d0: 888f 13bf 82cf 14bf aea0 3bbf 9835 f5be
000000e0: 8d60 d5be afa7 c1be f938 883d 1962 53bf
000000f0: 8f56 493e 7c86 05bf 25d1 4ebf 9be1 03bf
00000100: 91e1 adbe aacc 47bd 64fd 74bf cd49 31bf
00000110: a79c 3cbf c2aa 0bbf 1f74 09bf 0d86 3dbf
00000120: f1ef 28bf 4936 4abf 0f48 b9be b168 9bbe
00000130: b90d 2abe 2c17 9abd c920 28bf ebd9 0fbf
00000140: 798e 5cbe 7435 4abf 85c2 61bf 8713 38bf
00000150: 5754 a5bf a21b 00bf 5838 96bf 295b 2abf
00000160: 09cf 76be 665f 1abf 2c9c 05bf 8bcf e1be
00000170: b1c3 edbe d742 7bbf 130f 3d3c 762b bdbe
00000180: aba0 27bf 3d60 b8be 4bc3 32bf b6c5 74be
00000190: e4da 8ebe 6bc2 68bf 6cd4 33bf 4292 8abf
000001a0: ce7f 8bbe fe59 abbf 970f 53bf bdfc 15bf
000001b0: e7d1 32bf ec5c 39bf 44f8 3fbf 3a83 a1be
000001c0: cd79 1dbf 680b 1fbf 8a95 c8be b7e3 96be
000001d0: 2033 5dbe 8d02 4bbf 6a63 8dbf 6e00 17be
000001e0: 9eb2 27bf a3f1 18bf 3224 a1be 4b06 17bf
000001f0: 7a49 64be 2a89 75bf 0a2e 33bf 96b1 56bf
00000200: 3720 7cbf bf94 ffbe 4ea4 d7be ba9b 9e3e
00000210: ff79 a0be a950 5abf cb7a 74bf 5da8 6abf
00000220: f798 4abf dd04 7abf b5b9 cdbe c355 2cbd
00000230: d43e 67bf 0d80 29bf 5244 b4be d6f7 31bf
00000240: 4685 19bf 81a8 8dbf 0707 8abf 19e0 47bf
00000250: 77c7 41bf ddb3 08bf b9ac 94bf fb79 adbe
00000260: 7ff6 41bf b475 dfbe 5561 9dbf dbb2 96bf
00000270: 4c55 62be 459b 0dbf bd0c 5cbd 56ba 05bf
00000280: 24fe 55bf ba5d 33bf df07 84bf bc72 3abf
00000290: 374c 24be 6fba 5dbf 8b59 7dbf 85e9 a4be
000002a0: 7af2 89bf 24b5 f4be 4d95 69bf dc5f adbe
000002b0: 0d12 21bf 3a96 19bf 1f5f bbba da76 8cbf
000002c0: b1bf 73bf 0eea c9be f766 9cbf 1c9f 43be
000002d0: 2f0e fbbe 4264 54bf bed5 cbbe d641 72bc
000002e0: 324e 5fbe 5b8a 80be a52e 0bbf 86f4 dfbe
000002f0: 5856 06bf 84a9 85bf c095 84bf 99c6 8abc
00000300: 1e8e 55bf 67ea 1cbf 37a9 3abf b218 9bbe
00000310: 1fbd 41be b7d4 90bf 382a c0bd 73a6 e2be
00000320: 5913 45bf 7cbc b3be b0ca 12bf 7700 2bbf
00000330: 2985 1bbf d058 07bf 5c5e c1be a4e6 99be
00000340: dd0c 00bf 4c09 2abf fe6b 18bf 2d5d b6be
00000350: b51d 00bf 0b27 ffbe ff98 45bf 7365 debe
00000360: 8713 24bf b3aa 99bf f595 08bf 4dc3 74bf
00000370: 1790 05bf f34f 2ebf 6160 3ebf b070 19bf
00000380: f673 8bbf 8082 4cbf 50d9 70be e729 0ebf
00000390: 5cb4 1cbf c61b 6bbf ac9f 4cbf f950 e1be
000003a0: f0f8 ecbe dc02 3ebf ea86 86be a870 30bf
000003b0: 8dcc 02bf 8bf0 1fbf 5a0f 05bf c38d a0bf
000003c0: 4751 3fbf b351 59bf a0ea 8abf 4d2e 0cbe
000003d0: d654 b8be 6e64 53bf 5726 fabe 4599 25bf
000003e0: b132 37bf f53a 82bf d2ba edbe a3fa 8ebf
000003f0: 8a4a cbbe 1778 cebe 6e30 24bf 6e22 46bf
0.092896014 -0.3556843 -0.4289261 -0.28934577 -0.6846843 -0.7502269 -0.5205675 -0.4837022
-0.59766316 -0.21089941 -0.5573006 -0.6538335 -0.9338807 -0.7819377 -1.1373228 -0.4767351
-0.5782042 -0.14560528 -0.34507832 -0.7130772 -1.2377342 -0.84929323 -0.54284525 -0.5783402
-0.2564039 -1.1614703 -0.3633618 -0.53358024 -0.39837298 -0.46922117 -0.5050286 -0.7433371
-0.630409 -0.6485105 -0.28471044 -0.4258393 -0.5510557 -0.45134795 -0.28221568 -0.29189718
-0.6403241 -0.47470617 -0.35037312 -0.73879987 -0.7419915 -1.2082347 -1.0660181 -0.52150697
-0.21477588 -0.521707 -1.3395671 -0.6970763 -0.57640886 -0.5812913 -0.7329205 -0.4789245
-0.41675225 -0.37823245 0.06651492 -0.8257156 0.19661926 -0.5215833 -0.8078788 -0.5151612
-0.33961156 -0.048779167 -0.95699143 -0.69253236 -0.7367653 -0.5455743 -0.5369281 -0.7403267
-0.6599112 -0.7898908 -0.3618779 -0.3035331 -0.16606797 -0.07523951 -0.65675026 -0.5619189
-0.21538724 -0.78987813 -0.8818744 -0.71904796 -1.2916363 -0.50042164 -1.1735945 -0.6654535
-0.24102415 -0.60301816 -0.52191424 -0.44103655 -0.46438363 -0.98148865 0.0115392385 -0.3694722
-0.65479535 -0.36010924 -0.69829243 -0.23903546 -0.27901375 -0.9092166 -0.70246005 -1.0825884
-0.27245945 -1.3386838 -0.82445663 -0.58588773 -0.69851536 -0.7240741 -0.749882 -0.3154543
-0.6151398 -0.6212678 -0.3917659 -0.29470608 -0.21601534 -0.7930077 -1.1045964 -0.14746258
-0.65506923 -0.5974371 -0.31472927 -0.5899398 -0.22293654 -0.9591242 -0.69992125 -0.83864725
-0.98486656 -0.49918172 -0.42117542 0.30978185 -0.31343076 -0.8527933 -0.9549987 -0.9166315
-0.79139656 -0.9766367 -0.40180746 -0.042073976 -0.90330243 -0.66211015 -0.35208374 -0.6951879
-0.59968984 -1.1067048 -1.0783395 -0.7807632 -0.75694984 -0.5339945 -1.1615211 -0.33882126
-0.7576675 -0.43644488 -1.2295328 -1.1773332 -0.2210285 -0.5531505 -0.053723086 -0.5223745
-0.8359091 -0.7006489 -1.0314902 -0.7283132 -0.16044699 -0.866126 -0.98964757 -0.3220941
-1.0777123 -0.4779445 -0.9124344 -0.33862197 -0.6291817 -0.5999485 -0.0014295316 -1.0973771
-0.9521437 -0.39436382 -1.2218922 -0.19103664 -0.4903426 -0.8296548 -0.3981151 -0.014786204
-0.21807173 -0.25105557 -0.5436805 -0.43741244 -0.524755 -1.0442357 -1.03582 -0.016940402
-0.8341998 -0.6129517 -0.7291445 -0.3029228 -0.189198 -1.1314915 -0.093830526 -0.44267616
-0.7698265 -0.3510474 -0.57340527 -0.66797584 -0.6075006 -0.5286989 -0.37767303 -0.30058777
-0.5001963 -0.66420436 -0.59539783 -0.35617962 -0.5004533 -0.49834475 -0.7718658 -0.43436775
-0.64092296 -1.2005218 -0.53353816 -0.95610505 -0.5217299 -0.6809074 -0.7436581 -0.5993757
-1.0894763 -0.7988663 -0.23520398 -0.5553269 -0.61212707 -0.91839254 -0.7993114 -0.4400709
-0.46283674 -0.74223113 -0.26274806 -0.689219 -0.5109337 -0.62476414 -0.5197655 -1.2543262
-0.74733394 -0.8489029 -1.0852852 -0.13689537 -0.36002225 -0.8257512 -0.48857376 -0.64686996
-0.71561724 -1.0174242 -0.46431595 -1.1170238 -0.39705306 -0.40325996 -0.641364 -0.77396286

actor.3.weight f4 [256, 256]
00000000: 8615 e43d c8d1 82bf feea 39be 964e 7fbe
00000010: bca1 88be 5aaf 673d 9def c5bd f37c a13d
00000020: 71c7 07bf 2b78 97bf 1469 9dbf c218 7bbe
00000030: d57e 873e 8144 133d 7319 3fbe cf44 37be
00000040: abac ef3d 6fde 94bf e096 3f3f cbf3 61be
00000050: 2603 243f 5204 03be 0fcf 6c3d 7c2b 28be
00000060: 12d7 f4be f4a4 8ebe dacb 08bd ae77 0fc0
00000070: 7ba8 e83e 70bb ae3d ae81 bd3d ff47 343f
00000080: 2e52 4a3d e1c1 1c3e 4a07 a8bf bcdd 433d
00000090: ac62 01bd 5ddb 69bd 755a aebe 1013 cabb
000000a0: e420 3d3e 9a30 b93c 1e4a 2fbe 3a81 fbbc
000000b0: aa1d bcbd 6230 af3f 05ab 2ebf 81ae 333d
000000c0: 6a66 0bbf efee 923d 4b12 8abe a084 d83e
000000d0: ad9a 55be daaa a0bf e164 fa3d 1584 26be
000000e0: c230 c9bd 2cb0 f33e e8c8 d83d 5946 303e
000000f0: adb7 20bd 362c 183d c43e f03c 354f 86ba
00000100: 709d 14be e549 b83b 1794 d53d 10b6 ba3e
00000110: d2d1 d8be dc7d a5bc 1c63 96be e7dc 35bf
00000120: 0337 12c0 22de 253f c7f9 f7bf fe82 babe
00000130: 8f00 0ac0 e438 46bc 0e6e 3fbf 5f32 9bbc
00000140: f12e f33d a981 063f 7fcc f23d 6ad2 9bbe
00000150: 7a5e d5bf d861 74be eab5 d2bd 08f0 a3be
00000160: 1c57 723e 2590 1e3f b27b cebe 967c 2cbf
00000170: 2167 95bf ffb0 8bbc 6b3e e23c b440 15be
00000180: 5b93 c6bf 0310 4a3d 5827 e83d a2c6 603f
00000190: 0670 f6be 9a4d 6ac0 34f1 b7bf 543c f7bf
000001a0: 9069 05be 0990 d3bf 423d b9bd 6ece 8f3e
000001b0: 4eb3 bcbd d006 043e 1a62 19be 483d 9abd
000001c0: 63e7 4c3e 861e 1dbf 74cc e6bd 547e a9bd
000001d0: 4cd6 bc3e c3c2 ecbc bc31 ad3e f9d1 58bf
000001e0: dc40 6bbc 7b53 ad3a f7ce 63bd 01d5 72bf
000001f0: fad2 493d 1179 65bf 4564 69bd 1065 f0be
00000200: 78f2 3dbe 82b4 1f3e 0789 c43a 8e13 bdba
00000210: 473e c73e c4ce b3be cd39 06c0 4867 05bf
00000220: ee91 8d3e 8efa 8bbd 0c8b 97bc f594 31be
00000230: 7788 383e 2a4e 77bd 5691 2d3f b176 72bf
00000240: 0857 1fbf 21bd 93be 3493 89bf 5d59 3cbd
00000250: 5653 b13e 47ac 8ebf 31b9 013f 2787 493d
00000260: 2dc5 dcbe 822a 47bc f436 0abe 487b 70be
00000270: e862 4b3d 36cc 19bc 6403 e1bb 224b 0dbc
00000280: c2b6 173e 470e 12c0 d8fa 0c3f ad26 bd3e
00000290: cffa a0bc 1a0f 8dbe 7801 38be 029b 80be
000002a0: 2d1a cdbe 08ad a6be 3e58 e2bf dff9 8fbf
000002b0: fb8c 96bf 12ad 77bc 9b2b 2e3e c953 283e
000002c0: 03ed 21c0 ede2 37bf 7be8 c43d a523 913e
000002d0: 5b06 873c 70f6 99be e215 123c 716b 083d
000002e0: 5331 1a3e 793b 19be efd1 f3be e8c2 a23e
000002f0: 813e 69bd 7bbb 3cbf 5205 28be 65e0 9a3e
00000300: 710b 0d3e 87e3 44bd a8b5 cebe a5cb 293d
00000310: 9ceb 17be 6ec5 ad3f 830d 11bd 37fd 8d3d
00000320: 6ac9 153e 9e20 243e b1a8 1cbe 8106 c83f
00000330: 7fd1 913e 68c9 e9bb 6eea b33d ef99 833d
00000340: b19e 34bd 4aa5 e33d 3a97 c5bd ddf1 8abf
00000350: a75e 12bf 6772 90bb e5a0 eebf 233c c53e
00000360: 58ce 5bbf 676f b83c 2ff4 64bd d97f 80bd
00000370: 15cb 3bbe 5b70 12bd 300a 283d feeb 1dbf
00000380: 11a3 fabc eb9f 21bd e249 fabd ca4e 6fbd
00000390: 01ea d03f 7bee 593e 3097 c93e 6242 403c
000003a0: d3d0 5ebe 11f0 88bd 8557 9abf c0ae 9ebd
000003b0: f6b6 be3d 968c f63d 3943 5cbf 6bdf 47bf
000003c0: 529f cbbf 407c 8dbc e421 5039 3a98 febe
000003d0: 62e5 1bbe 74fc 05bf c418 473e 1daa 17be
000003e0: 06b0 ae3d c87c 833d ed99 b2bf 6f34 d1bd
000003f0: 1ce3 6dbc e965 e7be 060d 3d3b 3476 b8bd
0.11136918 -1.022027 -0.18156049 -0.24932322 -0.26685894 0.056563713 -0.09664843 0.0788516
-0.530387 -1.1833547 -1.2297692 -0.24521163 0.26463953 0.035954002 -0.18662052 -0.17897342
0.11702856 -1.1630381 0.7483959 -0.22065656 0.64067304 -0.12794617 0.057814654 -0.16422838
-0.47820336 -0.27860224 -0.033397533 -2.2416797 0.4544104 0.085318446 0.0925325 0.7042236
0.04939478 0.15308334 -1.3127224 0.047818884 -0.03158824 -0.057093967 -0.34053388 -0.006166823
0.18469578 0.022606183 -0.17118117 -0.030701268 -0.091853455 1.368664 -0.68229705 0.04386759
-0.54453146 0.07174479 -0.2696708 0.42288685 -0.20859785 -1.255214 0.122262724 -0.16261323
-0.09823753 0.47595346 0.10585195 0.17214336 -0.039237667 0.037151538 0.029326804 -0.0010246994
-0.14513183 0.0056240433 0.104286365 0.36467028 -0.4234758 -0.020201616 -0.2937249 -0.71040195
-2.2846076 0.6479207 -1.9373101 -0.36428064 -2.156284 -0.012098525 -0.74777305 -0.018944917
0.11874188 0.52541596 0.11855411 -0.3043397 -1.6669457 -0.2386545 -0.102886036 -0.32019067
0.23666042 0.619387 -0.40328747 -0.67377603 -1.1672097 -0.017052172 0.027617654 -0.14575464
-1.5513719 0.049331676 0.11335629 0.8780309 -0.48132342 -3.6609864 -1.4370484 -1.9315286
-0.1302855 -1.6528331 -0.09044887 0.2808718 -0.09213887 0.12893224 -0.14978829 -0.0753122
0.20010142 -0.613747 -0.11269465 -0.08276048 0.36882246 -0.028901463 0.33827007 -0.8469539
-0.014358725 0.0013223732 -0.0556173 -0.9485627 0.04927347 -0.8963786 -0.05698039 -0.46952105
-0.18549526 0.15596202 0.0014994451 -0.0014425383 0.389147 -0.35118687 -2.0972779 -0.5211072
0.27650398 -0.06834899 -0.01849892 -0.17341979 0.18020807 -0.060377277 0.6779989 -0.9471236
-0.62242174 -0.2885523 -1.0748048 -0.04598366 0.34633893 -1.1146325 0.50673205 0.049201157
-0.43119183 -0.012156131 -0.13497525 -0.23484528 0.04965487 -0.009387067 -0.0068668593 -0.00862387
0.1481581 -2.2821214 0.5507026 0.3694357 -0.019650845 -0.27550584 -0.1796931 -0.25118262
-0.40059033 -0.32553887 -1.7683179 -1.124813 -1.1761774 -0.015116947 0.17008822 0.16438212
-2.530091 -0.71830636 0.09614655 0.28347507 0.016482523 -0.3007083 0.00891635 0.03330559
0.15057878 -0.14964093 -0.47621104 0.31789327 -0.056944374 -0.7372357 -0.1640828 0.30249324
0.13773896 -0.04806855 -0.40372968 0.041453976 -0.14835972 1.3575876 -0.035413276 0.069330625
0.14627615 0.16028067 -0.15298726 1.5626985 0.28480145 -0.007134605 0.08784948 0.06425845
-0.044096652 0.11115511 -0.09647985 -1.0855061 -0.5717568 -0.004408169 -1.8642851 0.38522443
-0.8586173 0.022514058 -0.055896934 -0.06274385 -0.18339188 -0.03575168 0.04102534 -0.6168822
-0.030595334 -0.03945915 -0.12221123 -0.05842475 1.6321412 0.2128238 0.3937316 0.011734577
-0.21759348 -0.06686414 -1.2057959 -0.07748175 0.09312241 0.120385334 -0.86040074 -0.78075284
-1.5907996 -0.017271161 0.00019849051 -0.49725515 -0.15224221 -0.5233834 0.19443041 -0.14810987
0.085296676 0.064202845 -1.3953224 -0.10215079 -0.014519479 -0.4519494 0.0028846874 -0.090069205

actor.3.bias f4 [256]
00000000: e2ac 083f 304b 0a3f 7811 12bf 0760 64be
00000010: f85a 34be 667a a03e 2728 203f b676 72be
00000020: 613f 883d 4b05 ba3e a8ab 293f 362f c93e
00000030: d491 973e 94db 613f cbcc cebe 3d53 3bbe
00000040: 8ce2 89be dd26 db3d abd8 1f3e d76d af3e
00000050: ec67 aebe e00a 063f b8d8 713e 8c37 2b3f
00000060: 6a04 643f a9c4 cd3d 0895 f9bd 1aba dbbd
00000070: 9f93 d83d e861 e0bf a816 813f e1e5 f53c
00000080: 903c 8e3c 8e79 403c a622 563e 416d 2e3f
00000090: 8a7d ca3e 64ef 1cbf 464a 3b3d ca10 bbbe
000000a0: 9849 483f 1a0a f2be caaf de3d 4733 943e
000000b0: aba6 c33e c876 803c f43c f93d 3fbd 21be
000000c0: 8b9e 2b3f 099f 75be 35ce af3d 0720 4b3f
000000d0: 748b b63d f974 183e 137c 9a3e 4c45 573e
000000e0: 428d c0bd bfbb d13e 4d1b 923e 08ae 2d3f
000000f0: 451b 27bc 55a0 1b3f 262d 443e 0bbf b13d
00000100: 8cad 1bbe 9842 a6bc 34fd 303e a13e 66bd
00000110: ec86 0f3f 87ef cd3e b072 9c3e d333 c43e
00000120: 3585 3e3e 7951 7f3d 84ef 9d3e 06e0 fd3e
00000130: 9566 afbe e9a5 9dbd faa5 043f 35d0 17bf
00000140: 9dc6 1d3f 012d e53b 7b64 09be 1ad7 a1bb
00000150: 8d61 dabb d47d 953d 3591 93be c60b d63e
00000160: 2810 a7bc 933e 89be de35 cd3e 8553 0a3e
00000170: 2059 053f b9ef c8bd 15d4 9b3e b2d8 86be
00000180: 2a29 db3e ffb9 c2be 015f 0dbd 5f4b 1b3f
00000190: 08c9 5c3e 3327 aa3e da0b d63e fc4e 463f
000001a0: cec5 b73c 4f79 c93e 96bb 663e 7647 a53e
000001b0: 75f9 51be 8354 453f d43e 2b3f 1771 36be
000001c0: 165b 073e cbf5 9b3c c9e7 093e 9b51 f83e
000001d0: dac2 3abc 1cbe 23be 8cc5 643e 4954 663f
000001e0: 0402 6f3f b1eb 913e 5877 9cbe f4d5 593e
000001f0: 1f43 1a3f 84df b6be fb1a d73e 38ee 7abc
00000200: 8511 e1be 2b69 9a3e 0ac2 313f 2f7f e73d
00000210: 0d0d 9c3e d9b9 f7be d0cb 293f 20e7 0a3e
00000220: c78a 69bf c3d7 233f 4c93 263e 2b8e a03e
00000230: fd98 dd3e b988 113f 6c81 743e 219b 1a3f
00000240: cc42 d53e 9d0f afbe 7ffd 3c3f 7c1a 85be
00000250: 62ab 793f 15ac fa3d b20c 363f 22e1 053f
00000260: 24b4 0cbe 8cea 67bf 65a3 7b3e dc89 353f
00000270: f07f 193a ddfc 223e df42 09bf b7b8 943e
00000280: 1be6 603e ff4a 173f 6a2a a13e ce8f 87bd
00000290: b98b f83c 9a5a 3d3f fe0e 953e 41f7 86be
000002a0: 3634 84bd 5139 ff3d 0993 be3e 9d43 a03e
000002b0: 653a a43e b5a2 be3e bc5a 373f 25c2 683f
000002c0: 5cbc fabe 5c6b 063f e892 81bc 5435 1b3f
000002d0: 60f9 ed3e 578e fb3d 1cb2 d73e fe5d 113f
000002e0: d088 9b3f baf5 9bbe e41f bf3e 5083 643e
000002f0: 6e1a 493e 5ee5 d93e 32aa 613e 6b76 be3e
00000300: 7a2d 2abf ceb1 07bf 12b4 b1bd f2d6 013f
00000310: 128c 0dbe 19dc fdbe 9397 fd3d a9b4 87be
00000320: b7b9 81bd 03ac c53e a3e4 a3bf 6d99 71bc
00000330: a560 33bd 4422 da3e 7466 05bf a9a6 8a3e
00000340: a6e7 69bf 37ea 1d3f 5ea2 ff3e 9769 11be
00000350: 5547 0c3e 89b6 043f 6662 44be 83be 953e
00000360: 652e 60bf 3677 9b3e 2d39 bf3d 6ecd 89bd
00000370: c649 323f 9ed7 cebe 7efd 373f 95e4 9e3e
00000380: 92ff 8fbf fa6c 423e 3009 d23e 271f 9cbe
00000390: 7434 533f 8e38 27bf 88c4 633d 409b 643b
000003a0: cb81 873e 69f6 343e baf8 64bf 3ac3 9c3f
000003b0: b803 10bf 0ff1 2f3f 6485 263f 419c ce3e
000003c0: 80c4 e23d caf9 07be d622 8c3e 94b7 793e
000003d0: 7e02 08bd 48d5 dd3e ab15 7e3e df43 fc3e
000003e0: 78bf 4dbc 62e0 ca3e e024 b93e f917 943e
000003f0: 75e5 c43e 7cb4 5e3e 32b7 c23e f759 ccbe
0.533888 0.5402098 -0.57057905 -0.22302257 -0.17612827 0.31343383 0.6256127 -0.23678097
0.066527136 0.36332163 0.6627755 0.39293832 0.29603446 0.88225675 -0.4039062 -0.18293472
-0.26930654 0.10700772 0.15609996 0.3426349 -0.3406366 0.52360344 0.23617828 0.6688163
0.89069235 0.100472756 -0.121866286 -0.107288554 0.105750315 -1.7529879 1.0085039 0.030016841
0.017362863 0.011747731 0.20911655 0.6813546 0.39548904 -0.6130278 0.04572513 -0.36536247
0.78237295 -0.47273332 0.10873373 0.28945372 0.38213095 0.01568164 0.12169829 -0.15794848
0.6703879 -0.23986448 0.08584253 0.79345745 0.08913317 0.14888372 0.30172786 0.21022528
-0.09401943 0.4096355 0.28536454 0.67843676 -0.010199373 0.6079152 0.19157848 0.08679017
-0.15202922 -0.020295426 0.1728409 -0.05621207 0.5606525 0.40221807 0.3055625 0.3832079
0.18605502 0.062333558 0.30846798 0.4958498 -0.3425795 -0.076976605 0.5181576 -0.59302074
0.61631185 0.0069938903 -0.13417237 -0.004938972 -0.006664461 0.072993904 -0.28821722 0.41805857
-0.020393446 -0.26805553 0.4008016 0.13508423 0.5208912 -0.098113485 0.30435243 -0.263372
0.42804843 -0.3803253 -0.03451443 0.6066188 0.21561062 0.33233032 0.41805917 0.7746427
0.022433188 0.39350364 0.22532496 0.32281083 -0.20505317 0.7708208 0.66892743 -0.17816578
0.1321834 0.019038102 0.13467325 0.4849976 -0.011398995 -0.1599049 0.22340983 0.8997236
0.9336245 0.2850013 -0.30559802 0.21273023 0.6025867 -0.35717404 0.42012772 -0.015315585
-0.4395868 0.30158362 0.69436705 0.11303555 0.30478707 -0.48383978 0.6632662 0.1356473
-0.9122738 0.640011 0.16267127 0.31358466 0.43280783 0.5684925 0.23877496 0.6039296
0.41652524 -0.341916 0.73824304 -0.25996768 0.97527134 0.12239853 0.7111312 0.5229665
-0.13740593 -0.90592265 0.24574049 0.7091348 0.0005855551 0.15916772 -0.5361766 0.29047176
0.21962778 0.5909881 0.31477672 -0.066192254 0.030340062 0.7396637 0.29113 -0.26360515
-0.06455271 0.12462104 0.37221554 0.31301585 0.32075801 0.3723351 0.71622825 0.9092124
-0.48971832 0.5250757 -0.01581712 0.6062825 0.4647932 0.122830085 0.42128074 0.56784046
1.2151127 -0.30460912 0.37329018 0.22315717 0.19638988 0.42557806 0.2203758 0.3719972
-0.6647564 -0.53005683 -0.08676924 0.50718606 -0.13822964 -0.49581984 0.12382426 -0.2650502
-0.063342504 0.38607797 -1.2804149 -0.014746052 -0.04379334 0.42604268 -0.52109456 0.27080277
-0.9136909 0.6168551 0.49928564 -0.14200436 0.13699086 0.51841027 -0.19178161 0.2924691
-0.8757079 0.30364388 0.09337077 -0.06728636 0.6964382 -0.40398878 0.71871173 0.3103377
-1.1249869 0.18986884 0.41022635 -0.30492517 0.8250191 -0.6532067 0.05560735 0.0034882575
0.26466212 0.17672123 -0.89442027 1.2247078 -0.56255674 0.687272 0.6504729 0.40353587
0.11072636 -0.1327888 0.27370328 0.24386436 -0.0332055 0.43326783 0.24812953 0.49270532
-0.012557857 0.39624316 0.36160946 0.2892454 0.38456312 0.21748537 0.38030392 -0.39912388

actor.6.weight f4 [3, 256]
00000000: f249 15bd b3d0 8abe b514 a93d d31b d9bd
00000010: e6d6 6c3e 64c2 3fbd f9fe b03a d6bc 81bd
00000020: 8849 dc3c f8e4 ddbd dbca b5bd 69cc 0cbc
00000030: 0d06 febd f945 12be 42f6 513c bb4c 493d
00000040: 3245 573d f6a1 fa3b 1614 aa3d 7f74 90bc
00000050: a944 acbd 9fe5 3c3d 4d04 0c3e f28e 50bd
00000060: 3245 3d3e 6db1 1dbd ef9d 963c 5cb5 ad3d
00000070: 2bc2 3bbd b5c7 233e 6906 01be 736c 2cbe
00000080: a3ce fab9 1455 a2bd 7069 0e3e 3dd3 54be
00000090: 0cae 273e cef0 073d e495 62be eb79 37bb
000000a0: 0182 c13c e128 38bd 137a 263c 3104 13bd
000000b0: 1932 093e 3abf 09bd c7c8 00be 8d22 8d3e
000000c0: b166 66bd fd14 3ebe 6443 8fbb 5cf9 07be
000000d0: 1917 b83c f6ba 47bd 9a35 413e 7c59 8b3b
000000e0: c21c 2cbd 7454 6a3b 3d55 b0bd a1d3 193c
000000f0: e0db 17be 0982 c73d 1169 823c 600a 4ebc
00000100: 8105 d03e 13a7 f5ba 8a20 3e3d d215 5b3f
00000110: 2b0e d1bc 1fb1 8c3d cf66 4abd 5175 0a3e
00000120: 6ddf bd3d ed6a 84bb 383d 7d3b 9422 813b
00000130: e7d4 d63d cbc9 6abc a797 813d 47d2 013e
00000140: 86f1 4abf a072 1140 b8c7 883b d57c 093d
00000150: d2b4 a7bd 026c a1bc fb61 6e3e a029 e2bb
00000160: 8af0 4abd b3f5 4abb e0d1 0dbe 2e88 8c3d
00000170: 3a28 c53d e987 80be bfb1 5c3e 647a 943c
00000180: 5f0d ab3c 2f94 a4bb 5ed9 083b 2264 523d
00000190: 0dea 3bbc fbfc f5bc 1d43 adbc d36e b2bd
000001a0: 115e 02ba 7b0d 39bd 1933 92bc 482d a33d
000001b0: 93fd 3bc0 0bde 363c 66c7 113c d431 0cbd
000001c0: 2362 11bd 42f0 0fbd 436f ee3c 6d88 f3bc
000001d0: 6d3b bbbc 3347 e53d dec1 4f3e 46d8 523e
000001e0: 2ad4 b9bd 8df3 86bc c650 58ba e1d6 8bbd
000001f0: e6e8 083d 6123 7dbd b321 f13b 6b32 06bc
00000200: 685e 9f3d 49ff 62bd 11c4 973d 2309 f33d
00000210: 87e8 12be 7b6a e2bd d753 71b9 42f3 4d3e
00000220: 04e6 8abb a94b abbc 0596 153d b9b3 56bc
00000230: 7990 3fbd a8f7 3abe 73b2 033c ea8f 1b3e
00000240: a981 9dbd 66dd 273d 6b73 143c 379a 673e
00000250: 1cbd 933d a86d c1bc 9251 fd3b 80f4 103e
00000260: 3965 9d3e a865 a13e 23f3 2f3e d847 4a3c
00000270: aaad 6e3d 24c1 14bd 0832 3fbd d3ec 4f3c
00000280: 16d5 533c d7b2 0cbe 5436 5e3b 96e3 79be
00000290: f611 533b 63ef b2bd bfb0 fabd 2616 33c0
000002a0: 6043 843c d651 82b9 249d 453e 2287 9ebd
000002b0: c46b 15be 76e3 1cbd ec42 4d3e 6891 22be
000002c0: 8196 b33e 34c7 313b 5177 fbba 9299 d0b9
000002d0: 1719 18bc e166 fabd cf53 553b c2c8 d3bd
000002e0: 391d 40bb 71a1 c63e f1c2 573b a8e8 c7bd
000002f0: efc1 2d3e 2060 933b 35e9 2b3c fea7 b83c
00000300: b20c ed3e 4e71 ea3d 0017 ccbd df3b 30be
00000310: dc05 483e 4ae2 1ebd 219d b63d 2963 95bd
00000320: 6c9a 1bbe 924b dd3d 4023 823e 08d2 fb3a
00000330: d833 aabd ba51 993a 1db3 2b3c 322a d53c
00000340: 304b e5b9 b9cd b1bc 5f6c 8cbe bc36 d1bc
00000350: 15ec 52bc ff07 79be eba0 d83c e2a9 933c
00000360: b03b 7e3d 5154 8e3c 95b0 a1bb 47f8 16bc
00000370: 243f 2bbd 244e e83a eade b23d 0d82 4c3e
00000380: dd49 5339 5a96 213a e488 90bb 6594 5cbe
00000390: e796 b0bd 7143 063e 4b74 95bd 53a6 9c3d
000003a0: 56be b23d 395d 983d 065b 17be a227 6c3e
000003b0: abbe ee3d 401f a13a ca27 91be 6ae8 e63c
000003c0: 6cc1 29ba 259a 443e ee08 273c 2cd6 ab3d
000003d0: d31a cc3d 8662 29ba c71e b139 37c8 aebd
000003e0: 6661 c73c 1ae7 31be d92e 10be 5331 30be
000003f0: 843c b9bd 3f1e e03c 451f 7a3e c5c3 2bbe
-0.036447473 -0.2711235 0.08255903 -0.1060101 0.23128852 -0.046816245 0.0013503722 -0.06334846
0.026890531 -0.10834688 -0.08876582 -0.008593657 -0.12403498 -0.14284505 0.01281506 0.04914544
0.052556224 0.007648702 0.08304612 -0.017633675 -0.084115334 0.04611742 0.13673516 -0.050917573
0.18483427 -0.038499285 0.018385855 0.08481857 -0.04583947 0.15994151 -0.12600102 -0.16838245
-0.00047837672 -0.079263836 0.13907409 -0.20783706 0.16374987 0.033188634 -0.22127491 -0.0027996253
0.023621561 -0.04496086 0.010160941 -0.03589267 0.13398017 -0.033629633 -0.1257659 0.27565423
-0.056250278 -0.18562694 -0.0043720473 -0.13278717 0.022471951 -0.048762284 0.18868104 0.0042526107
-0.042019613 0.0035755904 -0.08610008 0.009388835 -0.1482997 0.09741599 0.01591924 -0.012575716
0.406292 -0.0018741809 0.04641775 0.8558017 -0.025519451 0.06869721 -0.049414452 0.13521315
0.09271131 -0.004041067 0.0038641226 0.0039408896 0.10489827 -0.014330338 0.063277535 0.1267787
-0.79274786 2.2726212 0.004174199 0.033566315 -0.081887856 -0.019704822 0.23279564 -0.0069019347
-0.049545802 -0.0030969202 -0.13849592 0.06861912 0.09626813 -0.2510369 0.2155218 0.018124767
0.0208804 -0.0050225477 0.0020881514 0.051365025 -0.011469376 -0.030027857 -0.021150166 -0.08712544
-0.00049731234 -0.04517887 -0.01784663 0.07967621 -2.937352 0.011161338 0.008897638 -0.034227207
-0.03549398 -0.035141237 0.029105788 -0.029728139 -0.022855485 0.11195221 0.20288798 0.20590314
-0.0907367 -0.016473556 -0.0008251782 -0.06828094 0.033425234 -0.061801318 0.0073587536 -0.0081907315
0.077816784 -0.05541924 0.074104436 0.11866977 -0.14346515 -0.11055466 -0.00023014784 0.20112327
-0.004238846 -0.020910101 0.036520023 -0.013104373 -0.04676864 -0.18258536 0.008038151 0.15191618
-0.07690746 0.040982626 0.009060721 0.22617422 0.07213804 -0.023611858 0.007730671 0.1415577
0.3074129 0.3152287 0.17182593 0.01234623 0.058271088 -0.036317006 -0.046678573 0.012690741
0.012929222 -0.13740097 0.0033906894 -0.24403223 0.003220675 -0.08737066 -0.12240743 -2.7982268
0.016145408 -0.00024856505 0.19298226 -0.07740618 -0.1459189 -0.03830286 0.2004506 -0.1587578
0.35075763 0.002712679 -0.0019185339 -0.0003978727 -0.009283326 -0.12226654 0.0032551175 -0.10341026
-0.0029314293 0.38795045 0.003292259 -0.097611725 0.16968511 0.004497543 0.010492613 0.022541042
0.46298748 0.114473924 -0.099653244 -0.17210339 0.19533485 -0.038790025 0.08916689 -0.07294304
-0.15195626 0.108054295 0.2541752 0.0019212374 -0.0831067 0.001169733 0.010479716 0.026021097
-0.00043734303 -0.021704542 -0.2742643 -0.025538795 -0.012873669 -0.24319457 0.02644392 0.018025342
0.06206864 0.01737419 -0.0049343803 -0.009214467 -0.041808262 0.0017723483 0.08733924 0.19971485
0.00020150044 0.0006164067 -0.00441085 -0.21540983 -0.08622532 0.13111664 -0.07297572 0.07648911
0.0872771 0.07439656 -0.14780816 0.23061994 0.11657461 0.0012292638 -0.2835067 0.028186996
-0.00064756605 0.19199426 0.010195 0.083904594 0.09966054 -0.00064615195 0.00033783002 -0.08534282
0.024338435 -0.17373314 -0.14080371 -0.17206316 -0.090447456 0.027358172 0.24425991 -0.16773899

actor.6.bias f4 [3]
00000000: 619f 15be 5671 bb3d 5a5a 2f3d
-0.1461158 0.091524765 0.042810775
