online_weights/spot_hopper_medium-replay/critic_s1000000.pth (torch, 563249 bytes, 10 tensors)

q1_.0.weight f4 [256, 14]
00000000: c8af f7c0 7063 9bbf 331b c5c0 38e9 2bc1
00000010: b263 2ec0 461a bc3f abf6 6f40 4dc0 82be
00000020: 8716 87c0 84c6 a53f bd1a 0bc1 7b62 91c0
00000030: ed10 a540 f326 35c0 7d72 0441 c4e7 873f
00000040: d472 1840 439b 4941 1c29 8d3e ac8e 593e
00000050: 1984 11c1 7286 33c0 f3dc a63e ed29 bf3f
00000060: e597 21c0 0cf5 eabf dc81 74c0 4bca 5dc0
00000070: 08f3 4041 b022 32c0 e133 7b41 e077 01c0
00000080: 476f 3141 5a7a abbf 585e 8a40 21a5 dabf
00000090: eca1 0640 300e 1ec0 8c4e efbf 33ed 903f
000000a0: 53c0 72c0 7c67 e8be 7f5a ecc0 1f52 3140
000000b0: 6590 cfc0 644e 6dc0 249b 1bc1 d770 3bc0
000000c0: 694b 88c1 3bad dd3f f65f 6ec0 cb4d e4bd
000000d0: 0a1c 0241 887c 65c0 7a64 dd3f 3522 0f41
000000e0: 007f 0642 3554 e33c f4a7 a140 028d c13e
000000f0: 6f7c d540 87f8 3641 1012 0840 b291 673e
00000100: f4f2 d0c0 9713 89c0 898d 5ec0 3c30 f4bf
00000110: 3a76 bb3f 701a efbf 7e55 b841 e3c2 223f
00000120: 45ad 7041 a77c b8bf 4d01 5940 d8ea 3a3e
00000130: 55c4 2341 0dcd 57bf 3b3a bf3f 1470 2340
00000140: b6c8 cd40 cddc afbf 0c1a ac3f 1046 9040
00000150: 13f7 54c0 6cb8 9a40 ec16 7b40 0544 ac3f
00000160: 4c25 0ebf 69b2 dec0 17bb 78c0 6464 1b40
00000170: 55ce d3be 125b 64bf a572 2b41 e5b4 1241
00000180: 1740 ea3f be2c 0241 182d b440 732f 813f
00000190: e784 8841 2e44 5e41 acf2 89c0 d069 20c1
000001a0: 9960 35c0 1f0d 393f a3f7 2abf 4415 aabf
000001b0: dfc2 2cc1 0e09 7c3e 52b0 6cbf a12b 0fc1
000001c0: 73ff d0bf 6b60 b140 61d1 5cc1 7759 e3bf
000001d0: 2de8 eec0 a64e 9240 f3c7 88c0 3502 8040
000001e0: fbe4 87c0 8b40 b5c0 d107 a440 e346 9540
000001f0: 1684 bcbf 9940 1540 ec84 ca40 6653 a9bf
00000200: 7f91 4240 7bd8 1641 cf63 6c40 5db7 64c1
00000210: c4dd 963e 7913 df3f 29e4 06c0 991a dc3f
00000220: 4086 0bc1 05c2 4440 4c22 2040 ceab 5ac0
00000230: e0d6 c840 cc22 a8bf 061a 1b41 9383 6fbe
00000240: e361 29c1 f16e ddc0 45b8 a040 0830 0c3f
00000250: 78cf 70bf 51a0 83be e75d f1c0 1ca2 f9be
00000260: 5047 93bf ea19 cac0 2b50 1a41 873e a840
00000270: 4167 2e41 696f f940 3bd3 5a40 08fc 3040
00000280: 6e66 3cc0 ee6b 89c0 c62e a3bf a28a 5a40
00000290: 2865 5ebf a33f 02c1 d2bc dbc0 96c8 27c0
000002a0: 4504 3641 b53f 6dc0 669f 8241 dc6b 6340
000002b0: 377b 1d41 7690 50c0 9115 ef3f 5be8 053e
000002c0: 6f31 21bf b991 98bd e572 aa3f 06a9 3f40
000002d0: faa9 07be dae3 9fbf f649 f040 39da 5140
000002e0: 3533 99c0 e3bc 3241 ca05 dc40 d8f2 b440
000002f0: f851 7d40 a88e 37c0 c086 1740 7639 9d40
00000300: 51a7 873d e12a 67be 5234 0840 0ff9 95bc
00000310: f1d3 91bf b709 36c0 7d65 1241 91fb d240
00000320: 4c10 9c40 0345 49c1 efb4 eb40 2abe 1c40
00000330: e94e f03f e905 3e40 7a3b 2c40 d90e 9340
00000340: fc9f 5440 eb6d 6e40 278a 4ac2 08f9 1e41
00000350: 817e 89c1 a4ce 9abf 6fea 0cc1 e367 693f
00000360: e79c 6bc1 82d1 1541 0191 3ec1 b7fc adc0
00000370: 2776 10c1 f10f f2bc 043f 9840 fa20 123e
00000380: 71e5 0fbf 2b60 acc0 f7d9 df40 29e9 08c0
00000390: f8bd 7ac1 459b f1bf e52f b7c0 7eaf 92c0
000003a0: f749 4440 ffc7 fb3f ec37 6b3e aa2a 83c0
000003b0: e044 a1c0 2126 eebf c723 1041 e576 14c0
000003c0: 2178 b7bf 2b7c cd40 b00b 09c1 b49e 95c0
000003d0: d8a0 87c0 a970 96c0 da83 b940 e185 c340
000003e0: b93e b940 f2e9 94c0 97b3 7b3f e602 e840
000003f0: 6640 92be 98eb 1e40 32cb 38c0 bd2d 90c0
-7.7402077 -1.2139721 -6.15957 -10.744438 -2.724835 1.4695518 3.7494304 -0.2553734
-4.2215 1.2951207 -8.694028 -4.5432715 5.158316 -2.8305023 8.277951 1.0617604
2.3820086 12.600406 0.27570426 0.21245831 -9.09475 -2.805081 0.32590446 1.493467
-2.524896 -1.8356032 -3.820426 -3.465472 12.059334 -2.7833672 15.700166 -2.0229416
11.089667 -1.3396714 4.3240166 -1.7081643 2.103633 -2.469616 -1.8695846 1.1322387
-3.7929885 -0.45391452 -7.386047 2.7706373 -6.4863763 -3.7079096 -9.725376 -2.9287622
-17.036821 1.7318491 -3.724607 -0.1114765 8.131845 -3.5857258 1.7296288 8.945851
33.624023 0.027750114 5.051752 0.37802893 6.6714396 11.435676 2.1261024 0.22614172
-6.5296574 -4.2836413 -3.4773886 -1.907722 1.4645455 -1.8679943 23.041744 0.63578624
15.042302 -1.4413041 3.3907044 0.18253648 10.235433 -0.8429726 1.4939646 2.5537157
6.430751 -1.3739258 1.3445449 4.5085526 -3.3275802 4.8350124 3.923274 1.3458258
-0.5552566 -6.9592786 -3.886419 2.4280024 -0.41368356 -0.8920146 10.715489 9.169164
1.8300809 8.135923 5.6305046 1.0092605 17.064894 13.891645 -4.310873 -10.025833
-2.8340209 0.72285646 -0.66784114 -1.328774 -10.797576 0.24612829 -0.92456543 -8.948152
-1.6327957 5.54302 -13.801118 -1.7761678 -7.465842 4.5721006 -4.274408 4.0002694
-4.2467017 -5.664129 5.125954 4.664903 -1.472781 2.3320677 6.328726 -1.3228576
3.0401304 9.427852 3.6935918 -14.294766 0.2946607 1.7427818 -2.1076758 1.7195617
-8.720276 3.074342 2.5020933 -3.4167361 6.27623 -1.3135619 9.693853 -0.23390035
-10.586398 -6.9197927 5.022494 0.5476079 -0.9406657 -0.2570825 -7.5427127 -0.48756492
-1.1506138 -6.3156633 9.644572 5.2576327 10.900208 7.79485 3.4191425 2.7653828
-2.9437518 -4.294425 -1.2748649 3.4147115 -0.868731 -8.140536 -6.8667994 -2.6216178
11.376042 -3.7070134 16.327831 3.5534582 9.842582 -3.2588172 1.8678457 0.13076918
-0.62966055 -0.074496694 1.3316313 2.9946914 -0.13248435 -1.249141 7.5090284 3.2789443
-4.787501 11.171115 6.8757067 5.654644 3.958128 -2.868082 2.3675995 4.9132643
0.0662371 -0.22574951 2.1281934 -0.018307237 -1.1392804 -2.844343 9.149777 6.593209
4.8769894 -12.579349 7.3658366 2.4491067 1.8774081 2.9691107 2.6911302 4.5955625
3.3222647 3.7254589 -50.634914 9.935799 -17.18677 -1.2094312 -8.807235 0.91174144
-14.725806 9.363649 -11.910401 -5.437099 -9.028846 -0.029548617 4.7576923 0.14270392
-0.56209475 -5.3867393 6.995357 -2.139231 -15.671379 -1.887551 -5.7245965 -4.5839224
3.0670145 1.9670409 0.22970551 -4.098958 -5.0396576 -1.8605386 9.008735 -2.3197567
-1.4333535 6.421407 -8.565353 -4.675623 -4.2383842 -4.7012525 5.797345 6.1100926
5.7889066 -4.653558 0.9832091 7.250354 -0.28564757 2.4831295 -2.887402 -4.5055833

q1_.0.bias f4 [256]
00000000: 9752 49c0 0664 8d40 3f06 c940 e9b7 6ac0
00000010: d839 d441 c18a 7c41 a0df e5bf bfff db40
00000020: e371 3940 eb3a 9940 554f 1741 40a4 a240
00000030: c142 c240 3460 2540 d89f 3dc0 53fd 8ac1
00000040: bc52 27c0 4807 cb40 2649 1ac0 38f2 1241
00000050: d353 e940 b591 57c0 438f 22c1 c264 87c0
00000060: d570 d140 4348 763f 9c01 7440 1fe7 eb40
00000070: 9692 05c1 fa58 b5bf 4cad 91bf 2210 6dbf
00000080: c239 11c1 3f43 e9c0 ad86 7140 3e9f 9540
00000090: 8c17 8e40 7fa9 92c0 6886 3b3f 44ad fb3f
000000a0: a5a9 4840 5db5 bf40 6965 d5be f466 8440
000000b0: 00c7 da40 2f95 0ec1 da62 a1bf 3201 1ec0
000000c0: fad2 be41 3f6e 5cc0 25f1 4240 2644 bd40
000000d0: 2a33 9b40 c4c0 05c1 5c33 e43f ad41 ab3f
000000e0: dffc a3c0 3e33 4940 9b42 dfc0 6da4 b8c0
000000f0: 8873 fa40 97af 803f 1c2a 3340 d7d0 d9c0
00000100: 5c5d 8cc0 aee3 903f 24f2 b340 da1d fbc0
00000110: eefe d540 0fac 8a41 f0f1 0140 fa4e 4cc0
00000120: eb76 f0c0 e3ff 61c0 03e2 82c1 041e b6c0
00000130: 765a 4fc0 9937 5e40 1ac0 2d40 6193 43c0
00000140: b8f2 fc40 4a3d a440 1513 2540 90d1 2c40
00000150: 914e c340 fe30 f2c0 2859 4f41 12d8 b040
00000160: e7f5 c740 01e2 3ec0 acd3 40c0 5d3c 3140
00000170: a4f2 4bc0 5d87 cb40 d070 63c0 9c4f c640
00000180: f3ec 2240 4907 423e 6bce b740 e0cc 7d40
00000190: 5135 6640 23c2 0ac1 4ec5 7f40 47b0 0ec1
000001a0: a3f5 9cc0 ae86 84bf 63e8 1dc1 f548 1c41
000001b0: f3bc 3c41 ae37 033f f67c aac0 fabc b240
000001c0: 54ec f3c0 60d9 9940 1c0b 0041 0e5f 82bf
000001d0: 5286 1cc0 1aef a540 283f 8ac0 ea72 bc3f
000001e0: e5ef 1541 18e6 12c1 8b4f 0840 6da7 d4c0
000001f0: 72b8 d2c0 5d12 7f40 bad2 adc0 32b5 e540
00000200: 996c 1e40 b361 ab40 d294 0d41 967e 1b41
00000210: e1c4 00c0 f371 8240 3407 21c1 d3ba 62c0
00000220: 27e9 c6c0 ec89 74c0 9478 9cc0 5cc3 2240
00000230: 75a6 82c0 0276 1a41 8e12 91bf 07e8 7e41
00000240: 3bb5 dd40 efb2 0341 66d0 0e40 f620 4640
00000250: c243 4ebf 1e32 f6bf 0e7f 0541 085a 49c0
00000260: 916c 5a40 39ad 2e40 aff8 dfc0 ea8a de40
00000270: b932 2c3e 3205 7740 1d78 1a41 9425 0641
00000280: 09d3 df40 1ebf 1440 8f68 c3c0 19f3 a5c0
00000290: cbfd e3c0 5692 a1c0 61f2 9f40 1849 0941
000002a0: d900 eac0 8b70 9bc0 d9d8 85bf 9544 c4bf
000002b0: fb6f 9e40 ce2f 2f40 bc8e ea3f 1273 71c0
000002c0: fa8a fdbf 5f50 3741 42be e940 8fee 7640
000002d0: 6dad 4541 b39a 493f ec6e fc40 9575 8dc0
000002e0: f921 c740 6a2f 9abf e19e 8ec0 cd51 dd40
000002f0: 7242 7c40 0087 0a40 7f20 1c40 3306 bdc0
00000300: d872 37bf 04ad dd3f 070a 74c0 e151 9940
00000310: 8df2 f9c0 6364 2e40 d1a5 ca41 f821 d63f
00000320: 841b f63f 6f88 9e40 1edf df40 793f a340
00000330: 4e13 2040 0cfc 07c0 0f71 ea40 d639 0041
00000340: 9794 c841 b9ce af40 c268 af40 c87a 9540
00000350: 5c02 41c0 f62f 9cbf 786f a340 411a 0bc0
00000360: 5cba eabf 9631 0940 cfd6 2540 fa07 4240
00000370: 62d3 edbf 3bfb b2bf 3941 173f 25bf fcbe
00000380: cd82 8240 7238 d241 e1ea 1fbf fa4f 18c0
00000390: 7836 5b40 91ba 4f40 b3c1 84c0 7d6b d6c0
000003a0: c83a ebc0 0ba2 ebbf 3cf3 d73f 934f a640
000003b0: 01c2 03bf e4cc 5340 03e0 1141 abbf b13f
000003c0: 4e83 29c1 54f0 ab40 8824 b1c0 2b28 3a40
000003d0: 8d3f 2640 dbaa b440 60a1 8ac0 55ae 8040
000003e0: 5c53 a740 0bd7 f040 f512 30c0 a90e 653f
000003f0: 5ed2 8cc0 6185 05c1 3bc3 da40 792a 4640
-3.145666 4.41846 6.2820125 -3.667475 26.528244 15.783875 -1.795887 6.874969
2.897576 4.788442 9.456868 5.08255 6.0706487 2.5839968 -2.962881 -17.373693
-2.6144247 6.344639 -2.4107146 9.184135 7.2914824 -3.3682683 -10.159976 -4.2310495
6.5450234 0.9620401 3.8125982 7.371963 -8.348288 -1.4167778 -1.1381011 -0.9260274
-9.076601 -7.2894588 3.773845 4.6756887 4.4403744 -4.5831904 0.7325196 1.9662251
3.1353543 5.990889 -0.41678932 4.1375675 6.836792 -8.911422 -1.2608292 -2.468823
23.853016 -3.444229 3.0459683 5.914569 4.8499956 -8.359562 1.7828174 1.3379418
-5.124618 3.1437526 -6.9768806 -5.7700715 7.826603 1.0053586 2.7994452 -6.806743
-4.3863964 1.1319482 5.623308 -7.847394 6.6873693 17.334013 2.0303917 -3.1923203
-7.5145164 -3.531243 -16.360357 -5.691164 -3.2398963 3.4721434 2.71485 -3.0558703
7.9046288 5.1324816 2.5792897 2.7002907 6.1033406 -7.5684805 12.959267 5.526376
6.2487674 -2.9825442 -3.0129194 2.7693093 -3.1866846 6.360274 -3.5537605 6.197218
2.5457122 0.18948092 5.7439475 3.9656296 3.5970042 -8.672397 3.9964175 -8.918036
-4.904985 -1.0353601 -9.869235 9.767812 11.79613 0.51256835 -5.327754 5.5855684
-7.6225986 4.807785 8.002712 -1.0185258 -2.4456983 5.185437 -4.3202095 1.4722569
9.371068 -9.181175 2.129855 -6.6454377 -6.5850153 3.9854958 -5.4319735 7.1783686
2.4753783 5.355676 8.848833 9.718405 -2.0120165 4.07641 -10.064259 -3.5426528
-6.215961 -3.820918 -4.889719 2.5431738 -4.0828195 9.6538105 -1.1333787 15.931647
6.928373 8.231185 2.2314696 3.0957618 -0.8057214 -1.9234045 8.343519 -3.14612
3.4128764 2.7293227 -6.999107 6.9544573 0.16816224 3.859692 9.654325 8.384174
6.994511 2.3241649 -6.1065135 -5.185925 -7.1247306 -5.0491133 4.9983373 8.580345
-7.3126035 -4.857488 -1.0456802 -1.533343 4.9511695 2.7372928 1.8324809 -3.7726483
-1.9808037 11.457122 7.304475 3.8583105 12.35484 0.7875168 7.8885403 -4.4206033
6.222897 -1.204572 -4.4568944 6.9162354 3.9415555 2.1644897 2.4394834 -5.9070067
-0.7165961 1.7318425 -3.813112 4.791245 -7.8108582 2.724877 25.330965 1.6729116
1.9227147 4.9541545 6.995986 5.101498 2.5011783 -2.1247587 7.326301 8.01412
25.072554 5.4939847 5.481538 4.671238 -3.015769 -1.2202137 5.107357 -2.1734774
-1.8338122 2.1436515 2.5912359 3.0317369 -1.8580134 -1.398292 0.59083897 -0.49364582
4.078467 26.277561 -0.6246777 -2.3798814 3.4251995 3.245762 -4.148645 -6.700621
-7.3509254 -1.8408827 1.6871104 5.1972136 -0.514679 3.3093805 9.11719 1.3886617
-10.594557 5.373087 -5.5357094 2.9087017 2.5976288 5.6458564 -4.332199 4.021281
5.2289257 7.5262504 -2.751157 0.89475495 -4.4006796 -8.345063 6.836332 3.0963423

q1_.2.weight f4 [256, 256]
00000000: 6c79 93bd 315a 7abc bdf7 48bd b737 b83c
00000010: 1639 44bd fa12 083c 8fef 4fbd 12da 46bd
00000020: c315 05bb 3874 3c3d da5c 82bd 168c 9e3c
00000030: 2460 6fbd 23a8 3abc e5ad 10ba 42ab fc3b
00000040: d7e1 7ebc b410 5cbd a36f 373d eb01 413b
00000050: 37c2 093d c229 0cbd 5b64 fdbc 66fa 1dbd
00000060: f520 07bd 6802 38bd b5f3 37bd fc75 92bd
00000070: c3ac 21bc 0b3d 38bb 3447 af3c 3920 053b
00000080: 29b0 de3a 0ec4 443d 9fb4 1cbc c8e9 17bc
00000090: 989d 3d3c 4907 85bd d08b 033d c480 80bd
000000a0: d06a 3cbc d224 343d bcbf 1d3d 80cd 853c
000000b0: c2c2 1bbd 60b6 073d b126 b83c 19d8 413d
000000c0: cadf c9bb 8443 c03c e18b a03c f4fd 44bd
000000d0: 0232 e5bc fbf2 cb3c 95d0 313d 31ea 2dbd
000000e0: 453f c9bc 5e9b ddbc 5d2d c33c a666 25bd
000000f0: 3f0c f23c ace8 4c3b 6238 e13b 4925 53bd
00000100: c2be 283d 1932 82bd ec67 6c3c 599f ed3b
00000110: a548 9bbd 2ee2 4abd bf8f 863c 7c30 7cbc
00000120: ed7f 17bd c523 a3bc a126 7fbc b368 da3a
00000130: f90b c1bc acd3 25bd fc48 aa3c ac06 88bd
00000140: 18da e2bc 4951 80bd b1db 133b 43ed a83c
00000150: 5fab 89bd c4db 13bd 2f56 cc3c 65fe 7bbd
00000160: acc5 f2bc 5d95 333d eee1 023d a820 c33c
00000170: 8e6b dabc 99b4 c0bc ebd1 6e3c 7067 c3bc
00000180: 233a 2abd ebe6 6c3d 8a16 1ebd c712 90bd
00000190: a4f5 75bd bea5 8e3c c3c4 c53c c496 dcbb
000001a0: b523 1c3d 66d1 97bd a186 c4bb 7e32 11bd
000001b0: 5f37 06bc 40db ca3c d310 b83c 023d 4bbd
000001c0: ad21 213d f59b 9a3c d0b0 68bc 416f bfbc
000001d0: 86cd 03bd f1fd 25bc 4cb6 883c 2eb0 5cb8
000001e0: 4fa8 8dbc 0118 143d 19a3 d4bc 776f 453c
000001f0: f254 09bd c280 15bc 20e5 813c 6b23 4fbc
00000200: b364 4bbd 9d41 32bd ee0e 03bc e17b 45bd
00000210: e620 66bd 7519 fb3c 501a a7bc c749 a5bc
00000220: a511 d7bb 1490 7dbd 1857 55bd 696e 0fbd
00000230: be11 b6ba d364 033d 9c11 243d b12b 03bd
00000240: 1227 afbc 03ca 933c ecca f6bc 4460 363d
00000250: eaa7 5e3c 0537 553c 13bb 13bd c35b 323d
00000260: 7a9a 2b3d ab1f 47bd 3bc2 2abd 3b1a 1abd
00000270: 9456 c83c 0621 0438 7961 98bd db20 84bd
00000280: b150 67bd 667e 503c 02bc da3b 5914 6dbc
00000290: bdb3 51bd 801a ebbc b3ab 59bd 1253 bfbc
000002a0: e328 543b e571 f5bc 0e7e 3a3d 3f0d 1fbc
000002b0: bb94 c3bc 62dd 1fbd 2abf 28bd 39ec 803c
000002c0: 0ca2 1cbd 2db0 c03c c84c 21bc ffa7 7cbd
000002d0: 7978 d23c b034 76bd 85a8 aa3c c2b0 6abd
000002e0: 952f 18bd 106b 153d 3dd0 25bd c502 eabc
000002f0: fbe1 babc f6ed 15ba 31c1 3a3d a01e 24bd
00000300: 7400 9bbd 1c88 0ebd a093 8b3c 0868 fcbc
00000310: 127b 6b3d 624d 00bd 5b04 543d eea1 cc3b
00000320: a1e6 253c a197 2d3d 33b6 52bd 93c9 37bd
00000330: f958 023d 1568 0dbd 9ac5 32bd 6907 51bd
00000340: 5fcc b73c 74a1 6f3b cdee 58bd 6377 053d
00000350: 8651 2bbd dd35 3fbd ed3b c6bb 30a2 2dbd
00000360: e48b ca3c ee7d cabc 53cc 15bd 7fd3 cdbc
00000370: 302c 3c3d 0936 54bd a26d fa3c 9522 21bc
00000380: d583 bf3c 8239 cebb 2dd3 0e3d 3774 323d
00000390: b744 723d ef47 7a3c a60e bbbc 5768 0dbd
000003a0: 51ce 20bd 61cd 87bd 7677 1bbd 1ed0 60bd
000003b0: b3c2 1c3c ad0d cebb cc07 1b3d 3348 8dbd
000003c0: a0a2 0dbd 0930 86bd 66f9 0f3c 6e2a 80bd
000003d0: b864 0fbd 0f36 49bd 0589 e63c 6bf6 4bbd
000003e0: 2150 24bd b1c3 22bd 29eb 90bc 23cb 1c3d
000003f0: e31c d6bc e90a 9d3c 0184 f43c 3bf9 81bc
-0.07200894 -0.015280292 -0.049064387 0.022487504 -0.047906004 0.008305306 -0.05076557 -0.04854781
-0.002030716 0.046009272 -0.06365366 0.019353908 -0.058441296 -0.011392626 -0.00055190764 0.007710845
-0.015556774 -0.053726867 0.0447842 0.0029450606 0.033632483 -0.03421951 -0.030931642 -0.038568877
-0.032990415 -0.04492417 -0.04491015 -0.0715141 -0.00986785 -0.0028112556 0.021396257 0.0020313396
0.0016989756 0.048038535 -0.009564548 -0.009272046 0.011573218 -0.0649553 0.032115757 -0.0627456
-0.011500075 0.043980427 0.03851293 0.016333342 -0.038027532 0.03313291 0.022479387 0.047325227
-0.006160711 0.023469694 0.01959795 -0.04809375 -0.027977947 0.024896136 0.04341181 -0.04245967
-0.024566302 -0.027051624 0.023825342 -0.040381096 0.029546855 0.0031266613 0.0068731764 -0.05154923
0.041197546 -0.063572116 0.014429074 0.0072516617 -0.07582215 -0.049532108 0.016425965 -0.015392419
-0.036987234 -0.019914517 -0.015573175 0.0016663283 -0.02356528 -0.04048507 0.020786755 -0.066418976
-0.027691886 -0.06265504 0.0022561366 0.020620948 -0.067221396 -0.036098257 0.02494344 -0.061521906
-0.029635273 0.043843616 0.031953745 0.023819283 -0.026662614 -0.023523616 0.0145764155 -0.023853034
-0.04155935 0.057837408 -0.038595714 -0.070348315 -0.060048714 0.017413016 0.024141675 -0.00673184
0.03811999 -0.074129865 -0.0059974943 -0.035448544 -0.008191912 0.02476275 0.02246896 -0.04961873
0.039338756 0.018873194 -0.014202312 -0.02336848 -0.032178424 -0.010131345 0.016688488 -5.2616168e-05
-0.01729217 0.036155704 -0.025956677 0.012050501 -0.033528276 -0.009124937 0.015856326 -0.012642722
-0.04965658 -0.043519605 -0.007999165 -0.048213843 -0.05618372 0.030651787 -0.020398289 -0.020176781
-0.0065633827 -0.06190498 -0.052085012 -0.035017405 -0.0013890786 0.032078575 0.040055856 -0.03202409
-0.021380935 0.018040663 -0.030126058 0.0445254 0.0135898385 0.013013606 -0.03606708 0.043544542
0.041895367 -0.048614185 -0.04168914 -0.03762267 0.024455346 3.1502008e-05 -0.074404664 -0.06451579
-0.056473438 0.012725448 0.0066752443 -0.014470183 -0.051196802 -0.02869916 -0.05314226 -0.02335504
0.0032373003 -0.029961536 0.04553037 -0.009707748 -0.023874631 -0.039029486 -0.041197933 0.01573764
-0.038240477 0.023521507 -0.009844966 -0.06168365 0.025692211 -0.06010884 0.02083231 -0.057297476
-0.037154753 0.036479056 -0.040481795 -0.028565774 -0.022812834 -0.0005719358 0.045594398 -0.04006827
-0.07568446 -0.034797773 0.017038167 -0.030811325 0.057490416 -0.031323798 0.051761966 0.0062448895
0.010125787 0.042380933 -0.05144329 -0.04486997 0.031823132 -0.03452309 -0.04364548 -0.051032458
0.022436319 0.003656474 -0.052962113 0.03258456 -0.041825794 -0.046682227 -0.006049624 -0.042391002
0.024724908 -0.024718251 -0.036571812 -0.025125263 0.045940578 -0.051809344 0.030569855 -0.009834905
0.023378292 -0.0062934766 0.03486936 0.043567862 0.059147563 0.015275939 -0.022834133 -0.034523334
-0.03925926 -0.0663097 -0.037955724 -0.054885976 0.009567904 -0.0062882514 0.037849233 -0.068985365
-0.03457892 -0.06552131 0.008787489 -0.06258093 -0.035008162 -0.04912382 0.028141508 -0.04979555
-0.04011548 -0.039737407 -0.017690258 0.038279664 -0.026136821 0.019170241 0.0298481 -0.015865913

q1_.2.bias f4 [256]
00000000: b79e 92bc 2e77 2541 9164 fa40 f26d df40
00000010: edc5 babf db0f fa40 0429 5fc0 b59b 6841
00000020: 290b 0d3b cf6d f540 528d f240 5600 0241
00000030: cb5b fb40 ea79 383d 49f9 aa3e de93 76be
00000040: 5fb6 4141 8802 92bd f32f fb40 0f48 2141
00000050: d06d fa40 e888 a03d 49f5 db3c 0254 ee40
00000060: 6609 1e41 2625 fb40 e120 f940 a8a8 7c3e
00000070: d5e8 a5be 3d0d 3e41 9c3e 4a41 cfa2 a7bd
00000080: e8b6 f740 78da 8f40 f6f2 193d 10d4 91bf
00000090: 50fd db40 221e f140 c064 4e3e 1e6a 3840
000000a0: 98be fb40 415c 6441 13a9 fa40 6d48 7f40
000000b0: 0dcf c6bf 5844 80bd 84c0 3d3b d492 ff40
000000c0: 56f0 f740 5cd1 cc40 82e6 f440 3be4 e440
000000d0: a67e 033d aadb bbbf 76e2 c4bf fdd1 4641
000000e0: 9809 363e 13e2 0041 c330 fe40 a8dd 5cbe
000000f0: a117 c2be a155 db40 b0fc 0041 5cc8 f740
00000100: 1257 91be e111 a2bf 82a6 a840 a116 0e41
00000110: 0a9d a440 073f 0c41 0ec3 ff40 0dfa a4bd
00000120: a6c9 0c41 1c6c 253d 5ee2 2941 d733 f640
00000130: ba36 a240 6f9b 38bd 8b09 703d 6951 2b41
00000140: eaed 383d 920d a3bf 13ff 5e41 aefc adbf
00000150: fa99 4c41 2f1f 0141 0ea4 ee40 683c a3bf
00000160: 345a 953c b0c3 eb40 3da8 fc40 bddd d5bf
00000170: 62e9 c540 f8b4 8b40 a34f f8bb 2349 7bbc
00000180: 24d5 4241 e577 e1bc 0666 91bf 3c42 f640
00000190: aed3 1a3d 52cf 88bb 1d30 e4bf 2eeb 21c0
000001a0: ccb5 aa40 08ab c13c 91b8 10be e5a6 0abd
000001b0: 029c 5abd 64be 9c40 1aaa 1f41 1bab 0e41
000001c0: ea76 a1bf 5bfb 1141 3ca2 143d 49f0 99bd
000001d0: bae2 3dbd 9ad3 d240 c7c6 92be 5cbe 00be
000001e0: 9d30 f940 dc93 1b41 e027 f940 8fc4 2cbc
000001f0: 4899 9b40 aafb b7bf cba7 e140 4d7d fa40
00000200: b212 073b 30d4 c83c 2d64 e63c 6c3c a2bc
00000210: 8d63 0841 ae6a 3bbd 6b83 3ebf d222 34c0
00000220: 5580 c4bf b20e f340 320a b7bf e7d7 b1bf
00000230: bcf4 b63c 6350 0f41 a0ed 4e40 58d8 d03d
00000240: 4601 f040 0144 a140 f2a4 99bd fc52 1041
00000250: ad6a f040 e483 a1bf 9683 a940 86d8 e3bf
00000260: cec0 c540 f77f fd40 f10a f440 0f16 6441
00000270: 49b3 f440 18eb fb40 6b74 9bbe a06e fd40
00000280: 8a4a 0e41 6b4e 9640 370e 983c 9c82 1141
00000290: 94a0 88bd 4cfc c0bf 5cb8 a640 204f bdbc
000002a0: 7c65 8a3e 77be d540 6cd7 4bc0 d604 ae40
000002b0: 3367 e340 d19d e03c 11ab 0d41 fcc7 0fc0
000002c0: c2f9 f740 fa73 d4bf 5969 fabb 4616 5e41
000002d0: e0d0 30c0 c259 fd40 d130 a540 4430 2941
000002e0: 728d eebd 84b4 6741 fb1c 22bd 745e 2bbd
000002f0: cc0a 8141 8c19 fc40 ba8e 2c3b e576 a7bc
00000300: cf34 0341 f145 2cc0 8e68 5540 6c81 4541
00000310: 13f3 45bd 8434 d840 c162 5c41 63f8 86bc
00000320: f82e 0141 848e 17bd 7f77 d640 3989 4a40
00000330: a921 afbf eade 07c0 394d 9040 cab9 3e41
00000340: 780e af3d 293f 0341 b061 c0bf bf51 7e3c
00000350: 88c1 7dbf f14c 7bbe 99f1 9a40 8501 72bd
00000360: 4f90 e540 1790 0141 be40 f640 8af3 f540
00000370: 3777 8bbc 5feb 4e41 4918 fd40 011b 59bb
00000380: f072 873c 6b3b 8b40 9149 15c0 f33a a6bf
00000390: 0ee7 403c d176 c2be 9823 8b40 6005 88bf
000003a0: bc13 f340 d050 a840 13e2 87bc f5f3 c6bf
000003b0: 7863 0041 2cde 1241 9717 e040 fa97 8740
000003c0: 2f3c 273d 62c6 093d 20f4 c9bf c2b3 a9bc
000003d0: 875f 0ebe 9bb7 373e a354 aebf 2c66 a03d
000003e0: f717 3e3e 6800 2341 9b68 5d40 e109 1b41
000003f0: 0480 fd40 9689 b3bf b275 f340 3571 15c1
-0.017897947 10.341597 7.824776 6.982171 -1.4591652 7.8144355 -3.4868784 14.538014
0.0021521545 7.6696544 7.579751 8.125082 7.854955 0.04503814 0.33393314 -0.24079844
12.107024 -0.07129389 7.849603 10.080092 7.825905 0.07838613 0.02685036 7.447755
9.877295 7.8482847 7.7852635 0.24673712 -0.324042 11.878232 12.6402855 -0.0818535
7.7410774 4.4954185 0.03758522 -1.1392841 6.874672 7.5349283 0.2015562 2.8814769
7.867016 14.272523 7.833139 3.9887955 -1.5531937 -0.062630355 0.002895386 7.9866734
7.748088 6.4005566 7.653138 7.15286 0.032103203 -1.4676411 -1.538161 12.426267
0.17777097 8.055194 7.9434524 -0.2156893 -0.37908652 6.8542027 8.061691 7.743208
-0.28386742 -1.2661706 5.2703257 8.880525 5.14417 8.765388 7.9925604 -0.08055506
8.799231 0.040386304 10.617765 7.693828 5.0691805 -0.045070108 0.05860285 10.707376
0.045148768 -1.2738516 13.937274 -1.3592737 12.787592 8.070113 7.457526 -1.275281
0.018231489 7.3676376 7.895537 -1.6708294 6.184739 4.365841 -0.007577853 -0.015337261
12.177036 -0.02752299 -1.135926 7.6955853 0.03779953 -0.004175105 -1.7827183 -2.5299792
5.334692 0.023641124 -0.14132906 -0.03385057 -0.053371437 4.898241 9.979029 8.916774
-1.2614415 9.123866 0.03628753 -0.07516534 -0.0463588 6.5883303 -0.2866728 -0.12572616
7.7871842 9.7235985 7.7861176 -0.01054491 4.862461 -1.4373677 7.0517325 7.8277955
0.0020610509 0.024515241 0.02812394 -0.019804202 8.524304 -0.045756035 -0.7441928 -2.8146253
-1.5351664 7.595544 -1.4299986 -1.3894013 0.022333495 8.957126 3.2332535 0.10197514
7.5001554 5.0395513 -0.07502164 9.02026 7.513022 -1.2618375 5.2973127 -1.7800453
6.1797857 7.9218707 7.6263356 14.255385 7.6468854 7.872448 -0.30362257 7.919754
8.893198 4.6970725 0.018561466 9.094387 -0.06671253 -1.5076995 5.210005 -0.023109019
0.2703055 6.6795 -3.1850233 5.4380903 7.1063476 0.027419003 8.854264 -2.246581
7.749238 -1.6597893 -0.007641953 13.880438 -2.7627487 7.917207 5.162209 10.574284
-0.11648072 14.481571 -0.03957842 -0.041838124 16.130272 7.8781185 0.002633019 -0.020442436
8.200393 -2.691769 3.3345065 12.344097 -0.048327517 6.7564106 13.77411 -0.016475862
8.073967 -0.037001148 6.702087 3.1646254 -1.3682147 -2.1229806 4.5094266 11.920359
0.085476816 8.20292 -1.5029812 0.0155224195 -0.9912343 -0.2454107 4.841992 -0.05908348
7.173866 8.097678 7.695403 7.685979 -0.01702462 12.932464 7.9092145 -0.0033127668
0.016534299 4.351003 -2.3326151 -1.298674 0.011773838 -0.37981275 4.348095 -1.062664
7.596159 5.259865 -0.016587293 -1.55432 8.024284 9.179241 7.0028796 4.237302
0.04082888 0.03363646 -1.5777626 -0.020715598 -0.13903628 0.17941134 -1.3619579 0.07831988
0.1856383 10.187599 3.4595096 9.689912 7.921877 -1.4026363 7.608117 -9.340138

q1_.4.weight f4 [1, 256]
00000000: 1d90 0bbd b2ed 01c3 01c6 8642 ec5d 6142
00000010: ddb5 8642 64b5 3b42 ef05 e8c1 bb3c 6fc2
00000020: c460 11bd ee77 3f42 f21c 4e42 c604 3b42
00000030: 55ac 4d42 f160 01bd f63c 3840 891d 8fc0
00000040: 0083 04c3 5c11 993f c35b 3a42 429f e0c2
00000050: e069 3942 7665 f33f 2570 b3bc 722c 4d42
00000060: f96b fcc2 3e8d 3a42 f8b7 3c42 1f78 69c0
00000070: 1036 36c0 39e9 82c2 8f63 bac2 65be d7bc
00000080: 0aaa 3c42 ea8f af42 0728 a1bb bbc3 7642
00000090: 0288 ae42 db39 3f42 6ebc f33f 3c68 9e42
000000a0: 1ad4 4b42 15f1 a3c2 793b 3a42 9001 a542
000000b0: 0325 9742 ed9b 2abd f245 babc af63 4342
000000c0: 6ee6 4542 0f8e 7942 61ad 3c42 d252 7542
000000d0: a2a0 d3bb 7e95 8942 6a00 9742 9b61 f2c2
000000e0: 47fc 0340 c221 3c42 4033 4942 3039 a1bf
000000f0: 5395 a1bf 2b8b 6342 fbb1 4042 f3b9 4d42
00000100: f189 9442 9f8a 6e42 7dd7 ac42 58cf 09c3
00000110: 3981 9b42 3bd9 09c3 26e2 3c42 bdce 13c0
00000120: 007c 85c2 9c11 9abc 8498 00c3 6135 3b42
00000130: b636 9742 9deb 23bc 30de 6fc0 b107 7fc2
00000140: 7b9a 45bc adc3 8642 3d87 79c2 e6e8 8042
00000150: e722 a1c2 ef3c 3b42 0015 5642 ffd0 7742
00000160: c64d 2ec0 8522 4842 8da2 3c42 fce1 7242
00000170: dae1 6a42 cd56 a9c2 ef5b 8cbc 3519 fcbb
00000180: afb4 99c2 5cef c7bc 263c 7342 4da9 6642
00000190: dc37 babc 4bea b1bc d9df 7b42 3f84 b242
000001a0: ca14 9842 8d46 48bd 816d a0c0 aa13 0ec0
000001b0: 4fed b6bc d273 a542 8502 55c2 d6af 42c2
000001c0: a6a2 bf42 9a56 0dc3 6ec3 c7bc d373 05bd
000001d0: 2bfd 57bb b8c7 cac2 e970 62c0 d5e6 86c0
000001e0: cbfc 3a42 c0dd 00c3 49a4 3942 60ab 12bd
000001f0: 10bc a242 e763 8842 6fcb 7e42 4ef0 3842
00000200: 5a9d e9bc 2202 9d3f 9929 4ec0 14ab 12bb
00000210: 27e8 e6c2 f359 97bc b4ab c242 6563 b342
00000220: f65a 8442 41a3 6242 dac0 8742 1e1a 8942
00000230: 7e13 053c e6da eec2 b5e6 af42 7771 39c0
00000240: c486 5042 9ea5 9a42 faa5 68bb ee32 fcc2
00000250: 799a 6342 e469 8942 8b9c 9742 fe4e 7a42
00000260: e257 7342 778e 3942 6a5c 3c42 777a 72c2
00000270: fe5e 3942 12d4 5f42 f297 32c0 349d 4b42
00000280: 4e73 fac2 f099 a042 257e 22c0 d99a e8c2
00000290: 3a01 8bbc 5fde 8942 3af5 8b42 07a8 33c0
000002a0: 9e5a 66c0 05ef 6242 3296 19c2 14f8 7842
000002b0: 0962 6942 2cd0 17bb 246d 80c2 5363 a942
000002c0: 51b0 3942 c905 7442 99c5 f6bc a81b 80c2
000002d0: 4e25 b442 96a6 4c42 18ba 9b42 cc80 fcc2
000002e0: 3a5f 28c0 d11c 7bc2 dd3d 0e3c 71a9 c1bc
000002f0: bd7b 74c2 07c0 5e42 837c 61bc 818e 47bc
00000300: 6f26 44c2 7b11 b742 698a 9f42 22cc 5dc2
00000310: 3d30 423b 0ff9 6742 ef0c 6bc2 94a7 d9bc
00000320: a8c3 3b42 fead 9cc0 f308 c4c2 eb4b a042
00000330: f281 6742 145b a342 4fd5 b242 7aae 56c2
00000340: 5594 2ec0 a237 4542 7c35 8542 340f e6bb
00000350: 161e 7542 7031 23c0 03f9 9f42 ef0f a7c0
00000360: 0dc7 5742 9a61 3a42 cbbc 3b42 690a 5242
00000370: 36b4 88c0 db2b cec2 12ec 3a42 d856 08bd
00000380: f6b4 13bd 4fab a742 a6ff a442 26da 7642
00000390: e753 d1bb ecc3 21c0 d306 b342 2be5 6f42
000003a0: a6e5 6242 3af4 9642 31bf 74c0 770a 8642
000003b0: 672a 4142 c564 01c3 c076 afc2 3bf3 b442
000003c0: d696 30bd 612b 0ac0 6255 8542 3e05 e9bc
000003d0: 1cd1 12c0 b1ac 65c0 58cd 7a42 d1c2 84c0
000003e0: 04e7 8dc0 f981 07c3 b6b6 ad42 b139 acc2
000003f0: a5ca 3842 e069 7742 7236 5f42 7c0b cf42
-0.034072984 -129.9285 67.38673 56.34172 67.3552 46.92714 -29.002897 -59.809307
-0.035492674 47.86712 51.528267 46.75466 51.418293 -0.03158659 2.8787208 -4.4723554
-132.51172 1.1958423 46.58961 -112.31105 46.353394 1.9015338 -0.02190406 51.293404
-126.210884 46.63793 47.179657 -3.6479566 -2.8470497 -65.45551 -93.19445 -0.026335904
47.166054 87.78108 -0.0049181017 61.691143 87.26564 47.8065 1.9041879 79.20358
50.95713 -81.97086 46.55808 82.50305 75.57229 -0.04165261 -0.02273843 48.847347
49.47503 62.38873 47.169315 61.33088 -0.006458358 68.79198 75.50081 -121.190636
2.0622728 47.032967 50.30005 -1.2595577 -1.2623695 56.885906 48.17381 51.43159
74.26942 59.635372 86.420876 -137.80994 77.75239 -137.84856 47.220848 -2.3094933
-66.74219 -0.018807225 -128.59576 46.802128 75.60686 -0.010004905 -3.7479362 -63.75751
-0.012060757 67.38218 -62.38207 64.45488 -80.56817 46.809505 53.520508 61.954098
-2.723497 50.03371 47.15874 60.720688 58.72056 -84.66953 -0.017133681 -0.0076934346
-76.8529 -0.024406128 60.80874 57.665333 -0.022731714 -0.021718165 62.9686 89.25829
76.0406 -0.048895407 -5.013367 -2.2199502 -0.022329954 82.72621 -53.25246 -48.671715
95.81767 -141.33829 -0.02438518 -0.03258116 -0.0032957296 -101.390076 -3.5381415 -4.2156777
46.74687 -128.86621 46.410435 -0.035807967 81.36731 68.19512 63.698666 46.234673
-0.028517414 1.2266276 -3.221289 -0.0022379803 -115.45342 -0.018475508 97.33536 89.69413
66.17766 56.659428 67.87666 68.55101 0.008122323 -119.427536 87.9506 -2.8975503
52.131607 77.32347 -0.003549932 -126.09947 56.900852 68.70682 75.80575 62.57714
60.835823 46.389126 47.09025 -60.619595 46.342766 55.9571 -2.790524 50.90352
-125.225204 80.30066 -2.5389493 -116.30244 -0.016968358 68.93432 69.97896 -2.8071306
-3.5992808 56.733418 -38.396675 62.242264 58.345737 -0.0023164852 -64.213165 84.69399
46.422184 61.00565 -0.030123519 -64.054016 90.07286 51.16268 77.863464 -126.25156
-2.6308122 -62.77814 0.008681742 -0.023640366 -61.12084 55.687527 -0.013762596 -0.012179972
-49.037533 91.53414 79.77033 -55.44935 0.0029630803 57.99322 -58.76263 -0.026569165
46.94107 -4.8962393 -98.01748 80.14828 57.8769 81.67789 89.41662 -53.670387
-2.7278035 49.30433 66.60446 -0.0070208553 61.27938 -2.5498924 79.98635 -5.220695
53.944386 46.595314 46.93437 52.510166 -4.2719984 -103.085655 46.730537 -0.033285946
-0.03606125 83.83459 82.49931 61.713036 -0.0063881758 -2.5275831 89.51333 59.973797
56.724266 75.477005 -3.8241694 67.02044 48.29141 -129.39363 -87.73193 90.47506
-0.0431126 -2.1588976 66.66676 -0.028444882 -2.294013 -3.5886652 62.70053 -4.1487813
-4.43445 -135.5077 86.85686 -86.11268 46.197895 61.853394 55.80317 103.52243

q2_.0.weight f4 [256, 14]
00000000: 0ddf 0141 f876 17c1 d73e 9b41 421f 4f40
00000010: bcb7 1fc0 288b 9bc0 d03a 1a41 7bbf 24c0
00000020: 68fc 15be 9714 d63f 92f9 b240 3ef7 5ec0
00000030: 5380 c13c cdf5 6c40 8022 4041 605b 8d40
00000040: d631 1441 f5bf 1741 bcea 1d40 e76b 2140
00000050: 4acb 28c1 2a61 02c0 2cc3 70c0 2364 2740
00000060: e590 29c0 ab62 4840 070b aabe 804d 713f
00000070: 887e 29c0 f191 cdc0 c6ff 5d40 9797 0141
00000080: c122 41c0 9bef 93c0 27a9 513f f402 3ec0
00000090: 3ebf e440 7da2 a9bf bfac 9cc0 394d 4ebf
000000a0: a6a8 fac0 ef6f 0dc1 98d1 8341 3ff9 1bbe
000000b0: 44af a441 2521 a73e a09e 1341 4992 b040
000000c0: a774 3440 cc52 92bf 179d 5240 248a b93e
000000d0: 9316 c940 8c3e 3440 f713 5abe 2643 1840
000000e0: cf7b 67bf 0b36 1c3f 1633 8b3f ff23 d5c0
000000f0: 4b24 2240 bed9 c1bf 2c5e 3ac1 4eb8 153f
00000100: f7d0 b3c0 16a4 74c0 a963 f9c0 a3b4 d3c0
00000110: 785c 2ac0 bcb7 a03f 66dc 9240 de4b 5240
00000120: 8a42 1c40 a018 c040 7e9d 793f 0dcc 3e40
00000130: 9062 5e41 2c96 81c0 0ecb 5c40 3f94 b740
00000140: 8d53 b940 b798 1e40 9ba8 b340 5165 2fc0
00000150: f0fd 22c1 4c7b dac0 1ce8 3640 e20b 0540
00000160: 9f9d 88c0 9c79 32c1 c0e0 d03e c00c 68c0
00000170: 2486 9f3f 9e8b 62c0 e1ff 9dc0 9b20 0ec1
00000180: 0e82 6cc0 09c0 60c0 646b 4f40 9fbb 6fc0
00000190: 68e2 2141 1276 233e b551 c9c0 d121 4f3f
000001a0: 205c d4c0 a0bc b6c0 c6d9 9740 c231 5c40
000001b0: 1a5b fb40 84ef 6fc0 4ba8 0dc0 da38 0641
000001c0: c771 c8c0 ab02 f840 0211 8fbf 60c7 05c0
000001d0: 7f98 2441 72d2 3b41 40bf c9c0 7872 7f3f
000001e0: f0e8 573d 2b76 bc3e a511 ce3f 8ee0 6340
000001f0: 24ed 5140 3d1b a83f c1f2 ffc0 a00f 6bc0
00000200: 5277 35c1 d839 d4c0 c1f0 14c0 405e 46c0
00000210: 0a07 683f 8b79 39c0 f30a aabf 5c3f ec40
00000220: 3918 8cbf 9882 15c1 5b1e c340 3e34 e83f
00000230: d35a 64c0 2646 fe40 5776 3fc0 9672 1841
00000240: 9b7e 78bf e2c2 3840 6ba1 2140 21f1 4940
00000250: 4809 9940 441c 0dc1 454f 0c40 7018 2a41
00000260: b632 f7c0 5dd4 91c0 526f ed40 311f 9c3f
00000270: d146 8141 d4e9 84bf 6006 9a40 9c7c f8c0
00000280: 89e8 a83e ef54 aa3e 1f2a 983e d1a3 06c0
00000290: e801 31c1 63d4 023f f7d6 97bf 9c33 adc0
000002a0: f409 2842 55e7 80be 039c 0941 6794 6641
000002b0: 51f9 da3f 8a22 2641 0d4a 22c0 0749 5b40
000002c0: 6e18 1fbf 6b6b cb3c 76e4 8041 20b4 abc0
000002d0: 3807 2141 6371 df40 f294 3dbf 2e05 6240
000002e0: 3745 37c0 9112 a8c0 bd85 6d40 89d5 2241
000002f0: 2fcb 3cc0 3af5 813f 08e1 76c0 43e8 3cc0
00000300: f7aa f23f 25e9 91bf f5d5 473c 0f2c 2c40
00000310: a777 643f 5717 37c0 57cf b6bf 897f 2040
00000320: 456e b240 fbeb 2040 ec3e 5c3f aaae 06c0
00000330: 2201 83bf 5b28 b0bf 9531 56c1 f237 d5c0
00000340: 061c 9ac0 896a 0bc1 a0a4 9bc0 aef4 67c0
00000350: 9f64 6cc0 428e f4c0 0919 c140 0dea abc0
00000360: ac0a c7c0 8751 d4bf ed96 833f 5d77 6ac0
00000370: 2de6 8d40 96c0 62bd 25ba f8c0 0e0f 5c40
00000380: d2ba 173f d30c 863f b541 32c1 60ff 6d40
00000390: 56fa d340 4a7b a140 1e18 9140 a744 34c0
000003a0: 30e2 7240 973f 8440 55f5 6d40 99e9 41be
000003b0: 7702 8a3f f974 e83e 2c01 eebf b0df 9f40
000003c0: 35b8 e4c0 f875 bac0 7430 c040 7726 1140
000003d0: 9f3d 1141 589e 6b40 7894 50bf 0bdb f5bf
000003e0: a9a9 3ac1 ae28 0c41 606e 3e40 a090 efc0
000003f0: f452 bd40 966d 5840 71dd b2c0 8907 1bc0
8.116956 -9.466545 19.405684 3.2362828 -2.4955893 -4.860737 9.6393585 -2.574187
-0.14647067 1.6725034 5.592965 -3.4838405 0.02362076 3.7025025 12.008423 4.417404
9.262167 9.4843645 2.467452 2.5222108 -10.549631 -2.0371804 -3.7619123 2.6154869
-2.6494687 3.1310222 -0.33211538 0.9425888 -2.6483479 -6.424065 3.4687362 8.099509
-3.0177462 -4.6229987 0.8189873 -2.9689302 7.148345 -1.3252712 -4.896087 -0.8058658
-7.833087 -8.839828 16.47734 -0.15231799 20.585579 0.32642475 9.226227 5.517857
2.81962 -1.1431518 3.290838 0.36238205 6.2840056 2.8163176 -0.21296678 2.3790984
-0.9042329 0.61019963 1.0874965 -6.660644 2.5334651 -1.5144575 -11.647991 0.5848435
-5.6192584 -3.822515 -7.7934155 -6.6158004 -2.6618938 1.2556071 4.589404 3.2858806
2.4415612 6.003006 0.9750594 2.9812043 13.899063 -4.0495815 3.4498935 5.7368464
5.791449 2.478071 5.6143317 -2.7405589 -10.186996 -6.827551 2.8579168 2.0788503
-4.269241 -11.15469 0.4079647 -3.6257782 1.2462811 -3.5397716 -4.937485 -8.88296
-3.695438 -3.511721 3.2409296 -3.7458265 10.117775 0.15963009 -6.291224 0.80910975
-6.6362457 -5.7105255 4.7453337 3.440537 7.854871 -3.7489939 -2.2133968 8.38888
-6.263889 7.7503257 -1.1177065 -2.090294 10.2872305 11.738878 -6.304596 0.9978404
0.05271238 0.36808905 1.6099135 3.5605807 3.280099 1.3133312 -7.998383 -3.6728287
-11.341631 -6.632061 -2.3271945 -3.0995026 0.9063574 -2.8980434 -1.3284591 7.3827343
-1.0944892 -9.344383 6.0974555 1.8140943 -3.5680435 7.946063 -2.991598 9.527975
-0.97068185 2.8868947 2.5254772 3.1553423 4.782383 -8.819401 2.1923382 10.630966
-7.7249403 -4.5571733 7.419839 1.2197019 16.159578 -1.0383859 4.813278 -7.765211
0.3298991 0.33267924 0.29719636 -2.1037486 -11.062965 0.51105326 -1.1862477 -5.41255
42.00972 -0.25176492 8.600589 14.411231 1.7107335 10.383432 -2.5357697 3.4263322
-0.6214665 0.024831494 16.111553 -5.365738 10.064262 6.982591 -0.740554 3.5315661
-2.8635995 -5.2522664 3.7112877 10.177133 -2.9499013 1.0152962 -3.8574848 -2.9516761
1.8958424 -1.1399275 0.012197007 2.6901891 0.89245075 -2.8607996 -1.4282025 2.5077841
5.5759606 2.514403 0.8603351 -2.1044106 -1.0234721 -1.3762316 -13.387105 -6.6630793
-4.815921 -8.71351 -4.863846 -3.624309 -3.6936414 -7.6423655 6.034306 -5.3723207
-6.2200527 -1.658738 1.0280434 -3.6635354 4.4343476 -0.055359446 -7.7727227 3.4384189
0.5926944 1.0472664 -11.141042 3.7187119 6.6243086 5.0463 4.534194 -2.8166902
3.7950554 4.1327624 3.7180989 -0.18936767 1.0782002 0.45401743 -1.8594108 4.9960556
-7.147486 -5.8269005 6.0059147 2.2679727 9.077544 3.6815395 -0.81476545 -1.9207472
-11.666421 8.759932 2.9754868 -7.4864044 5.916376 3.3816886 -5.5895314 -2.422335

q2_.0.bias f4 [256]
00000000: d873 ea40 a74b e240 7b12 38c0 d499 2341
00000010: 4af8 c3bf 1d4d 2d40 281d 13c1 7e96 353f
00000020: 292c 0ac1 09fb 68c0 e80b 99be 4c28 ba40
00000030: f927 fb41 db90 7f40 74b9 b540 d533 9c3f
00000040: 02ca 78c0 d04b 99c0 156c 0441 7faf 1b3f
00000050: f9eb 40c0 3694 2840 c5ee 81c0 22c0 3541
00000060: 18c8 5b41 efb6 d940 edb1 0740 0112 f3c0
00000070: c418 1cc1 0b6b 03c1 b072 8740 5824 6b41
00000080: 967b efc0 a6a2 0c3f 4e58 7140 58bb 89c0
00000090: f91f b240 1bed 8c41 f052 39c0 7e59 ff3f
000000a0: 6b68 9640 bb0f a83f 7557 1541 ef15 f2bf
000000b0: 94a1 d040 8e07 1dc1 07da 29bf 8581 1e40
000000c0: 12f9 85c0 9017 5641 5c28 3441 1794 e240
000000d0: d3b0 7fc0 e591 9440 26db bcc0 f645 d5c0
000000e0: fb2e 25c0 439e 2340 c8e9 f3c0 9455 b9c0
000000f0: e501 5d40 d228 dc3f d7e5 8640 22da cdbf
00000100: 97fb 7f40 b1f3 0441 b349 1d40 43cb 2640
00000110: 06f0 8140 8b43 1141 8091 ba40 93dd 8540
00000120: 49f4 03c1 56be cb40 c3f2 92be b292 d040
00000130: 3035 8f3f ea7f dcc0 f1ec d5c0 19e0 d1c0
00000140: 3c29 0741 2b92 d33f 766d a5c0 d494 d840
00000150: da83 0c41 55eb 1c40 6f48 70c0 4b95 d13f
00000160: 24b9 a440 f6ff 6d40 26ca 07c1 e17e b640
00000170: 568f 6f40 b586 c3c0 2378 8340 e497 8640
00000180: e22b 69c0 f297 7340 8a16 2dbf 861a eb3e
00000190: c66c 0440 6cf7 1dc0 9a11 6d40 054c 6440
000001a0: 575a 023f cfd1 b9c0 4ade 4940 e5dd 1240
000001b0: 5ea1 bac0 9f84 b5bf 5d0c 5040 89b4 39bf
000001c0: 0ea1 70bf 9926 7241 7092 c43f 0a9e df40
000001d0: 4b95 5cc0 cffd 00c1 a63b 8fc0 72b4 d940
000001e0: 86be cd40 de1f e7be 4738 c740 2b66 0ec0
000001f0: d3e5 b7c0 b5f2 ac40 136d bf3f 10de bb40
00000200: 6d19 2c41 c964 1ac1 8484 9e40 317d 05c1
00000210: c011 7640 ab05 f23f 9ea7 503f fd90 e8c0
00000220: 5441 a140 9d14 5f40 ce7a 08c1 bb30 7240
00000230: 6f84 7b40 cf33 a3c0 9126 7c40 37d7 02be
00000240: 6545 62bf 9c8c 02c0 968b 2841 81c1 533f
00000250: 601d 16c0 9d23 933e 6ca9 b540 97bc 8ac0
00000260: 7018 5440 7020 10c1 14fb a63f 6f1b 7140
00000270: 7a93 3941 17b7 4c40 d720 0abe 8ddf c640
00000280: a2de c63f edc5 1840 93d0 923f 44ef 9a40
00000290: c613 b340 f4ca bf40 76c0 913f 55d4 5bc0
000002a0: bc6b 7ec0 3562 0841 1a95 22c1 c445 cd40
000002b0: 1e58 c4c0 0ebc e140 ec04 45c1 9af2 f740
000002c0: e414 dabf 0196 a3bf a258 5e40 13be 963f
000002d0: 95b8 52c0 f8b6 ecc0 1177 b640 9c3f dcc0
000002e0: 3398 b0c0 b390 9a40 704e ba40 8d6a 97c0
000002f0: 2a6f 0840 7e76 fa3f 1ef3 943d 37d3 d540
00000300: 4d2b 5140 a3d6 b6c0 d8c6 2241 271f ea40
00000310: 0553 0442 6f8d d840 9a72 0341 3b01 7140
00000320: 81a0 82be 2a3b 9dc0 f575 cc40 dd28 3d40
00000330: 4581 a340 6b1b 0fc1 3364 4141 6cc9 97c0
00000340: 6d78 ebbe e91d 723f d634 8640 1501 4fbf
00000350: 6223 76c1 dcb6 ca40 22bf 0841 e89d 2dc1
00000360: bc99 f5c0 aea4 96c0 bea5 acbf 912d 1741
00000370: 2aa9 88c0 870b 92c0 7bd0 3c40 2ff6 9d40
00000380: 4f71 a740 8544 97c0 9ebd 04c1 e4ff 0f42
00000390: 9233 01bf 0212 783e 52e4 33c0 7200 e840
000003a0: 2a27 fd40 24d2 9a40 d71c c340 f404 ad40
000003b0: 11c1 05c1 d9c8 8b40 1cd8 eebe e2bf e9c0
000003c0: 39bf a340 1202 13c1 0e03 ff40 a48b 20c1
000003d0: 241a 1ac0 c217 17c1 12c0 8440 6786 ac40
000003e0: 73b3 7940 9976 a2c0 43db e340 6bd8 dc40
000003f0: fd57 ea40 f00c 0640 4836 9c40 f4b1 96c0
7.326641 7.071735 -2.876128 10.225056 -1.5310147 2.7078316 -9.194618 0.7093276
-8.635781 -3.640322 -0.29891896 5.817419 31.394518 3.9932163 5.6788883 1.2203318
-3.8873296 -4.7905045 8.276387 0.6081466 -3.0144026 2.634046 -4.0603967 11.359407
13.736351 6.8035808 2.1202347 -7.5959477 -9.756046 -8.213634 4.23275 14.696373
-7.483836 0.5493568 3.7710147 -4.304119 5.566403 17.615774 -2.895687 1.9949186
4.7002463 1.31298 9.333852 -1.8912944 6.519724 -9.814344 -0.6634831 2.4766552
-4.186654 13.380753 11.259853 7.0805774 -3.9951675 4.6428094 -5.9017515 -6.66479
-2.5809925 2.5565345 -7.6222878 -5.7916965 3.4532406 1.7199957 4.2155566 -1.6082194
3.9997308 8.309495 2.4576232 2.606156 4.0605497 9.07899 5.830261 4.1832976
-8.24714 6.3669844 -0.28700837 6.517907 1.1188107 -6.8906145 -6.6851735 -6.5586057
8.447567 1.6528982 -5.169612 6.7681675 8.78219 2.4518635 -3.754421 1.6373686
5.1476 3.7187476 -8.486853 5.702988 3.7431235 -6.1101937 4.108415 4.2060413
-3.6433034 3.806149 -0.67612517 0.45918673 2.069139 -2.4682264 3.7041993 3.5671399
0.509191 -5.8068614 3.1541924 2.2947934 -5.832198 -1.4181098 3.2507546 -0.725411
-0.9399575 15.134423 1.5357189 6.988042 -3.4466121 -8.061965 -4.4760313 6.803277
6.4295073 -0.451415 6.22562 -2.2249858 -5.7468047 5.4046273 1.4955162 5.8708572
10.756207 -9.649606 4.953676 -8.343064 3.8448334 1.890798 0.81505764 -7.267699
5.0392246 3.4856331 -8.529982 3.7842243 3.929958 -5.1000743 3.939854 -0.1277741
-0.8838714 -2.039832 10.534079 0.8271714 -2.345543 0.28738108 5.6769314 -4.335521
3.3139915 -9.007919 1.3045373 3.7672994 11.598505 3.198675 -0.1348909 6.214789
1.5536692 2.3870804 1.1469902 4.841707 5.5961637 5.9935246 1.138686 -3.4348347
-3.9753256 8.523976 -10.161402 6.4147663 -6.1357565 7.054206 -12.313702 7.7483644
-1.7037625 -1.2780153 3.4741597 1.1776756 -3.292516 -7.397335 5.7020345 -6.882765
-5.518579 4.8301635 5.822075 -4.7317567 2.131785 1.9567411 0.072729334 6.682033
3.2682679 -5.713701 10.173546 7.316303 33.081074 6.767265 8.215479 3.7657
-0.2551308 -4.913472 6.389399 2.955619 5.10953 -8.944194 12.086963 -4.7433376
-0.45990315 0.9457689 4.1939497 -0.80861026 -15.383638 6.3348217 8.546663 -10.851051
-7.6750164 -4.7076025 -1.348808 9.448625 -4.27065 -4.563907 2.9502246 4.9363017
5.2325816 -4.727114 -8.296293 35.999893 -0.50469315 0.2422562 -2.8108106 7.2500544
7.911031 4.838152 6.0972705 5.4068546 -8.359635 4.3682675 -0.46649253 -7.304673
5.1170926 -9.188005 7.969123 -10.034092 -2.4078455 -9.4433 4.148446 5.3914065
3.9015777 -5.0769773 7.1205153 6.901418 7.3232408 2.0945396 4.881626 -4.709223

q2_.2.weight f4 [256, 256]
00000000: df71 61c1 4424 0341 765e b3c1 1470 3d41
00000010: 3dad 8941 bfa6 7e41 9017 c5c1 fa93 3441
00000020: da5c f440 4328 c941 1891 6cc1 a545 a641
00000030: 8f9f 3640 5a11 dcc0 f843 17c1 5fbc 67c1
00000040: acb3 5b41 02d0 3741 5eae d0c0 5e56 3cc1
00000050: c4c9 00c2 48d3 5541 909c 0a41 03ad 2a41
00000060: 0bc7 3d41 a966 4d41 e624 5ec1 dd13 1442
00000070: f983 0342 6664 4242 1923 4141 d987 3b41
00000080: 3be4 a741 ef5a e7c0 c9ca f941 3a09 22c1
00000090: a43e 74c1 af70 8140 79ac 7fc1 05d1 2ec1
000000a0: b24f 7241 c1de 37c1 1c20 6441 eda2 abc1
000000b0: 6883 5d41 0fc0 eec1 efbf 903e 926e 41c1
000000c0: ccc8 93c1 a572 2a41 9e1a 4941 b836 7b41
000000d0: 76f0 6541 d3ae 9e41 2281 93c1 f7f0 06c2
000000e0: 1043 4e41 be4b a7c0 b78f 2042 f912 01c2
000000f0: 09ea 27c1 49c0 cfc0 cef1 5941 c7c0 86c1
00000100: f1da 25c1 e060 4f41 ecbd 34c1 3e64 9ec0
00000110: 46a0 26c1 d081 e1c0 a510 a541 abc2 bfc0
00000120: d0d9 9541 fdb6 0b41 e43d 74c1 c440 5241
00000130: 2362 b9c0 6880 2b41 2146 86c1 e026 fec1
00000140: a3f9 5d41 4645 c441 79b9 8c41 8466 34c0
00000150: 071b d2c0 c613 b7c0 ef38 c4c1 078a 3441
00000160: cafa b041 2e9d 8841 ed59 2dc2 617d 4d41
00000170: f171 a841 d2f9 bb41 3e74 7841 e303 c741
00000180: dfbe ea40 040b f841 6aac d2c0 2fcb 54c1
00000190: 2716 15c1 d234 59c1 4557 06c1 0785 5b41
000001a0: 43aa 51c1 1509 0841 809e c2c0 bf61 b141
000001b0: 3f0e 12c2 1830 99c1 fabb 6fc1 be2e 3bc1
000001c0: d2e2 093f 619c 8e40 154b 8641 e273 f541
000001d0: b06f bf40 44db 1841 d1b4 adc1 ccf9 6a41
000001e0: a790 5bc1 26c3 4441 6fb6 bac0 9bf8 7241
000001f0: 0a13 12c2 64be f9c0 4b07 8a41 5029 6fc0
00000200: a134 4b41 e7c5 d1c1 9ebe c1c0 a86f 9f41
00000210: 6b45 2d41 f589 7c41 71ed 7dc1 e0a6 7e42
00000220: 7753 8641 7980 e0c0 c015 6641 207c df40
00000230: a5a6 9241 12a8 9e41 a0d8 ebc0 26d8 76c1
00000240: 341c 25c1 822e 6341 2e60 0b41 9367 6a41
00000250: 9faa 94c1 6b77 b0c1 43ab 0842 7b61 9741
00000260: 8458 78c1 412e 2741 dc3a 8d41 9bc2 6b41
00000270: 7e5f 2541 72a1 60c0 5383 3cc1 70e8 e041
00000280: 1bf4 d141 6630 c9c0 a00d 8041 9e62 3541
00000290: df0a 0b42 fdd5 7641 c3bb 1d41 1e19 d6c1
000002a0: a40b c5c1 1047 6141 eef1 3541 d933 8141
000002b0: 0138 2041 2841 7a41 c1b5 2342 3763 7f41
000002c0: 1bf3 45c1 e3b0 0fc1 0933 72c1 e268 1f41
000002d0: 962a fe40 2fd4 2741 a4d3 cbc0 d703 b8c1
000002e0: 5820 ac40 89d6 6e41 6261 8a41 9f20 92c1
000002f0: c4cb 65c1 5612 48c1 9b23 6241 1dcc 3841
00000300: 48f4 a141 18cd a041 a222 4441 889f b641
00000310: eee6 0a40 5087 4341 6a53 9cc0 b4dd 6d41
00000320: 851c 85c1 c0c5 e7c1 ce38 4941 0565 acc0
00000330: b636 8941 529c c6c1 1bd4 5341 6688 e5c1
00000340: d9ac 96c0 c68c 7641 320d 1141 b3da d040
00000350: 1eb9 2642 d175 2b41 51dc 0cc1 18c7 0442
00000360: 68b6 e7c1 91c5 9a40 4f5b 8741 b210 6841
00000370: e21e a041 7b1c c3c1 e1c4 9441 ec0d 3e41
00000380: b3da 25c1 259f 8e40 10f5 b941 3ca0 fc3f
00000390: 4340 6b41 d8a5 02c1 cac0 0f41 817f 05c1
000003a0: 77fb 3e41 a0c6 7440 5665 df41 ef76 b2c0
000003b0: 4aa8 8641 de02 25c1 d214 ff41 661c 7a41
000003c0: 0722 ddc0 d95d 3a41 6a6a 5b41 ce05 d4c1
000003d0: 0df6 1641 20f5 dbc1 febd aec0 2ddf dfc0
000003e0: 7650 0fc1 cadf 5341 c501 aa41 738e cf40
000003f0: c65b a441 44f3 fec0 036f ecc0 6116 bb41
-14.090301 8.196354 -22.421124 11.839863 17.209589 15.9157095 -24.636505 11.286127
7.6363344 25.144659 -14.785423 20.784006 2.8534887 -6.877118 -9.454094 -14.483489
13.731365 11.488283 -6.521285 -11.771086 -32.197037 13.364082 8.663223 10.667239
11.861094 12.8375635 -13.884008 37.019398 32.87888 48.598045 12.071069 11.720666
20.98644 -7.2298503 31.224016 -10.127253 -15.265293 4.0450053 -15.979608 -10.92603
15.144457 -11.491883 14.257839 -21.454554 13.844582 -29.843779 0.28271434 -12.089495
-18.473045 10.652989 12.568998 15.700859 14.371206 19.835363 -18.438053 -33.735317
12.891373 -5.227996 40.140347 -32.268528 -10.4946375 -6.4922223 13.621534 -16.84413
-10.3659525 12.961151 -11.296368 -4.9497366 -10.414129 -7.0470963 20.633127 -5.992513
18.731354 8.732175 -15.26511 13.140812 -5.7932296 10.718849 -16.784243 -31.768982
13.873446 24.533825 17.590563 -2.818757 -6.565799 -5.7211637 -24.5278 11.283698
22.122456 17.076748 -43.33782 12.84311 21.055635 23.496983 15.528379 24.876898
7.3357997 31.005379 -6.5835466 -13.299605 -9.317908 -13.575396 -8.396306 13.719977
-13.104068 8.502217 -6.081848 22.172728 -36.513912 -19.148483 -14.983393 -11.698912
0.53861725 4.456589 16.786661 30.681583 5.9823837 9.553532 -21.71329 14.685986
-13.7228155 12.297644 -5.8347697 15.185695 -36.518593 -7.804491 17.253561 -3.7368965
12.700349 -26.221632 -6.0545187 19.92952 10.829448 15.783681 -15.870469 63.662964
16.790754 -7.0156827 14.38031 6.983902 18.33137 19.832066 -7.3701935 -15.427771
-10.319386 14.198854 8.710981 14.650287 -18.583311 -22.05831 34.167248 18.922598
-15.52161 10.448792 17.65374 14.735011 10.3358135 -3.5098538 -11.782062 28.113495
26.244192 -6.287158 16.006653 11.336576 34.760616 15.427243 9.85834 -26.762264
-24.630684 14.079849 11.371565 16.150316 10.013673 15.640907 40.927494 15.961722
-12.371852 -8.980685 -15.13746 9.963106 7.9426985 10.489303 -6.369585 -23.001875
5.378948 14.927377 17.29755 -18.265928 -14.362247 -12.504477 14.133693 11.549832
20.244278 20.100143 12.258455 22.827896 2.1703448 12.220535 -4.8851824 14.866627
-16.638926 -28.971558 12.576368 -5.3873315 17.151714 -24.826328 13.239284 -28.6916
-4.7085996 15.4093685 9.0657215 6.5266967 41.68078 10.716264 -8.803788 33.194427
-28.964066 4.836617 16.919584 14.504076 20.01508 -24.388906 18.596132 11.878399
-10.365893 4.456927 23.24466 1.97364 14.703189 -8.165489 8.984568 -8.343629
11.936393 3.824623 27.92448 -5.5770183 16.832172 -10.3132 31.885166 15.631933
-6.9104037 11.647912 13.71348 -26.502834 9.435071 -27.49469 -5.4606924 -6.995993
-8.957144 13.242136 21.250864 6.486139 20.544811 -7.9671955 -7.388551 23.385927
