online_weights/spot_hopper_medium-replay/critic_target_s1000000.pth (torch, 563411 bytes, 10 tensors)

q1_.0.weight f4 [256, 14]
-7.7365384 -1.2139288 -6.1578345 -10.738919 -2.718827 1.4745086 3.7491326 -0.2542672
-4.220722 1.2929392 -8.692265 -4.535881 5.1580033 -2.8267326 8.272028 1.0609487
2.378791 12.59709 0.27263367 0.20585215 -9.087616 -2.8037384 0.32707918 1.4970847
-2.5286357 -1.8366973 -3.8168783 -3.4644344 12.056339 -2.7784142 15.692189 -2.019157
11.082269 -1.3411005 4.323397 -1.7042835 2.1057246 -2.4697332 -1.8697045 1.1280801
-3.7901745 -0.45035097 -7.3829017 2.7675772 -6.4770246 -3.7086806 -9.717403 -2.9243236
-17.031937 1.7274556 -3.7266462 -0.11162292 8.13066 -3.5824473 1.739118 8.944829
33.607254 0.02975268 5.0494328 0.38564914 6.6602244 11.425825 2.1224463 0.22707841
-6.5256815 -4.2835174 -3.479402 -1.9145435 1.4655784 -1.8633132 23.035412 0.6382145
15.035355 -1.4364756 3.3853903 0.1791286 10.234672 -0.84009475 1.4968677 2.5533724
6.428712 -1.3733648 1.3451235 4.5129285 -3.3266482 4.83316 3.9182081 1.3436952
-0.5533613 -6.9513564 -3.8931844 2.4257216 -0.4207367 -0.8866415 10.710871 9.161999
1.8264633 8.135551 5.6302624 1.0103357 17.071486 13.892075 -4.307879 -10.02422
-2.8308892 0.72192943 -0.6655747 -1.3290629 -10.790925 0.24191685 -0.9212508 -8.943313
-1.6304976 5.542838 -13.789629 -1.7743852 -7.462088 4.5673122 -4.2742014 3.99518
-4.2494683 -5.6596055 5.1289954 4.659143 -1.4703087 2.3303716 6.323901 -1.3188683
3.042398 9.423319 3.6865854 -14.294841 0.29508665 1.7420621 -2.1047468 1.719612
-8.716967 3.0698776 2.5034704 -3.4156632 6.2743955 -1.3128018 9.693268 -0.2304922
-10.58224 -6.9136252 5.0200768 0.54742515 -0.9403925 -0.2615486 -7.5423813 -0.48813233
-1.1470617 -6.312818 9.643693 5.2532754 10.891842 7.785939 3.4157982 2.758969
-2.9399781 -4.2946925 -1.2732869 3.4107113 -0.8674544 -8.139545 -6.860813 -2.6186109
11.372964 -3.7009876 16.319092 3.553694 9.834605 -3.2587004 1.8674653 0.13193843
-0.6240816 -0.07610401 1.3318043 2.9917443 -0.13224584 -1.2433518 7.5044856 3.2786663
-4.785048 11.161854 6.872207 5.6520934 3.9546392 -2.86361 2.367416 4.9117665
0.0644705 -0.22194637 2.1319737 -0.0141128125 -1.1348329 -2.842692 9.1502 6.589682
4.8772073 -12.57182 7.365842 2.4501002 1.8772075 2.9689646 2.6844985 4.599134
3.3245096 3.7265837 -50.60939 9.923447 -17.175505 -1.2025752 -8.7945385 0.90733564
-14.7184305 9.35848 -11.89737 -5.437533 -9.026835 -0.030969445 4.752901 0.1428165
-0.55931497 -5.389954 6.9910016 -2.1331635 -15.664056 -1.8910972 -5.7256913 -4.585287
3.0630322 1.9668118 0.24323714 -4.0927353 -5.0276933 -1.8520505 9.001393 -2.3200998
-1.4294406 6.4228897 -8.559106 -4.675738 -4.234138 -4.6964126 5.7987547 6.1077175
5.786159 -4.6498175 0.9801074 7.24671 -0.2825578 2.4814947 -2.8871617 -4.5059333
00000000: b991 f7c0 0562 9bbf fb0c c5c0 9dd2 2bc1
00000010: 4301 2ec0 b3bc bc3f caf1 6f40 4f2f 82be
00000020: 2810 87c0 087f a53f 8413 0bc1 f025 91c0
00000030: 5d0e a540 30e9 34c0 3a5a 0441 2bcd 873f
00000040: 1d3e 1840 ae8d 4941 a496 8b3e e8ca 523e
00000050: e066 11c1 7370 33c0 ec76 a73e 79a0 bf3f
00000060: 2bd5 21c0 e618 ebbf bc47 74c0 4bb9 5dc0
00000070: c4e6 4041 8ad1 31c0 3513 7b41 de39 01c0
00000080: f950 3141 2ea9 abbf 4559 8a40 f625 dabf
00000090: 31c4 0640 1c10 1ec0 7a52 efbf ee64 903f
000000a0: 3892 72c0 6794 e6be bb40 ecc0 fc1f 3140
000000b0: c943 cfc0 065b 6dc0 7c7a 1bc1 1e28 3bc0
000000c0: 6841 88c1 441d dd3f 5f81 6ec0 8f9a e4bd
000000d0: 2f17 0241 d146 65c0 6b9b de3f 051e 0f41
000000e0: d46d 0642 e4bb f33c f494 a140 ce73 c53e
000000f0: 8f20 d540 2ed0 3641 29d6 0740 3e87 683e
00000100: 62d2 d0c0 9312 89c0 86ae 5ec0 c30f f5bf
00000110: 1398 bb3f 0c81 eebf 8648 b841 0762 233f
00000120: d090 7041 6fde b7bf 3caa 5840 7d6d 373e
00000130: 37c1 2341 7310 57bf 5c99 bf3f 746a 2340
00000140: 02b8 cd40 6bca afbf 022d ac3f e969 9040
00000150: cee7 54c0 3fa9 9a40 ecc3 7a40 34fe ab3f
00000160: 16a9 0dbf 8371 dec0 ef29 79c0 063f 1b40
00000170: cd6a d7be f0fa 62bf ba5f 2b41 8c97 1241
00000180: 8dc9 e93f 382b 0241 1c2b b440 ae52 813f
00000190: 6792 8841 f045 5e41 25da 89c0 3563 20c1
000001a0: 4a2d 35c0 5ed0 383f 1b63 2abf bc1e aabf
000001b0: a1a7 2cc1 0db9 773e 18d7 6bbf cf17 0fc1
000001c0: 25b4 d0bf ee5e b140 52a2 5cc1 0e1f e3bf
000001d0: 6dc9 eec0 6c27 9240 42c6 88c0 07b1 7f40
000001e0: a5fb 87c0 7d1b b5c0 bb20 a440 b317 9540
000001f0: 1333 bcbf cf24 1540 665d ca40 add0 a8bf
00000200: a6b6 4240 eac5 1641 04f1 6b40 abb7 64c1
00000210: 9915 973e e4fb de3f 2cb4 06c0 3f1c dc3f
00000220: b278 0bc1 e078 4440 dc38 2040 3a9a 5ac0
00000230: d9c7 c840 e409 a8bf a017 1b41 2606 6cbe
00000240: db50 29c1 6b3c ddc0 78a4 a040 0e24 0c3f
00000250: 90bd 70bf b3e9 85be 305b f1c0 7bec f9be
00000260: ebd2 92bf 9b02 cac0 914c 1a41 d51a a840
00000270: fc44 2e41 6a26 f940 709c 5a40 f392 3040
00000280: 9a28 3cc0 1f6e 89c0 11fb a2bf 1849 5a40
00000290: 7e11 5ebf 943b 02c1 c88b dbc0 5297 27c0
000002a0: a9f7 3541 fbdc 6cc0 808d 8241 b96f 6340
000002b0: 8b5a 1d41 8c8e 50c0 1a09 ef3f de1a 073e
000002c0: d0c3 1fbf 6bdc 9bbd 9078 aa3f bd78 3f40
000002d0: 746b 07be 2726 9fbf bf24 f040 abd5 5140
000002e0: 1d1f 99c0 f496 3241 1fe9 db40 f3dd b440
000002f0: cf18 7d40 6345 37c0 be83 1740 312d 9d40
00000300: 1c09 843d e945 63be 4272 0840 6d39 67bc
00000310: 3442 91bf aaee 35c0 3867 1241 adde d240
00000320: 1512 9c40 2d26 49c1 fab4 eb40 71ce 1c40
00000330: 5648 f03f 8403 3e40 d3ce 2b40 1b2c 9340
00000340: c4c4 5440 5980 6e40 0470 4ac2 70c6 1e41
00000350: 6f67 89c1 fced 99bf 6eb6 0cc1 2647 683f
00000360: b17e 6bc1 56bc 1541 a15b 3ec1 4500 aec0
00000370: eb6d 10c1 a2b3 fdbc c417 9840 7d3e 123e
00000380: 442f 0fbf 817a acc0 49b6 df40 c085 08c0
00000390: f99f 7ac1 790f f2bf dd38 b7c0 acba 92c0
000003a0: b808 4440 7dc0 fb3f 2813 793e b0f7 82c0
000003b0: dde2 a0c0 fe0f edbf b505 1041 847c 14c0
000003c0: e9f7 b6bf 5088 cd40 19f2 08c1 a59f 95c0
000003d0: 0f7e 87c0 0349 96c0 668f b940 6c72 c340
000003e0: 3728 b940 4ecb 94c0 52e8 7a3f 0ce5 e740
000003f0: 6aab 90be cfd0 1e40 42c7 38c0 9b30 90c0

q1_.0.bias f4 [256]
-3.143275 4.4163103 6.282341 -3.667773 26.518236 15.7815485 -1.7952633 6.874346
2.8959434 4.785833 9.455721 5.0858545 6.0709467 2.5834975 -2.9582772 -17.365217
-2.6105628 6.339703 -2.4058514 9.180761 7.2911825 -3.3655274 -10.157122 -4.229678
6.5498238 0.96286345 3.8078601 7.3730397 -8.341664 -1.4167681 -1.1384163 -0.92412597
-9.081249 -7.2879033 3.7723706 4.6768546 4.4412203 -4.5815835 0.73027194 1.96366
3.1340501 5.985669 -0.42134258 4.1333733 6.8358493 -8.910527 -1.261446 -2.4705026
23.844118 -3.4412978 3.0460587 5.914543 4.8507023 -8.356005 1.7836378 1.3356059
-5.1198373 3.1408298 -6.974338 -5.765825 7.8226266 1.0077598 2.796672 -6.8035336
-4.38731 1.1268178 5.6238317 -7.8458056 6.6847143 17.327644 2.029822 -3.194456
-7.509797 -3.5310676 -16.351385 -5.690478 -3.2371578 3.4690688 2.720597 -3.0485916
7.9063163 5.1337395 2.579383 2.7015624 6.098604 -7.561873 12.956733 5.5267167
6.2488856 -2.9783072 -3.0129647 2.7667208 -3.183363 6.3623886 -3.554965 6.1938615
2.5466235 0.18994895 5.7420607 3.963272 3.5904217 -8.666082 3.9932897 -8.91455
-4.903704 -1.0299928 -9.866123 9.76644 11.795826 0.5134813 -5.3259306 5.5868545
-7.62206 4.8101397 8.003835 -1.022994 -2.4470253 5.1825943 -4.3189406 1.4708537
9.368656 -9.173348 2.130358 -6.6428075 -6.585946 3.9872599 -5.4287343 7.1766453
2.4762485 5.3515306 8.848351 9.718033 -2.013455 4.076727 -10.058215 -3.5402048
-6.2121816 -3.819123 -4.887517 2.5444002 -4.0789275 9.65436 -1.1324214 15.927241
6.928867 8.232627 2.2323558 3.096256 -0.80712754 -1.9210416 8.344453 -3.1480823
3.409139 2.7260773 -6.990429 6.954815 0.17167367 3.8572505 9.650638 8.380647
6.9922843 2.3209038 -6.099223 -5.182116 -7.1234045 -5.0453606 4.999719 8.580966
-7.3100624 -4.8544416 -1.0452951 -1.5361332 4.9516506 2.734021 1.8364412 -3.7714586
-1.9775897 11.450675 7.300582 3.8569334 12.352911 0.78836346 7.884011 -4.422063
6.223306 -1.2067817 -4.4574842 6.913009 3.9408216 2.1640136 2.43666 -5.9029207
-0.7211359 1.7299662 -3.8125238 4.7902446 -7.806287 2.7253373 25.321777 1.6684277
1.9193311 4.9527073 6.997246 5.0982704 2.5011742 -2.1215682 7.3226953 8.010353
25.063164 5.4931226 5.4778037 4.6722217 -3.01291 -1.2191442 5.1070356 -2.174768
-1.832223 2.1428194 2.5869956 3.0325382 -1.8604543 -1.3971784 0.5894592 -0.4922353
4.078568 26.267885 -0.62341684 -2.376712 3.4235463 3.245711 -4.1482472 -6.6951895
-7.344343 -1.8411396 1.6831889 5.1980743 -0.51284367 3.3140535 9.117966 1.3909285
-10.588451 5.373962 -5.5324874 2.9048038 2.5979922 5.644165 -4.3290877 4.0171494
5.2257586 7.524546 -2.7472658 0.8911426 -4.4041295 -8.336094 6.8340454 3.0962002
00000000: 6b2b 49c0 6a52 8d40 f008 c940 cbbc 6ac0
00000010: 5925 d441 3981 7c41 30cb e5bf a4fa db40
00000020: 2357 3940 8b25 9940 a24a 1741 52bf a240
00000030: 3245 c240 0658 2540 6a54 3dc0 f7eb 8ac1
00000040: 7613 27c0 d9de ca40 78f9 19c0 66e4 1241
00000050: 5e51 e940 cd64 57c0 9283 22c1 8659 87c0
00000060: 2898 d140 387e 763f fbb3 7340 f1ef eb40
00000070: 7577 05c1 a858 b5bf a0b7 91bf 8593 6cbf
00000080: cc4c 11c1 8136 e9c0 856e 7140 cba8 9540
00000090: 7a1e 8e40 559c 92c0 1af3 3a3f 3659 fb3f
000000a0: 4794 4840 9a8a bf40 37ba d7be 9844 8440
000000b0: 47bf da40 8591 0ec1 1077 a1bf b71c 1ec0
000000c0: c1c0 be41 393e 5cc0 a0f2 4240 f043 bd40
000000d0: f438 9b40 32b2 05c1 3e4e e43f 22f5 aa3f
000000e0: b5d5 a3c0 5b03 4940 c72d dfc0 a381 b8c0
000000f0: f552 fa40 46fe 803f adfc 3240 8cb6 d9c0
00000100: d864 8cc0 913b 903f 6ef6 b340 d710 fbc0
00000110: 2ee9 d540 049f 8a41 9be8 0140 f871 4cc0
00000120: 4250 f0c0 03fd 61c0 a3cf 82c1 6518 b6c0
00000130: 982d 4fc0 3905 5e40 431e 2e40 201c 43c0
00000140: 8b00 fd40 9847 a440 9c14 2540 66e6 2c40
00000150: c427 c340 ddfa f1c0 c74e 4f41 ddda b040
00000160: dff6 c740 969c 3ec0 6ad4 40c0 f411 3140
00000170: 38bc 4bc0 b098 cb40 8c84 63c0 1d34 c640
00000180: e1fb 2240 fa81 423e f6be b740 40a6 7d40
00000190: 78c9 6540 46a8 0ac1 0f92 7f40 ffa1 0ec1
000001a0: 25eb 9cc0 ced6 83bf a4db 1dc1 5743 1c41
000001b0: b4bb 3c41 8373 033f 066e aac0 83c7 b240
000001c0: eae7 f3c0 aaec 9940 b50f 0041 78f1 82bf
000001d0: 109c 1cc0 d0d7 a540 c334 8ac0 ef44 bc3f
000001e0: 04e6 1541 09c6 12c1 c957 0840 e191 d4c0
000001f0: 12c0 d2c0 442f 7f40 31b8 adc0 14a7 e540
00000200: db7a 1e40 bd3f ab40 d892 0d41 107d 1b41
00000210: 72dc 00c0 8c74 8240 73ee 20c1 b792 62c0
00000220: 31ca c6c0 836c 74c0 8a66 9cc0 74d7 2240
00000230: 9386 82c0 4278 1a41 2ff3 90bf fbd5 7e41
00000240: 47b9 dd40 d7b8 0341 ebde 0e40 0f29 4640
00000250: e99f 4ebf b1e4 f5bf e182 0541 2e7a 49c0
00000260: 552f 5a40 0d78 2e40 98b1 dfc0 d88d de40
00000270: 39cb 2f3e 31dd 7640 0369 1a41 2117 0641
00000280: cbc0 df40 b089 1440 d62c c3c0 e5d3 a5c0
00000290: eef2 e3c0 9873 a1c0 b3fd 9f40 a34b 0941
000002a0: 08ec e9c0 9657 9bc0 3bcc 85bf 03a0 c4bf
000002b0: ec73 9e40 33fa 2e40 8110 eb3f 945f 71c0
000002c0: a921 fdbf f735 3741 5e9e e940 ffd7 7640
000002d0: 86a5 4541 30d2 493f d149 fc40 8a81 8dc0
000002e0: 5325 c740 d377 9abf b6a3 8ec0 5f37 dd40
000002f0: 6c36 7c40 337f 0a40 3df2 1b40 bae4 bcc0
00000300: 5d9c 38bf 886f dd3f 6400 74c0 af49 9940
00000310: 1acd f9c0 ed6b 2e40 0093 ca41 0a8f d53f
00000320: a4ac f53f 947c 9e40 70e9 df40 0825 a340
00000330: 3d13 2040 c6c7 07c0 8553 ea40 682a 0041
00000340: 5c81 c841 a9c7 af40 2b4a af40 d782 9540
00000350: 84d3 40c0 eb0c 9cbf d66c a340 662f 0bc0
00000360: 4986 eabf f423 0940 5691 2540 1b15 4240
00000370: 5e23 eebf bed6 b2bf cce6 163f 4406 fcbe
00000380: a183 8240 a124 d241 3f98 1fbf 0d1c 18c0
00000390: 621b 5b40 bbb9 4f40 71be 84c0 fe3e d6c0
000003a0: dc04 ebc0 76aa ebbf bc72 d73f a056 a640
000003b0: b949 03bf 7419 5440 30e3 1141 f209 b23f
000003c0: 4c6a 29c1 7ff7 ab40 230a b1c0 4ee8 3940
000003d0: 8145 2640 009d b440 e387 8ac0 7d8c 8040
000003e0: 6a39 a740 15c9 f040 34d3 2fc0 ec21 643f
000003f0: a1ee 8cc0 a460 05c1 80b0 da40 2528 4640

q1_.2.weight f4 [256, 256]
-0.0720077 -0.015280131 -0.049063984 0.02248755 -0.04790542 0.008305449 -0.05076495 -0.04854766
-0.0020306811 0.046009984 -0.06365261 0.019354204 -0.058441292 -0.011392601 -0.00055190816 0.007710939
-0.015556734 -0.05372656 0.044784363 0.002945101 0.03363307 -0.034219433 -0.030931301 -0.03856834
-0.032990087 -0.044923693 -0.044909537 -0.07151298 -0.009867839 -0.0028112233 0.02139641 0.0020313794
0.0016989784 0.04803878 -0.009564413 -0.0092719775 0.0115732765 -0.064954974 0.03211613 -0.06274476
-0.011500075 0.04398119 0.038513202 0.016333364 -0.038027428 0.033133134 0.022479726 0.04732576
-0.0061606583 0.02346991 0.019598212 -0.048093174 -0.02797789 0.024896324 0.043411966 -0.042459037
-0.024566265 -0.027051408 0.023825675 -0.04038107 0.029546982 0.0031267088 0.0068732137 -0.051548757
0.04119765 -0.063572146 0.014429273 0.007251703 -0.07582091 -0.04953188 0.016426124 -0.0153922625
-0.036986582 -0.019914491 -0.015573125 0.0016663355 -0.02356528 -0.040484633 0.020786952 -0.06641827
-0.027691787 -0.06265461 0.0022561543 0.020621177 -0.06722144 -0.036097728 0.024943635 -0.061521366
-0.029635273 0.0438441 0.031954452 0.023819342 -0.026662488 -0.023523556 0.014576608 -0.023852872
-0.041559007 0.05783779 -0.038595162 -0.07034771 -0.060048386 0.017413326 0.024141952 -0.006731839
0.038120557 -0.074129626 -0.0059974906 -0.035448037 -0.008191829 0.024762958 0.022469295 -0.049618308
0.039339475 0.018873269 -0.014202218 -0.02336821 -0.032177974 -0.010131217 0.016688757 -5.2615775e-05
-0.017291883 0.03615584 -0.025956545 0.012050673 -0.03352802 -0.0091248285 0.015856527 -0.012642623
-0.049656305 -0.04351926 -0.007999045 -0.048213873 -0.056183767 0.030651903 -0.020398034 -0.020176752
-0.0065633627 -0.061904326 -0.052084453 -0.03501739 -0.0013890574 0.032078877 0.04005622 -0.032023747
-0.021380765 0.018041039 -0.030125894 0.04452583 0.013589964 0.013013662 -0.036066435 0.043544587
0.04189577 -0.04861397 -0.041688647 -0.037622117 0.024455622 3.150238e-05 -0.07440381 -0.06451539
-0.05647285 0.012725511 0.006675307 -0.014470066 -0.051196344 -0.028699106 -0.05314169 -0.023354799
0.0032373036 -0.029961236 0.04553091 -0.00970765 -0.023874478 -0.039028786 -0.041197654 0.01573769
-0.03823977 0.023521692 -0.009844928 -0.061683044 0.02569242 -0.060108736 0.0208324 -0.057296883
-0.03715422 0.036479194 -0.040481653 -0.02856574 -0.022812769 -0.0005719316 0.045594987 -0.040068146
-0.07568382 -0.034797598 0.017038189 -0.030811347 0.057490595 -0.03132358 0.051762585 0.0062449425
0.010125814 0.042381547 -0.05144296 -0.044869304 0.031823322 -0.03452267 -0.043645173 -0.05103243
0.022436513 0.003656492 -0.05296213 0.03258477 -0.041825738 -0.04668203 -0.0060495515 -0.04239049
0.02472496 -0.024718257 -0.036571585 -0.025125058 0.045940693 -0.051808782 0.030569946 -0.00983487
0.023378639 -0.006293465 0.034869865 0.04356843 0.059148353 0.0152760325 -0.022834003 -0.03452267
-0.039259013 -0.06630949 -0.037955157 -0.054885875 0.009567951 -0.0062882495 0.037849355 -0.06898425
-0.03457855 -0.06552122 0.008787502 -0.0625801 -0.035007704 -0.04912359 0.0281418 -0.049794886
-0.040115084 -0.03973734 -0.017690118 0.03828 -0.026136477 0.019170547 0.029848358 -0.015865842
00000000: c678 93bd 8459 7abc 51f7 48bd cf37 b83c
00000010: 7938 44bd 9413 083c e9ee 4fbd e9d9 46bd
00000020: 2d15 05bb f774 3c3d 4d5c 82bd b58c 9e3c
00000030: 2360 6fbd 08a8 3abc eead 10ba 0bac fc3b
00000040: ace1 7ebc 6210 5cbd cf6f 373d 9802 413b
00000050: d4c2 093d ad29 0cbd a463 fdbc d6f9 1dbd
00000060: 9d20 07bd e801 38bd 10f3 37bd 6675 92bd
00000070: b7ac 21bc 803c 38bb 8647 af3c e420 053b
00000080: 41b0 de3a 50c4 443d 0eb4 1cbc 7ee9 17bc
00000090: d79d 3d3c 1d07 85bd 348c 033d 5380 80bd
000000a0: d06a 3cbc 9f25 343d 05c0 1d3d 8ccd 853c
000000b0: a6c2 1bbd 9cb6 073d 6727 b83c a8d8 413d
000000c0: 59df c9bb f843 c03c 6e8c a03c 59fd 44bd
000000d0: e331 e5bc 60f3 cb3c bfd0 313d 87e9 2dbd
000000e0: 313f c9bc ea9a ddbc 102e c33c 9f66 25bd
000000f0: 830c f23c 78e9 4c3b b238 e13b ca24 53bd
00000100: debe 283d 1d32 82bd c268 6c3c b29f ed3b
00000110: fe47 9bbd f1e1 4abd 1490 863c d42f 7cbc
00000120: 3e7f 17bd b723 a3bc 6c26 7fbc f168 da3a
00000130: f90b c1bc 37d3 25bd 6649 aa3c 4d06 88bd
00000140: e3d9 e2bc 0f51 80bd fddb 133b beed a83c
00000150: 65ab 89bd 36db 13bd 9856 cc3c d4fd 7bbd
00000160: acc5 f2bc df95 333d ace2 023d c820 c33c
00000170: 4a6b dabc 79b4 c0bc bad2 6e3c 1967 c3bc
00000180: c739 2abd 52e7 6c3d f615 1ebd 7612 90bd
00000190: 4cf5 75bd 64a6 8e3c 58c5 c53c c296 dcbb
000001a0: 4d24 1c3d 46d1 97bd 9986 c4bb f631 11bd
000001b0: 0537 06bc b0db ca3c 8711 b83c 913c 4bbd
000001c0: 6e22 213d 1d9c 9a3c 6bb0 68bc b06e bfbc
000001d0: 0dcd 03bd 67fd 25bc dcb6 883c c2af 5cb8
000001e0: b5a7 8dbc 2518 143d d2a2 d4bc 3070 453c
000001f0: ad54 09bd 4e80 15bc 8ce5 813c 0123 4fbc
00000200: 6964 4bbd 4041 32bd 6d0e 03bc e97b 45bd
00000210: f320 66bd b319 fb3c c719 a7bc b749 a5bc
00000220: 7a11 d7bb 648f 7dbd 8256 55bd 656e 0fbd
00000230: 0811 b6ba 2465 033d fe11 243d 552b 03bd
00000240: b726 afbc cdca 933c 94ca f6bc b760 363d
00000250: 71a8 5e3c 4137 553c 66ba 13bd cf5b 323d
00000260: e69a 2b3d 711f 47bd b7c1 2abd a619 1abd
00000270: 2857 c83c 6c21 0438 0661 98bd a520 84bd
00000280: 1350 67bd a97e 503c 89bc da3b db13 6dbc
00000290: 42b3 51bd 631a ebbc 1aab 59bd 9052 bfbc
000002a0: f128 543b 4471 f5bc 9f7e 3a3d d60c 1fbc
000002b0: 6994 c3bc a6dc 1fbd dfbe 28bd 54ec 803c
000002c0: 4ea1 1cbd 90b0 c03c 9f4c 21bc 5ca7 7cbd
000002d0: e978 d23c 9434 76bd b6a8 aa3c 23b0 6abd
000002e0: 062f 18bd 356b 153d 17d0 25bd b302 eabc
000002f0: d8e1 babc aeed 15ba cfc1 3a3d 7f1e 24bd
00000300: 1e00 9bbd ed87 0ebd ac93 8b3c 1468 fcbc
00000310: 427b 6b3d 274d 00bd 0105 543d 60a2 cc3b
00000320: bee6 253c 4698 2d3d dab5 52bd e0c8 37bd
00000330: 2c59 023d a567 0dbd 48c5 32bd 6207 51bd
00000340: c7cc b73c c2a1 6f3b d2ee 58bd 9c77 053d
00000350: 7751 2bbd a835 3fbd 513b c6bb a7a1 2dbd
00000360: 008c ca3c f17d cabc 16cc 15bd 11d3 cdbc
00000370: 4f2c 3c3d 7235 54bd d36d fa3c 6f22 21bc
00000380: 8f84 bf3c 6939 cebb b4d3 0e3d cf74 323d
00000390: 8b45 723d 5348 7a3c 600e bbbc a567 0dbd
000003a0: 0fce 20bd 45cd 87bd de76 1bbd 03d0 60bd
000003b0: e5c2 1c3c a90d cebb ed07 1b3d 9d47 8dbd
000003c0: 3da2 0dbd fd2f 86bd 74f9 0f3c ff29 80bd
000003d0: 3d64 0fbd d135 49bd a289 e63c b9f5 4bbd
000003e0: b74f 24bd 9fc3 22bd deea 90bc 7dcb 1c3d
000003f0: 2a1c d6bc 8d0b 9d3c 8b84 f43c 15f9 81bc

q1_.2.bias f4 [256]
-0.017897617 10.337945 7.823166 6.9806404 -1.4552772 7.812981 -3.4848871 14.532949
0.002152172 7.668075 7.5780153 8.123231 7.853302 0.04503843 0.33393237 -0.24079853
12.100169 -0.071293935 7.848027 10.075743 7.8244195 0.07838689 0.026850613 7.4461656
9.870377 7.8465924 7.7833405 0.24673812 -0.324038 11.872325 12.634092 -0.081852905
7.7391696 4.496423 0.037585605 -1.1353974 6.8748565 7.533321 0.20155776 2.8827639
7.8651137 14.266228 7.831213 3.9905078 -1.5493957 -0.06263002 0.0028954146 7.984686
7.7462645 6.4003572 7.6517606 7.1518807 0.032103464 -1.4636183 -1.5343943 12.41934
0.1777725 8.053617 7.9417367 -0.21568707 -0.37908295 6.852758 8.059925 7.741668
-0.28004208 -1.2624365 5.270951 8.878092 5.1436543 8.762406 7.9910636 -0.080555014
8.793675 0.040387027 10.614597 7.692259 5.0658374 -0.045069724 0.05860297 10.701186
0.04514944 -1.2699533 13.932541 -1.3554068 12.781984 8.068452 7.455994 -1.2714028
0.018231774 7.366425 7.8939877 -1.6670752 6.183562 4.359872 -0.0075778533 -0.015337128
12.169824 -0.027522659 -1.1323899 7.6941347 0.03780018 -0.0041750767 -1.77878 -2.5284147
5.3348093 0.023641273 -0.14132723 -0.033849884 -0.05337117 4.8993487 9.973901 8.908985
-1.2616181 9.121021 0.036287714 -0.07516526 -0.046358675 6.583813 -0.28667182 -0.1257257
7.7856145 9.7210045 7.784213 -0.01054491 4.864034 -1.4334134 7.050573 7.826299
0.0020610886 0.024515599 0.028124291 -0.019803852 8.520552 -0.045755923 -0.7441659 -2.8111606
-1.5312625 7.5938416 -1.4260501 -1.3854907 0.022333695 8.952746 3.2347906 0.10197545
7.498648 5.0379167 -0.075020716 9.016635 7.51138 -1.2578675 5.2974586 -1.7763107
6.1796927 7.92027 7.624894 14.25062 7.645282 7.8708363 -0.30361742 7.9176917
8.891735 4.696339 0.018561834 9.092036 -0.06671182 -1.5036583 5.2104135 -0.02310893
0.27031028 6.678317 -3.181693 5.435294 7.104988 0.027419094 8.850693 -2.2428956
7.7475576 -1.6560587 -0.0076419283 13.8753 -2.7598898 7.9157157 5.163027 10.567698
-0.11648025 14.47084 -0.039577898 -0.04183766 16.121792 7.876473 0.0026330608 -0.020442365
8.193614 -2.6879663 3.3365502 12.3380165 -0.048327122 6.755147 13.768999 -0.016475672
8.072208 -0.037000738 6.6992397 3.1665154 -1.364384 -2.119 4.51037 11.9173
0.08547835 8.201409 -1.499066 0.01552246 -0.9875193 -0.24540895 4.8416066 -0.05908279
7.172601 8.096029 7.6939573 7.6843476 -0.017024407 12.924582 7.907611 -0.003312741
0.01653453 4.3501816 -2.3291616 -1.2948271 0.011773884 -0.37981012 4.3493786 -1.0589862
7.5945225 5.2583985 -0.016587058 -1.5503922 8.022387 9.176162 6.9999995 4.239041
0.04082959 0.033636793 -1.5738461 -0.020715429 -0.13903542 0.17941163 -1.3580021 0.07832132
0.18564032 10.183615 3.4608998 9.683798 7.920352 -1.3988197 7.606659 -9.337299
00000000: 069e 92bc 3968 2541 6057 fa40 6861 df40
00000010: 8646 babf f103 fa40 6408 5fc0 f686 6841
00000020: 740b 0d3b df60 f540 1a7f f240 c1f8 0141
00000030: 404e fb40 377a 383d 2ff9 aa3e e493 76be
00000040: 4b9a 4141 8e02 92bd 0a23 fb40 3e36 2141
00000050: a561 fa40 4e89 a03d d1f5 db3c fd46 ee40
00000060: 10ed 1d41 4917 fb40 2011 f940 eba8 7c3e
00000070: 4fe8 a5be 0bf5 3d41 3e25 4a41 7fa2 a7bd
00000080: 47a7 f740 b2e2 8f40 5df3 193d b454 91bf
00000090: d3fe db40 f710 f140 2865 4e3e 347f 3840
000000a0: 03af fb40 7842 6441 4c99 fa40 7b64 7f40
000000b0: 9952 c6bf 2b44 80bd ffc0 3d3b 8c82 ff40
000000c0: 66e1 f740 bacf cc40 39db f440 35dc e440
000000d0: ec7e 033d d857 bbbf 0867 c4bf 9eb5 4641
000000e0: ff09 363e 9ddb 0041 b522 fe40 12dd 5cbe
000000f0: 2917 c2be cb49 db40 74f5 0041 bfbb f740
00000100: ad61 8fbe 8597 a1bf a1ab a840 aa0c 0e41
00000110: d198 a440 d132 0c41 cbb6 ff40 07fa a4bd
00000120: e5b2 0c41 de6c 253d 64d5 2941 fc26 f640
00000130: 571b a240 089b 38bd ab09 703d 0f38 2b41
00000140: 9fee 383d d48d a2bf b0eb 5e41 f87d adbf
00000150: 0283 4c41 6118 0141 8197 ee40 54bd a2bf
00000160: cd5a 953c c1b9 eb40 8c9b fc40 b862 d5bf
00000170: bddf c540 1284 8b40 a44f f8bb 9448 7bbc
00000180: 99b7 4241 3377 e1bc 27f2 90bf 5a36 f640
00000190: 5dd4 1a3d 15cf 88bb 10af e3bf 8cd1 21c0
000001a0: c2b6 aa40 58ab c13c 16b8 10be 2da6 0abd
000001b0: ba9b 5abd 77c7 9c40 1995 1f41 348b 0e41
000001c0: b47c a1bf b4ef 1141 6da2 143d 3ef0 99bd
000001d0: 98e2 3dbd 99ae d240 a6c6 92be 3dbe 00be
000001e0: c123 f940 3c89 1b41 4618 f940 8fc4 2cbc
000001f0: 2ba6 9b40 177a b7bf 4b9e e140 0b71 fa40
00000200: 5413 073b f0d4 c83c ea64 e63c b03b a2bc
00000210: 2e54 0841 906a 3bbd a881 3ebf 0eea 33c0
00000220: 6900 c4bf c000 f340 cf88 b6bf c257 b1bf
00000230: 27f5 b63c 733e 0f41 cf06 4f40 81d8 d03d
00000240: edf4 ef40 9d36 a140 76a4 99bd 2344 1041
00000250: 3a5d f040 cd01 a1bf c884 a940 265e e3bf
00000260: 0bc0 c540 da72 fd40 22ff f340 8a02 6441
00000270: 26a6 f440 e4dd fb40 be73 9bbe bb5d fd40
00000280: 8c44 0e41 6948 9640 fd0e 983c fb78 1141
00000290: 35a0 88bd e077 c0bf b5bb a640 f04e bdbc
000002a0: 1c66 8a3e c6b4 d540 dca0 4bc0 eeed ad40
000002b0: 105c e340 029e e03c 709c 0d41 9a8b 0fc0
000002c0: feeb f740 bbf9 d3bf 2469 fabb 3b01 5e41
000002d0: 09a2 30c0 8b4d fd40 8437 a540 4a15 2941
000002e0: 338d eebd 9088 6741 6f1c 22bd f75d 2bbd
000002f0: 6ef9 8041 110c fc40 6e8f 2c3b bf76 a7bc
00000300: 0b19 0341 a407 2cc0 0a8a 5540 8468 4541
00000310: a9f2 45bd 2a2a d840 d24d 5c41 fdf7 86bc
00000320: c427 0141 168e 17bd 2c60 d640 30a8 4a40
00000330: 23a4 aebf b29d 07c0 f354 9040 43ad 3e41
00000340: 460f af3d f938 0341 65e1 bfbf eb51 7e3c
00000350: 11ce 7cbf 7c4c 7bbe 71ee 9a40 cc00 72bd
00000360: f385 e540 5689 0141 e634 f640 2de6 f540
00000370: c576 8bbc 16cb 4e41 260b fd40 921a 59bb
00000380: 6c73 873c b034 8b40 fc10 15c0 e5bc a5bf
00000390: 40e7 403c 7976 c2be 1c2e 8b40 dc8c 87bf
000003a0: 5406 f340 cd44 a840 95e1 87bc 4073 c6bf
000003b0: b25b 0041 8fd1 1241 ffff df40 39a6 8740
000003c0: ee3c 273d bcc6 093d ca73 c9bf 67b3 a9bc
000003d0: 4d5f 0ebe afb7 373e 03d3 adbf ee66 a03d
000003e0: 7f18 3e3e 16f0 2241 627f 5d40 d6f0 1a41
000003f0: 8673 fd40 860c b3bf c069 f340 9465 15c1

q1_.4.weight f4 [1, 256]
-0.034073398 -129.86267 67.35832 56.31393 67.31747 46.901012 -28.994135 -59.77309
-0.035492737 47.840862 51.501637 46.72857 51.39158 -0.03158714 2.8786926 -4.4723077
-132.4456 1.1958491 46.563522 -112.24596 46.327297 1.9015449 -0.021904169 51.266884
-126.15047 46.61185 47.15344 -3.6479745 -2.847078 -65.42226 -93.14599 -0.02633615
47.139824 87.740486 -0.0049181795 61.653812 87.22669 47.78021 1.9041914 79.16285
50.930267 -81.92911 46.53189 82.46247 75.53305 -0.04165288 -0.022738634 48.82084
49.448708 62.35958 47.143044 61.302437 -0.0064583095 68.75353 75.46208 -121.128685
2.0622988 47.006886 50.273296 -1.2595785 -1.2623918 56.858376 48.147415 51.405006
74.23057 59.598133 86.380806 -137.7409 77.722145 -137.77792 47.194714 -2.309539
-66.70889 -0.018807331 -128.52861 46.776016 75.57475 -0.010004928 -3.7479672 -63.72195
-0.012060918 67.34516 -62.345577 64.41707 -80.531876 46.783413 53.493546 61.916225
-2.7235293 50.007202 47.13259 60.68332 58.693512 -84.614746 -0.017133929 -0.007693523
-76.81452 -0.024406448 60.771713 57.637535 -0.022731928 -0.021718277 62.930016 89.21638
76.01142 -0.048895597 -5.013423 -2.2199888 -0.022330342 82.68628 -53.223675 -48.64213
95.766716 -141.26724 -0.024385214 -0.03258179 -0.003295744 -101.32945 -3.538159 -4.215769
46.720745 -128.80087 46.384293 -0.03580864 81.327385 68.15771 63.67042 46.208595
-0.028517682 1.2266289 -3.2213001 -0.0022379935 -115.38735 -0.01847541 97.28507 89.65111
66.1402 56.63176 67.83894 68.51358 0.008122166 -119.35895 87.90752 -2.8975751
52.104877 77.291824 -0.0035499025 -126.02993 56.872963 68.669464 75.776405 62.539505
60.80648 46.363075 47.06401 -60.58361 46.31669 55.929737 -2.790573 50.87665
-125.158875 80.2678 -2.5389934 -116.235855 -0.016968526 68.895996 69.94988 -2.8071668
-3.5992894 56.70528 -38.3788 62.213852 58.31856 -0.002316504 -64.18141 84.65215
46.39611 60.96847 -0.030123657 -64.02005 90.03063 51.13609 77.833664 -126.18808
-2.6308322 -62.746254 0.008681704 -0.023640528 -61.09115 55.660126 -0.013762632 -0.012180127
-49.00242 91.49152 79.72977 -55.418087 0.0029630756 57.96559 -58.726856 -0.026569353
46.914955 -4.8963113 -97.95574 80.10742 57.841007 81.63636 89.375145 -53.64
-2.7277734 49.27803 66.56697 -0.0070209214 61.242844 -2.549913 79.953835 -5.220752
53.91742 46.569157 46.908165 52.48345 -4.2720356 -103.030396 46.70444 -0.033286616
-0.03606196 83.79795 82.45525 61.675133 -0.006388181 -2.527597 89.47197 59.93676
56.69652 75.447495 -3.8242137 66.98302 48.264973 -129.32434 -87.67156 90.433624
-0.043113198 -2.158906 66.629395 -0.028445039 -2.2940419 -3.5887036 62.663124 -4.148726
-4.4345417 -135.44093 86.81433 -86.07234 46.1719 61.81578 55.775246 103.46504
00000000: 8c90 0bbd d8dc 01c3 76b7 8642 7741 6142
00000010: 8ba2 8642 a39a 3b42 fdf3 e7c1 a517 6fc2
00000020: d560 11bd 0b5d 3f42 ad01 4e42 0eea 3a42
00000030: fa90 4d42 8461 01bd 803c 3840 251d 8fc0
00000040: 1372 04c3 9511 993f 0c41 3a42 ee7d e0c2
00000050: 274f 3942 d365 f33f 5f70 b3bc 4a11 4d42
00000060: 0a4d fcc2 8972 3a42 1f9d 3c42 6a78 69c0
00000070: 8736 36c0 32d8 82c2 bf4a bac2 e9be d7bc
00000080: 2e8f 3c42 217b af42 ae28 a1bb 819d 7642
00000090: 1174 ae42 ef1e 3f42 8bbc f33f 6153 9e42
000000a0: 98b8 4b42 b4db a3c2 a820 3a42 c9ec a442
000000b0: ec10 9742 369c 2abd 5f46 babc 8a48 4342
000000c0: 7acb 4542 3670 7942 7a92 3c42 b235 7542
000000d0: 3aa0 d3bb cf81 8942 96ec 9642 e341 f2c2
000000e0: b4fc 0340 0d07 3c42 db17 4942 de39 a1bf
000000f0: 0e96 a1bf fa6e 6342 f496 4042 ba9e 4d42
00000100: 0d76 9442 7d64 6e42 f9c2 ac42 acbd 09c3
00000110: bd71 9b42 26c7 09c3 63c7 3c42 7dcf 13c0
00000120: f46a 85c2 d511 9abc 5387 00c3 a41a 3b42
00000130: 4626 9742 b6eb 23bc b2de 6fc0 47e3 7ec2
00000140: 289b 45bc b9b0 8642 df61 79c2 8ad5 8042
00000150: 5210 a1c2 3722 3b42 64f9 5542 37aa 7742
00000160: 4e4e 2ec0 6007 4842 c687 3c42 b8bb 7242
00000170: 28c6 6a42 c03a a9c2 745c 8cbc f319 fcbb
00000180: 09a1 99c2 08f0 c7bc 3c16 7342 d68c 6642
00000190: 4f38 babc 87ea b1bc 56b8 7b42 c96e b242
000001a0: d905 9842 c046 48bd f66d a0c0 4c14 0ec0
000001b0: 1fee b6bc 605f a542 0be5 54c2 8b91 42c2
000001c0: 8f88 bf42 6a44 0dc3 80c3 c7bc 7c74 05bd
000001d0: 69fd 57bb aea8 cac2 3271 62c0 94e7 86c0
000001e0: 0be2 3a42 06cd 00c3 8489 3942 15ac 12bd
000001f0: 9fa7 a242 bf50 8842 83ae 7e42 9ad5 3842
00000200: ea9d e9bc 2d02 9d3f c829 4ec0 4dab 12bb
00000210: 53c6 e6c2 be59 97bc f591 c242 5e4d b342
00000220: c847 8442 ec86 6242 8aad 8742 f406 8942
00000230: d512 053c c8b7 eec2 a6d0 af42 df71 39c0
00000240: 656b 5042 6a95 9a42 7ba5 68bb 530f fcc2
00000250: ea7d 6342 c456 8942 858d 9742 7428 7a42
00000260: d639 7342 ca73 3942 8c41 3c42 9e55 72c2
00000270: 4a44 3942 0db8 5f42 bf98 32c0 b181 4b42
00000280: 5851 fac2 1d89 a042 de7e 22c0 c278 e8c2
00000290: 9401 8bbc c0ca 8942 57e6 8b42 9fa8 33c0
000002a0: c25a 66c0 35d2 6242 e483 19c2 fcda 7842
000002b0: 3546 6942 7dd0 17bb e25c 80c2 e74d a942
000002c0: 9e95 3942 b7df 7342 e3c5 f6bc 440a 80c2
000002d0: af0f b442 5b8b 4c42 d6aa 9b42 4c60 fcc2
000002e0: 8e5f 28c0 2afc 7ac2 b53d 0e3c c8a9 c1bc
000002f0: 565d 74c2 f8a3 5e42 aa7c 61bc 288f 47bc
00000300: 7a02 44c2 a9fb b642 a475 9f42 1fac 5dc2
00000310: 2930 423b c4dc 6742 4de8 6ac2 f9a7 d9bc
00000320: eaa8 3b42 95ae 9cc0 57e9 c3c2 0037 a042
00000330: 315d 6742 d145 a342 13c0 b242 5c8f 56c2
00000340: d793 2ec0 b41c 4542 4a22 8542 c20f e6bb
00000350: acf8 7442 c631 23c0 5de8 9f42 6610 a7c0
00000360: 70ab 5742 d146 3a42 f6a1 3b42 0eef 5142
00000370: 84b4 88c0 900f cec2 59d1 3a42 8c57 08bd
00000380: b5b5 13bd 8d98 a742 17e9 a442 56b3 7642
00000390: f253 d1bb 26c4 21c0 a6f1 b242 3ebf 6f42
000003a0: 3dc9 6242 1ee5 9642 ebbf 74c0 4ef7 8542
000003b0: 550f 4142 0853 01c3 d757 afc2 04de b442
000003c0: 7797 30bd 842b 0ac0 4042 8542 9205 e9bc
000003d0: 95d1 12c0 52ad 65c0 0aa7 7a42 5dc2 84c0
000003e0: c4e7 8dc0 e170 07c3 f0a0 ad42 0a25 acc2
000003f0: 07b0 3842 5c43 7742 da19 5f42 1aee ce42

q2_.0.weight f4 [256, 14]
8.112461 -9.467926 19.387178 3.2347023 -2.497528 -4.8551397 9.633047 -2.5729883
-0.14694501 1.676147 5.5898056 -3.4816766 0.018596137 3.6985946 12.00588 4.4143786
9.255642 9.479883 2.465353 2.513674 -10.544432 -2.0363739 -3.759006 2.6136112
-2.6517768 3.1255467 -0.33196467 0.9423262 -2.650012 -6.423132 3.4652681 8.092665
-3.0039642 -4.620938 0.81231225 -2.9728098 7.14285 -1.3339458 -4.890245 -0.80109894
-7.8288374 -8.835432 16.471905 -0.15374033 20.579748 0.33078304 9.219666 5.507733
2.8164582 -1.1423652 3.290673 0.36101958 6.2844286 2.80912 -0.21525085 2.382944
-0.9066848 0.60763645 1.0890807 -6.657584 2.5285459 -1.5189909 -11.637374 0.5835562
-5.6170874 -3.8216248 -7.7952456 -6.6150656 -2.6658602 1.255589 4.5867214 3.2860532
2.4380548 5.998958 0.97490615 2.9844053 13.895204 -4.0480323 3.4480338 5.731544
5.785672 2.4846375 5.618463 -2.7407677 -10.182907 -6.825464 2.8620477 2.0767257
-4.2607546 -11.154121 0.40190163 -3.6266816 1.2459153 -3.5448906 -4.9306383 -8.875439
-3.6905513 -3.5097787 3.2460103 -3.7387803 10.108352 0.16130672 -6.28411 0.81178147
-6.636005 -5.708808 4.741929 3.4414768 7.8510613 -3.7453609 -2.21364 8.390988
-6.2612534 7.7426863 -1.1191475 -2.0901966 10.283238 11.732692 -6.2983565 0.99551356
0.052783992 0.36613628 1.6127192 3.5597923 3.2758749 1.3198831 -7.998439 -3.6693115
-11.33617 -6.6265526 -2.323009 -3.0953276 0.90317845 -2.8973923 -1.3276346 7.378304
-1.0933592 -9.327772 6.0912085 1.8188455 -3.570511 7.9481606 -2.9897285 9.526926
-0.97114027 2.8881824 2.5208187 3.149817 4.775392 -8.811065 2.1894662 10.621556
-7.7252846 -4.559014 7.417385 1.2206513 16.154448 -1.0360203 4.805015 -7.766821
0.3303027 0.3317042 0.30058318 -2.1073897 -11.063795 0.5076427 -1.1843194 -5.4096503
41.991463 -0.24863659 8.5929365 14.409758 1.7014452 10.376635 -2.539226 3.4233203
-0.6206247 0.023240296 16.099916 -5.375235 10.059931 6.977384 -0.7410937 3.5277462
-2.8602514 -5.2479587 3.7112775 10.17232 -2.9526792 1.0130043 -3.8586292 -2.9481318
1.9041177 -1.1375593 0.01379162 2.684955 0.88924724 -2.8647318 -1.4255106 2.5100384
5.5757146 2.509419 0.8642975 -2.105715 -1.024482 -1.3751596 -13.379082 -6.6608768
-4.8142705 -8.709037 -4.8627715 -3.6259627 -3.6884398 -7.6411715 6.0339413 -5.3719544
-6.2161193 -1.6602161 1.0252284 -3.6595914 4.4327807 -0.055503167 -7.7631783 3.4346554
0.5868192 1.0469182 -11.138809 3.7161286 6.621185 5.046948 4.5312047 -2.8159664
3.7945302 4.1292934 3.7138991 -0.18917952 1.0806906 0.45458183 -1.8585408 4.9919076
-7.1442137 -5.826765 6.0043283 2.2663085 9.072232 3.6795957 -0.81386524 -1.9253969
-11.664002 8.7561245 2.9774647 -7.4793925 5.914895 3.3825307 -5.589098 -2.4203894
00000000: a4cc 0141 a07c 17c1 f118 9b41 5d05 4f40
00000010: 80d7 1fc0 4e5d 9bc0 f620 1a41 d7ab 24c0
00000020: c178 16be fc8b d63f b0df b240 cad3 5ec0
00000030: ed56 983c c6b5 6c40 1618 4041 9742 8d40
00000040: 1c17 1441 9aad 1741 58c8 1d40 09e0 2040
00000050: feb5 28c1 f353 02c0 8e93 70c0 6845 2740
00000060: b6b6 29c0 f508 4840 46f7 a9be 4a3c 713f
00000070: cc99 29c0 4c8a cdc0 f4c6 5d40 8e7b 0141
00000080: f340 40c0 b9de 93c0 b2f3 4f3f 8442 3ec0
00000090: 3a92 e440 bcbe aabf e37c 9cc0 d214 4dbf
000000a0: d685 fac0 ee5d 0dc1 76c6 8341 1b6e 1dbe
000000b0: 53a3 a441 655c a93e c083 1341 593f b040
000000c0: da40 3440 0639 92bf 639a 5240 8fd7 b83e
000000d0: 0a1a c940 9fc8 3340 b86a 5cbe 2882 1840
000000e0: 7f1c 68bf 108e 1b3f ff66 8b3f ee0a d5c0
000000f0: b2d3 2140 4b6e c2bf af32 3ac1 f063 153f
00000100: 2ebf b3c0 8095 74c0 a772 f9c0 9eae d3c0
00000110: 749d 2ac0 24b7 a03f 6cc6 9240 b24e 5240
00000120: 1709 1c40 77f7 bf40 7393 793f 7f00 3f40
00000130: c152 5e41 7b89 81c0 96ac 5c40 cf68 b740
00000140: 3a24 b940 4d04 1f40 73ca b340 bd68 2fc0
00000150: 30ed 22c1 336a dac0 ca2b 3740 13e9 0440
00000160: 1a58 88c0 4877 32c1 0dc6 cd3e 8d1b 68c0
00000170: 277a 9f3f 7ddf 62c0 cac7 9dc0 cc01 0ec1
00000180: fe31 6cc0 37a0 60c0 a2be 4f40 2d48 6fc0
00000190: cfbb 2141 972d 253e 6e17 c9c0 e9d0 4f3f
000001a0: 275a d4c0 8eae b6c0 e2bd 9740 2841 5c40
000001b0: e53b fb40 feb3 6fc0 47ac 0dc0 7d41 0641
000001c0: 305c c8c0 16c4 f740 3a40 8fbf c8c5 05c0
000001d0: 2588 2441 1bb9 3b41 238c c9c0 fad9 7e3f
000001e0: 0734 583d 3776 bb3e 956d ce3f a3d3 6340
000001f0: efa7 5140 eef1 a83f 36f3 ffc0 00d6 6ac0
00000200: f460 35c1 b80c d4c0 2eac 14c0 d919 46c0
00000210: b436 673f e06e 39c0 eeef a9bf 111b ec40
00000220: 32f3 8bbf 8e3e 15c1 2eeb c240 eecf e83f
00000230: 4183 64c0 5557 fe40 b657 3fc0 4a6e 1841
00000240: a69c 78bf fbd7 3840 1855 2140 9a96 4940
00000250: 03d0 9840 1ffa 0cc1 3720 0c40 e5f1 2941
00000260: 8835 f7c0 71e3 91c0 385b ed40 4d3e 9c3f
00000270: 4f3c 8141 509c 84bf afc2 9940 cc89 f8c0
00000280: 6f1d a93e 22d5 a93e 0ae6 993e 79df 06c0
00000290: 4e05 31c1 dff4 013f c797 97bf db1b adc0
000002a0: 42f7 2742 979a 7ebe ab7c 0941 5e8e 6641
000002b0: f5c8 d93f b206 2641 ae82 22c0 ae17 5b40
000002c0: 43e1 1ebf 6f62 be3c a1cc 8041 ed01 acc0
000002d0: 7af5 2041 bb46 df40 51b8 3dbf 98c6 6140
000002e0: 5c0e 37c0 47ef a7c0 9285 6d40 d3c1 2241
000002f0: b2f8 3cc0 20aa 813f c8f3 76c0 31ae 3cc0
00000300: 21ba f33f 8b9b 91bf 3ff6 613c 4dd6 2b40
00000310: b5a5 633f c457 37c0 2277 b6bf 78a4 2040
00000320: 416c b240 529a 2040 9a42 5d3f 09c4 06c0
00000330: 3a22 83bf 3b05 b0bf b810 56c1 e725 d5c0
00000340: 810e 9ac0 3758 0bc1 d39b 9bc0 c60f 68c0
00000350: 660f 6cc0 7a84 f4c0 0c16 c140 0de7 abc0
00000360: 73ea c6c0 f681 d4bf af3a 833f bf36 6ac0
00000370: 57d9 8d40 4a57 63bd f56b f8c0 65d1 5b40
00000380: c839 163f 6a01 863f 9038 32c1 0dd5 6d40
00000390: bfe0 d340 9980 a140 a1ff 9040 cb38 34c0
000003a0: 95d9 7240 2c23 8440 86b0 6d40 47b8 41be
000003b0: 1254 8a3f f3be e83e aae4 edbf b5bd 9f40
000003c0: 669d e4c0 dc74 bac0 7523 c040 330b 1140
000003d0: dd27 1141 7f7e 6b40 7959 50bf 6873 f6bf
000003e0: c19f 3ac1 1619 0c41 c88e 3e40 2f57 efc0
000003f0: d246 bd40 627b 5840 e4d9 b2c0 a9e7 1ac0

q2_.0.bias f4 [256]
7.322276 7.073564 -2.8763697 10.224025 -1.531984 2.7076592 -9.190499 0.7165444
-8.6311245 -3.6420503 -0.30458647 5.8163753 31.386345 3.9893208 5.673045 1.2182077
-3.8890364 -4.7883024 8.273235 0.60625327 -3.0161288 2.6359787 -4.0598207 11.359964
13.736073 6.8051963 2.114972 -7.5897474 -9.750305 -8.20533 4.235329 14.695789
-7.479941 0.5493593 3.7713773 -4.3064604 5.564739 17.613985 -2.8933115 1.9925565
4.701028 1.3107252 9.333226 -1.8904058 6.521022 -9.808827 -0.66347784 2.4718328
-4.1861587 13.383078 11.259395 7.079814 -3.9930508 4.6433287 -5.8958836 -6.659133
-2.5758882 2.555126 -7.613441 -5.7911973 3.449228 1.7213253 4.21231 -1.6151617
4.0008645 8.310248 2.4544508 2.60213 4.0591054 9.07331 5.832578 4.179564
-8.244282 6.3659067 -0.2905855 6.51883 1.1189059 -6.8870077 -6.6833835 -6.5525084
8.446796 1.6538163 -5.1694975 6.7658277 8.777466 2.4481068 -3.747418 1.6416624
5.143573 3.718027 -8.486095 5.7026057 3.7495875 -6.1070614 4.105006 4.204592
-3.6467035 3.8102672 -0.6756048 0.46054187 2.0669193 -2.468561 3.6997476 3.563506
0.5056619 -5.802705 3.1529405 2.2972853 -5.8327336 -1.4207218 3.2460804 -0.7254334
-0.9399483 15.131668 1.5330439 6.984276 -3.4481256 -8.058737 -4.473585 6.8047385
6.4243665 -0.45169023 6.221187 -2.2231553 -5.743391 5.400352 1.4991394 5.870645
10.755258 -9.647053 4.951139 -8.336761 3.8511477 1.8923258 0.81648415 -7.2627916
5.0386033 3.4843018 -8.527324 3.776312 3.925043 -5.0955844 3.9362354 -0.1281065
-0.884112 -2.037809 10.534696 0.82370317 -2.3454652 0.29162732 5.6765933 -4.3312883
3.3086882 -9.002542 1.3038387 3.763647 11.59983 3.1978776 -0.13427705 6.2097754
1.5526519 2.3887208 1.1477907 4.8419647 5.597951 5.994293 1.1399225 -3.43434
-3.980479 8.52241 -10.15695 6.411457 -6.1306624 7.0558004 -12.307276 7.7480288
-1.7051656 -1.2778682 3.4695666 1.1774424 -3.2892008 -7.395477 5.696287 -6.87755
-5.5168633 4.8296623 5.8178444 -4.7288394 2.1287856 1.9567535 0.06935449 6.6822467
3.2713041 -5.709919 10.174847 7.3174176 33.0651 6.7673917 8.210099 3.7644033
-0.25881103 -4.910982 6.389445 2.9550188 5.110775 -8.943564 12.086513 -4.7392464
-0.46198052 0.9431046 4.194645 -0.80943763 -15.37706 6.3353295 8.5416975 -10.844598
-7.6714783 -4.703978 -1.3495538 9.44809 -4.268878 -4.558748 2.9500155 4.934186
5.2292123 -4.7242813 -8.289326 35.984425 -0.5058023 0.24236615 -2.813615 7.2437315
7.9123797 4.8345914 6.0951715 5.4051056 -8.356082 4.364372 -0.4636314 -7.3044324
5.110744 -9.179659 7.9704857 -10.030269 -2.403536 -9.437709 4.146993 5.3892646
3.8966298 -5.0727553 7.120889 6.9038267 7.321898 2.0918407 4.879018 -4.7102027
00000000: 1650 ea40 a35a e240 7116 38c0 9b95 2341
00000010: 0d18 c4bf 4a4a 2d40 490c 13c1 746f 373f
00000020: 1619 0ac1 5a17 69c0 c2f2 9bbe bf1f ba40
00000030: 3c17 fb41 0851 7f40 9689 b540 3bee 9b3f
00000040: f9e5 78c0 c639 99c0 2c5f 0441 6a33 1b3f
00000050: 4108 41c0 e0b3 2840 0dea 81c0 6ac2 3541
00000060: f4c6 5b41 2bc4 d940 b45b 0740 36df f2c0
00000070: 4001 1cc1 0849 03c1 d187 8740 f421 6b41
00000080: ad5b efc0 d0a2 0c3f 3f5e 7140 86ce 89c0
00000090: 5812 b240 71e9 8c41 042c 39c0 170c ff3f
000000a0: d26e 9640 d8c5 a73f e554 1541 d1f8 f1bf
000000b0: 36ac d040 f5f0 1cc1 afd9 29bf 8232 1e40
000000c0: 03f5 85c0 1621 5641 7b26 3441 d68d e240
000000d0: 258e 7fc0 2696 9440 14ab bcc0 9e17 d5c0
000000e0: 5adb 24c0 2f87 2340 4fa1 f3c0 7d51 b9c0
000000f0: 27c0 5c40 6354 dc3f 3ecb 8640 9ebd cebf
00000100: 1507 8040 c7f6 0441 b915 1d40 4c89 2640
00000110: 31e4 8140 472c 1141 7ba4 ba40 fdbe 8540
00000120: 94e8 03c1 82b5 cb40 9fc7 94be 419a d040
00000130: 4f38 8f3f 5e62 dcc0 47de d5c0 26ae d1c0
00000140: 1426 0741 41b0 d33f 866c a5c0 a981 d840
00000150: 8070 0c41 c8ad 1c40 b2d5 6fc0 fe21 d23f
00000160: 2698 a440 28f4 6d40 0cc7 07c1 bf7b b640
00000170: 3ef9 6f40 0c6d c3c0 365c 8340 058c 8640
00000180: 9763 69c0 6bdb 7340 70f4 2cbf 25cc eb3e
00000190: 6848 0440 e7fc 1dc0 aac8 6c40 7b10 6440
000001a0: 0f73 013f c2af b9c0 c7c9 4940 b906 1340
000001b0: c1a5 bac0 36da b5bf c8bf 4f40 01b6 39bf
000001c0: 74a0 70bf 501b 7241 c83a c43f 307f df40
000001d0: 17ae 5cc0 96f0 00c1 9c27 8fc0 6bc0 d940
000001e0: 6994 cd40 f143 e7be f713 c740 2d48 0ec0
000001f0: dcc9 b7c0 afcf ac40 cde3 bf3f 53dc bb40
00000200: 8915 2c41 545a 1ac1 bb6f 9e40 6063 05c1
00000210: 3479 7640 bb37 f23f 1b05 513f ca68 e8c0
00000220: 3d3c a140 cdfe 5e40 eb6f 08c1 19af 7140
00000230: e833 7b40 070f a3c0 48eb 7b40 5a2e 03be
00000240: 2a55 62bf 766b 02c0 1d8e 2841 36de 523f
00000250: 1a1c 16c0 2d50 953e a7a6 b540 ea99 8ac0
00000260: 8cc1 5340 690a 10c1 30e4 a63f 98df 7040
00000270: e798 3941 07aa 4c40 ec7f 09be 7bb6 c640
00000280: 4cbd c63f cde0 1840 ceea 923f 60f1 9a40
00000290: 6a22 b340 40d1 bf40 fbe8 913f 3acc 5bc0
000002a0: 2bc0 7ec0 cb5b 0841 de82 22c1 a82a cd40
000002b0: 632e c4c0 1ec9 e140 9aea 44c1 daef f740
000002c0: de42 dabf 2f91 a3bf 610d 5e40 6fb6 963f
000002d0: 4482 52c0 bfa7 ecc0 fc47 b640 e414 dcc0
000002e0: 258a b0c0 988c 9a40 c82b ba40 a752 97c0
000002f0: 063e 0840 e676 fa3f ba09 8e3d f7d4 d540
00000300: 0c5d 5140 a8b7 b6c0 2ccc 2241 4928 ea40
00000310: aa42 0442 798e d840 915c 0341 fceb 7040
00000320: e182 84be c426 9dc0 5576 cc40 071f 3d40
00000330: 788b a340 d718 0fc1 5b62 4141 e8a7 97c0
00000340: b688 ecbe 4e6f 713f 883a 8640 4e37 4fbf
00000350: 7008 76c1 05bb ca40 cbaa 0841 7983 2dc1
00000360: c07c f5c0 fd86 96c0 2ebe acbf 602b 1741
00000370: a69a 88c0 43e1 91c0 0ecd 3c40 dae4 9d40
00000380: b555 a740 502d 97c0 14a1 04c1 0df0 0f42
00000390: 427c 01bf d52e 783e 4512 34c0 a6cc e740
000003a0: 3732 fd40 f9b4 9a40 a50b c340 a0f6 ac40
000003b0: 83b2 05c1 efa8 8b40 1861 edbe e9bd e9c0
000003c0: 378b a340 e2df 12c1 380e ff40 fb7b 20c1
000003d0: 89d3 19c0 db00 17c1 2bb4 8440 db74 ac40
000003e0: 6262 7940 0354 a2c0 53de e340 26ec dc40
000003f0: fd4c ea40 b8e0 0540 ea20 9c40 fbb9 96c0

q2_.2.weight f4 [256, 256]
-14.078893 8.193201 -22.408876 11.833944 17.201595 15.906188 -24.628914 11.281295
7.626928 25.127348 -14.77891 20.779608 2.8547008 -6.875309 -9.448574 -14.475447
13.722865 11.484555 -6.52026 -11.765072 -32.17558 13.360266 8.658448 10.661298
11.854591 12.830359 -13.878422 36.996216 32.867397 48.57136 12.066669 11.714389
20.973742 -7.2294393 31.215433 -10.125199 -15.252222 4.045838 -15.9708805 -10.922943
15.135713 -11.484951 14.251406 -21.447111 13.836824 -29.833708 0.28272 -12.0846405
-18.461668 10.647145 12.562527 15.695573 14.365157 19.829418 -18.425766 -33.71244
12.886175 -5.226525 40.117275 -32.244972 -10.489878 -6.4898114 13.612929 -16.827621
-10.361157 12.953987 -11.294119 -4.9443045 -10.409189 -7.041341 20.630222 -5.991022
18.723873 8.72737 -15.260632 13.133546 -5.790051 10.711746 -16.779541 -31.755505
13.866914 24.524643 17.57413 -2.8200212 -6.560665 -5.7138615 -24.511753 11.276853
22.12508 17.069893 -43.326626 12.835764 21.045132 23.482077 15.515301 24.862593
7.3339176 30.989546 -6.578923 -13.292859 -9.31405 -13.56895 -8.392739 13.7139845
-13.0962515 8.499247 -6.080435 22.16741 -36.490456 -19.141647 -14.964456 -11.68728
0.53861785 4.457323 16.771923 30.6755 5.9778614 9.545591 -21.701588 14.677826
-13.711767 12.293723 -5.8324156 15.181774 -36.49385 -7.8012867 17.246069 -3.7352633
12.693831 -26.213951 -6.054254 19.908752 10.82493 15.777227 -15.860971 63.635155
16.78455 -7.0136366 14.373076 6.9772215 18.321789 19.818201 -7.3690557 -15.419325
-10.314795 14.192152 8.705526 14.640649 -18.573172 -22.044704 34.171043 18.909298
-15.512196 10.439741 17.64627 14.728445 10.32942 -3.507822 -11.777324 28.112299
26.230734 -6.2843456 16.00174 11.332761 34.76288 15.418437 9.851118 -26.752422
-24.612047 14.0756445 11.360173 16.140131 10.009818 15.63236 40.9012 15.954928
-12.366536 -8.978202 -15.128034 9.958867 7.930187 10.48194 -6.367016 -22.992353
5.373709 14.920773 17.28674 -18.25226 -14.353872 -12.499274 14.121433 11.543351
20.234745 20.090557 12.252026 22.814 2.1712618 12.213205 -4.8841505 14.854566
-16.632385 -28.961903 12.569173 -5.383856 17.142614 -24.81843 13.232753 -28.668243
-4.7072935 15.394901 9.060596 6.5230255 41.65371 10.712039 -8.801364 33.17013
-28.953669 4.8322635 16.907927 14.497699 20.007204 -24.373638 18.582674 11.872633
-10.351562 4.452601 23.229916 1.9747447 14.690752 -8.156676 8.977588 -8.332148
11.929765 3.8158786 27.921286 -5.5766873 16.824572 -10.308267 31.872122 15.6215925
-6.906267 11.638082 13.70525 -26.4942 9.431008 -27.484566 -5.460258 -6.9937377
-8.953058 13.2345915 21.249758 6.482515 20.539833 -7.9649315 -7.385898 23.374146
00000000: 2543 61c1 5a17 0341 6145 b3c1 d657 3d41
00000010: de9c 8941 bf7f 7e41 0408 c5c1 2f80 3441
00000020: cb0f f440 cf04 c941 6a76 6cc1 a33c a641
00000030: 6bb3 3640 8802 dcc0 5c2d 17c1 6e9b 67c1
00000040: db90 5b41 bdc0 3741 f8a5 d0c0 bc3d 3cc1
00000050: cbb3 00c2 a6c3 5541 0189 0a41 ad94 2a41
00000060: 68ac 3d41 2749 4d41 040e 5ec1 20fc 1342
00000070: 3778 0342 1349 4242 1411 4141 236e 3b41
00000080: 39ca a741 9157 e7c0 35b9 f941 d100 22c1
00000090: 1a09 74c1 8177 8140 ba88 7fc1 60c4 2ec1
000000a0: e12b 7241 5cc2 37c1 c205 6441 af93 abc1
000000b0: a263 5d41 6fab eec1 adc0 903e b05a 41c1
000000c0: 7fb1 93c1 b55a 2a41 1c00 4941 1121 7b41
000000d0: afd7 6541 a6a2 9e41 f867 93c1 8ad9 06c2
000000e0: c62d 4e41 b13f a7c0 1778 2042 dafa 00c2
000000f0: 8ad6 27c1 89ac cfc0 8fce 5941 f89e 86c1
00000100: 4dc7 25c1 8843 4f41 b6b4 34c1 be37 9ec0
00000110: 0a8c 26c1 aa52 e1c0 b20a a541 74b6 bfc0
00000120: 7eca 9541 4fa3 0b41 8c2b 74c1 0123 5241
00000130: 1948 b9c0 5063 2b41 803c 86c1 460b fec1
00000140: e1de 5d41 7832 c441 d197 8c41 3a7b 34c0
00000150: f8f0 d1c0 f4d7 b6c0 1218 c4c1 fd6d 3441
00000160: 2a00 b141 248f 8841 774e 2dc2 4a5f 4d41
00000170: 6e5c a841 4bdb bb41 ac3e 7841 97e6 c641
00000180: 74af ea40 97ea f741 8a86 d2c0 8daf 54c1
00000190: 5906 15c1 6b1a 59c1 a948 06c1 7b6c 5b41
000001a0: 3f8a 51c1 eafc 0741 ec92 c2c0 db56 b141
000001b0: 3af6 11c2 1822 99c1 696e 6fc1 19ff 3ac1
000001c0: dce2 093f 64a2 8e40 e62c 8641 6d67 f541
000001d0: a44a bf40 beba 1841 da9c adc1 60d8 6a41
000001e0: 6663 5bc1 17b3 4441 26a3 bac0 8ce8 7241
000001f0: b4f9 11c2 24a4 f9c0 f3f7 8941 8e0e 6fc0
00000200: ef19 4b41 2cb6 d1c1 73bc c1c0 2045 9f41
00000210: ea32 2d41 866f 7c41 8ac6 7dc1 668a 7e42
00000220: c246 8641 b66f e0c0 1ff8 6541 6645 df40
00000230: 0693 9241 ad8b 9e41 4ecf ebc0 8eb5 76c1
00000240: 6609 25c1 0e13 6341 d649 0b41 1940 6a41
00000250: db95 94c1 8e5b b0c1 26af 0842 3e46 9741
00000260: f431 78c1 2e09 2741 902b 8d41 b6a7 6b41
00000270: 4e45 2541 2880 60c0 eb6f 3cc1 fde5 e041
00000280: 8bd8 d141 5c19 c9c0 9003 8041 fd52 3541
00000290: 300d 0b42 ebb1 7641 2e9e 1d41 f604 d6c1
000002a0: 79e5 c4c1 d735 6141 45c3 3541 fd1e 8141
000002b0: 3728 2041 261e 7a41 d49a 2342 6347 7f41
000002c0: 55dd 45c1 b7a6 0fc1 6d0c 72c1 8557 1f41
000002d0: 18c4 fd40 07b6 2741 98be cbc0 57f0 b7c1
000002e0: 6df5 ab40 7cbb 6e41 3e4b 8a41 a104 92c1
000002f0: 76a9 65c1 07fd 47c1 64f1 6141 91b1 3841
00000300: c2e0 a141 76b9 a041 4c08 4441 1283 b641
00000310: f4f5 0a40 4a69 4341 f64a 9cc0 4dac 6d41
00000320: 200f 85c1 fab1 e7c1 551b 4941 8c48 acc0
00000330: 1324 8941 258c c6c1 5bb9 5341 9058 e5c1
00000340: 26a2 96c0 8451 7641 34f8 1041 a0bc d040
00000350: 669d 2642 8364 2b41 63d2 0cc1 37ae 0442
00000360: 1da1 e7c1 e7a1 9a40 6f43 8741 93f6 6741
00000370: c10e a041 36fd c2c1 51a9 9441 4ef6 3d41
00000380: ff9f 25c1 b57b 8e40 ded6 b941 6fc4 fc3f
00000390: 520d 6b41 bf81 02c1 33a4 0f41 7a50 05c1
000003a0: 51e0 3e41 5b37 7440 cb5e df41 3974 b2c0
000003b0: b998 8641 a9ee 24c1 1bfa fe41 0bf2 7941
000003c0: 2400 ddc0 9535 3a41 b448 5b41 1ff4 d3c1
000003d0: 69e5 1641 64e0 dbc1 6fba aec0 b3cc dfc0
000003e0: ba3f 0fc1 e3c0 5341 81ff a941 c370 cf40
000003f0: 9451 a441 b8e0 fec0 4759 ecc0 40fe ba41
