online_weights/spot_hopper_medium/actor_s1000000.pth (torch, 280975 bytes, 6 tensors)

actor.0.weight f4 [256, 11]
0	0x3e8981d3	0.2685686
1	0xbd784c86	-0.060619853
2	0x3eb18ead	0.34679165
3	0x3d8b9e46	0.06817298
4	0xbe63fcd8	-0.22264421
5	0x3de0c4a3	0.109750055
6	0xbec4c723	-0.3843318
7	0xbdafeb48	-0.08589798
8	0x3e3a30d5	0.1818269
9	0x3ce7545f	0.028238473
10	0xbe662e17	-0.2247852
11	0xbe1ea32f	-0.15491937
12	0x3d76875f	0.060187694
13	0xbbebda31	-0.0071976413
14	0x3df6f18d	0.12057791
15	0x3dc23eb4	0.09484616
16	0x3e0e29cf	0.13883136
17	0xbdcd5abd	-0.100270726
18	0x3e4a94b7	0.19783293
19	0xbe8e988c	-0.2785076
20	0xbea6633b	-0.32497582
21	0xbee63298	-0.44960475
22	0xbe054dc1	-0.13017942
23	0x3e1f238c	0.15540904
24	0xbe35b4ed	-0.17744799
25	0xbc8b60b3	-0.017013883
26	0xbca2b9c6	-0.019863974
27	0x3e729530	0.23689723
28	0xbea1f3ea	-0.31631404
29	0xbc996d58	-0.018728897
30	0xbdb7f1c0	-0.08981657
31	0xbdb0b6eb	-0.08628639
32	0xbebb1af8	-0.36544013
33	0x3ec354a4	0.38150513
34	0x3e80743c	0.2508868
35	0x3e9b19e9	0.30293205
36	0x3e31f633	0.17379074
37	0x3d8ff252	0.07028641
38	0xbc9ab3c1	-0.018884541
39	0x3e02dc2e	0.12779304
40	0x3ed91705	0.42400375
41	0xbecbdce1	-0.39816955
42	0xbec0db80	-0.37667465
43	0xbe89c9d6	-0.269118
44	0x3c3d0fd9	0.011539423
45	0x3c9c32e4	0.019067235
46	0x3de7c695	0.113171734
47	0xbdf38e30	-0.118923545
48	0x3cb5dde0	0.022200525
49	0xbdbece69	-0.09316713
50	0xbe956bb2	-0.29183728
51	0x3ee5e97f	0.44904706
52	0xbf4ac3c5	-0.7920497
53	0xbea3824c	-0.31935346
54	0x3e58d78f	0.21175979
55	0x3ee9cd4e	0.45664448
56	0x3d987d6f	0.074457996
57	0x3e094e35	0.1340874
58	0xbd964b39	-0.07338566
59	0x3e10e6e6	0.14150581
60	0xbec72e41	-0.38902476
61	0x3f48c89e	0.7843112
62	0x3e3226b6	0.1739758
63	0xbeaa96d1	-0.3331819
64	0xbe7f2487	-0.24916278
65	0xbdb2986c	-0.087204784
66	0xbde22aa8	-0.11043292
67	0xbe2a349e	-0.16621634
68	0xbe8aae1e	-0.27085966
69	0xbe5de0c6	-0.21667776
70	0xbdf606b9	-0.12013001
71	0x3d43e186	0.047822498
72	0xbea34d97	-0.31895134
73	0x3d5a4d32	0.053296275
74	0xbcd5617d	-0.026047463
75	0xbe9234ae	-0.28555816
76	0x3ea3ef22	0.3201838
77	0xbe6778d3	-0.22604685
78	0xbda5f9da	-0.08104296
79	0x3f0d507a	0.5520092
80	0x3c42c823	0.011888537
81	0xbe7fa861	-0.24966575
82	0x3e6fccb3	0.2341793
83	0xbbbb4faf	-0.005716286
84	0x3d52f960	0.051507354
85	0xbe9de43b	-0.3083819
86	0xbd88274a	-0.06648119
87	0x3eb80e1f	0.35948274
88	0x3e9099be	0.28242296
89	0x3cbad9e9	0.022808986
90	0xbe217afd	-0.15769573
91	0x3d2c4aba	0.042063452
92	0x3eb676d5	0.35637537
93	0x3e80557b	0.25065216
94	0xbf37d65a	-0.7181145
95	0xbcb64fbe	-0.02225482
96	0x3d7775c6	0.060415052
97	0xbd38b70a	-0.045096435
98	0xbd0a986e	-0.033836775
99	0x3e9507f4	0.2910763
100	0xbe07a4d7	-0.13246475
101	0x3e27bc2a	0.16380373
102	0x3ef130ad	0.4710745
103	0xbe025b35	-0.12730105
104	0xbe9deafe	-0.30843347
105	0xbd1b3975	-0.037896592
106	0x3e240d4a	0.16020694
107	0xbd130804	-0.035896316
108	0xbece27e1	-0.402648
109	0xbda8b4a0	-0.082375765
110	0xbe5d3a89	-0.2160436
111	0x3f11f538	0.570148
112	0x3ed83b7a	0.42232877
113	0x3d4078b9	0.04699013
114	0xbe53e5ef	-0.20693181
115	0x3ece8e8f	0.4034314
116	0xbd106f4b	-0.035262387
117	0xbb34d74e	-0.0027594152
118	0xbda262f6	-0.079290316
119	0xbe708597	-0.2348846
120	0xbcfa30f9	-0.03054093
121	0x3d522d1e	0.05131256
122	0x3e48dc53	0.19615297
123	0xbdb65078	-0.08902067
124	0x3d0c70f3	0.034287404
125	0x3d99a4ca	0.07502134
126	0x3f256f27	0.6462273
127	0x3e878a4c	0.264727
128	0x3db0bc36	0.086296484
129	0xbdeb5da6	-0.114924714
130	0xbe330fa5	-0.17486437
131	0xbed9c796	-0.42535084
132	0x3e376d8e	0.17912886
133	0xbe725365	-0.23664625
134	0x3e085a4a	0.13315693
135	0x3e393f65	0.1809059
136	0x3f1e7a92	0.6190578
137	0x3e034698	0.12819898
138	0x3f304650	0.6885729
139	0x3d6847f8	0.05670926
140	0x3d67f69d	0.056631673
141	0x3ddcdb28	0.10783988
142	0x3be8cd87	0.007104579
143	0x3e4b572b	0.1985747
144	0x3da07d3e	0.07836388
145	0x3d491b92	0.04909856
146	0x3e2fa711	0.17153575
147	0x3eaf2ae4	0.3421241
148	0x3efcc9ae	0.4937262
149	0xbdb12dc1	-0.08651305
150	0xbdc9d048	-0.098541796
151	0x3e3b9bdd	0.18321176
152	0xbdaa8dda	-0.08327837
153	0xbed9283b	-0.42413506
154	0x3e699625	0.22811182
155	0xbe223b52	-0.15842941
156	0xbe9c9e08	-0.30589318
157	0xbcaf33f4	-0.021387078
158	0x3f41f01e	0.75757015
159	0xbe5bad08	-0.21452725
160	0xbf14a559	-0.580648
161	0xbe2875f5	-0.16451247
162	0xbe6c6e15	-0.23088868
163	0xbd76346e	-0.060108595
164	0x3edeae2c	0.43492258
165	0x3d9d5d0f	0.07683765
166	0x3ee5acd5	0.44858423
167	0x3ddf38e6	0.108995244
168	0x3e15984a	0.14608875
169	0x3e5629b5	0.20914347
170	0x3e618187	0.22022067
171	0xbcfcc6d8	-0.030856535
172	0x3ef130a9	0.47107437
173	0xbe402c6b	-0.18766944
174	0xbe529a91	-0.20566775
175	0x3d9b5aa8	0.07585651
176	0xbe4eda06	-0.20200357
177	0xbe1969d2	-0.14981773
178	0xbebc1be5	-0.36740032
179	0xbda7577b	-0.081709825
180	0xbe66621d	-0.22498365
181	0xbed5dd56	-0.41770428
182	0x3efdab19	0.495446
183	0x3ea822a9	0.32838944
184	0xbf1a0fcb	-0.6018035
185	0xbdfc4640	-0.123180866
186	0x3e5470c4	0.20746142
187	0xbd3c143c	-0.045917735
188	0xbda3b087	-0.07992654
189	0xbe8e125c	-0.27748382
190	0xbda9e834	-0.08296242
191	0xbc2ac125	-0.010422026
192	0x3d30fe72	0.043211408
193	0xbea9fc6d	-0.33200398
194	0xbe002445	-0.12513836
195	0x3db7d9b8	0.089770734
196	0x3d9603fa	0.07324977
197	0x3dbca169	0.09210474
198	0xbcc566e5	-0.024096915
199	0xbedf8fc3	-0.4366437
200	0xbe91349e	-0.28360456
201	0xbcdf6f24	-0.027274676
202	0x3e1f17ec	0.15536469
203	0xbe956e7e	-0.2918586
204	0xbe187839	-0.14889611
205	0xbe17785c	-0.14792007
206	0xbe33c55d	-0.17555757
207	0x3cbcc31f	0.02304226
208	0xbefa1c7d	-0.4884986
209	0x3e5fa50c	0.21840304
210	0xbe843d8f	-0.25828215
211	0x3e8df20b	0.27723727
212	0xbe124b6b	-0.14286582
213	0xbdc48ac5	-0.09596781
214	0x3e961af9	0.29317454
215	0xbe72e73a	-0.23721018
216	0xbd41631b	-0.047213655
217	0xbe884655	-0.2661616
218	0xbf432409	-0.7622686
219	0x3dee8a6b	0.11647495
220	0xbe7f39af	-0.24924348
221	0xbdaef97f	-0.08543681
222	0x3f01f43a	0.50763285
223	0x3e142da4	0.14470536
224	0x3e87c303	0.2651597
225	0xbe8e99bd	-0.27851668
226	0x3ca1819e	0.019715127
227	0xbe3ff043	-0.18743996
228	0x3ec6ba86	0.3881418
229	0x3f1cd9ef	0.6127004
230	0xbf13587d	-0.575569
231	0xbccdcbd6	-0.02512161
232	0x3ea90e6f	0.33018824
233	0x3e6f6be9	0.23381008
234	0xbdc507fc	-0.096206635
235	0xbe9b0ed7	-0.3028476
236	0x3f298b46	0.6622814
237	0xbdbddea2	-0.092709795
238	0xbe8c0bdc	-0.27352798
239	0x3c4c6c07	0.012476928
240	0x3d67495d	0.05646645
241	0xbe912eb8	-0.28355956
242	0x3ded2887	0.115799956
243	0xbd9515bd	-0.07279537
244	0x3d81d9f0	0.063403964
245	0x3e7f8b46	0.24955472
246	0x3e825b91	0.25460485
247	0xbeaa325d	-0.3324155
248	0x3e8c66d5	0.27422205
249	0xbea8c322	-0.32961375
250	0x3f062cfa	0.5241238
251	0x3ef72898	0.48273158
252	0xbe567133	-0.2094162
253	0xbd85de21	-0.06536508
254	0xbe39cf6d	-0.18145533
255	0xbcbea8af	-0.023273794

actor.0.bias f4 [256]
0	0xbd7ed9c9	-0.062219415
1	0xbebc9787	-0.36834356
2	0xbf189542	-0.5960275
3	0xbea8ef2b	-0.3299497
4	0xbf1ab1c1	-0.6042748
5	0xbf5958a9	-0.8490091
6	0xbeaa42fe	-0.33254236
7	0xbe5f750e	-0.21821997
8	0xbf55ddf7	-0.83541816
9	0xbee64d1e	-0.4498071
10	0xbf09626e	-0.53665817
11	0xbf41a935	-0.75648814
12	0xbefde84c	-0.4959129
13	0xbf2a821b	-0.66604775
14	0xbf88c1c2	-1.068413
15	0xbf0b3800	-0.54382324
16	0xbeeca487	-0.46219274
17	0xbde78f3e	-0.11306618
18	0xbf0175c1	-0.50570303
19	0xbf1e81ad	-0.6191662
20	0xbf6fbedc	-0.93650603
21	0xbf3fd562	-0.7493497
22	0xbf20072c	-0.62510943
23	0xbeb8c88f	-0.36090514
24	0xbde4e2c8	-0.111760676
25	0xbf88a7d6	-1.067622
26	0xbe5d0da7	-0.21587239
27	0xbf4aa009	-0.79150444
28	0xbe860ba9	-0.2618077
29	0xbf459c8a	-0.77191985
30	0xbf1a1913	-0.6019451
31	0xbf461c81	-0.77387244
32	0xbed517a3	-0.41619596
33	0xbf6ecb7b	-0.93279237
34	0xbe594b33	-0.21220092
35	0xbe9adb46	-0.30245417
36	0xbf2b84e9	-0.6699968
37	0xbed7a62e	-0.42118973
38	0xbeb1140d	-0.3458561
39	0x3d5b42b1	0.0535304
40	0xbf2bb7c1	-0.6707726
41	0xbf1b0d38	-0.60567045
42	0xbed2b920	-0.41156864
43	0xbf5441e5	-0.8291305
44	0xbf2d9bc1	-0.67815787
45	0xbf84e28f	-1.038164
46	0xbf9408d8	-1.1565199
47	0xbf064172	-0.5244361
48	0xbf057a84	-0.5214007
49	0xbec2d740	-0.38054848
50	0xbf705b99	-0.93889767
51	0xbed2ecda	-0.41196328
52	0xbebe6c6d	-0.37192097
53	0xbed74ca9	-0.42050675
54	0xbf25577e	-0.6458663
55	0xbf2995db	-0.66244286
56	0xbe64e0b8	-0.22351348
57	0xbef622e5	-0.48073497
58	0xbe572cb7	-0.21013151
59	0xbf3f5302	-0.74736035
60	0xbe9dd6ee	-0.3082804
61	0xbf676cd6	-0.90400445
62	0xbf448823	-0.7677023
63	0xbf3def58	-0.74193335
64	0xbde0659c	-0.109568805
65	0xbc80f410	-0.015741378
66	0xbf5cfedf	-0.863264
67	0xbf174b2d	-0.59099084
68	0xbeb09ae6	-0.34493178
69	0xbf1e35ae	-0.6180066
70	0xbef1457e	-0.4712333
71	0xbf3ff26e	-0.74979293
72	0xbf4c51d6	-0.7981237
73	0xbf3413c9	-0.7034269
74	0xbef36920	-0.47541142
75	0xbe9f7c4d	-0.3114952
76	0xbe169a0d	-0.14707203
77	0x3d8d0447	0.068855815
78	0xbf2e37f8	-0.6805415
79	0xbe6e7fee	-0.23290989
80	0xbe1aba96	-0.1511024
81	0xbf23b3e9	-0.63946396
82	0xbf3eb0fc	-0.74488807
83	0xbf30fc18	-0.69134665
84	0xbf712e6d	-0.94211465
85	0xbe938adc	-0.2881688
86	0xbf5343ed	-0.8252552
87	0xbf434c36	-0.76288164
88	0xbe700f48	-0.2344333
89	0xbf4f5ca9	-0.81000763
90	0xbeacee40	-0.3377552
91	0xbe9301c3	-0.28712282
92	0xbef85439	-0.48501757
93	0xbf1b2f9b	-0.60619515
94	0xbeca24c8	-0.39481187
95	0xbf2e55d1	-0.68099695
96	0xbf1fa517	-0.6236128
97	0xbee2c4bf	-0.4429073
98	0xbf114605	-0.56747466
99	0xbea77b5b	-0.327113
100	0xbdc0114c	-0.09378299
101	0xbf033567	-0.5125336
102	0xbf46079d	-0.77355367
103	0xbf8f0ce0	-1.1175804
104	0xbd931a28	-0.07182723
105	0xbfa12f94	-1.2592645
106	0xbf8042e8	-1.0020418
107	0xbf0244d5	-0.5088628
108	0xbf6060a7	-0.8764748
109	0xbf2aaae4	-0.6666701
110	0xbf038ca4	-0.51386476
111	0xbf12e5e7	-0.57382053
112	0xbf269f9e	-0.65087306
113	0xbf566c0f	-0.83758634
114	0xbec5048e	-0.38480037
115	0xbf1b76f2	-0.6072837
116	0xbda585a5	-0.08082131
117	0xbf247280	-0.64237213
118	0xbf8cbfd0	-1.0996037
119	0xbe79b44c	-0.24385184
120	0xbea8c97f	-0.3296623
121	0xbf055a13	-0.5209057
122	0xbeb23097	-0.34802696
123	0xbecd230f	-0.4006581
124	0xbdc6d1b7	-0.09707969
125	0xbf875ea4	-1.0575757
126	0xbf52c45d	-0.82330877
127	0xbef62561	-0.48075393
128	0xbf369a5e	-0.71329296
129	0xbefbac59	-0.49154928
130	0xbf08480f	-0.5323495
131	0x3dbf511c	0.09341642
132	0xbe5db4f9	-0.21651067
133	0xbf594025	-0.848635
134	0xbf8ae745	-1.0851828
135	0xbf377c05	-0.71673614
136	0xbee33459	-0.44375876
137	0xbfa67d69	-1.3007022
138	0xbf00db8c	-0.50335
139	0x3d7c6249	0.06161717
140	0xbf48c91d	-0.78431875
141	0xbf185dcf	-0.5951814
142	0xbecc76c9	-0.39934376
143	0xbf2b150c	-0.6682899
144	0xbf20b79a	-0.62780154
145	0xbf7f84cd	-0.9981201
146	0xbf3d83d5	-0.74029285
147	0xbf20f645	-0.6287578
148	0xbf07a201	-0.52981573
149	0xbe906332	-0.2820068
150	0xbf5cdf72	-0.8627845
151	0xbf4e33e2	-0.80547917
152	0xbf48afa4	-0.78393006
153	0xbf010fba	-0.5041462
154	0xbf7b62d1	-0.98197657
155	0xbf5daff7	-0.86596626
156	0xbebe6929	-0.37189606
157	0xbf45e4fd	-0.77302533
158	0xbeb58325	-0.35451618
159	0xbeceaff5	-0.4036862
160	0xbf9c375d	-1.2204396
161	0xbf4657fc	-0.77478004
162	0xbf475d72	-0.7787696
163	0xbf1c591f	-0.6107349
164	0xbd4bb12a	-0.049729504
165	0xbf0a4fa9	-0.540278
166	0xbf52b4eb	-0.8230731
167	0xbe2a5f14	-0.16637832
168	0xbf9aefd2	-1.2104437
169	0xbf036178	-0.513206
170	0xbf516f2b	-0.81810254
171	0xbe85b2ba	-0.2611292
172	0xbf3e3d34	-0.7431214
173	0xbee550a8	-0.44788098
174	0xbedd3a9f	-0.43208787
175	0xbf54173a	-0.8284794
176	0xbf5a0b11	-0.85173136
177	0xbe8fe4b2	-0.28104168
178	0xbf6bdc50	-0.92133045
179	0xbe105184	-0.14093596
180	0xbeda2bfc	-0.42611682
181	0xbf3d99e3	-0.7406294
182	0xbee000a1	-0.4375048
183	0xbe7d9622	-0.24764302
184	0xbe30448d	-0.1721365
185	0xbe5c2445	-0.2149821
186	0xbf06cff1	-0.52661043
187	0xbf0d6e7e	-0.5524672
188	0xbf006781	-0.50157934
189	0xbf550de7	-0.8322434
190	0xbf4a6404	-0.7905886
191	0xbe3e9d30	-0.1861465
192	0xbf2752aa	-0.6536051
193	0xbf56b9c4	-0.83877206
194	0xbf3a6df4	-0.72824025
195	0xbe46a10e	-0.19397375
196	0xbef4ec47	-0.47836515
197	0xbf7ede77	-0.99558204
198	0xbdb4619f	-0.08807682
199	0xbf54c361	-0.83110625
200	0xbf5befdc	-0.8591287
201	0xbf1ad635	-0.60483104
202	0xbeb9017d	-0.36133948
203	0xbf56b02a	-0.83862555
204	0xbeff8f82	-0.49914175
205	0xbef1226b	-0.4709657
206	0xbf23bcae	-0.6395978
207	0xbe708de3	-0.23491625
208	0xbf25f98d	-0.6483391
209	0xbf1c23b5	-0.60991985
210	0xbf04493f	-0.51674265
211	0xbf0bdba2	-0.5463201
212	0xbef87c20	-0.485322
213	0xbf32a00d	-0.6977547
214	0xbf05a814	-0.5220959
215	0xbdc2e332	-0.0951599
216	0xbf224cae	-0.63398254
217	0xbf879220	-1.0591469
218	0xbf1fa2d9	-0.6235786
219	0xbf495ccd	-0.7865723
220	0xbe987f17	-0.29784462
221	0xbecf9e12	-0.40550286
222	0xbf238cf6	-0.63886964
223	0xbf3e625c	-0.74368834
224	0xbf571495	-0.8401578
225	0xbed1d1db	-0.4098042
226	0xbe8b51d6	-0.27210873
227	0xbe953c70	-0.29147673
228	0xbf21f0a4	-0.63257813
229	0xbf46b8f0	-0.7762594
230	0xbf4b3a57	-0.79385895
231	0xbefd3f8e	-0.4946255
232	0xbeb8f796	-0.36126393
233	0xbf453aed	-0.7704304
234	0xbe88c3de	-0.26711935
235	0xbf34ef34	-0.70677495
236	0xbeb32b7e	-0.3499412
237	0xbecea6eb	-0.40361723
238	0xbf16004b	-0.585942
239	0xbf89530c	-1.0728469
240	0xbf5514a9	-0.8323465
241	0xbf975cec	-1.1825233
242	0xbf82db84	-1.0223241
243	0xbe9a1162	-0.30091387
244	0xbe387cf3	-0.18016414
245	0xbeecb979	-0.46235254
246	0xbf4ca07f	-0.799324
247	0xbf1a66af	-0.6031293
248	0xbf37f39d	-0.718561
249	0xbf5303a4	-0.8242743
250	0xbeefaff0	-0.46813917
251	0xbf7cc29a	-0.9873444
252	0xbeb01d95	-0.3439757
253	0xbe80dfae	-0.25170654
254	0xbeff041d	-0.49807826
255	0xbf2e2d89	-0.6803823

actor.3.weight f4 [256, 256]
0	0x3e009f1f	0.125607
1	0xbfda86c7	-1.7072381
2	0x3d206c91	0.039166037
3	0x3bc38f3c	0.0059680026
4	0xbdb79676	-0.08964245
5	0xbe4d158e	-0.20027754
6	0x3d23b157	0.039964046
7	0x3d92c09e	0.07165645
8	0xbd4722a8	-0.048617035
9	0x3bd61b01	0.006533981
10	0x3dfdee10	0.123989224
11	0x3e28b899	0.16476668
12	0x3e8653bb	0.26235756
13	0xc01316d8	-2.2982693
14	0xbe3ec598	-0.18630064
15	0x3e568534	0.2094925
16	0x3e2b6da9	0.16741051
17	0x3c80b62c	0.015711866
18	0xbef53e23	-0.4789897
19	0xbf7f879c	-0.998163
20	0xbe601ff4	-0.21887189
21	0xbf56dc11	-0.83929545
22	0xbdf147ca	-0.11781271
23	0x3e0b193a	0.13583842
24	0xbe722da4	-0.23650223
25	0xbe21e015	-0.15808137
26	0xbc98db04	-0.018659122
27	0xc056926e	-3.3526874
28	0x3e9041a8	0.28175092
29	0xbf6a5c45	-0.9154704
30	0x3e231c4f	0.15928768
31	0x3e530d8b	0.20610635
32	0xbf6118cf	-0.8792848
33	0xbe521daf	-0.20519136
34	0xbd3c0dd2	-0.045911618
35	0x3e43c5e9	0.19118465
36	0x3e779dc4	0.24181277
37	0x3b3db43b	0.0028946537
38	0xbfbc7426	-1.4722946
39	0xbe9ee857	-0.31036636
40	0x3ef0c084	0.47021878
41	0x3c8e0404	0.0173359
42	0xbe8a7eae	-0.27049774
43	0xbeb6ebe6	-0.3572685
44	0x3e17bebb	0.14818852
45	0xc04fa3f6	-3.2443824
46	0xbfc72ec4	-1.5561147
47	0xbde23a09	-0.110462256
48	0x3f37e538	0.71834135
49	0x3dc1b63a	0.09458585
50	0x3e98e634	0.2986313
51	0x3e196b7d	0.1498241
52	0xbe48c625	-0.19606836
53	0xbe127113	-0.14300947
54	0x3e9f7121	0.31140998
55	0x3e5866b4	0.21132928
56	0xbcfb130e	-0.030648734
57	0x3db738c4	0.08946374
58	0x3ec1a067	0.3781769
59	0xbc6f7637	-0.014615587
60	0x3d4da7b4	0.050208762
61	0xbe301f8b	-0.17199533
62	0xbf0868a9	-0.532847
63	0xbdaae660	-0.08344722
64	0xbfa27561	-1.2692071
65	0xbd81902d	-0.063263275
66	0xbd1adba1	-0.03780711
67	0xbdd7d01e	-0.10537742
68	0xbe73ed5c	-0.23821014
69	0xbdc511e0	-0.0962255
70	0x3dfd3ebc	0.12365481
71	0x3defa7cc	0.117019266
72	0xbe324465	-0.17408903
73	0x3ee273a5	0.44228855
74	0xbf4ad863	-0.7923643
75	0xbdcaa9d8	-0.098956764
76	0xc01a4e2b	-2.411021
77	0x3ec1533e	0.3775882
78	0x3e0fb08a	0.14032188
79	0xbf05a89e	-0.52210414
80	0x3f0676ec	0.5252521
81	0xbdbeb48b	-0.093117796
82	0x3da9dce4	0.08294085
83	0xbf87370e	-1.0563676
84	0xbfdbc010	-1.7167988
85	0x3b581afb	0.0032975066
86	0xbff8260d	-1.9386612
87	0x3c6723b1	0.014107631
88	0x3e31e2e4	0.17371708
89	0x3dc4048d	0.095711805
90	0x3d24c088	0.040222675
91	0xbf6cb1d2	-0.9245883
92	0xbf75a1e7	-0.9595017
93	0xbd9aa096	-0.075501606
94	0x3e9d1e8d	0.3068737
95	0xbdc6eed9	-0.09713525
96	0xbde3aff4	-0.11117545
97	0x3dd0ebfd	0.10201261
98	0xbe0b3ec9	-0.1359817
99	0x3da48f6e	0.080351695
100	0xbcf7e416	-0.030260127
101	0xbe6bb067	-0.23016511
102	0x3e4fce02	0.2029343
103	0xc03cb676	-2.9486365
104	0xbd5aebf8	-0.053447694
105	0xc07875dc	-3.8821936
106	0x3e97b356	0.2962901
107	0x3a62a67f	0.00086460257
108	0x3deffd56	0.11718242
109	0x3da49c4f	0.08037626
110	0xbe59b599	-0.2126068
111	0xbd22b3dd	-0.039722312
112	0x3e3f2da6	0.18669757
113	0xc02b4343	-2.6759803
114	0x3d565b6b	0.052333277
115	0x3d3eba8c	0.046564624
116	0x3e86dbde	0.2633962
117	0xbe01d101	-0.12677385
118	0xbe780f80	-0.24224663
119	0x3ea8aa78	0.32942557
120	0xbd57b43c	-0.05266212
121	0xbcb5f1de	-0.022210058
122	0xbdc5baa3	-0.09654739
123	0xbdc277de	-0.09495519
124	0xbd8aad4f	-0.06771337
125	0xbfc5e3e4	-1.5460172
126	0xbf27cd62	-0.65547764
127	0xbde2e3ad	-0.11078582
128	0x3e75d22b	0.24005954
129	0xbf8dbaa1	-1.107258
130	0xbd1187e4	-0.035529986
131	0xbc7a1c96	-0.0152656045
132	0xbea93c3b	-0.33053765
133	0xbd1e04d7	-0.038578834
134	0xbebcffdc	-0.36913955
135	0xc0dc44b7	-6.883388
136	0x3e117959	0.14206447
137	0x3d51fdfa	0.0512676
138	0x3bee1770	0.0072659776
139	0x3d1c011d	0.038087
140	0xbd7430a5	-0.059616704
141	0x3dcdf2fe	0.10056113
142	0x3e11d376	0.14240822
143	0x3d98fa71	0.07469643
144	0x3d0fbc8c	0.03509192
145	0xbd3fb521	-0.046803597
146	0xbfc4d385	-1.5377051
147	0x3da73e61	0.08166195
148	0xbfc5cdba	-1.5453408
149	0x3df510eb	0.119661175
150	0x3e7f5d8f	0.24938034
151	0x3d212812	0.039344855
152	0xbffc82a8	-1.9727373
153	0x3c39a648	0.011331148
154	0xbe745bbd	-0.2386312
155	0xbe89a2b4	-0.26881945
156	0xbbdaf9a1	-0.00668259
157	0xbd1b9dea	-0.037992395
158	0xbd09bdf6	-0.033628426
159	0xbd89252f	-0.06696545
160	0xbd07a2e0	-0.033114314
161	0xbf077a76	-0.52921236
162	0x3d2a79d2	0.041620083
163	0x3d8420fb	0.06451603
164	0x3d52b416	0.051441275
165	0xbcf1e67a	-0.029528845
166	0x3e623f5c	0.22094482
167	0xbd97c7c2	-0.07411148
168	0xbf8dd796	-1.1081417
169	0x3edb5de3	0.42845067
170	0x3cd1a0db	0.025589397
171	0xbf5dc04c	-0.86621547
172	0xc03f5db7	-2.990095
173	0xbe001d73	-0.12511234
174	0xbe7eb23d	-0.2487268
175	0xbf1c31ba	-0.61013377
176	0xbea0a5ac	-0.31376398
177	0xbdee857f	-0.11646556
178	0x3e274c87	0.16337787
179	0x3e2555e7	0.1614605
180	0xbdc5edbe	-0.09664486
181	0x3db5fac1	0.08885718
182	0x3d3b568d	0.045736838
183	0xbda4ad51	-0.0804087
184	0xbe15c94c	-0.1462757
185	0x3c94b4d5	0.018152634
186	0xbe50445f	-0.20338582
187	0x3e74247d	0.23842044
188	0xbb0d0ffc	-0.002152442
189	0x3f190269	0.597693
190	0xbebbaeab	-0.366567
191	0x3f298622	0.66220295
192	0xbe51fcec	-0.20506638
193	0xbd180acd	-0.037119675
194	0xbd94408e	-0.07238875
195	0xbc31fd98	-0.010863684
196	0x3e4943f9	0.19654836
197	0x3b2d6b90	0.0026461817
198	0xbd113f63	-0.03546084
199	0x3cd95329	0.026528912
200	0xc0049732	-2.0717282
201	0x3de7885e	0.11305307
202	0xbd96565d	-0.07340691
203	0xbe60f469	-0.21968235
204	0xbe01942d	-0.12654181
205	0xbc8f3bf8	-0.01748465
206	0x3ed36c7f	0.41293713
207	0x3cc34e46	0.023841035
208	0xbf465610	-0.7747507
209	0x3d818e82	0.06326009
210	0x3d04ae74	0.032392934
211	0x3c15efd3	0.009151417
212	0xbe738e09	-0.23784651
213	0xbd1ba4a8	-0.037998825
214	0x3dd256ac	0.102704376
215	0x3c923588	0.017847791
216	0xbe8f06b7	-0.2793481
217	0xbf00fd0d	-0.50386125
218	0xbe7e81f7	-0.24854265
219	0x3eb5cb51	0.3550668
220	0xbfd9db52	-1.7020056
221	0xbd10dd30	-0.03536719
222	0xbdefe4ad	-0.11713538
223	0xbde8fd10	-0.11376393
224	0x3db95363	0.09049108
225	0xbc8265bd	-0.015917653
226	0xbceb8e69	-0.02875443
227	0x3e0c16d1	0.13680579
228	0x3f7b2e75	0.9811776
229	0x3f97e09c	1.186542
230	0x3dfc86e2	0.12330414
231	0xbe106439	-0.14100732
232	0x3d968d50	0.07351172
233	0xbf299a76	-0.66251314
234	0x3eee7e2c	0.46580637
235	0xbe6fb624	-0.23409325
236	0x3c86f918	0.016476199
237	0x3d872d35	0.066004194
238	0xbc10d329	-0.008839407
239	0xbee0941f	-0.43863007
240	0xc016caff	-2.35614
241	0x3e1f9388	0.15583622
242	0xbf1013c2	-0.5628015
243	0xbf0e517a	-0.55593073
244	0xbfcb847f	-1.589981
245	0xbf1cc75a	-0.61241686
246	0xbb9363d9	-0.0044979868
247	0x3d04c42f	0.032413658
248	0x3d938329	0.07202751
249	0x3e13e827	0.14444028
250	0xbf27b3cd	-0.6550873
251	0xbe0dd3d0	-0.13850331
252	0xbe7522a7	-0.23939
253	0x3d1eb461	0.03874624
254	0x3ea65d63	0.32493123
255	0xbe04aee3	-0.12957339

actor.3.bias f4 [256]
0	0x3f105261	0.563757
1	0x3f282acf	0.6569032
2	0xbf2815f3	-0.6565849
3	0x3e328c0d	0.17436238
4	0xbce8c51d	-0.028414303
5	0xbe8419d8	-0.25800967
6	0xbe0e99bb	-0.13925831
7	0xbdfafdc6	-0.12255435
8	0xbd9b22dd	-0.07575009
9	0xbc641d66	-0.013923025
10	0x3e0108e0	0.12601042
11	0x3e36e6bc	0.17861456
12	0x3ee64e3b	0.4498156
13	0x3e4b8131	0.19873501
14	0x3eb745a2	0.35795313
15	0x3e1f31e1	0.15546371
16	0x3d37969b	0.044821363
17	0xbd7e4dda	-0.062085964
18	0xbd5f76ae	-0.05455654
19	0x3e4d5d39	0.20055093
20	0x3ed05174	0.40687144
21	0x3f2f4646	0.68466604
22	0x3ed4ff27	0.41600916
23	0x3f0d9d52	0.55318177
24	0x3f162ac9	0.58659035
25	0x3e18e1de	0.14929911
26	0x3c5c79e7	0.013456798
27	0xbb3bee98	-0.0028676149
28	0x3e07e0bb	0.13269322
29	0x3db5e34c	0.08881244
30	0x3e5cf688	0.21578419
31	0x3eed4e19	0.46348646
32	0x3eac6400	0.33670044
33	0x3ed14f8b	0.40881
34	0x3efdfcdc	0.4960698
35	0x3ecc48f9	0.39899424
36	0x3f389d02	0.72114575
37	0x3e910e67	0.283313
38	0xbe7a052a	-0.24416032
39	0x3e8acb01	0.27108005
40	0x3ec620e5	0.38696972
41	0xbb2801a3	-0.0025635741
42	0x3e53060c	0.20607775
43	0x3ef93136	0.48670357
44	0xbc6bc7b1	-0.014390872
45	0x3da73372	0.08164109
46	0x3d8ac69e	0.067761645
47	0xbe8525c7	-0.26005384
48	0x3f089e79	0.5336681
49	0x3e9be651	0.30449155
50	0xbd73d1b2	-0.059526153
51	0xbd9db1ab	-0.07699903
52	0x3dedac1a	0.116050914
53	0x3e3843b7	0.17994581
54	0x3dc40c92	0.0957271
55	0x3d6417dc	0.055686817
56	0x3e933334	0.28750002
57	0xbd1abd2f	-0.037778076
58	0x3f16db32	0.58928216
59	0x3eeb1b2d	0.4591917
60	0x3d7e23ce	0.062045865
61	0x3f18e550	0.59724903
62	0x3dbd7005	0.09249882
63	0x3e0155d4	0.12630397
64	0xbe4f1be2	-0.2022548
65	0x3d938499	0.07203025
66	0x3e73ba63	0.2380157
67	0x3e087723	0.13326697
68	0x3e81efb5	0.25378194
69	0x3eb14249	0.34620884
70	0x3e20fb1e	0.15720794
71	0x3ee0a158	0.43873096
72	0x3e3bf72c	0.18356007
73	0x3c34b9b7	0.011030606
74	0x3bcbb7d4	0.0062169824
75	0x3e4323b7	0.19056593
76	0xbdb83b43	-0.08995678
77	0xbedefef8	-0.435539
78	0x3e902245	0.28151146
79	0xbe704a52	-0.23465851
80	0x3ef7d613	0.48405513
81	0x3d1b195e	0.03786599
82	0x3d8bdf10	0.06829655
83	0xbe379e3a	-0.17931452
84	0x3def69fc	0.11690137
85	0xbd7b0646	-0.06128528
86	0x3db5a76d	0.088698246
87	0x3edba60a	0.42900115
88	0xbe01fe4b	-0.12694661
89	0x3ecb1f18	0.3967216
90	0x3ed1d757	0.40984604
91	0x3ea8938f	0.32925078
92	0x3eae8bc7	0.34091017
93	0x3ec9ee8d	0.39439812
94	0xbebde6f1	-0.37090257
95	0x3c39cb15	0.011339922
96	0x3dd9e685	0.10639671
97	0x3e9d4d1f	0.307229
98	0x3e490754	0.19631702
99	0x3efce1a1	0.4939089
100	0x3e8b5d32	0.2721954
101	0x3e9d0f75	0.30675855
102	0xbe49fffb	-0.19726555
103	0xbef2f1cf	-0.4745011
104	0x3eb7b169	0.3587754
105	0x3dd5101b	0.104034625
106	0xbe2afeae	-0.16698715
107	0x3f27c26b	0.65531033
108	0x3e9eaa42	0.3098927
109	0x3f0bc383	0.545952
110	0x3e552764	0.20815808
111	0xbd93aa90	-0.072102666
112	0x3e3acaa6	0.18241367
113	0x3e3fbd53	0.18724565
114	0xbecc387e	-0.3988685
115	0xbc8a422c	-0.016877256
116	0x3e717ddd	0.2358317
117	0xbd45cff9	-0.04829404
118	0x3e3f5114	0.18683273
119	0x3f1ecf05	0.62034637
120	0x3eccc08b	0.3999065
121	0xbd928690	-0.07154572
122	0x3d903b8f	0.0704261
123	0x3de2a1ce	0.11066018
124	0x3e206f20	0.15667391
125	0x3e9f00ff	0.31055447
126	0x3e5327bc	0.20620626
127	0x3e140723	0.14455847
128	0xbe1dca5f	-0.1540923
129	0xbe427c86	-0.18992814
130	0x3ef0c83a	0.4702776
131	0x3e0a65ce	0.13515398
132	0x3eb412cf	0.351706
133	0x3e0705a2	0.13185742
134	0x3e52bf60	0.20580816
135	0x3f6619a1	0.89882857
136	0xbeaa26e4	-0.33232796
137	0x3eb094d2	0.3448854
138	0x3f144b69	0.57927567
139	0xbd648882	-0.055794246
140	0x3e194ced	0.14970751
141	0x3ee19ed1	0.4406648
142	0x3e1d4f1f	0.15362214
143	0xbcc2fe6c	-0.023802958
144	0x3f0ac56a	0.5420748
145	0xbe3ff918	-0.18747365
146	0x3f2b7fa9	0.6699167
147	0xbdb8cde7	-0.09023648
148	0x3ee8c896	0.45465535
149	0xbe12bc35	-0.14329608
150	0x3f28d1f2	0.6594535
151	0x3ea1905c	0.3155545
152	0xbde4bc28	-0.111687005
153	0xbea2d186	-0.3180048
154	0x3d835d21	0.06414247
155	0x3e8633a1	0.26211265
156	0x3ef36266	0.4753601
157	0xbe2ca97c	-0.16861528
158	0xbee4cfbf	-0.44689748
159	0x3ecbcb55	0.39803568
160	0x3eec161d	0.4611062
161	0x3d173d62	0.036923774
162	0x3e9150ac	0.2838186
163	0x3e559369	0.20857014
164	0xbe468c32	-0.19389418
165	0x3eac7c75	0.33688703
166	0x3c6369c3	0.013880196
167	0xbe15cd45	-0.14629085
168	0x3dd3a3e9	0.10333998
169	0x3e1fc183	0.15601163
170	0x3e06daf9	0.13169469
171	0xbd5c75c6	-0.053823255
172	0x3f098648	0.5372052
173	0x3eda03f6	0.42581147
174	0x3e32e8a6	0.17471561
175	0x3e5516c5	0.20809467
176	0xbc635271	-0.013874636
177	0x3f675910	0.90370274
178	0xbe8f7c51	-0.28024533
179	0x3c81e587	0.015856517
180	0x3eb80ffa	0.3594969
181	0xbde0c87a	-0.10975738
182	0x3e4712bc	0.1944074
183	0x3e89ed3a	0.26938802
184	0x3f32c695	0.6983426
185	0xbd873fda	-0.066039756
186	0x3f2230af	0.63355535
187	0x3ec4c6b9	0.38432863
188	0x3eccc175	0.39991346
189	0x3ea85f52	0.32885224
190	0x3e3f6a6a	0.18692937
191	0x3d8690d9	0.06570596
192	0x3ef83212	0.484757
193	0x3e5f3e49	0.21801104
194	0xbcbc5ef5	-0.022994498
195	0xbe96c9f4	-0.29450953
196	0x3c580207	0.013184077
197	0xbd177cc9	-0.03698424
198	0xbe5e20e3	-0.21692233
199	0x3e5b641a	0.21424904
200	0x3ecdb5ca	0.40177757
201	0x3d695ff1	0.056976262
202	0xbecb5bf2	-0.39718586
203	0x3e091d5a	0.13390103
204	0x3f0d8d2d	0.5529354
205	0x3f182899	0.5943695
206	0x3e989a1c	0.29805076
207	0x3f0ed82a	0.5579859
208	0x3e2017ea	0.15634122
209	0x3ec5f620	0.3866434
210	0x3e1b16c6	0.15145406
211	0xbe7b71c7	-0.24555121
212	0xbe01fdaf	-0.12694429
213	0xbdd37b1b	-0.10326215
214	0xbe0c4fd6	-0.1370233
215	0x3e426dba	0.1898717
216	0xbf6b908f	-0.92017454
217	0x3edf02a7	0.4355671
218	0x3f703dc6	0.9384426
219	0x3efc537f	0.49282452
220	0xbd403733	-0.046927642
221	0x3d5f0f45	0.05445792
222	0x3e92627d	0.28590766
223	0xbe626540	-0.22108936
224	0x3b897c9b	0.0041957623
225	0x3ede022b	0.4336103
226	0xbc83577e	-0.01603293
227	0xbea75163	-0.3267928
228	0x3e314f0e	0.17315313
229	0x3bdca81e	0.0067339083
230	0x3ec15ee0	0.37767696
231	0x3e19794f	0.14987682
232	0xbf064021	-0.524416
233	0x3ebd12a2	0.36928278
234	0x3ea29021	0.31750587
235	0x3ed75e6c	0.42064226
236	0x3d42deaa	0.04757563
237	0x3e550d29	0.20805801
238	0x3ee21a7a	0.44160825
239	0x3ee6b8c0	0.45062828
240	0x3f084789	0.53234154
241	0x3d940a5f	0.07228541
242	0x3ec623d0	0.38699198
243	0xbd8d3024	-0.06893948
244	0x3e5c32d3	0.21503763
245	0x3d043efb	0.032286625
246	0x3e7d0e4a	0.24712482
247	0x3e0f0ab3	0.13968925
248	0x3ded84ab	0.1159757
249	0x3e5d9d2c	0.21641988
250	0x3ed9c4d0	0.4253297
251	0x3dc81fe8	0.09771711
252	0x3eb4e825	0.35333362
253	0x3f175f73	0.5913002
254	0xbd4b9c56	-0.04970964
255	0x3e91f11a	0.28504258

actor.6.weight f4 [3, 256]
0	0x3ce6eb8c	0.02818849
1	0xbca5c8c5	-0.020237336
2	0x3fc2e2fb	1.5225519
3	0xbbc36905	-0.005963447
4	0x3e0fc613	0.14040403
5	0x3b402d99	0.0029324053
6	0xb9a91a53	-0.00032253805
7	0x3c153c2b	0.009108583
8	0xbcbfe8e4	-0.02342648
9	0xbd0daf65	-0.034591097
10	0xbd25e9e0	-0.040506244
11	0x3a275f7e	0.0006384774
12	0xbdb3621a	-0.08758946
13	0xbf19f5e8	-0.6014085
14	0xbdf2b114	-0.11850181
15	0x3ca0de47	0.01963724
16	0x3ccc3b38	0.024930581
17	0x3c25e5c8	0.010125585
18	0x3c04bccd	0.008101654
19	0xbd8bf6f4	-0.06834212
20	0xbd99694d	-0.07490788
21	0x3db5c0fc	0.088746995
22	0x3dd76378	0.10517019
23	0xbd8ec415	-0.069709934
24	0x3dd86f4b	0.105681024
25	0xbca92dab	-0.020651659
26	0xbb62e093	-0.003461872
27	0x3d4e2e90	0.050337374
28	0x3d93880a	0.07203682
29	0x3b7637ee	0.0037569958
30	0xba9eacef	-0.0012105982
31	0xbe0cd773	-0.13754062
32	0xbcc380c6	-0.023865115
33	0xbe04a2f1	-0.12952782
34	0x3d76626a	0.06015245
35	0x3d156039	0.03646872
36	0x3cf94f37	0.03043328
37	0xbda541d2	-0.08069195
38	0xbe4e100c	-0.20123309
39	0x3a8aa0fc	0.0010576542
40	0x3bc3aa59	0.0059712348
41	0xbf619c37	-0.8812899
42	0x3af0eefa	0.0018381767
43	0xbd8b6d2b	-0.068079315
44	0x3b42c7df	0.0029721183
45	0xbe3c13ae	-0.18366882
46	0xbde4f93f	-0.111803524
47	0x3ca61732	0.020274732
48	0xbbb7fcab	-0.005614837
49	0x3bdca94f	0.0067340503
50	0xbb9f6ed1	-0.0048655053
51	0x3c2bcd2d	0.010485929
52	0xbc6b04a3	-0.014344367
53	0xbb843a0e	-0.004035241
54	0x3c1265c1	0.008935393
55	0x3c6b7701	0.014371634
56	0xbd31e117	-0.043427553
57	0xbd7eeef1	-0.06223959
58	0xbd847b0d	-0.064687826
59	0xbcfd8f55	-0.030952135
60	0xbe9da421	-0.30789283
61	0x3c01de5b	0.007926549
62	0xbd01aec1	-0.0316608
63	0x3e54a2d8	0.20765245
64	0x3e8b9270	0.2726016
65	0xbdc8f2c0	-0.09811926
66	0xbcd3b35a	-0.025842357
67	0x3d8b87f7	0.068130426
68	0x3ac8552f	0.0015284176
69	0xbcb25335	-0.021768192
70	0xbcba440d	-0.022737527
71	0x3bca72cd	0.006178236
72	0x3e784542	0.2424517
73	0x3d7f026e	0.062258177
74	0xbc8349dd	-0.016026432
75	0xbe3845ce	-0.17995378
76	0x3e21b487	0.15791522
77	0x3ced8a96	0.028996747
78	0xbc1c6c1c	-0.00954726
79	0x3de0615c	0.1095607
80	0xbd9680bb	-0.07348772
81	0x3c053e7b	0.008132572
82	0x3b606378	0.0034238975
83	0x3d793a59	0.06084666
84	0xbbec95a8	-0.007219989
85	0xbd3367d8	-0.043800205
86	0x3df3f221	0.11911417
87	0x3ba1f0ea	0.0049420493
88	0x3c935ee0	0.017989576
89	0x3c2066f3	0.00979017
90	0xbd0abb93	-0.03387029
91	0xbc1b6030	-0.009483382
92	0x3daa919f	0.08328556
93	0xbdb187f3	-0.086685084
94	0x3c400ef6	0.011722317
95	0x3bad58e6	0.0052901385
96	0x3e6196e8	0.22030222
97	0xbbb66be9	-0.005567063
98	0xbab0a9ec	-0.0013478375
99	0xbaba8532	-0.0014230369
100	0xbcad2934	-0.021137811
101	0xbbb7a5c7	-0.005604479
102	0x3c508d9e	0.012729077
103	0xbb5f24c0	-0.0034049004
104	0x3a2775ac	0.0006388079
105	0xbcd35188	-0.025795713
106	0xbc168092	-0.009185927
107	0x3d83d43e	0.06436966
108	0xbf24a708	-0.6431737
109	0xbb6da844	-0.0036263624
110	0x3e92b7db	0.28655896
111	0xbc1fab95	-0.009745498
112	0xbc1e945f	-0.009678929
113	0x3c6f4a14	0.014605064
114	0x3cbf6324	0.023362704
115	0x3d2ce8de	0.042214267
116	0xbbecacf8	-0.007222768
117	0x3dd2516f	0.102694385
118	0x3d7584a1	0.059940938
119	0x3d0b28e4	0.033974543
120	0xbc1a04f2	-0.009400593
121	0xbbdc466f	-0.0067222635
122	0xbdd396ee	-0.10331522
123	0x3cc2aecc	0.02376499
124	0x3d6765a6	0.056493424
125	0x3d06341b	0.032764535
126	0xbbdcecf0	-0.0067421123
127	0x3cbef1bd	0.02330863
128	0x3d9bc3d6	0.07605712
129	0xbd7de4f0	-0.06198591
130	0x3da67c00	0.0812912
131	0xbb26151a	-0.0025342167
132	0x3bd64936	0.006539489
133	0xbbeb8449	-0.0071874005
134	0x3cf949c6	0.030430686
135	0xb85ce3e9	-5.2664345e-05
136	0xbb8822c9	-0.0041545373
137	0x3c22a0e3	0.009926054
138	0xbc99d550	-0.018778473
139	0x3ba29ca7	0.004962522
140	0xbf4ae5e3	-0.7925703
141	0xbb34c9ee	-0.002758618
142	0x3bd607da	0.0065316977
143	0x3daa8a95	0.08327214
144	0x3cecf467	0.028925134
145	0x3caf561c	0.021403365
146	0xbda9f02a	-0.08297761
147	0x3e8c8054	0.27441657
148	0x3d0e7655	0.03478082
149	0x3c13a51b	0.009011532
150	0x3ca01693	0.019542014
151	0x3e058a4c	0.13041037
152	0x3e368b76	0.17826638
153	0x3ca31172	0.01990578
154	0x3d82ded7	0.063901596
155	0x3cddd206	0.027077686
156	0x3c043df3	0.0080714105
157	0xbbc29928	-0.005938668
158	0x3d183f66	0.037169836
159	0x3ca63cfb	0.02029275
160	0x3be9aee9	0.0071314466
161	0x3c75ca80	0.015001893
162	0x3c3e73b2	0.011624264
163	0xbd6093d6	-0.054828487
164	0x3ba6efe6	0.005094516
165	0xb9a54323	-0.00031521273
166	0xbdc25ae3	-0.094899915
167	0xc0135333	-2.301953
168	0x3e6430dd	0.22284265
169	0x3cfb9230	0.030709356
170	0x3dfa31ed	0.12216554
171	0xbe05aea6	-0.13054904
172	0xbe6d8d9b	-0.2319855
173	0xbf4cb703	-0.79966754
174	0x3c9bcb99	0.019017981
175	0xbeb736cc	-0.35783994
176	0xba1b59ac	-0.0005926143
177	0x3d7e9e46	0.06216266
178	0x3c1798b3	0.009252715
179	0xbd4aa98b	-0.049478095
180	0xbddfeca1	-0.10933805
181	0xbd9ea25f	-0.077458136
182	0xbbaa971a	-0.005206001
183	0xbdc88c7b	-0.097924195
184	0x3addc655	0.001692007
185	0x3c81d016	0.015846293
186	0xbd6b5418	-0.057453245
187	0xbdab1c70	-0.083550334
188	0x3c1a92c6	0.009434408
189	0x3b6aae4a	0.003580945
190	0x3d212242	0.03933931
191	0xbca8544a	-0.020548005
192	0x3b85b45e	0.0040803393
193	0x3cc0122a	0.023446161
194	0xbed2fa47	-0.4120657
195	0xbe7f06b9	-0.24904908
196	0x3d8dbfa6	0.0692132
197	0xbe112bd7	-0.1417688
198	0x3d68a814	0.056800917
199	0x3d1f21ff	0.03885078
200	0xbf009444	-0.50226235
201	0x3d94f364	0.072729856
202	0x3e430dfb	0.19048302
203	0x3d81ff9c	0.06347582
204	0xbdab7692	-0.08372225
205	0x3cce6464	0.025194354
206	0x3da07551	0.07834876
207	0x3c1db3d5	0.009625395
208	0xbc966816	-0.018360179
209	0xbc9fb88e	-0.019497182
210	0xbe769a68	-0.24082339
211	0xb9c73af9	-0.00038000176
212	0xbb98cc9a	-0.0046630623
213	0xbd51a851	-0.05118591
214	0xbb011a12	-0.0019699377
215	0xba72da80	-0.00092641264
216	0x40145cbe	2.3181605
217	0x3b009884	0.0019622156
218	0xbca0a217	-0.01960854
219	0xba8efc5c	-0.0010908949
220	0xbaf65182	-0.0018792602
221	0x3a9797cb	0.0011565624
222	0x3bd6134f	0.0065330635
223	0x3ed3ec91	0.41391423
224	0x3bc89dfd	0.0061223493
225	0xbadfe65d	-0.0017082203
226	0xbc9b4d26	-0.018957686
227	0xbf4a5c5a	-0.7904717
228	0xbd85ebe0	-0.0653913
229	0x3d023d59	0.031796787
230	0xbe29a4e8	-0.16566813
231	0x3b8440a8	0.004036028
232	0x3da1791f	0.0788443
233	0x3daf887d	0.08570955
234	0x3b7a1ca9	0.0038164055
235	0xbbbfc952	-0.0058528567
236	0x3d668834	0.056282237
237	0x3b955b82	0.0045580277
238	0x3d0bc8b8	0.034126967
239	0xbdeb3a86	-0.11485772
240	0xbe6747fd	-0.22586055
241	0x3ed17a5f	0.40913674
242	0x3d52d62e	0.05147379
243	0x3d83dd41	0.06438685
244	0x3cf45127	0.029823853
245	0x3b21da9c	0.0024696952
246	0xbc0ae7da	-0.008478129
247	0xbd89dae4	-0.06731203
248	0x3da92267	0.08258515
249	0xbe138cbe	-0.14409158
250	0xbe07b9b3	-0.13254432
251	0xbdbd652b	-0.09247812
252	0x3cf656c7	0.030070676
253	0xbcb1d8f0	-0.02170989
254	0x3dbd6a12	0.09248747
255	0x3c1ac50a	0.009446392

actor.6.bias f4 [3]
0	0xbe228d36	-0.1587418
1	0x3de66f6a	0.11251719
2	0x3d839141	0.06424189
