online_weights/spot_hopper_medium/actor_target_s1000000.pth (torch, 281031 bytes, 6 tensors)

actor.0.weight f4 [256, 11]
0	0x3e89df0e	0.2692799
1	0xbd789df8	-0.060697526
2	0x3eb11160	0.3458357
3	0x3d8cc61e	0.06873725
4	0xbe64e3c9	-0.22352518
5	0x3de4914d	0.111605264
6	0xbec5a20e	-0.386002
7	0xbdab05b4	-0.08350697
8	0x3e381dd1	0.17980124
9	0x3cf81464	0.03028316
10	0xbe63c830	-0.22244334
11	0xbe1d7bd8	-0.15379274
12	0x3d6dd1cb	0.058061402
13	0xbb9bf5e8	-0.004759539
14	0x3df67cd3	0.12035527
15	0x3dc25879	0.09489531
16	0x3e0f27aa	0.13979974
17	0xbdcbb88b	-0.09947308
18	0x3e4c8e02	0.19976047
19	0xbe8f6a9b	-0.2801102
20	0xbea524a4	-0.32254517
21	0xbee58f72	-0.44836003
22	0xbe04fc5e	-0.12986895
23	0x3e205e9b	0.15661089
24	0xbe304ec7	-0.17217551
25	0xbca751dd	-0.020424778
26	0xbc95d58f	-0.01829031
27	0x3e6f8b91	0.23393084
28	0xbe9fed80	-0.31235886
29	0xbc94745b	-0.018121889
30	0xbdb7167d	-0.08939836
31	0xbdb2b5f1	-0.08726109
32	0xbeba7c80	-0.3642311
33	0x3ec327f9	0.38116434
34	0x3e8104f4	0.2519909
35	0x3e9b7479	0.303623
36	0x3e31f914	0.17380172
37	0x3d941f83	0.07232573
38	0xbc9fdb1d	-0.019513661
39	0x3e01b1a9	0.12665428
40	0x3ed95348	0.4244635
41	0xbecb651b	-0.39725575
42	0xbec0e1cd	-0.37672272
43	0xbe8a22ca	-0.26979667
44	0x3c1dfc58	0.009642683
45	0x3c7d24f4	0.015450705
46	0x3de90b2a	0.113790825
47	0xbdef3c66	-0.11681442
48	0x3cc8f815	0.024532357
49	0xbdc3c09a	-0.0955822
50	0xbe956024	-0.29174912
51	0x3ee60243	0.449236
52	0xbf4a48cf	-0.7901735
53	0xbea3fe00	-0.32029724
54	0x3e57f694	0.21090156
55	0x3eea60f2	0.45777088
56	0x3d9dbe63	0.07702329
57	0x3e098d4e	0.1343281
58	0xbd920f64	-0.07131842
59	0x3e0eef50	0.13958478
60	0xbec834ee	-0.39102882
61	0x3f48fa7d	0.78507215
62	0x3e2ecd97	0.17070614
63	0xbeab0f93	-0.3341032
64	0xbe7edd17	-0.24889027
65	0xbdacad2e	-0.08431469
66	0xbdded27d	-0.10879991
67	0xbe278d58	-0.16362512
68	0xbe8c53e4	-0.27407753
69	0xbe59c206	-0.2126542
70	0xbdf669c9	-0.12031896
71	0x3d422349	0.04739693
72	0xbea38f5a	-0.31945306
73	0x3d4fafb4	0.050704673
74	0xbce77ef7	-0.028258784
75	0xbe90c5eb	-0.28276
76	0x3ea3d80d	0.3200077
77	0xbe659de4	-0.22423512
78	0xbd9f3d0b	-0.07775315
79	0x3f0cfcfc	0.55073524
80	0x3c3d408f	0.0115510365
81	0xbe807576	-0.25089616
82	0x3e738c47	0.2378398
83	0xbb86f56f	-0.0041186134
84	0x3d5ffb74	0.054683164
85	0xbe9ded94	-0.3084532
86	0xbd8771cb	-0.06613501
87	0x3eb96f21	0.36217597
88	0x3e90fede	0.28319448
89	0x3cc3e636	0.023913484
90	0xbe22fc40	-0.15916538
91	0x3d1c2cc9	0.038128648
92	0x3eb62001	0.35571292
93	0x3e81f2a3	0.2538043
94	0xbf3777ec	-0.7166736
95	0xbc87c142	-0.016571645
96	0x3d8262d4	0.06366506
97	0xbd350164	-0.04419078
98	0xbd0dc914	-0.03461559
99	0x3e94541e	0.28970426
100	0xbe0685e1	-0.13137008
101	0x3e278ea3	0.16363005
102	0x3ef040be	0.46924394
103	0xbe035217	-0.12824284
104	0xbe9decb7	-0.30844662
105	0xbd208144	-0.039185777
106	0x3e258b0a	0.1616632
107	0xbd1ba86b	-0.038002413
108	0xbecd1eae	-0.4006247
109	0xbda7aebf	-0.08187627
110	0xbe5ae7b6	-0.21377453
111	0x3f114cae	0.5675763
112	0x3ed99aef	0.42501017
113	0x3d4d8209	0.05017284
114	0xbe56f7a3	-0.20992903
115	0x3ecdbce1	0.40183166
116	0xbcf3be9d	-0.029753977
117	0xbb395523	-0.0028279505
118	0xbd9a2896	-0.075272724
119	0xbe726f1a	-0.23675194
120	0xbd0f443e	-0.03497719
121	0x3d465af8	0.0484266
122	0x3e47c11d	0.1950726
123	0xbdb327f9	-0.087478586
124	0x3d0d8d5a	0.03455863
125	0x3d979bf1	0.0740279
126	0x3f24d53a	0.6438786
127	0x3e87e661	0.26542953
128	0x3dab1d02	0.08355142
129	0xbde87d13	-0.11351981
130	0xbe365dcc	-0.17809218
131	0xbedb2458	-0.42801166
132	0x3e362031	0.17785718
133	0xbe734bd9	-0.23759402
134	0x3e0986ae	0.13430282
135	0x3e39bb9a	0.1813797
136	0x3f1ea0bf	0.6196403
137	0x3e00c643	0.12575631
138	0x3f30244c	0.68805385
139	0x3d6349bd	0.055490244
140	0x3d6a5e0f	0.057218608
141	0x3ddb2b8a	0.10701664
142	0x3c0b1ffd	0.008491513
143	0x3e482bb6	0.19547924
144	0x3d9dc097	0.07702749
145	0x3d3f48a6	0.046700142
146	0x3e31a97d	0.17349811
147	0x3eaf0853	0.34186038
148	0x3efc9c0c	0.49337804
149	0xbdb91aa3	-0.09038284
150	0xbdc05c0d	-0.09392557
151	0x3e3f2d01	0.18669511
152	0xbdae14b5	-0.08500043
153	0xbed9bb05	-0.42525497
154	0x3e6850ec	0.22687119
155	0xbe1fdc43	-0.15611367
156	0xbe9d88ae	-0.3076834
157	0xbca49cb4	-0.020094253
158	0x3f423214	0.75857663
159	0xbe5b62c6	-0.21424398
160	0xbf15d044	-0.58520913
161	0xbe28a898	-0.16470563
162	0xbe6c5925	-0.23080881
163	0xbd72ad87	-0.05924752
164	0x3edfc5f6	0.4370572
165	0x3da2f51b	0.079569064
166	0x3ee5670c	0.4480518
167	0x3dde3d4a	0.10851534
168	0x3e15d14f	0.14630626
169	0x3e55e546	0.20888242
170	0x3e61b088	0.22039998
171	0xbd173d8d	-0.036923934
172	0x3ef12874	0.47101176
173	0xbe3fa7f7	-0.18716417
174	0xbe50bb4c	-0.20383948
175	0x3d9e6b10	0.07735264
176	0xbe505476	-0.2034472
177	0xbe1a7e07	-0.15087138
178	0xbebcb510	-0.3685689
179	0xbdac8f55	-0.08425776
180	0xbe66acf2	-0.22526911
181	0xbed4af5e	-0.41540045
182	0x3efd1ceb	0.49436125
183	0x3ea926ad	0.3303732
184	0xbf1aa50c	-0.6040809
185	0xbdf98da6	-0.121852204
186	0x3e579df0	0.21056342
187	0xbd40a5d3	-0.047033142
188	0xbda12e3b	-0.07870146
189	0xbe8bef8f	-0.27331206
190	0xbdb384f5	-0.08765594
191	0xbc2f8f38	-0.010715298
192	0x3d2cbb21	0.042170648
193	0xbea98b8a	-0.33114272
194	0xbdf9acdb	-0.12191173
195	0x3dbc3677	0.09190076
196	0x3d9aacae	0.07552467
197	0x3dbf5baf	0.09343659
198	0xbcc3c453	-0.023897326
199	0xbedf5f75	-0.43627515
200	0xbe905e48	-0.2819693
201	0xbcd2aced	-0.025717223
202	0x3e20df74	0.1571024
203	0xbe9672e1	-0.2938452
204	0xbe14745e	-0.14497516
205	0xbe17373a	-0.14767161
206	0xbe32b16e	-0.17450497
207	0x3cb67e07	0.022276891
208	0xbefabedd	-0.48973742
209	0x3e622fff	0.22088622
210	0xbe82e8ad	-0.25568143
211	0x3e8f03f0	0.27932692
212	0xbe1324b5	-0.14369471
213	0xbdbc900e	-0.09207164
214	0x3e968653	0.29399356
215	0xbe734d19	-0.23759879
216	0xbd3da054	-0.04629548
217	0xbe876543	-0.26444444
218	0xbf430475	-0.76178676
219	0x3df206d8	0.118177116
220	0xbe8025b9	-0.2502878
221	0xbdb0adf8	-0.08626932
222	0x3f023404	0.5086062
223	0x3e14e147	0.14539061
224	0x3e87fd9a	0.2656067
225	0xbe8fa486	-0.2805521
226	0x3c9c0742	0.01904643
227	0xbe40a615	-0.18813355
228	0x3ec79985	0.38984314
229	0x3f1bf577	0.60921425
230	0xbf1305a6	-0.57430494
231	0xbcd760fe	-0.026291367
232	0x3ea75332	0.3268066
233	0x3e6f8e16	0.23394045
234	0xbdc2ddd8	-0.095149696
235	0xbe9bb27d	-0.30409613
236	0x3f298212	0.66214097
237	0xbdb7b0ef	-0.08969294
238	0xbe8bf64a	-0.2733634
239	0x3c60bd36	0.013716986
240	0x3d6494c7	0.055805948
241	0xbe91b72e	-0.28460068
242	0x3deede3a	0.1166348
243	0xbd99cbf2	-0.075096026
244	0x3d7cbd3e	0.061703913
245	0x3e7e177b	0.24813645
246	0x3e81821c	0.25294578
247	0xbeaa05e4	-0.3320762
248	0x3e8d6b75	0.27621046
249	0xbea7f4ba	-0.328039
250	0x3f06a9c1	0.52602774
251	0x3ef5f6f5	0.48039976
252	0xbe5516c4	-0.20809466
253	0xbd808e5b	-0.06277152
254	0xbe374d70	-0.17900634
255	0xbcbb710f	-0.022881059

actor.0.bias f4 [256]
0	0xbd7b45c0	-0.061345816
1	0xbebd725a	-0.37001306
2	0xbf19670d	-0.5992287
3	0xbea8a59e	-0.32938856
4	0xbf1b156f	-0.6057958
5	0xbf59188d	-0.84803087
6	0xbeab6b64	-0.3348037
7	0xbe5d6b54	-0.21622974
8	0xbf55d9b8	-0.8353534
9	0xbee74a0b	-0.45173678
10	0xbf097780	-0.5369797
11	0xbf41987b	-0.7562329
12	0xbefdd54b	-0.49576792
13	0xbf2a6f39	-0.6657596
14	0xbf88703c	-1.0659251
15	0xbf0bb167	-0.5456757
16	0xbeeb8dae	-0.4600653
17	0xbdedf422	-0.1161883
18	0xbf01cfbc	-0.507076
19	0xbf1e6e3b	-0.6188695
20	0xbf6f902b	-0.9357936
21	0xbf4026fa	-0.75059474
22	0xbf204ef0	-0.6262045
23	0xbeb7a3f6	-0.3586728
24	0xbde5ab3f	-0.11214303
25	0xbf889c92	-1.0672781
26	0xbe5e3bdf	-0.21702527
27	0xbf4abe3b	-0.7919652
28	0xbe83e1a0	-0.25758076
29	0xbf457ba1	-0.7714177
30	0xbf1a2565	-0.6021331
31	0xbf46184d	-0.7738083
32	0xbed42df0	-0.41441298
33	0xbf6fb021	-0.93628126
34	0xbe5b3519	-0.21406974
35	0xbe9ae4a8	-0.30252576
36	0xbf2a77e9	-0.6658922
37	0xbed9484f	-0.4243798
38	0xbeb12047	-0.34594938
39	0x3d50c0d6	0.050965153
40	0xbf2bea59	-0.6715446
41	0xbf1aa473	-0.6040718
42	0xbed4da9d	-0.4157304
43	0xbf543c60	-0.82904625
44	0xbf2dfb32	-0.6796142
45	0xbf852263	-1.0401119
46	0xbf946f4f	-1.1596469
47	0xbf068434	-0.52545476
48	0xbf05e8ba	-0.5230824
49	0xbec42792	-0.3831144
50	0xbf70c8a5	-0.9405616
51	0xbed29643	-0.41130266
52	0xbebe352d	-0.37149945
53	0xbed6c9af	-0.41950747
54	0xbf25188f	-0.644906
55	0xbf29370a	-0.6609961
56	0xbe659d78	-0.22423351
57	0xbef6b701	-0.48186496
58	0xbe51ba3e	-0.20481202
59	0xbf3ee441	-0.7456704
60	0xbe9e7670	-0.30949736
61	0xbf6714d2	-0.90266144
62	0xbf4526aa	-0.7701212
63	0xbf3e53e7	-0.74346775
64	0xbde0b228	-0.109714806
65	0xbcae171c	-0.021251254
66	0xbf5ca06d	-0.8618229
67	0xbf17add8	-0.5924964
68	0xbeb091da	-0.34486276
69	0xbf1dddab	-0.61666363
70	0xbef08d5f	-0.46982858
71	0xbf405cd6	-0.75141656
72	0xbf4bed72	-0.7965919
73	0xbf34dcec	-0.706496
74	0xbef446bd	-0.4771022
75	0xbea0f54b	-0.31437144
76	0xbe19d560	-0.15022802
77	0x3d8dd81c	0.06925985
78	0xbf2e4d4d	-0.680867
79	0xbe71071b	-0.23537867
80	0xbe1be6c5	-0.1522475
81	0xbf238a4d	-0.63882905
82	0xbf3ecdb7	-0.74532646
83	0xbf31617c	-0.69289374
84	0xbf70ce58	-0.94064856
85	0xbe93b960	-0.28852367
86	0xbf53aea0	-0.8268833
87	0xbf4380e5	-0.7636855
88	0xbe6ead68	-0.23308337
89	0xbf4fe295	-0.8120511
90	0xbead95cd	-0.3390335
91	0xbe930634	-0.2871567
92	0xbef7b9bb	-0.4838389
93	0xbf1b81c1	-0.60744864
94	0xbec9fb8f	-0.39449736
95	0xbf2e63bc	-0.6812093
96	0xbf1f3332	-0.6218749
97	0xbee35091	-0.44397405
98	0xbf112adb	-0.5670602
99	0xbea7e949	-0.3279517
100	0xbdbaf42c	-0.09128603
101	0xbf032c31	-0.51239306
102	0xbf454912	-0.7706462
103	0xbf8eb974	-1.1150346
104	0xbd946fdb	-0.07247897
105	0xbfa0cbbf	-1.2562178
106	0xbf8034c5	-1.0016104
107	0xbf02817f	-0.50978845
108	0xbf6036e1	-0.8758374
109	0xbf2a6afb	-0.6656949
110	0xbf0360f9	-0.51319844
111	0xbf12ec38	-0.5739169
112	0xbf270f47	-0.65257686
113	0xbf55c26d	-0.83499795
114	0xbec3f866	-0.3827545
115	0xbf1b1a1b	-0.6058671
116	0xbda03575	-0.07822696
117	0xbf24b60b	-0.64340276
118	0xbf8c6d06	-1.0970771
119	0xbe792f34	-0.24334413
120	0xbea855ea	-0.32878047
121	0xbf05fd05	-0.523392
122	0xbeb2209f	-0.34790513
123	0xbecce1cd	-0.40016022
124	0xbdccfda7	-0.10009318
125	0xbf870932	-1.0549681
126	0xbf52dbbb	-0.8236653
127	0xbef69918	-0.48163676
128	0xbf35f8c0	-0.7108269
129	0xbefc5085	-0.49280182
130	0xbf092310	-0.53569126
131	0x3dbe8d15	0.09304253
132	0xbe5b7d5b	-0.21434538
133	0xbf5945a9	-0.8487192
134	0xbf8b0d71	-1.0863477
135	0xbf37fe3e	-0.7187232
136	0xbee362ad	-0.4441122
137	0xbfa6868a	-1.3009808
138	0xbf012b79	-0.5045696
139	0x3d81a62d	0.06330524
140	0xbf489738	-0.7835574
141	0xbf1828be	-0.5943717
142	0xbecdcd9c	-0.4019593
143	0xbf2abba9	-0.66692597
144	0xbf205c02	-0.6264039
145	0xbf7f9dbc	-0.9985006
146	0xbf3d0d78	-0.73848677
147	0xbf20f80c	-0.6287849
148	0xbf074a9f	-0.5284824
149	0xbe90f7d5	-0.2831408
150	0xbf5cd503	-0.8626253
151	0xbf4dfd2e	-0.80464447
152	0xbf494cff	-0.7863311
153	0xbf00a395	-0.50249606
154	0xbf7b2285	-0.9809955
155	0xbf5d3a6a	-0.8641726
156	0xbebd9096	-0.37024373
157	0xbf44eb81	-0.7692185
158	0xbeb55541	-0.35416606
159	0xbecf0aa1	-0.40437797
160	0xbf9c72dc	-1.2222552
161	0xbf46136f	-0.77373403
162	0xbf47e437	-0.78082603
163	0xbf1c39ce	-0.610257
164	0xbd4c3ede	-0.049864642
165	0xbf0a4c7b	-0.5402295
166	0xbf520a19	-0.8204666
167	0xbe2a4f61	-0.16631843
168	0xbf9b27df	-1.2121543
169	0xbf03402a	-0.5126978
170	0xbf50f840	-0.816288
171	0xbe8578c3	-0.26068696
172	0xbf3e375b	-0.74303216
173	0xbee6fc79	-0.45114496
174	0xbedd777d	-0.43255225
175	0xbf541669	-0.82846695
176	0xbf5a022e	-0.85159576
177	0xbe8f85b0	-0.28031683
178	0xbf6bcd3c	-0.9211004
179	0xbe11dd37	-0.14244543
180	0xbed8215a	-0.42212945
181	0xbf3d5365	-0.73955375
182	0xbedfaa6a	-0.43684703
183	0xbe7eacd6	-0.24870619
184	0xbe2e3da3	-0.170157
185	0xbe5c6116	-0.2152141
186	0xbf078a1d	-0.5294512
187	0xbf0d94f6	-0.5530542
188	0xbf011689	-0.5042501
189	0xbf5449bc	-0.8292501
190	0xbf49baad	-0.7880047
191	0xbe3dcd05	-0.1853524
192	0xbf275707	-0.6536717
193	0xbf572319	-0.8403793
194	0xbf3a0578	-0.72664595
195	0xbe4bbb28	-0.19895613
196	0xbef5461d	-0.47905055
197	0xbf7e92f1	-0.99442965
198	0xbdb732d0	-0.089452386
199	0xbf548ae2	-0.8302442
200	0xbf5bf196	-0.85915506
201	0xbf1a57fb	-0.602905
202	0xbeb86040	-0.36010933
203	0xbf5697b3	-0.83825225
204	0xbf002a53	-0.5006458
205	0xbef0b842	-0.47015578
206	0xbf23d5a0	-0.6399784
207	0xbe72b12d	-0.237004
208	0xbf25bce3	-0.64741343
209	0xbf1c4cc2	-0.61054623
210	0xbf048697	-0.5176787
211	0xbf0b6782	-0.54454815
212	0xbefa04ab	-0.48831686
213	0xbf3305d2	-0.69930756
214	0xbf05c609	-0.522553
215	0xbdc39e85	-0.095517196
216	0xbf221b39	-0.6332279
217	0xbf874ada	-1.0569718
218	0xbf1f7e0c	-0.6230171
219	0xbf4a5783	-0.7903978
220	0xbe985534	-0.29752505
221	0xbece3002	-0.40271002
222	0xbf24ac6b	-0.6432559
223	0xbf3dc700	-0.74131775
224	0xbf579708	-0.8421483
225	0xbed208e5	-0.4102241
226	0xbe8ba5f0	-0.27275038
227	0xbe94f8fd	-0.29096213
228	0xbf2249b2	-0.633937
229	0xbf467b25	-0.77531654
230	0xbf4a71fc	-0.79080176
231	0xbefd4a41	-0.49470714
232	0xbeb95d46	-0.36203974
233	0xbf45d39b	-0.7727601
234	0xbe8a17c8	-0.2697127
235	0xbf34e74c	-0.7066543
236	0xbeb3c206	-0.35108966
237	0xbece3865	-0.402774
238	0xbf15da33	-0.5853607
239	0xbf8952e8	-1.0728426
240	0xbf554fd5	-0.8332494
241	0xbf97516f	-1.1821727
242	0xbf82a1d5	-1.0205637
243	0xbe9ab53b	-0.30216393
244	0xbe3ac844	-0.18240458
245	0xbeebd5d2	-0.4606157
246	0xbf4c6ed8	-0.79856634
247	0xbf1a8b5e	-0.6036891
248	0xbf384a86	-0.71988714
249	0xbf53637b	-0.8257367
250	0xbeef5603	-0.4674531
251	0xbf7ca793	-0.986932
252	0xbeb0c28d	-0.3452343
253	0xbe80558e	-0.25065273
254	0xbefea401	-0.497345
255	0xbf2e1fbc	-0.6801717

actor.3.weight f4 [256, 256]
0	0x3e01dc63	0.12681727
1	0xbfdad80e	-1.7097185
2	0x3d1f1407	0.03883746
3	0x3bc1d911	0.005915769
4	0xbdb47fd9	-0.088134475
5	0xbe4e303e	-0.2013559
6	0x3d2478b1	0.040154163
7	0x3d8edd47	0.06975799
8	0xbd5ea653	-0.054357838
9	0x3c1ccca9	0.009570279
10	0x3df49a15	0.11943451
11	0x3e27a65c	0.16372055
12	0x3e894ff4	0.26818812
13	0xc012fd3c	-2.2967062
14	0xbe42df49	-0.19030489
15	0x3e557b5c	0.20847839
16	0x3e2adcb0	0.16685748
17	0x3c57274d	0.013131929
18	0xbef5a4da	-0.47977334
19	0xbf7efd53	-0.9960529
20	0xbe625f90	-0.22106767
21	0xbf56a75c	-0.8384912
22	0xbdf83620	-0.121196985
23	0x3e08e417	0.1336826
24	0xbe743af0	-0.23850608
25	0xbe23e4b1	-0.16005208
26	0xbc9eb5bb	-0.019373765
27	0xc056ac47	-3.354265
28	0x3e92297a	0.2854727
29	0xbf695757	-0.91148895
30	0x3e259db1	0.16173436
31	0x3e55111b	0.20807306
32	0xbf618ff6	-0.8811029
33	0xbe5646a9	-0.20925392
34	0xbd3e7016	-0.046493612
35	0x3e42e197	0.19031368
36	0x3e73e1fc	0.23816675
37	0x3a9e0e2c	0.0012058667
38	0xbfbc925f	-1.4732169
39	0xbe9de158	-0.30835986
40	0x3ef16d8a	0.47153884
41	0x3c8aeb6b	0.01695796
42	0xbe8b3528	-0.27188993
43	0xbeb69997	-0.35664055
44	0x3e15483f	0.14578341
45	0xc04f72df	-3.2413862
46	0xbfc73807	-1.5563973
47	0xbddf63ea	-0.10907729
48	0x3f37b3b9	0.7175861
49	0x3dbb7fd1	0.091552384
50	0x3e97eb53	0.29671726
51	0x3e17dd24	0.14830452
52	0xbe46b77f	-0.19405936
53	0xbe11a1bb	-0.14221852
54	0x3e9e99f9	0.30976847
55	0x3e5926a9	0.21206154
56	0xbcf300f7	-0.029663546
57	0x3daf6990	0.08565056
58	0x3ec14ce4	0.37753975
59	0xbc7ba015	-0.015357991
60	0x3d4ff636	0.050771914
61	0xbe31a811	-0.17349268
62	0xbf093ae2	-0.53605473
63	0xbdaa4b37	-0.08315127
64	0xbfa2b3a5	-1.2711073
65	0xbd8aae57	-0.06771534
66	0xbd19e91f	-0.037575837
67	0xbdd85439	-0.10562939
68	0xbe79dbe2	-0.24400285
69	0xbdcd9394	-0.10037914
70	0x3dfa9286	0.122349784
71	0x3ded0d80	0.115748405
72	0xbe32d221	-0.1746297
73	0x3ee31ea5	0.44359317
74	0xbf4a523b	-0.79031724
75	0xbdc8d2c2	-0.09805824
76	0xc01a4eb4	-2.4110537
77	0x3ec01a5d	0.37520114
78	0x3e0ebd8a	0.13939491
79	0xbf056ee7	-0.5212235
80	0x3f055eae	0.52097595
81	0xbdb94d16	-0.09047906
82	0x3da50304	0.08057216
83	0xbf86d05e	-1.0532339
84	0xbfdbf261	-1.7183343
85	0x3b5c536f	0.0033619066
86	0xbff7c7f6	-1.9357898
87	0x3c5897f2	0.01321982
88	0x3e305ffe	0.17224118
89	0x3dbcf0c2	0.092256084
90	0x3d2e571d	0.042563546
91	0xbf6c5158	-0.9231162
92	0xbf750c05	-0.95721465
93	0xbd9c7927	-0.076402955
94	0x3e9c9614	0.3058325
95	0xbdc6c9ea	-0.09706481
96	0xbde31dbd	-0.110896565
97	0x3dcd4912	0.10023703
98	0xbe0ad896	-0.13559183
99	0x3da41920	0.08012605
100	0xbd01531c	-0.0315734
101	0xbe6e98c7	-0.23300467
102	0x3e4ee57f	0.20204733
103	0xc03ce1ed	-2.9512894
104	0xbd596bf2	-0.05308146
105	0xc078ae18	-3.8856258
106	0x3e98a8fa	0.2981642
107	0x3a49830d	0.00076870696
108	0x3df06983	0.11738875
109	0x3da89194	0.08230892
110	0xbe586f6e	-0.21136257
111	0xbd2adfd4	-0.041717365
112	0x3e3bf53e	0.18355271
113	0xc02b0a35	-2.672498
114	0x3d44881f	0.047981378
115	0x3d3d48c9	0.04621199
116	0x3e861ec3	0.26195344
117	0xbe046ffd	-0.12933345
118	0xbe7bee13	-0.24602537
119	0x3ea856d7	0.32878754
120	0xbd58b8fb	-0.052910786
121	0xbcb6bfe8	-0.022308305
122	0xbdc6303c	-0.09677169
123	0xbdc86093	-0.09784045
124	0xbd8c6fdd	-0.06857274
125	0xbfc5de95	-1.5458552
126	0xbf27ebb9	-0.6559406
127	0xbde06348	-0.109564364
128	0x3e796fdb	0.24359076
129	0xbf8e3e93	-1.1112846
130	0xbd16663e	-0.0367186
131	0xbc890ac5	-0.016728768
132	0xbeab79fe	-0.3349151
133	0xbd279125	-0.040909905
134	0xbebdf50d	-0.3710102
135	0xc0dc4e06	-6.8845243
136	0x3e175899	0.14779891
137	0x3d5592aa	0.052141823
138	0x3b92b027	0.0044765654
139	0x3d134261	0.035951976
140	0xbd71acd8	-0.059002727
141	0x3dcf2037	0.10113566
142	0x3e13ede4	0.14446217
143	0x3da3ffca	0.08007772
144	0x3d02c825	0.031929154
145	0xbd4baa93	-0.04972322
146	0xbfc46604	-1.5343633
147	0x3d9fe426	0.07807188
148	0xbfc66ba1	-1.5501596
149	0x3df455f5	0.119304575
150	0x3e80dc33	0.25168
151	0x3d2b470d	0.041815806
152	0xbffc7816	-1.9724147
153	0x3c14040e	0.00903417
154	0xbe762940	-0.24039173
155	0xbe89e5ad	-0.2693304
156	0xbbcade96	-0.006191085
157	0xbd298848	-0.041389734
158	0xbd10e18b	-0.035371345
159	0xbd887ffa	-0.066650346
160	0xbd088c9d	-0.033337224
161	0xbf07c115	-0.53028995
162	0x3d1ce26c	0.03830187
163	0x3d840beb	0.06447586
164	0x3d505641	0.050863508
165	0xbcf9012e	-0.03039607
166	0x3e62a97d	0.22134967
167	0xbd99d78b	-0.07511815
168	0xbf8deda2	-1.1088145
169	0x3edbfe45	0.4296743
170	0x3cd8c97a	0.026463259
171	0xbf5d9140	-0.8654976
172	0xc03f6c0b	-2.9909694
173	0xbe0119b4	-0.12607461
174	0xbe7b502d	-0.24542303
175	0xbf1a96bd	-0.6038626
176	0xbea0eb5b	-0.31429562
177	0xbdf3bf15	-0.119016804
178	0x3e28f559	0.16499843
179	0x3e245846	0.16049299
180	0xbdc6f381	-0.097144134
181	0x3db864c8	0.090035975
182	0x3d38df1e	0.045134656
183	0xbda5ab81	-0.080893524
184	0xbe141d74	-0.1446436
185	0x3c8a4769	0.016879754
186	0xbe4e0ad1	-0.20121314
187	0x3e748c91	0.23881747
188	0xbbda270e	-0.0066574877
189	0x3f184b5f	0.5949001
190	0xbebceb9e	-0.36898512
191	0x3f298d45	0.66231185
192	0xbe53975d	-0.2066321
193	0xbd1b9195	-0.037980635
194	0xbd9560f3	-0.07293882
195	0xbc38cd34	-0.011279393
196	0x3e468368	0.19386065
197	0x3b5744ac	0.0032847328
198	0xbd157509	-0.036488567
199	0x3cdfa304	0.027299412
200	0xc0046afc	-2.0690298
201	0x3de2a7da	0.110671714
202	0xbd9648ca	-0.07338102
203	0xbe651056	-0.22369513
204	0xbe030af6	-0.1279715
205	0xbc9bdfae	-0.019027557
206	0x3ed41fe7	0.4143059
207	0x3cafcb81	0.021459343
208	0xbf47cc87	-0.7804646
209	0x3d812df3	0.06307592
210	0x3cfa6625	0.030566284
211	0x3c063b31	0.008192823
212	0xbe72df4c	-0.23717993
213	0xbd1834c5	-0.0371597
214	0x3dd25616	0.10270326
215	0x3c90a55a	0.01765697
216	0xbe8c2ead	-0.2737936
217	0xbf00cfd2	-0.5031711
218	0xbe7f59c1	-0.24936582
219	0x3eb36b41	0.35042766
220	0xbfda6191	-1.7061025
221	0xbd114237	-0.035463538
222	0xbdf15e27	-0.11785536
223	0xbde8970a	-0.113569334
224	0x3db10db6	0.08645193
225	0xbc812a04	-0.015767105
226	0xbcfcc54a	-0.030855794
227	0x3e0dedf4	0.13860303
228	0x3f7ab66c	0.97934604
229	0x3f979f62	1.1845515
230	0x3df85782	0.12126066
231	0xbe134223	-0.14380698
232	0x3d9856af	0.074384086
233	0xbf29cfcf	-0.66332716
234	0x3eee4337	0.46535656
235	0xbe718b72	-0.2358835
236	0x3c875c11	0.016523393
237	0x3d871393	0.0659553
238	0xbc3b6280	-0.011437058
239	0xbedfca2a	-0.43708926
240	0xc016d8df	-2.3569868
241	0x3e20d993	0.15707998
242	0xbf0f85af	-0.5606336
243	0xbf0e282a	-0.55530035
244	0xbfcb8f56	-1.5903118
245	0xbf1ceb93	-0.6129696
246	0xbbd2a8f4	-0.006428832
247	0x3d00e6f9	0.031470273
248	0x3d957a09	0.07298667
249	0x3e11892d	0.14212485
250	0xbf27e63f	-0.655857
251	0xbe0da0e8	-0.13830912
252	0xbe753599	-0.23946227
253	0x3d1f60da	0.038910724
254	0x3ea453ef	0.32095286
255	0xbe0679ee	-0.1313245

actor.3.bias f4 [256]
0	0x3f0fdd4c	0.5619705
1	0x3f282c91	0.65693
2	0xbf2833dc	-0.6570413
3	0x3e34b7bd	0.17648216
4	0xbce58e42	-0.028021935
5	0xbe840da5	-0.2579166
6	0xbe0ec913	-0.13943891
7	0xbdff0767	-0.12452584
8	0xbd9ae268	-0.07562715
9	0xbc4cb39f	-0.012493997
10	0x3e02cf52	0.12774399
11	0x3e37d8c7	0.17953788
12	0x3ee64ad6	0.4497897
13	0x3e4b37de	0.1984553
14	0x3eb7b89f	0.35883042
15	0x3e1ec2ca	0.15503994
16	0x3d346251	0.044039074
17	0xbd7bafec	-0.06144707
18	0xbd6cb990	-0.057794154
19	0x3e4c9c55	0.19981511
20	0x3ed0270b	0.40654787
21	0x3f2f0165	0.683615
22	0x3ed4f75c	0.4159497
23	0x3f0dc802	0.5538331
24	0x3f15bcc6	0.5849117
25	0x3e17c697	0.1482185
26	0x3c812834	0.01576624
27	0xbb925e70	-0.0044668242
28	0x3e0848f6	0.13309082
29	0x3db84185	0.08996872
30	0x3e5efab1	0.21775319
31	0x3eee4302	0.46535498
32	0x3eac5a65	0.33662716
33	0x3ed18e93	0.40929088
34	0x3efe1d87	0.49631903
35	0x3ecc35d9	0.39884833
36	0x3f389b58	0.72112036
37	0x3e90e663	0.2830077
38	0xbe7af67a	-0.24508086
39	0x3e8b7584	0.27238095
40	0x3ec5df94	0.3864714
41	0xbb5714b7	-0.0032818743
42	0x3e52ef2d	0.20599051
43	0x3efa798c	0.48920858
44	0xbc772b27	-0.015085972
45	0x3da29b2f	0.07939755
46	0x3d8d7520	0.069071054
47	0xbe84b4ac	-0.25919092
48	0x3f08ad50	0.53389454
49	0x3e9c26b9	0.30498293
50	0xbd6f0cdd	-0.058361877
51	0xbd9b087f	-0.0756998
52	0x3debde67	0.11517029
53	0x3e36e82f	0.17862009
54	0x3dc1ccdb	0.09462901
55	0x3d6a3fda	0.0571898
56	0x3e92c03c	0.28662288
57	0xbd15ed72	-0.0366034
58	0x3f165d45	0.5873607
59	0x3eeb3656	0.45939893
60	0x3d800125	0.06250218
61	0x3f183be1	0.5946637
62	0x3dc00831	0.093765624
63	0x3e02a59f	0.12758492
64	0xbe4fc221	-0.20288898
65	0x3d94e68a	0.07270534
66	0x3e72348d	0.23652859
67	0x3e085521	0.13313724
68	0x3e818102	0.25293738
69	0x3eb1a20f	0.34693953
70	0x3e22eade	0.15909907
71	0x3ee09a83	0.43867883
72	0x3e3b1464	0.18269497
73	0x3c3a51e5	0.011372064
74	0x3be13f6d	0.006874016
75	0x3e45991c	0.19296688
76	0xbdb9fb38	-0.09081119
77	0xbede49da	-0.4341572
78	0x3e8fbe32	0.28074795
79	0xbe711694	-0.23543769
80	0x3ef89835	0.48553625
81	0x3d1491e1	0.036271933
82	0x3d8cfead	0.06884513
83	0xbe384e13	-0.17998533
84	0x3df00def	0.117214076
85	0xbd7a84bc	-0.06116174
86	0x3db58f22	0.08865191
87	0x3edbf3ec	0.42959535
88	0xbe02824a	-0.12745014
89	0x3ecba38e	0.3977322
90	0x3ed1e268	0.40993047
91	0x3ea857ce	0.3287949
92	0x3eae1319	0.33998945
93	0x3eca6708	0.39531732
94	0xbebd9044	-0.37024128
95	0x3c1cf1f7	0.009579173
96	0x3dd72164	0.10504416
97	0x3e9d93d9	0.3077686
98	0x3e4abaa5	0.19797762
99	0x3efb67bd	0.49102584
100	0x3e8bb9fa	0.27290326
101	0x3e9dc367	0.30813143
102	0xbe4aabd1	-0.19792105
103	0xbef1def7	-0.4724042
104	0x3eb7d9b7	0.3590829
105	0x3dcd6fac	0.10031065
106	0xbe2acfb5	-0.16680796
107	0x3f278086	0.65430486
108	0x3e9e8834	0.3096329
109	0x3f0c659f	0.5484256
110	0x3e559a5b	0.20859663
111	0xbd938ec9	-0.072049685
112	0x3e3e03cd	0.18556137
113	0x3e3de192	0.1854308
114	0xbecdbdd0	-0.40183878
115	0xbc8fcf76	-0.01755498
116	0x3e71f4a6	0.23628482
117	0xbd4989b8	-0.049203604
118	0x3e3ffadf	0.18748043
119	0x3f1e8a6b	0.6192996
120	0x3ecd33ab	0.40078482
121	0xbd9482d4	-0.07251516
122	0x3d8da3c3	0.06916001
123	0x3de57d8b	0.11205586
124	0x3e1ffc5d	0.15623613
125	0x3ea01a47	0.31270048
126	0x3e50af6b	0.20379417
127	0x3e111efe	0.14171979
128	0xbe2014a8	-0.1563288
129	0xbe434cea	-0.19072309
130	0x3ef00b17	0.4688346
131	0x3e0b9749	0.1363193
132	0x3eb51403	0.3536683
133	0x3e053f18	0.1301235
134	0x3e540295	0.2070411
135	0x3f65ce9d	0.8976839
136	0xbea9db43	-0.33175096
137	0x3eb053a0	0.344388
138	0x3f13c93f	0.5772895
139	0xbd64e5dc	-0.055883273
140	0x3e19aa59	0.15006389
141	0x3ee1c825	0.4409801
142	0x3e1edc14	0.1551364
143	0xbcd4fab6	-0.025998455
144	0x3f0ac957	0.5421347
145	0xbe42c9fa	-0.1902236
146	0x3f2b86b8	0.6700244
147	0xbdbc888d	-0.092057325
148	0x3ee8dc26	0.4548046
149	0xbe12100e	-0.14263937
150	0x3f289a05	0.65860015
151	0x3ea1c94a	0.31598884
152	0xbde5c57d	-0.112193085
153	0xbea3c287	-0.3198435
154	0x3d843640	0.0645566
155	0x3e868d4b	0.26279673
156	0x3ef39f3b	0.4758242
157	0xbe29db84	-0.16587645
158	0xbee4ca74	-0.4468571
159	0x3ecb2627	0.39677545
160	0x3eed4469	0.46341255
161	0x3d18fd5c	0.037350997
162	0x3e90b067	0.28259584
163	0x3e56279d	0.20913549
164	0xbe467266	-0.19379577
165	0x3eac5e43	0.33665666
166	0x3c6aa438	0.014321379
167	0xbe106607	-0.1410142
168	0x3dd579d2	0.10423626
169	0x3e1f7540	0.15572071
170	0x3e058a96	0.13041148
171	0xbd61b9c1	-0.05510879
172	0x3f08fe3d	0.53512937
173	0x3eda3b64	0.42623436
174	0x3e327967	0.17429124
175	0x3e554ed0	0.20830846
176	0xbc95fa46	-0.018307816
177	0x3f679c98	0.9047332
178	0xbe8e2ffd	-0.27770987
179	0x3c8cc603	0.017184263
180	0x3eb81b7d	0.35958472
181	0xbddf6e5e	-0.10909723
182	0x3e47e372	0.19520357
183	0x3e89b0d9	0.26892737
184	0x3f32e891	0.6988612
185	0xbd8558cb	-0.065110765
186	0x3f21f463	0.6326353
187	0x3ec47d30	0.3837676
188	0x3ecd1035	0.40051427
189	0x3ea74a32	0.32673794
190	0x3e4050df	0.1878085
191	0x3d82921d	0.06375525
192	0x3ef951f7	0.48695347
193	0x3e5f17e2	0.21786454
194	0xbcc171c9	-0.023613827
195	0xbe975eb2	-0.29564434
196	0x3c7eff1c	0.0155637525
197	0xbd1b1289	-0.037859473
198	0xbe5e650a	-0.21718231
199	0x3e5caea1	0.2155099
200	0x3eccf595	0.40031114
201	0x3d6beb0f	0.057597216
202	0xbecb904d	-0.3975853
203	0x3e09f173	0.13471012
204	0x3f0d68f7	0.5523829
205	0x3f18ddcb	0.5971343
206	0x3e98e62a	0.298631
207	0x3f0ec102	0.55763257
208	0x3e214da2	0.15752271
209	0x3ec5a276	0.3860051
210	0x3e1b0e27	0.15142117
211	0xbe7b06c9	-0.24514307
212	0xbe01fa16	-0.12693056
213	0xbdd52f83	-0.10409453
214	0xbe0e4d04	-0.13896567
215	0x3e421202	0.18952182
216	0xbf6b3e7a	-0.91892207
217	0x3edf798e	0.43647426
218	0x3f70405d	0.9384821
219	0x3efc8159	0.49317434
220	0xbd419f57	-0.0472711
221	0x3d64920f	0.055803355
222	0x3e91c7d6	0.28472775
223	0xbe61e519	-0.2206005
224	0x3b39c733	0.0028347492
225	0x3edea701	0.4348679
226	0xbc721e80	-0.01477778
227	0xbea6c907	-0.32575247
228	0x3e3110da	0.17291585
229	0x3c10e755	0.008844216
230	0x3ec1a174	0.3781849
231	0x3e1a2f70	0.15057158
232	0xbf06bdbf	-0.5263328
233	0x3ebbf4de	0.36710256
234	0x3ea39a42	0.31953627
235	0x3ed8b7db	0.4232777
236	0x3d463c4b	0.048397344
237	0x3e5472c4	0.20746905
238	0x3ee36ddb	0.4441975
239	0x3ee6099e	0.44929212
240	0x3f082fd0	0.53197956
241	0x3d976dcc	0.07393989
242	0x3ec515bc	0.38493145
243	0xbd9094fa	-0.07059665
244	0x3e5ae5a9	0.21376671
245	0x3d0e06c5	0.034674425
246	0x3e7b7c08	0.24559033
247	0x3e0d4208	0.1379472
248	0x3dee40e1	0.116334684
249	0x3e5b3364	0.21406323
250	0x3eda57df	0.42645165
251	0x3dca08ed	0.09864984
252	0x3eb511e0	0.353652
253	0x3f172312	0.5903789
254	0xbd49b7ba	-0.04924748
255	0x3e9120da	0.28345376

actor.6.weight f4 [3, 256]
0	0x3ce11709	0.027476804
1	0xbcbfdf7f	-0.023422
2	0x3fc34cf8	1.5257864
3	0xbbcb9e79	-0.00621396
4	0x3e104268	0.14087832
5	0x3b3ef271	0.0029136206
6	0xb90fa334	-0.0001369834
7	0x3c00d016	0.007862112
8	0xbcb364fa	-0.021898735
9	0xbd0d734c	-0.034533784
10	0xbd238427	-0.039920952
11	0x3a015028	0.00049329037
12	0xbdb1667e	-0.08662127
13	0xbf1913e9	-0.59796005
14	0xbdf201e4	-0.11816767
15	0x3ca0dd50	0.01963678
16	0x3cde0b5c	0.027105026
17	0x3c48bab0	0.012251541
18	0x3bcf32f7	0.006323214
19	0xbd88343b	-0.06650587
20	0xbd9ac227	-0.07556563
21	0x3db5c6db	0.08875819
22	0x3dd937d3	0.10606351
23	0xbd8eee00	-0.06978989
24	0x3dd7de09	0.10540397
25	0xbcc3c54a	-0.023897786
26	0xbb8d1af1	-0.00430619
27	0x3d4ab869	0.049492273
28	0x3d9341db	0.07190295
29	0x3b4655b5	0.0030263488
30	0xb7bd57b8	-2.2571403e-05
31	0xbe0b8836	-0.13626179
32	0xbcc4d2fd	-0.024026388
33	0xbe03d184	-0.12872893
34	0x3d79175e	0.0608133
35	0x3d0f6328	0.035006672
36	0x3cfefc04	0.03112603
37	0xbda74eee	-0.081693515
38	0xbe4a5005	-0.19757088
39	0x3ae300b8	0.001731894
40	0x3bbbd4b7	0.0057321447
41	0xbf6136ba	-0.8797413
42	0x3b51c8db	0.0032010588
43	0xbd8fd151	-0.07022346
44	0x3b5e22bc	0.0033895215
45	0xbe394099	-0.18091048
46	0xbde4d4ff	-0.11173438
47	0x3c9e1180	0.019295454
48	0xbbf4048f	-0.0074468325
49	0x3bbd1fde	0.005771621
50	0xbb66dfc2	-0.0035228585
51	0x3c3a3a25	0.011366402
52	0xbc5028d4	-0.012705047
53	0xbb30b694	-0.0026964294
54	0x3bc0cc15	0.0058837035
55	0x3c7ff7ec	0.015623074
56	0xbd24d194	-0.04023893
57	0xbd811431	-0.06302679
58	0xbd8982c5	-0.067143954
59	0xbd00c092	-0.03143365
60	0xbe9c4d26	-0.3052761
61	0x3bd362a9	0.00645097
62	0xbcef7858	-0.029232189
63	0x3e548416	0.20753512
64	0x3e8cc007	0.27490255
65	0xbdcfaf7e	-0.10140894
66	0xbcd85d6e	-0.026411738
67	0x3d8c47b1	0.068496116
68	0x3ad69b1c	0.001637313
69	0xbca649e3	-0.020298904
70	0xbcbd3c30	-0.023099989
71	0x3ba432cb	0.005010938
72	0x3e78235b	0.24232237
73	0x3d7b9ae2	0.061427005
74	0xbc994567	-0.018709851
75	0xbe3b66be	-0.18300912
76	0x3e1e8f87	0.15484439
77	0x3cf5032f	0.029908745
78	0xbc068024	-0.008209262
79	0x3de35b14	0.11101356
80	0xbd95fd13	-0.07323661
81	0x3bcc6b72	0.0062383944
82	0x3b2d80bf	0.0026474444
83	0x3d7ab78a	0.061210193
84	0xbbfb6259	-0.007671636
85	0xbd38b3e6	-0.04509344
86	0x3df3f4c0	0.11911917
87	0x3b210c12	0.0024573845
88	0x3c89622f	0.01677045
89	0x3c313856	0.010816654
90	0xbd0c1484	-0.034199253
91	0xbc172653	-0.009225446
92	0x3da89e20	0.08233285
93	0xbdb28a36	-0.08717768
94	0x3c2bc361	0.010483594
95	0x3b901e99	0.004398179
96	0x3e628226	0.2211996
97	0xbb7362d4	-0.0037137764
98	0xb92089b7	-0.00015310092
99	0xbb1323ec	-0.002245183
100	0xbcae7e1a	-0.021300364
101	0xbbc6efff	-0.00607109
102	0x3c31be76	0.010848632
103	0xbb1a8fb9	-0.00235842
104	0x3af4feb4	0.001869163
105	0xbcbc0a72	-0.0229542
106	0xbc31f5c1	-0.010861815
107	0x3d8a28ab	0.06746038
108	0xbf230b85	-0.6368945
109	0xbb657e55	-0.0035017927
110	0x3e9174f0	0.2840953
111	0xbc13e07e	-0.009025691
112	0xbc30a5a5	-0.01078168
113	0x3c38ade6	0.011271929
114	0x3cb8c37a	0.022554148
115	0x3d3cd837	0.046104636
116	0xbba86977	-0.0051395255
117	0x3dd05529	0.10172493
118	0x3d783e17	0.06060609
119	0x3d098b16	0.03357991
120	0xbc19f87d	-0.009397623
121	0xbba4a0d0	-0.005024053
122	0xbdcf69e3	-0.10127618
123	0x3cb0aadb	0.021565845
124	0x3d5c241a	0.053745367
125	0x3cfc0f01	0.030768873
126	0xbbedc23d	-0.007255821
127	0x3cbdc128	0.023163393
128	0x3d9d354d	0.07676182
129	0xbd806368	-0.0626896
130	0x3da0eb2f	0.07857358
131	0xbb65ae46	-0.0035046502
132	0x3bef1e69	0.0072973263
133	0xbc0ebe59	-0.008712375
134	0x3ce0dc6a	0.027448852
135	0x39fe7671	0.000485349
136	0xbb690f1c	-0.0035561984
137	0x3c2615bb	0.010137017
138	0xbc9b1370	-0.018930167
139	0x3bbba2c6	0.005726191
140	0xbf49bf17	-0.78807205
141	0xbbcca20d	-0.006244904
142	0x3bf32f5e	0.007421418
143	0x3da7b4cd	0.08188782
144	0x3cf2343b	0.029565921
145	0x3cbcbbd0	0.023038775
146	0xbdac2045	-0.084045924
147	0x3e8ba0cc	0.27271116
148	0x3d0d5eb3	0.03451414
149	0x3be3e222	0.0069544474
150	0x3c9e322a	0.01931103
151	0x3e088858	0.13333261
152	0x3e38bd25	0.18040903
153	0x3ca668d7	0.020313663
154	0x3d85045a	0.064949706
155	0x3cef300a	0.029197711
156	0x3bf155f9	0.007364985
157	0xbb8ee187	-0.004360381
158	0x3d1d13e2	0.03834904
159	0x3c93f905	0.018063078
160	0x3bf94e10	0.0076081827
161	0x3c82c2e5	0.015962074
162	0x3c3cffce	0.011535598
163	0xbd655c31	-0.055996124
164	0x3bb2a55f	0.0054518427
165	0xb9db137c	-0.00041785452
166	0xbdc010a9	-0.09378178
167	0xc013717c	-2.3038015
168	0x3e65b5ab	0.22432582
169	0x3cfc1723	0.030772751
170	0x3df7e9d4	0.12105146
171	0xbe02d43e	-0.12776276
172	0xbe6f5116	-0.23370776
173	0xbf4c54e6	-0.79817045
174	0x3c971b14	0.018445529
175	0xbeb6dc77	-0.35715076
176	0x39002b0b	0.00012223066
177	0x3d80eecc	0.06295547
178	0x3c2719fc	0.010199066
179	0xbd454250	-0.048158944
180	0xbddcb8b0	-0.10777414
181	0xbd9f236a	-0.077704266
182	0xbb08cf08	-0.0020875353
183	0xbdc86e20	-0.0978663
184	0x3acdc274	0.001569821
185	0x3c81002d	0.015747154
186	0xbd61783a	-0.055046298
187	0xbdac0446	-0.083992526
188	0x3c14d564	0.009084079
189	0x3b3b26eb	0.0028557132
190	0x3d14997a	0.03627918
191	0xbc9f94cd	-0.019480133
192	0x3b32ec11	0.002730135
193	0x3cbf8447	0.023378504
194	0xbed0232e	-0.4065184
195	0xbe801d08	-0.2502215
196	0x3d8f3459	0.069924064
197	0xbe0ffc10	-0.14060998
198	0x3d5e5e59	0.054289196
199	0x3d296199	0.041352842
200	0xbf0051d5	-0.50124866
201	0x3d97cb57	0.07411831
202	0x3e40c1fc	0.18823999
203	0x3d834d0e	0.064111814
204	0xbdafbf08	-0.08581358
205	0x3cd01e5d	0.025405103
206	0x3d9ee47d	0.077584244
207	0x3c10f393	0.008847135
208	0xbc9d87cf	-0.019229798
209	0xbcb4a8c4	-0.02205313
210	0xbe764d2a	-0.24052873
211	0x3a947cbc	0.0011328678
212	0xbbac9153	-0.0052663474
213	0xbd578693	-0.052618574
214	0xbb12a70a	-0.0022377395
215	0xba22462d	-0.00061902666
216	0x4014a3a2	2.3224874
217	0x3b16fdd4	0.0023039477
218	0xbc99272a	-0.018695433
219	0x39702069	0.00022900257
220	0xbb8da72a	-0.004322906
221	0x3b0158c2	0.0019736742
222	0x3bdc7a75	0.006728465
223	0x3ed3d5a4	0.41373932
224	0x3bd63bd9	0.006537896
225	0xba7d988e	-0.00096739165
226	0xbc92975d	-0.017894441
227	0xbf4b4ea5	-0.7941688
228	0xbd83feed	-0.064451076
229	0x3d076cd8	0.033062786
230	0xbe28f07f	-0.16497992
231	0x3b5159a8	0.0031944308
232	0x3da0e1e0	0.07855582
233	0x3db0c467	0.08631211
234	0x3b6acc02	0.0035827165
235	0xbbbc3db8	-0.005744662
236	0x3d6d1c7a	0.057888485
237	0x3b642f04	0.0034818063
238	0x3d0df4eb	0.0346574
239	0xbdea18ad	-0.11430488
240	0xbe64e53f	-0.22353075
241	0x3ed32a7e	0.41243356
242	0x3d3caaf3	0.046061467
243	0x3d83089a	0.06398125
244	0x3cf41b10	0.02979806
245	0x3b22256e	0.0024741548
246	0xbbeae637	-0.007168557
247	0xbd8d2f71	-0.06893814
248	0x3da32120	0.079653025
249	0xbe131f48	-0.14367402
250	0xbe07be4c	-0.13256186
251	0xbdbf2a04	-0.09334186
252	0x3cfb6ea2	0.030692402
253	0xbcabd01c	-0.020973258
254	0x3dbdab31	0.09261168
255	0x3c090cd2	0.008364873

actor.6.bias f4 [3]
0	0xbe2230c7	-0.1583892
1	0x3de6c902	0.11268808
2	0x3d8213ea	0.063514546
