online_weights/spot_hopper_medium/critic_target_s1000000.pth (torch, 563411 bytes, 10 tensors)

q1_.0.weight f4 [256, 14]
00000000: f1c9 57bd 4204 523c efb7 843b 42f9 603f
00000010: b172 14bf 5910 823f 4705 32bf 45a4 773f
00000020: d538 03c0 4086 69bf 85c2 a8bf 15a6 4abe
00000030: 3be6 163e 2504 2d3d 1c9e 2c40 3bc1 b6bf
00000040: 1cb5 ff3f 38a3 22c0 7e23 cdbf cfaf 91bf
00000050: dc93 87bf 4ddb a73f fc10 863f 1d31 0340
00000060: 249b 1fbf 01da c23f 42a1 0c3f 661f f5be
00000070: c9e4 a73f d7f1 943f f458 0840 8e8b 9ebe
00000080: ffd7 0240 6375 adbf aedc 2e40 8ff5 a5be
00000090: 705e 84be 525a 0540 9773 a0bf f942 07bf
000000a0: 6389 cc3e c650 c4be 59e2 363f b0c8 a7bf
000000b0: 0e42 2ec0 ce71 4740 48b2 53c0 c328 9840
000000c0: f61f a0bf 4d17 0540 ccf7 eebf 2fae a3be
000000d0: 531b 3c3f ec10 ad3f cca9 9b3f 4cd0 3abe
000000e0: 0e13 413f 2472 c63e 9432 4bbe 18f2 8f3f
000000f0: 8e50 10c0 2079 99bf c4bc 1a40 f3aa 7a3e
00000100: 78bc 783f fa39 2f3f 4b83 8e3f 5120 4f3f
00000110: f0ef 5dbd 0da3 26be 588e 5fbe 317d 9fbe
00000120: c0e0 643f 497d 89bf e353 0f3f 78cf 94bf
00000130: 6487 75bf 67d1 9d3e 052a 003f dd7d 6abf
00000140: bd30 2e40 3f04 3a3f eaa2 54bf ce59 bb3e
00000150: b603 da3e 7abd 213f 1fd2 253f 2bf2 2a3f
00000160: b7e1 8a40 e6ac 02c0 a4a3 9b3f 2627 b13f
00000170: 4c2b 34bf 7c0d 84be 89a2 69c0 f891 523f
00000180: f731 64bc 2ff1 86bf 76b1 0cbf 71d0 49bf
00000190: 9c23 7040 f10e 3240 2ebb 923f 90c7 10c0
000001a0: eb25 2a3f 9c11 9bbe 8941 853f 82e4 c33f
000001b0: 72be 553f 91fe 303e e459 1cbe 51cd 3c3d
000001c0: 9a47 3b3d 1faa 873f d38e a2bf fce2 a7bf
000001d0: 560c 5abf baa0 2f3f 4f2f 6cbf 5b0a a53f
000001e0: ce35 53bf ea29 f9be 0fce 50be 4efb 5f3f
000001f0: f771 9f3e d0c3 25bd 62ae 3a3f 3549 febe
00000200: 237b 9d3f 2e3d 483f 6a30 4b3f 29e1 a8bf
00000210: cffe 6b3f 455f 59be 5486 483e 4b80 a33f
00000220: fe6d 9e3e ed9f dbbe f33d 813e 75cf 663e
00000230: 9cb0 11bf e345 60bf a6f5 123f 6e69 6340
00000240: d3e1 fdbd b366 063f c84e dfbf 3ea5 9abe
00000250: 265c a83e 02be 243f 0583 ac3f 04cf 7c3e
00000260: b74b 8c3f 31f0 2cbd 948a fbbf 42c8 893d
00000270: 8af8 1f40 d214 373f a970 36bf 9a85 8a3f
00000280: e456 97bf 97a6 41bf 5f54 873f 1608 393f
00000290: d961 213e b5c9 1abe 4a34 f83d 4741 fcbd
000002a0: b167 dfbf 47f2 36bf c1de 26be d638 12c0
000002b0: e77d 0140 7a75 6bbf a32d 3ac0 74c4 cdbe
000002c0: 1154 6bbf 9390 8d3f 9916 10bf ddda 8ebf
000002d0: 2073 e63e b63f 853e ed2e 1c40 cd8b eb3f
000002e0: b1f5 0640 760d 4740 fa93 4bbf a1c2 c83d
000002f0: b168 543f 3001 403e 2be8 1b3f 17ce f5be
00000300: 1e9b 34bf 9bcf 0b3f 1ad1 2cbd 2928 7fbe
00000310: 26fe ef3d 634b 46be 9aec 953f 7b9c 25bf
00000320: cbaf e83f a292 c2bf 9145 0d40 05b1 91be
00000330: e4b4 2640 ee7a bfbf ca2d 0440 09d4 403f
00000340: 04b4 c5be 52a3 4c3e e74e 53c0 e7cf e83f
00000350: 9ce5 133d db3a 47be d43e 6d3e 512d debf
00000360: a3ce 113c 98cb 8f3f 79f6 bdbc 6b1d b1be
00000370: 9a2e 7bbf 6a0b 883f 5fa5 e83d a6d3 cfbe
00000380: 3313 13c0 e95f 26c0 bcb3 9e3f 4e22 1ebf
00000390: de2e 7c3f 75c9 5abf 7c8a 5bc0 9e32 de3b
000003a0: 1790 eabf 2e5a 513e 532c f3bf 9caa fdbf
000003b0: f2a1 4cbf 34cd 98bf 42f8 c73f 42d4 f9bf
000003c0: c263 edbd 11ab 913f 7284 1bbf 01c2 703e
000003d0: 05ab 19c0 2ed5 b5bd 06ca 1c3f e408 c73f
000003e0: 3a57 0840 9ec1 babe bd65 8f3f 6762 2b3f
000003f0: 6f24 593f 8319 e8be 301c a2bf 19ef f43d
-0.05268282 0.012818398 0.004050247 0.8788034 -0.57987505 1.0161239 -0.695393 0.9673503
-2.0503438 -0.91220474 -1.3184363 -0.19789918 0.14736263 0.04224028 2.6971502 -1.4277719
1.9977145 -2.541212 -1.6026456 -1.1381778 -1.0591998 1.31138 1.0473933 2.0498726
-0.623461 1.522278 0.5493356 -0.47875518 1.3116695 1.1636304 2.1304293 -0.30965847
2.0444334 -1.3551449 2.7322192 -0.3241391 -0.258533 2.0836377 -1.2535275 -0.5283657
0.39948568 -0.38342875 0.7143913 -1.310812 -2.7227817 3.116321 -3.3077564 4.754976
-1.2509754 2.0795472 -1.8669372 -0.3196883 0.73479193 1.3520789 1.2161193 -0.18243521
0.754197 0.38758957 -0.19843513 1.1245756 -2.2549167 -1.199009 2.4177713 0.24479274
0.9716258 0.6844784 1.1133817 0.80908686 -0.0541839 -0.16273136 -0.21831644 -0.311502
0.8940544 -1.0741359 0.55987376 -1.1625814 -0.95909715 0.30823824 0.50064117 -0.915983
2.7217247 0.7266273 -0.8306109 0.36591953 0.42580956 0.63179743 0.64773744 0.6677577
4.340053 -2.041803 1.2159314 1.3840072 -0.70378566 -0.25791538 -3.6505454 0.8225398
-0.013927928 -1.0542353 -0.54958284 -0.7883368 3.7521734 2.782162 1.1463373 -2.2621803
0.6646411 -0.30286872 1.0410625 1.530411 0.8349372 0.1728461 -0.15268666 0.046094242
0.04572258 1.0598792 -1.2699836 -1.3116145 -0.85175073 0.68604624 -0.9225969 1.2893785
-0.82503974 -0.4866479 -0.20391105 0.87492836 0.31141636 -0.040469944 0.7292234 -0.49665228
1.2303203 0.7821835 0.7937075 -1.3193713 0.9218568 -0.21227749 0.19582492 1.2773527
0.30943292 -0.4289545 0.25242576 0.22540076 -0.5691011 -0.8760664 0.5740608 3.55331
-0.12396588 0.52500457 -1.7445917 -0.30204195 0.32882804 0.6435243 1.3477484 0.24688345
1.0960606 -0.042221252 -1.9651666 0.06727649 2.4995446 0.71516144 -0.71265656 1.0822022
-1.1823392 -0.7564482 1.0572623 0.72277963 0.15759982 -0.15116008 0.12119348 -0.12317138
-1.7453519 -0.71463436 -0.16295911 -2.284719 2.0233095 -0.9197613 -2.9090354 -0.40188944
-0.9192515 1.1059746 -0.5628448 -1.1160542 0.45009708 0.2602517 2.4403641 1.8402039
2.1087458 3.1101966 -0.7952267 0.098027475 0.82972246 0.18750453 0.60901135 -0.48008797
-0.7054919 0.54613656 -0.042191602 -0.24917664 0.11718397 -0.19364695 1.171283 -0.64691895
1.8178648 -1.5200999 2.207371 -0.28455368 2.6047907 -1.495939 2.0652947 0.7532354
-0.38613904 0.19984177 -3.3016908 1.8188447 0.036107644 -0.19456045 0.23168498 -1.735758
0.008899364 1.1234007 -0.023188816 -0.34592757 -0.98117983 1.0628483 0.11359667 -0.40591162
-2.2980468 -2.599604 1.23986 -0.61771095 0.98509014 -0.8546365 -3.4303274 0.0067809364
-1.8325223 0.20444557 -1.8997902 -1.9817691 -0.7993461 -1.1937623 1.5622637 -1.9517901
-0.11591293 1.138033 -0.6074897 0.23511507 -2.4010632 -0.088785514 0.61245763 1.5549588
2.130324 -0.36475843 1.1202923 0.66947025 0.8482122 -0.45331964 -1.2664852 0.11959667

q1_.0.bias f4 [256]
00000000: 0585 8f3f 51fd 3f40 e320 d83e 56e7 0a40
00000010: 651d 8c3f 602f 993d 9087 193f d710 3e3c
00000020: d105 0e40 35d8 0640 0a84 2f40 cc5b 1c40
00000030: 00c5 7e3f c4e5 b23f 056b 10c0 a82c 85bf
00000040: 00e3 b83f 6cc8 2b40 7850 3440 4b7d 0fbf
00000050: c943 943f 0343 7f3f 4673 bdbf 0728 1b3f
00000060: cc0b fcbe dc3b 0b40 d181 2140 b2b2 d0bd
00000070: 63f3 afbf 055e a7bf 1cc0 fabd 4c80 0640
00000080: 8cc4 0bc0 f0f3 98bf 98a6 f2bf 69d4 16bf
00000090: 60e0 c1bf ae45 74be c93d c1bf a69e cdbe
000000a0: 4cc8 b83f 5d8e f03e 60f2 4540 7ebd 3940
000000b0: e278 0a3f 0da8 38bf ae9b 3740 63a1 b43e
000000c0: 82ba b83f 0473 0e40 6586 31c0 9a70 9e3f
000000d0: 29f6 01c0 2577 74bf eef5 7a3f 958c ccbf
000000e0: fadc 0240 7086 28bf a759 07bf 0c7e 4b40
000000f0: 7bd1 c93f f89d 3840 7707 d4bd 89f3 bb3e
00000100: 60eb a63d a5dc 0140 4e34 1cc0 1b81 d6bf
00000110: 5ea9 26bf 2dc2 ff3f d11a 1540 e272 1fc0
00000120: 8b87 3140 8296 09bf dd70 933e 271a 2a3f
00000130: f5cc 0ec0 70aa 543f 06c1 febf e7b5 133f
00000140: 8af8 1940 f677 dbbf 2f5e 9d3f 8e16 0dbf
00000150: e6e3 163f 4780 833f 112e 5140 1a1b e4bf
00000160: 19fd b83f 2b29 813f 3ab7 8fbf dc2c bf3f
00000170: c024 f43e 1d19 8bbf fb29 4cbf d204 3a40
00000180: 0164 2c40 e4e0 ab3f 87a4 c73f 6197 8fbf
00000190: 8f3b 2c40 db01 9fbf a146 393f 24f8 31c0
000001a0: 97e1 dcbf 0269 183f e3ab dbbf 2614 7b3e
000001b0: b098 1540 d51b 0740 0303 91bf 5384 b8be
000001c0: e1eb 7e3f cdff 463f b919 e03f 7dfe 3b40
000001d0: 41f0 44c0 38a3 a5be b326 da3f b6de 523e
000001e0: 896f 1b3f 86a2 4ebf 8f0e a8bf a4ac 943f
000001f0: 90f4 f7bf a407 81bf f5a1 b1bf 7fe2 d1bf
00000200: 1761 8cbf 16b5 b83f a396 2c40 651a c73f
00000210: a514 cfbf acfc 90bf 982d 17c0 2961 1bc0
00000220: 53ae 0140 0aeb 9fbf 25b7 9d3f b705 97bd
00000230: 4920 acbf b985 a63f 7ba5 0cc0 2830 6840
00000240: a2aa 1340 8bca d53f 288b 8abe a67c bd3f
00000250: c049 873f 728c 22bf e198 a53e 5eba 1bbf
00000260: eca5 1740 01a5 0d40 52fd d2bf 3d68 8bbe
00000270: bf5b 0740 d706 9d3f ed75 8e3f 88dd 4140
00000280: 036e 83bf 19ed 93be aa67 09c0 e932 05bf
00000290: c9cd a63f 9fd8 da3e 50c9 e83c ae36 2b40
000002a0: 1c5a 06c0 6585 b33f 8cbf 0640 5eaa 423e
000002b0: 3072 93bf e078 babf 1e10 4540 03de 1f3f
000002c0: 3653 c9be c369 d83f 7b6e ae3e 2cb2 cf3f
000002d0: e067 0f40 1c01 95bf c897 a53f d712 a2be
000002e0: f64a de3e 8040 d9bd 7354 993f be66 60bf
000002f0: 557b 24c0 78c7 3540 b77b 433f 10be 483f
00000300: 9e25 81bf bfd9 a63f 9282 4cc0 0cc8 ba3f
00000310: 1f07 27c0 5f1a bc3e ddd8 3840 432f 42bf
00000320: 950b 7c3e 85d8 3640 9ceb 7d3f 320f 0d3f
00000330: bd08 873f 4b04 4b3f 1114 b63f 054e 0f40
00000340: 68c6 7a3f 97a7 c0bf d0b6 cf3f b078 74bf
00000350: 66b6 5bc0 1111 8b3f d801 933f 1509 97be
00000360: a375 33bf d6ea 0a3f 4ec4 613e 688e 2c40
00000370: ed16 1c40 2cf1 f83e e41d f5bf 8991 db3e
00000380: 8ea8 9d3e 8c3e b33f 8e20 a03f 0367 1abf
00000390: c68f 41bf 90e3 ccbf f975 eabf b5a2 5440
000003a0: eed0 cd3e b7dd 90c0 5fa1 873f fc4f cbbe
000003b0: 7057 a13c 1b23 a83f 0ffd 6440 444d 16c0
000003c0: 3ddc 0dc0 7009 dd3f d9ff a9bf 5598 c0bf
000003d0: 4a04 02bf 23a8 063f 49d2 8d3f fe1f 94bf
000003e0: ca3a 693e 864e 3ebe 5fdf 163f 3085 9bbf
000003f0: 24c3 913f c5a1 c9bf 7484 ab3f a235 0cc0
1.1212469 2.9998362 0.4221259 2.1703696 1.094647 0.07479739 0.59972477 0.011600695
2.219105 2.1069462 2.742434 2.4431028 0.9951935 1.3976369 -2.256532 -1.0404253
1.4444275 2.6841078 2.8174114 -0.56050557 1.1583186 0.99711627 -1.4800804 0.6060795
-0.4922775 2.1755285 2.5235484 -0.101903334 -1.3746151 -1.3075567 -0.12243673 2.1015806
-2.1838713 -1.1949444 -1.895709 -0.5891786 -1.5146599 -0.23854706 -1.509698 -0.40160102
1.4436126 0.46983615 3.0929184 2.9021907 0.540907 -0.72131425 2.868877 0.35279378
1.4431918 2.22577 -2.7738278 1.2378113 -2.0306494 -0.954943 0.9803151 -1.5980402
2.0447373 -0.65830135 -0.52871174 3.1795683 1.5767053 2.8846416 -0.10352986 0.3670924
0.08150363 2.029092 -2.4406924 -1.675815 -0.65102184 1.9981133 2.3297617 -2.491387
2.773898 -0.5374528 0.28797045 0.66446155 -2.2312596 0.83072567 -1.9902656 0.57699436
2.4057946 -1.7145984 1.2294368 -0.5511254 0.58941495 1.0273522 3.2684367 -1.7820771
1.4452239 1.0090688 -1.1227791 1.4935565 0.47684288 -1.0867039 -0.7975156 2.9065442
2.6936038 1.3428006 1.5597085 -1.1218072 2.6911352 -1.2422441 0.72373396 -2.7807703
-1.7256345 0.5953523 -1.7161831 0.24519405 2.3374443 2.1110737 -1.1329044 -0.36038455
0.9957867 0.7773407 1.750785 2.9374077 -3.077164 -0.3235109 1.704306 0.2059277
0.60717064 -0.8071674 -1.3129443 1.1615186 -1.937151 -1.0080457 -1.387755 -1.6397246
-1.096713 1.4430263 2.6966941 1.555493 -1.6178175 -1.1327109 -2.3621578 -2.4278052
2.026265 -1.2493603 1.2321516 -0.07374137 -1.3447353 1.3009559 -2.1976001 3.6279392
2.3072896 1.6702436 -0.27059293 1.4803665 1.0569382 -0.6349555 0.323432 -0.6083125
2.369502 2.213196 -1.6483557 -0.27227965 2.1149747 1.2267712 1.1129738 3.0291462
-1.0267948 -0.2889183 -2.1469522 -0.5203081 1.3031551 0.42743394 0.028416306 2.6752124
-2.0992498 1.4025084 2.105441 0.19010302 -1.1519222 -1.4568138 3.0791087 0.6244814
-0.39321297 1.6907276 0.34068665 1.6226249 2.240715 -1.1640964 1.2936945 -0.31655
0.43416566 -0.106080055 1.1978897 -0.8765677 -2.5700276 2.8402996 0.7636065 0.7841501
-1.0089605 1.3035201 -3.1954694 1.45923 -2.6098096 0.3673887 2.8882363 -0.75853366
0.24613793 2.8569653 0.99187636 0.5510131 1.0549542 0.79303426 1.4224874 2.239137
0.97958994 -1.5051144 1.6227665 -0.95496655 -3.4330077 1.0864583 1.1484938 -0.29499117
-0.70101374 0.5426458 0.2204754 2.6961918 2.4388993 0.486215 -1.9149747 0.42884472
0.3079266 1.4003463 1.2509935 -0.60313433 -0.75610006 -1.6006947 -1.8317252 3.3224308
0.40198463 -4.527065 1.0596122 -0.3970946 0.019695014 1.3135713 3.5779455 -2.348466
-2.2165673 1.7268505 -1.3281204 -1.5046488 -0.50787795 0.52600306 1.1079799 -1.1572263
0.22776332 -0.18584642 0.5893459 -1.2150021 1.1387677 -1.5752493 1.3399796 -2.1907735

q1_.2.weight f4 [256, 256]
00000000: c678 93bd 8459 7abc 51f7 48bd cf37 b83c
00000010: 7938 44bd 9413 083c e9ee 4fbd e9d9 46bd
00000020: 2d15 05bb f774 3c3d 4d5c 82bd b58c 9e3c
00000030: 2360 6fbd 08a8 3abc eead 10ba 0bac fc3b
00000040: ace1 7ebc 6210 5cbd cf6f 373d 9802 413b
00000050: d4c2 093d ad29 0cbd a463 fdbc d6f9 1dbd
00000060: 9d20 07bd e801 38bd 10f3 37bd 6675 92bd
00000070: b7ac 21bc 803c 38bb 8647 af3c e420 053b
00000080: 41b0 de3a 50c4 443d 0eb4 1cbc 7ee9 17bc
00000090: d79d 3d3c 1d07 85bd 348c 033d 5380 80bd
000000a0: d06a 3cbc 9f25 343d 05c0 1d3d 8ccd 853c
000000b0: a6c2 1bbd 9cb6 073d 6727 b83c a8d8 413d
000000c0: 59df c9bb f843 c03c 6e8c a03c 59fd 44bd
000000d0: e331 e5bc 60f3 cb3c bfd0 313d 87e9 2dbd
000000e0: 313f c9bc ea9a ddbc 102e c33c 9f66 25bd
000000f0: 830c f23c 78e9 4c3b b238 e13b ca24 53bd
00000100: debe 283d 1d32 82bd c268 6c3c b29f ed3b
00000110: fe47 9bbd f1e1 4abd 1490 863c d42f 7cbc
00000120: 3e7f 17bd b723 a3bc 6c26 7fbc f168 da3a
00000130: f90b c1bc 37d3 25bd 6649 aa3c 4d06 88bd
00000140: e3d9 e2bc 0f51 80bd fddb 133b beed a83c
00000150: 65ab 89bd 36db 13bd 9856 cc3c d4fd 7bbd
00000160: acc5 f2bc df95 333d ace2 023d c820 c33c
00000170: 4a6b dabc 79b4 c0bc bad2 6e3c 1967 c3bc
00000180: c739 2abd 52e7 6c3d f615 1ebd 7612 90bd
00000190: 4cf5 75bd 64a6 8e3c 58c5 c53c c296 dcbb
000001a0: 4d24 1c3d 46d1 97bd 9986 c4bb f631 11bd
000001b0: 0537 06bc b0db ca3c 8711 b83c 913c 4bbd
000001c0: 6e22 213d 1d9c 9a3c 6bb0 68bc b06e bfbc
000001d0: 0dcd 03bd 67fd 25bc dcb6 883c c2af 5cb8
000001e0: b5a7 8dbc 2518 143d d2a2 d4bc 3070 453c
000001f0: ad54 09bd 4e80 15bc 8ce5 813c 0123 4fbc
00000200: 6964 4bbd 4041 32bd 6d0e 03bc e97b 45bd
00000210: f320 66bd b319 fb3c c719 a7bc b749 a5bc
00000220: 7a11 d7bb 648f 7dbd 8256 55bd 656e 0fbd
00000230: 0811 b6ba 2465 033d fe11 243d 552b 03bd
00000240: b726 afbc cdca 933c 94ca f6bc b760 363d
00000250: 71a8 5e3c 4137 553c 66ba 13bd cf5b 323d
00000260: e69a 2b3d 711f 47bd b7c1 2abd a619 1abd
00000270: 2857 c83c 6c21 0438 0661 98bd a520 84bd
00000280: 1350 67bd a97e 503c 89bc da3b db13 6dbc
00000290: 42b3 51bd 631a ebbc 1aab 59bd 9052 bfbc
000002a0: f128 543b 4471 f5bc 9f7e 3a3d d60c 1fbc
000002b0: 6994 c3bc a6dc 1fbd dfbe 28bd 54ec 803c
000002c0: 4ea1 1cbd 90b0 c03c 9f4c 21bc 5ca7 7cbd
000002d0: e978 d23c 9434 76bd b6a8 aa3c 23b0 6abd
000002e0: 062f 18bd 356b 153d 17d0 25bd b302 eabc
000002f0: d8e1 babc aeed 15ba cfc1 3a3d 7f1e 24bd
00000300: 1e00 9bbd ed87 0ebd ac93 8b3c 1468 fcbc
00000310: 427b 6b3d 274d 00bd 0105 543d 60a2 cc3b
00000320: bee6 253c 4698 2d3d dab5 52bd e0c8 37bd
00000330: 2c59 023d a567 0dbd 48c5 32bd 6207 51bd
00000340: c7cc b73c c2a1 6f3b d2ee 58bd 9c77 053d
00000350: 7751 2bbd a835 3fbd 513b c6bb a7a1 2dbd
00000360: 008c ca3c f17d cabc 16cc 15bd 11d3 cdbc
00000370: 4f2c 3c3d 7235 54bd d36d fa3c 6f22 21bc
00000380: 8f84 bf3c 6939 cebb b4d3 0e3d cf74 323d
00000390: 8b45 723d 5348 7a3c 600e bbbc a567 0dbd
000003a0: 0fce 20bd 45cd 87bd de76 1bbd 03d0 60bd
000003b0: e5c2 1c3c a90d cebb ed07 1b3d 9d47 8dbd
000003c0: 3da2 0dbd fd2f 86bd 74f9 0f3c ff29 80bd
000003d0: 3d64 0fbd d135 49bd a289 e63c b9f5 4bbd
000003e0: b74f 24bd 9fc3 22bd deea 90bc 7dcb 1c3d
000003f0: 2a1c d6bc 8d0b 9d3c 8b84 f43c 15f9 81bc
-0.0720077 -0.015280131 -0.049063984 0.02248755 -0.04790542 0.008305449 -0.05076495 -0.04854766
-0.0020306811 0.046009984 -0.06365261 0.019354204 -0.058441292 -0.011392601 -0.00055190816 0.007710939
-0.015556734 -0.05372656 0.044784363 0.002945101 0.03363307 -0.034219433 -0.030931301 -0.03856834
-0.032990087 -0.044923693 -0.044909537 -0.07151298 -0.009867839 -0.0028112233 0.02139641 0.0020313794
0.0016989784 0.04803878 -0.009564413 -0.0092719775 0.0115732765 -0.064954974 0.03211613 -0.06274476
-0.011500075 0.04398119 0.038513202 0.016333364 -0.038027428 0.033133134 0.022479726 0.04732576
-0.0061606583 0.02346991 0.019598212 -0.048093174 -0.02797789 0.024896324 0.043411966 -0.042459037
-0.024566265 -0.027051408 0.023825675 -0.04038107 0.029546982 0.0031267088 0.0068732137 -0.051548757
0.04119765 -0.063572146 0.014429273 0.007251703 -0.07582091 -0.04953188 0.016426124 -0.0153922625
-0.036986582 -0.019914491 -0.015573125 0.0016663355 -0.02356528 -0.040484633 0.020786952 -0.06641827
-0.027691787 -0.06265461 0.0022561543 0.020621177 -0.06722144 -0.036097728 0.024943635 -0.061521366
-0.029635273 0.0438441 0.031954452 0.023819342 -0.026662488 -0.023523556 0.014576608 -0.023852872
-0.041559007 0.05783779 -0.038595162 -0.07034771 -0.060048386 0.017413326 0.024141952 -0.006731839
0.038120557 -0.074129626 -0.0059974906 -0.035448037 -0.008191829 0.024762958 0.022469295 -0.049618308
0.039339475 0.018873269 -0.014202218 -0.02336821 -0.032177974 -0.010131217 0.016688757 -5.2615775e-05
-0.017291883 0.03615584 -0.025956545 0.012050673 -0.03352802 -0.0091248285 0.015856527 -0.012642623
-0.049656305 -0.04351926 -0.007999045 -0.048213873 -0.056183767 0.030651903 -0.020398034 -0.020176752
-0.0065633627 -0.061904326 -0.052084453 -0.03501739 -0.0013890574 0.032078877 0.04005622 -0.032023747
-0.021380765 0.018041039 -0.030125894 0.04452583 0.013589964 0.013013662 -0.036066435 0.043544587
0.04189577 -0.04861397 -0.041688647 -0.037622117 0.024455622 3.150238e-05 -0.07440381 -0.06451539
-0.05647285 0.012725511 0.006675307 -0.014470066 -0.051196344 -0.028699106 -0.05314169 -0.023354799
0.0032373036 -0.029961236 0.04553091 -0.00970765 -0.023874478 -0.039028786 -0.041197654 0.01573769
-0.03823977 0.023521692 -0.009844928 -0.061683044 0.02569242 -0.060108736 0.0208324 -0.057296883
-0.03715422 0.036479194 -0.040481653 -0.02856574 -0.022812769 -0.0005719316 0.045594987 -0.040068146
-0.07568382 -0.034797598 0.017038189 -0.030811347 0.057490595 -0.03132358 0.051762585 0.0062449425
0.010125814 0.042381547 -0.05144296 -0.044869304 0.031823322 -0.03452267 -0.043645173 -0.05103243
0.022436513 0.003656492 -0.05296213 0.03258477 -0.041825738 -0.04668203 -0.0060495515 -0.04239049
0.02472496 -0.024718257 -0.036571585 -0.025125058 0.045940693 -0.051808782 0.030569946 -0.00983487
0.023378639 -0.006293465 0.034869865 0.04356843 0.059148353 0.0152760325 -0.022834003 -0.03452267
-0.039259013 -0.06630949 -0.037955157 -0.054885875 0.009567951 -0.0062882495 0.037849355 -0.06898425
-0.03457855 -0.06552122 0.008787502 -0.0625801 -0.035007704 -0.04912359 0.0281418 -0.049794886
-0.040115084 -0.03973734 -0.017690118 0.03828 -0.026136477 0.019170547 0.029848358 -0.015865842

q1_.2.bias f4 [256]
00000000: 069e 92bc 5dbc 0f40 336d af3f 2691 7cbe
00000010: 7663 693d 22e1 d53d 6314 01bc bd02 5740
00000020: 740b 0d3b d15b a0be 7e28 24bd 1bdb cbbd
00000030: 544f 80be 377a 383d 2c81 823f 82e6 61be
00000040: b9c0 3340 8e02 92bd b190 d63d cd3b 163e
00000050: 9df4 06be 4e89 a03d d1f5 db3c e7da 4ebe
00000060: a477 d73f 04f3 423c d73a 7d3e e015 0d40
00000070: 654d ad3f af72 e83f e8e1 b4be 7fa2 a7bd
00000080: c91e bcbc fb6a 20be 5df3 193d af5a eabd
00000090: ac19 263f 0f12 0dbe f2e9 6a3e 5abc 033d
000000a0: 4f36 2cbe eb43 0740 a45d 53be 5774 95bc
000000b0: 3851 f1be 2b44 80bd ffc0 3d3b 2f16 9bbc
000000c0: 52eb ae3d ba87 80be 7c65 80bd 931d 993e
000000d0: 350e 183d 1214 bb3d 1a82 2abe ffb4 4040
000000e0: ff09 363e 7dd7 40be 5547 aabd 12dd 5cbe
000000f0: c78e b9be 478f 27be 9e4e 35be b21d 9ebe
00000100: 39e7 55be ae94 13be 5fa5 a1bd edf7 1740
00000110: c4ac 973e fd94 1040 f8a8 ab3d 761d af3f
00000120: 7035 3bba de6c 253d 08c5 283f d59d 803d
00000130: 2a8b cbbd dfb2 2abd 8489 8b3d 198c ba3f
00000140: 8839 423d a18f 713d 696e 4b40 0f85 abbd
00000150: 2434 8b3f 8402 a13d 216a 133d dd10 1cbe
00000160: 1402 0d3d 9846 1fbd 1d52 d5be 9e3f febc
00000170: 569f c0bd 10a7 33be a44f f8bb 9448 7bbc
00000180: 255b 2440 3377 e1bc 3290 b13d 7fbe 54be
00000190: 5dd4 1a3d 15cf 88bb d992 8ebd a582 edbd
000001a0: d395 0dbe 58ab c13c 11d6 c0bd 2da6 0abd
000001b0: 76b5 c63e 8c17 063e eb8b ec3f ac53 c53f
000001c0: 1a16 ac3d d77f ec3f 6da2 143d 3ef0 99bd
000001d0: 98e2 3dbd b081 2940 7f4b 2a3f 3dbe 00be
000001e0: ef77 76bd 999b ed3f f7a5 c2bd 37c2 2cbc
000001f0: 9adf d9bd 9552 37bd bfb7 b33d d2b0 b5be
00000200: 5413 073b f0d4 c83c ceb3 84bf b03b a2bc
00000210: a7a9 963f 906a 3bbd 075e 723f 578a 35bf
00000220: 50f9 6a3e 5b3a 1bbe 9193 7cbe b93d 1cbe
00000230: 27f5 b63c 0563 943f 3755 5c3e 81d8 d03d
00000240: ab6d a1be cbee 7c3e 76a4 99bd 6909 2840
00000250: 969d e0bb 8ceb 643d 03df 9e3e c958 9f3d
00000260: 2b9b 10bc cf90 2b3c 4984 473e 1964 1940
00000270: c843 933e 1ad7 12be be73 9bbe b287 c4bc
00000280: fc34 893f 6883 323d fd0e 983c bf96 a43f
00000290: 35a0 88bd 744e 4cbd 961a a73d 8049 babb
000002a0: 1c66 8a3e 5831 93bd a16e 45be 10d8 e8bd
000002b0: d441 09be 029e e03c a82b c13f ebaa f0bd
000002c0: b195 07bc 08cc 753e 2469 fabb c55a d93f
000002d0: d3b2 823e ee6f 093e ed69 c53d 5812 b63f
000002e0: 11eb ec3f 2b47 0e3f 6f1c 22bd f75d 2bbd
000002f0: 7a1c cd3f 1b5e f6bd 6e8f 2c3b 3a03 d0bc
00000300: c8fb 443d df01 ac3e 270d 40be d209 4940
00000310: 39f4 45bd c4d4 e43d 1348 743f fdf7 86bc
00000320: 08b3 86be ae3f 99bc 0a2d 7f3f 7727 edbd
00000330: 5bf6 e1be 988d db3c 4092 59be 6965 fc3f
00000340: 460f af3d dabf 7a3d 5a61 1bbd eb51 7e3c
00000350: 10d2 f33d 7c4c 7bbe 8f2e 553d c895 7b3f
00000360: b8a8 693e fd1d 6dbd 3393 9cbe 3c36 39be
00000370: 6eea 213c 54a3 993f f005 383c 921a 59bb
00000380: 6c73 873c 4c9a b4bd f166 23be 1bf2 b6bd
00000390: 40e7 403c 69b1 873e c328 8fbe 03ed 07bd
000003a0: 24d7 c73d ab66 23be 95e1 87bc 6f11 113e
000003b0: fb97 65be c650 2540 8f65 f13f ed8f 19be
000003c0: ee3c 273d f546 9a3d d132 f8be 67b3 a9bc
000003d0: 4d5f 0ebe 06f6 2d3e d05f 8ebc c481 bf3e
000003e0: 7292 a13f 8460 0c40 8949 cbbd fd89 ac3f
000003f0: 2599 a9bc 595f 9bbe 1b6e 0bbd 3ca7 e6be
-0.017897617 2.2458718 1.37052 -0.24664745 0.05697962 0.10443331 -0.007878396 3.3595421
0.002152172 -0.3132005 -0.04007768 -0.099539004 -0.25060523 0.04503843 1.019567 -0.22060588
2.8086379 -0.071293935 0.104768164 0.1467125 -0.1317925 0.07838689 0.026850613 -0.20200692
1.6833386 0.01189876 0.24729477 2.2044601 1.3539244 1.8159999 -0.35328603 -0.081852905
-0.022963898 -0.1566581 0.037585605 -0.11443078 0.6488292 -0.1377642 0.22940806 0.032162048
-0.16817592 2.1135204 -0.2064119 -0.018243952 -0.47132277 -0.06263002 0.0028954146 -0.018931476
0.085409775 -0.2510355 -0.062693566 0.29905376 0.037122924 0.091346875 -0.16651192 3.0110471
0.1777725 -0.18832202 -0.08314387 -0.21568707 -0.36241743 -0.1636325 -0.17705771 -0.3088203
-0.20888986 -0.14412186 -0.0789287 2.3745072 0.29623997 2.2590935 0.083818376 1.3680866
-0.00071414467 0.040387027 0.65925646 0.06280104 -0.09938653 -0.04167449 0.068133384 1.4574004
0.047418147 0.058974866 3.178614 -0.08374988 1.0875287 0.07861808 0.035989884 -0.15240808
0.03442581 -0.038885683 -0.4166421 -0.031036194 -0.09405391 -0.17544198 -0.0075778533 -0.015337128
2.568063 -0.027522659 0.08670081 -0.20775793 0.03780018 -0.0041750767 -0.06961603 -0.11597184
-0.13826685 0.023641273 -0.0941583 -0.033849884 0.3881032 0.1309492 1.84802 1.541616
0.08402653 1.8476514 0.036287714 -0.07516526 -0.046358675 2.6485405 0.6652145 -0.1257257
-0.06017297 1.856311 -0.095043115 -0.010544351 -0.10638352 -0.04475649 0.08775281 -0.35486466
0.0020610886 0.024515599 -1.0367372 -0.019803852 1.1770524 -0.045755923 0.94674724 -0.70914215
0.22946668 -0.1515898 -0.24665667 -0.1525792 0.022333695 1.1592718 0.21516882 0.10197545
-0.31528983 0.24700467 -0.075020716 2.6255744 -0.006854723 0.055888698 0.3102952 0.07780606
-0.008826057 0.010471537 0.19484057 2.3967345 0.2876265 -0.14339867 -0.30361742 -0.023990486
1.0719295 0.04358235 0.018561834 1.2858504 -0.06671182 -0.049879506 0.08159368 -0.0056850314
0.27031028 -0.07187146 -0.19280483 -0.11369336 -0.13404018 0.027419094 1.5091448 -0.1175135
-0.008275435 0.24003613 -0.0076419283 1.6980826 0.25527057 0.13421604 0.09639344 1.4224348
1.8509237 0.55577344 -0.039577898 -0.04183766 1.6024315 -0.12029668 0.0026330608 -0.025392164
0.04809168 0.33595178 -0.18755017 3.1412244 -0.048328612 0.11173394 0.95422477 -0.016475672
-0.26308465 -0.018707123 0.996781 -0.11579793 -0.44133267 0.026800916 -0.21247196 1.9718448
0.08547835 0.06121812 -0.03793464 0.01552246 0.119053006 -0.24540895 0.052046355 0.98275423
0.22818267 -0.057889927 -0.30581054 -0.18087095 0.009882553 1.2002969 0.011231884 -0.003312741
0.01653453 -0.08818492 -0.15957238 -0.08932897 0.011773884 0.2650254 -0.27960786 -0.033185016
0.09757832 -0.15957133 -0.016587058 0.14166807 -0.22421257 2.583055 1.8859118 -0.1499631
0.04082959 0.07533065 -0.4847627 -0.020715429 -0.13903542 0.16988382 -0.017379671 0.3740369
1.2622817 2.1933908 -0.09926135 1.3479611 -0.020702908 -0.30346182 -0.03404055 -0.45049465

q1_.4.weight f4 [1, 256]
00000000: 8c90 0bbd b152 dbc0 612f 7741 cf2f 0241
00000010: 6573 0341 db3a 0c41 9fe3 91c1 6455 b4c0
00000020: d560 11bd 42a9 0b41 ddde e240 a8f3 d040
00000030: aef1 0841 8461 01bd 7bb7 e341 21dd b5c1
00000040: 5044 81c1 9511 993f 76f5 dd40 e4fa 02c0
00000050: eea7 1c41 d365 f33f 5f70 b3bc 454a db40
00000060: 4db1 37c1 b3d7 eb40 2c9b cc40 9eba 38c1
00000070: ab3c 92c1 b0a4 03c1 1bc1 7fc0 e9be d7bc
00000080: c94a c040 d828 c540 ae28 a1bb 5a08 c240
00000090: a1cc 3341 954a dc40 9366 f63f ac85 d740
000000a0: 03ff f340 2c64 5cc1 2bce 0c41 a52e c340
000000b0: e495 0841 369c 2abd 5f46 babc 62b3 d640
000000c0: fe5e e240 2f6f c740 c4e9 c440 7cf6 e240
000000d0: 0692 143b 35f3 f340 e6f3 c240 1b5a f8c0
000000e0: b4fc 0340 2578 d140 91da 6f41 de39 a1bf
000000f0: a786 a5bf 4996 ed40 babf 0741 a819 fe40
00000100: 314c 1141 8ca1 0041 1f1c f440 e1ab c7c0
00000110: 2024 1341 f8b8 dcc1 e7c4 b740 69bc 66c1
00000120: 7e04 a0bc d511 9abc 8551 c5c1 c0d6 fa40
00000130: 0237 c940 a693 27bc f37a 70c0 84e0 5bc1
00000140: b9f0 d0bc 9c07 0741 aca1 bdc0 4a51 c040
00000150: 2057 c5c0 5838 cd40 8d5b 0a41 a4c1 0e41
00000160: 86fc 2ec0 60ba b640 7de1 e740 8f48 7141
00000170: 8572 0041 b22c 63c0 745c 8cbc f319 fcbb
00000180: 1570 2bc1 08f0 c7bc a913 2141 de3e f240
00000190: 4f38 babc 87ea b1bc bb09 d740 a506 e940
000001a0: 55cc d240 c046 48bd 46ae a1c0 4c14 0ec0
000001b0: 3875 09c1 c708 f640 e722 a5c0 efd1 1ac1
000001c0: 7780 0e41 1304 5cc1 80c3 c7bc 7c74 05bd
000001d0: 69fd 57bb 7d1c afc1 6562 c5c1 94e7 86c0
000001e0: f0ec 0141 db88 76c1 fd3f de40 a5ad 12bd
000001f0: 88e1 e040 db5e ba40 4388 db40 e606 2e41
00000200: ea9d e9bc 2d02 9d3f 0c55 d3c0 4dab 12bb
00000210: f4e5 34c1 be59 97bc a55e 5041 dd97 ef40
00000220: f1dc 0041 996a d440 20cd cc40 7732 f840
00000230: d512 053c 45f7 a1c1 2a92 f140 df71 39c0
00000240: baff cf40 651b f640 7ba5 68bb 0470 1fc1
00000250: bea3 db40 51b8 da40 1a19 e440 d34a e340
00000260: a902 ca40 a898 c940 2e57 e440 041d cfc0
00000270: 5b83 e340 27c1 bb40 bf98 32c0 c45d cd40
00000280: 8931 d2c1 80f0 d440 de7e 22c0 85a6 9cc1
00000290: 9401 8bbc 3a56 c940 b2d5 0041 8fdf 34c0
000002a0: c25a 66c0 7003 1e41 8c8a 8cc0 6a07 cd40
000002b0: bd04 e040 7dd0 17bb a3c8 dbc0 2211 ff40
000002c0: 91a3 e340 4e1c d240 e3c5 f6bc c36c ddc0
000002d0: f27a c340 b98e e340 191d d440 b99b 99c1
000002e0: 9144 afc1 55d2 8dc1 b53d 0e3c c8a9 c1bc
000002f0: edcf 27c1 ebff f240 aa7c 61bc 213a 54bc
00000300: 6916 d8bf 5607 0841 a497 fc40 241a 9cc0
00000310: f130 423b e655 d240 81dc 04c1 f9a7 d9bc
00000320: b1a5 ca40 bd35 9dc0 b9bf 48c1 15cb e040
00000330: 6852 3141 751a ff40 d36e 5d41 55d7 d0c0
00000340: d793 2ec0 6a13 c640 2cc9 ea40 c20f e6bb
00000350: 22c8 d140 c631 23c0 d652 cc40 443c 6ec1
00000360: 5abe 0141 cf2b cc40 9822 fc40 d1cc f940
00000370: 6c35 89c0 f0a2 ebc1 9315 f640 8c57 08bd
00000380: b5b5 13bd 1d90 d140 5f13 f840 4ea4 d040
00000390: f253 d1bb 6da2 9ec1 c113 c440 229b d440
000003a0: 47f4 e440 d10f f940 ebbf 74c0 65cc 1741
000003b0: dc8c e140 d9c1 6ec1 4847 8cc1 b3c8 d340
000003c0: 7797 30bd e415 0bc0 9cde 1d41 9205 e9bc
000003d0: 95d1 12c0 1211 65c0 fa1d bc40 52e3 80c1
000003e0: 55e0 57c1 6f1d b4c1 c10a 1941 09ec 9cc1
000003f0: a7c7 e640 a5bc fa40 6d26 d640 54e3 e541
-0.034073398 -6.853844 15.449067 8.136672 8.2156725 8.764369 -18.236143 -5.6354237
-0.035492737 8.728823 7.089705 6.529743 8.559004 -0.03158714 28.46459 -22.732973
-16.158356 1.1958491 6.9362135 -2.0465631 9.790998 1.9015449 -0.021904169 6.852816
-11.480786 7.3700805 6.393942 -11.545561 -18.279623 -8.227707 -3.9961612 -0.02633615
6.009129 6.161236 -0.0049181795 6.0635195 11.237458 6.8841043 1.9250053 6.7350674
7.6248794 -13.774456 8.800334 6.099444 8.536594 -0.04165288 -0.022738634 6.7093973
7.0740957 6.232322 6.153536 7.0925884 0.0022670045 7.6234384 6.0922728 -7.760999
2.0622988 6.545916 14.990861 -1.2595785 -1.2931718 7.4245954 8.484308 7.940632
9.081101 8.03944 7.6284328 -6.2397313 9.19632 -27.590317 5.742786 -14.420999
-0.019533392 -0.018807331 -24.664804 7.8387146 6.287965 -0.010228073 -3.7575042 -13.742313
-0.02550541 8.439358 -5.9259853 6.009923 -6.1668854 6.413128 8.647351 8.922276
-2.7341628 5.710251 7.2462754 15.0802145 8.027959 -3.549603 -0.017133929 -0.007693523
-10.714864 -0.024406448 10.0673 7.570174 -0.022731928 -0.021718277 6.719938 7.282061
6.587443 -0.048895597 -5.0525236 -2.2199888 -8.591118 7.6885715 -5.1605105 -9.676253
8.9063635 -13.750995 -0.024385214 -0.03258179 -0.003295744 -21.88891 -24.673044 -4.215769
8.120346 -15.408412 6.945311 -0.03581013 7.0275307 5.824079 6.8603835 10.876684
-0.028517682 1.2266289 -6.6041317 -0.0022379935 -11.306141 -0.01847541 13.023107 7.487288
8.053941 6.6380124 6.4000397 7.7561603 0.008122166 -20.245737 7.5490923 -2.8975751
6.4999666 7.690844 -0.0035499025 -9.964848 6.863738 6.8349996 7.128064 7.102884
6.3128247 6.299885 7.135642 -6.472292 7.1097846 5.867328 -2.790573 6.417696
-26.274187 6.654358 -2.5389934 -19.581308 -0.016968526 6.2917757 8.052172 -2.826145
-3.5992894 9.875839 -4.3919125 6.407155 7.0005784 -0.002316504 -6.868242 7.9708414
7.1137166 6.565955 -0.030123657 -6.9195266 6.108758 7.111172 6.628552 -19.201036
-21.90848 -17.727701 0.008681704 -0.023640528 -10.488263 7.59374 -0.013762632 -0.012953312
-1.6881839 8.501791 7.893511 -4.878191 0.0029631222 6.5729856 -8.303834 -0.026569353
6.332726 -4.91281 -12.546807 7.0247903 11.082619 7.9719796 13.839557 -6.5262856
-2.7277734 6.18987 7.337057 -0.0070209214 6.5556803 -2.549913 6.385112 -14.889713
8.108973 6.3803477 7.879223 7.806252 -4.287771 -29.45456 7.6901336 -0.033286616
-0.03606196 6.548842 7.7523646 6.5200567 -0.006388181 -19.82931 6.1274114 6.643937
7.154819 7.7831807 -3.8242137 9.487401 7.0484447 -14.922326 -17.534805 6.6182494
-0.043113198 -2.173211 9.866848 -0.028445039 -2.2940419 -3.579167 5.8786592 -16.110996
-13.492269 -22.514372 9.565125 -19.615252 7.2118716 7.835528 6.6921906 28.736

q2_.0.weight f4 [256, 14]
00000000: 2aee 2140 6fa6 683e 3f86 a83e b074 a13f
00000010: cf35 45bf 0c78 93bf 9402 703f 5cfa 82bd
00000020: d778 853f bfc2 0640 3ae1 ee3f 6e6a 24be
00000030: 0d28 f93d 7ef7 7d3f 6f5a 363f a6ee 6abf
00000040: 16d1 9abf 50d6 fd3e d70c 7540 ef88 5abe
00000050: 86b6 a3bf f39b 36bf 8bf3 36bf 3548 233f
00000060: 6bed 50c0 f648 cabf b4d8 793d 91ea b8bf
00000070: d4c0 02c0 965a 963f 0f22 623f 6566 2140
00000080: e10f b03f 40d1 2540 8e10 b5bf 887d 25bf
00000090: 6b2b fc3f a90e 973f f1c9 75bf 08f3 1c3f
000000a0: ed3b a43e 19e9 373e 651b dd3f 2a87 05bf
000000b0: 0fb0 5040 6044 bdbe d4d3 c43f fb78 f83d
000000c0: 4099 e73f ccc4 38bf da1a e93f 85cf c13f
000000d0: 17e1 e53f be3e 6a3e 086a 303d 10a5 82bd
000000e0: 4a3c 7fbe d703 e7bd dc81 0ebf c8b8 e43f
000000f0: dda7 0d3e af4b be3e d623 0dbf aff8 b63f
00000100: 1ef3 1bc0 2108 21be 7726 d3bf 57d0 103d
00000110: fcc6 ce3e 9914 6ebe 89a0 01c0 08bc 7e3b
00000120: 7ba8 6040 8f12 133f 96bf 9d3f 4c2b b3bf
00000130: 562d eb3e eda8 8ebe 6d31 393f d851 c73d
00000140: 14b2 bebe 96f5 293c 6da7 f1bd 89a2 083d
00000150: 09ee 24bf 2263 80bf 5e93 7340 7b75 3140
00000160: 5c84 0240 d383 babf 0cb9 afbf d841 b93d
00000170: 389c 0bbe ab73 173e 3ad1 2840 ad03 9a3d
00000180: d935 b8bd 963f 443f 488d 15bf aa62 03be
00000190: 2e4a 143d 926b 8abe d5f7 443f 5fb2 50bf
000001a0: a3e5 493f e1b1 81bf 0553 1940 b1b8 ad3f
000001b0: ad0e c73f debe 153f b5a0 88be 70dc 473e
000001c0: 4f8c 3bbf 9505 323f 2ca9 99bf 1a70 883f
000001d0: 9c0e 0b3f dd2d 1640 4710 60bf 1638 883f
000001e0: 044e c0bf d1db 9bbf bf5f 03c0 1fc5 fc3e
000001f0: 1e4f 9b3e 4cba 89be bd72 f2bf 68c9 2cbf
00000200: adb5 b83f f51e 913f be50 4e3f b54d 1b3f
00000210: 3e3c 09c0 07c8 95bf d70e 0540 b792 c33f
00000220: 30b7 19bf 39a6 fd3d 1705 9dbe cde4 9dbe
00000230: f5fc 39be 1fd3 05bf 1ab7 913f 2474 a93f
00000240: 79dc b9be 80a4 813f 07c8 d33f 0871 25bf
00000250: 3d82 703f ecee 2f3f 47ad 65bf 8250 743e
00000260: fd46 84bd c1b9 40be 701b 083f fec5 a63f
00000270: 2812 1d3f 91b0 1a40 652a 5bbf dab8 ee3d
00000280: 9cf6 9e3e d2bf 283f 5d9a 2e3e 7cd5 f53f
00000290: f1da 4bbe 9320 7c3f 6320 af3f cf5e 80bd
000002a0: a852 1b40 43e8 c3bc 6bc7 923e 82fd 1440
000002b0: 964d 15c0 61be d73d 48b0 8d3f da28 18bf
000002c0: f6a4 923f 20b5 d03f af36 a9bd 7d35 5dbe
000002d0: adb7 653e d308 d73e 7779 3340 e736 21bc
000002e0: 616d d1be af6f 2abe da55 aebf f20a 7e40
000002f0: 366a 043f 5b44 6e3e 7cc1 21bd 986f ddbf
00000300: cbd8 6abf 9cd2 0c3f fe87 d53b ce37 d1bb
00000310: bbc6 1ebf ee94 55c0 5a16 343f 5793 0ec0
00000320: 60aa 0abf 0701 84bf 524c 3640 1d7c 3bbe
00000330: f34e 2cc0 e463 a83f 3674 04bf d62e 0cc0
00000340: af77 383f ff0d 99bd 3dc7 19c0 9d59 a03d
00000350: 8d46 93bf 3ddc 4d3f c6db 7e3f e173 15c0
00000360: 20ca 3fbf 9719 d4be fd7a 923f 5aa5 f0be
00000370: de14 e73f a6d0 5a3f 63ea 88bf 7277 493f
00000380: 8740 c4bf 0baf 95bc c60e 17c0 a0de debd
00000390: 1016 32c0 5fea 0f3f eec0 f23f 4c27 643f
000003a0: 4f21 66bf ad9b d3bf 2a8d 65c0 c391 823e
000003b0: b955 123e 5fee cdbf fc67 1d3f ee7b 4abf
000003c0: 478a 993f 31af 4d3f 0ed6 f53e a180 90be
000003d0: 8d46 1440 ef54 83bf a756 a53f 6ed6 f03f
000003e0: a1cb da3d 4f0a 0abf ef77 c0bd b44e c9bc
000003f0: a31c 0abe 487f 003f f9ad 0bc0 26ab 383d
2.5301614 0.2271974 0.32914922 1.2613735 -0.7703523 -1.152101 0.93753934 -0.063954085
1.0427502 2.1056364 1.8662484 -0.16056225 0.12165842 0.9920577 0.7123174 -0.917704
-1.2095058 0.4957757 3.8289087 -0.21341299 -1.2790077 -0.7133171 -0.7146537 0.63782054
-3.2644908 -1.5803516 0.06099768 -1.4446584 -2.0430193 1.1746395 0.8833322 2.5218747
1.3754846 2.5908966 -1.4145677 -0.6464467 1.970075 1.1801349 -0.96011263 0.61308336
0.3207697 0.17960013 1.7273985 -0.5215937 3.2607458 -0.36966228 1.5377145 0.1213245
1.8093643 -0.7217529 1.821132 1.5141455 1.7959317 0.22875497 0.04306987 -0.063791394
-0.24925342 -0.11280029 -0.556669 1.7868891 0.13833566 0.37167117 -0.55132806 1.4294642
-2.4367137 -0.15725757 -1.6496114 0.03535494 0.40386188 -0.23250045 -2.0254233 0.00388694
3.5102832 0.57450193 1.2324092 -1.3997588 0.45933026 -0.27863255 0.7234104 0.09732407
-0.37245238 0.010373494 -0.11799512 0.03335813 -0.6442571 -1.0030253 3.8058696 2.7727954
2.0393286 -1.457148 -1.3728347 0.09045762 -0.13633811 0.14790218 2.6377702 0.07520232
-0.089946456 0.76659524 -0.58418703 -0.12830606 0.036203556 -0.27035195 0.7694066 -0.8152217
0.7886602 -1.0132409 2.395692 1.3571988 1.5551354 0.58494365 -0.2668511 0.19517684
-0.7326097 0.6953977 -1.2004752 1.0659211 0.5431917 2.3465493 -0.8752484 1.0642116
-1.5023808 -1.2176458 -2.0527189 0.4936914 0.303338 -0.26899946 -1.8941265 -0.6749482
1.4430443 1.1337572 0.8059195 0.60665447 -2.144302 -1.1701669 2.0790308 1.5279149
-0.60045147 0.1238522 -0.30667946 -0.30838624 -0.18162902 -0.5227527 1.1384003 1.3238568
-0.3630102 1.0128326 1.6545419 -0.64625597 0.9394873 0.6872394 -0.89717525 0.23858836
-0.064588524 -0.1882086 0.53166866 1.3029172 0.6135583 2.4170268 -0.85611564 0.116563514
0.31047523 0.65917695 0.17051072 1.9205775 -0.19907738 0.98487204 1.3681759 -0.06268083
2.42692 -0.023914462 0.2866777 2.327973 -2.3328605 0.10534359 1.1069422 -0.59437335
1.1456592 1.6305275 -0.08262383 -0.21602435 0.22433348 0.4199892 2.8042886 -0.00983975
-0.40903762 -0.16644166 -1.361995 3.969418 0.51724565 0.23268263 -0.03949116 -1.7299681
-0.9173705 0.55008864 0.0065164557 -0.0063848263 -0.6202199 -3.337215 0.70346606 -2.227743
-0.5416622 -1.0312814 2.8484082 -0.18309064 -2.6923187 1.3155484 -0.51739824 -2.1903586
0.7205762 -0.07473373 -2.4027855 0.078295924 -1.1505905 0.8041418 0.995541 -2.3351977
-0.74917793 -0.41425774 1.1443783 -0.47001153 1.8053243 0.8547462 -1.0696529 0.78697884
-1.5332192 -0.018271944 -2.3602767 -0.10882306 -2.7825966 0.56216997 1.8965127 0.8912246
-0.89894575 -1.6531883 -3.586741 0.25501832 0.14290513 -1.608837 0.6148679 -0.7909535
1.1995324 0.80345446 0.48014873 -0.28223136 2.316806 -1.0260295 1.2917069 1.8815439
0.106833704 -0.5392198 -0.093978755 -0.024573661 -0.13487487 0.50194216 -2.1824934 0.045085095

q2_.0.bias f4 [256]
00000000: aba5 ec3f 440a 0640 9323 573f f710 fc3d
00000010: 5203 283f fb34 0e40 d014 6e3f 801e f2bf
00000020: 4b47 1c3f 3602 e53f 51f8 36c0 08d0 0040
00000030: 4584 983f 3601 883f b493 da3f b172 81be
00000040: 93fe 5140 fe2b cdbf ed09 ff3f 2151 03c0
00000050: 459f 3f3f 2df5 59bf db42 9b3f 8e5e 1f40
00000060: 2bf6 f13f b966 57bc d25e f83f aeeb 9dbf
00000070: 3a3d 10c0 914c c1bf 7085 3240 ec88 1a40
00000080: 5c8d edbf a425 483f da0c f4be 9a32 02bf
00000090: 044a 023f c1a3 963f cd9f 2dc0 09b0 ea3f
000000a0: dee2 c4be 7e53 dbbf 19d6 653f e335 803f
000000b0: c460 943f 5a6b b8bf 521d 1dc0 0ddb 61be
000000c0: 74a4 38c0 ed65 2340 f607 5040 5fe9 4b40
000000d0: c568 9d3f 27f6 bfbe 20de 00c0 1dbb 16c0
000000e0: 3fe1 11c0 5d40 893f d772 bd3c 8856 92bf
000000f0: aecc fc3f f372 b2be 7537 963f e475 f8be
00000100: 480c b93f c770 1240 32a7 b7be 3f9e 3340
00000110: 0dfd 0a40 503c dd3f 5ce9 adbd afd2 033d
00000120: 0384 42bf cd41 af3f e852 b43f 859b d6bf
00000130: 1435 15bf 5fe8 163e 4eb1 11c0 d6cb 333f
00000140: a2f0 ddbf 0a30 0f3f 9982 bdbf 35cf 1240
00000150: 3140 0640 5b76 a0be 3513 6a40 76ce cebe
00000160: 7d73 8ebf 266e 0ebf 9c7b 94be 14c3 fcbf
00000170: ebcb f43f 0bcb 6fbe 5d20 01c0 33a8 3c40
00000180: e5cf 24c0 d813 b9be 14fe 0bbf 33c3 34bf
00000190: 3002 dc3f 2e72 40bd 61e4 843e 0e3c e6bf
000001a0: f239 05c0 108a 0dc0 7822 c0bb b23e 2cbf
000001b0: 339d 22bd d65e d5bf 8327 85be c39b e6bf
000001c0: a27a fabf 07a5 9b3f 9628 b3bf e6eb bebf
000001d0: 96e3 19c0 8b6f 0ec0 8e5d 42bb 904f 30bf
000001e0: fef9 b63f b462 3f40 f345 d93f 048c 84bf
000001f0: 4ade 2fbf d149 e53f 9605 0fbe 95b9 c63e
00000200: f57f 55bf 9361 19bf bc0c 0040 521e 74bf
00000210: 539a c53f cfbb 7440 1229 ea3f bfca 4f3f
00000220: 242e a43f bbee 0040 c852 e5be ffa5 6f3e
00000230: d669 1a3e 9790 4d3f 09a5 bbbe 9d73 05c0
00000240: 9ef9 253f a871 ce3f cabb 0a40 9b96 2bc0
00000250: b0f6 d2bf 873f 0e3f ebeb b9be dfc1 41be
00000260: 6b74 45be c71c 02bf 34d3 15bf 5d10 aa3f
00000270: ba0b d23d e07c e93f cef9 c73f acbf c1bf
00000280: 1440 34bf 3ed5 a23e dd17 acbf ca3b e0bf
00000290: 6ebd b5be d65b f63f ac55 243f a19d 4b40
000002a0: aa58 4d3f 3c2a 883f 4da6 cebf 386c 153e
000002b0: 50ac bebf 5c8b 0440 1306 093f 057a ed3e
000002c0: 0cd3 5d40 8ba9 df3f 982e b0bf b98a a43e
000002d0: a27e 25bf ac42 3940 f575 3cbf 6baf a6bf
000002e0: f739 eb3f 3d46 1e40 de74 453f 44f3 fbbf
000002f0: e42c d1bf 6bc5 433d 2920 b3bf 9daf b5bf
00000300: 346b 7f3f 2440 273d cc94 f93d 59f8 f03f
00000310: e43d d53f d80a 82bf 56a7 033f 2579 91be
00000320: 0232 c4bf 43ed 2ac0 7652 78be d85d e23f
00000330: f9d8 253e d090 323f 6a5d ab3d b193 d7be
00000340: 124c e4be e86a d2bf 2fd9 be3f c43b 4a3d
00000350: 4020 1ebf 1a64 9840 90aa 41c0 03d0 5abf
00000360: 1dba 603e 91e2 cf3e 4a16 8ebf 111a 26bf
00000370: 3980 c1bf 1fe8 f03d 3c36 fdbf cf1a b2bf
00000380: d221 783f 468f 0ebe 0a91 cbbf b4ac 2340
00000390: 7b8e 1a40 1642 37bf 4191 a33f 5520 b23d
000003a0: f2e3 f53f 8051 023f d687 86bf c00c 983f
000003b0: 4391 5cc0 dc1c 823f 1623 83bf 5477 e33f
000003c0: 10ea 0a40 d6c8 a33f 2771 4f40 c8e9 a2bf
000003d0: 5955 ba3f 0aa0 8abf ac47 c43f 85f9 373f
000003e0: d867 143f 92ce 06c0 8fe6 893e 747e 233e
000003f0: 1592 bcbf e536 763f 3436 d7be 5688 dc3f
1.8488058 2.0943766 0.84038657 0.12307923 0.65630066 2.2219837 0.9300051 -1.8915558
0.61046284 1.78913 -2.858906 2.0126972 1.1915365 1.062537 1.7076325 -0.25282815
3.281163 -1.602905 1.9924904 -2.0518267 0.748524 -0.85139734 1.2129778 2.4901462
1.890325 -0.01314705 1.9403937 -1.2337549 -2.253737 -1.5101491 2.7893944 2.414607
-1.8558764 0.78182435 -0.47666055 -0.5085846 0.5089419 1.1768724 -2.7128785 1.8334972
-0.38454336 -1.7134855 0.8977981 1.0016445 1.159203 -1.4407761 -2.4549146 -0.22056217
-2.8850374 2.553096 3.250486 3.1861188 1.2297598 -0.37492487 -2.0135574 -2.3551705
-2.279373 1.0722767 0.023126049 -1.1432657 1.9749963 -0.34853324 1.1735674 -0.48527443
1.4456873 2.2881334 -0.35869747 2.8065336 2.171695 1.7284031 -0.084917754 0.032183345
-0.75982684 1.3691956 1.4087801 -1.6766211 -0.58284116 0.1473708 -2.2764468 0.70232904
-1.733906 0.55932677 -1.480548 2.293897 2.097668 -0.31340298 3.6574223 -0.40391892
-1.1128994 -0.55636823 -0.29000556 -1.9747033 1.9124731 -0.23417298 -2.0176003 2.947766
-2.5751889 -0.36147952 -0.5468457 -0.7061035 1.7188168 -0.04698389 0.2595549 -1.7987077
-2.0816617 -2.2115517 -0.005863484 -0.67283165 -0.039700698 -1.6669567 -0.26006708 -1.8016285
-1.9568675 1.2159737 -1.3996761 -1.491574 -2.4045157 -2.225558 -0.0029657814 -0.688714
1.4295042 2.9903994 1.6974472 -1.0355229 -0.6869856 1.7913152 -0.13966975 0.38813463
-0.8339837 -0.5991451 2.0007772 -0.95358765 1.5437721 3.823963 1.8293784 0.8116874
1.2826581 2.014571 -0.4478972 0.23403166 0.15079436 0.8029875 -0.3664935 -2.0851815
0.6483401 1.6128435 2.1677117 -2.6810672 -1.6481533 0.55565685 -0.36312804 -0.18921612
-0.19282691 -0.5082516 -0.58525395 1.3286244 0.10256143 1.8241234 1.5623109 -1.5136619
-0.70410275 0.31803316 -1.3444782 -1.7518246 -0.35496086 1.9246776 0.64193225 3.181496
0.80213416 1.0637889 -1.6144501 0.14592063 -1.4896336 2.0710058 0.53524894 0.46382156
3.4660063 1.7473615 -1.3764219 0.32137087 -0.6464635 2.8946943 -0.7361749 -1.3022283
1.8377064 2.473037 0.7713145 -1.9683614 -1.6341825 0.047795694 -1.399419 -1.4194218
0.99772954 0.040832654 0.12186584 1.882579 1.6659513 -1.0159559 0.5142721 -0.28412738
-1.5327761 -2.6707313 -0.24250206 1.7684889 0.1619605 0.69752216 0.08367427 -0.42104867
-0.44589287 -1.6438875 1.4910029 0.049373403 -0.6176796 4.7622194 -3.0260353 -0.8547365
0.21945997 0.40602544 -1.1100552 -0.64883524 -1.5117255 0.117630236 -1.9782176 -1.3914431
0.96926606 -0.13921842 -1.5903637 2.557416 2.4149463 -0.71585214 1.2778703 0.08697573
1.9210188 0.5090561 -1.0510204 1.1878891 -3.446366 1.0165057 -1.0245082 1.7770791
2.170536 1.2795665 3.2412813 -1.2727594 1.4557296 -1.083009 1.5334373 0.7186511
0.57970953 -2.106358 0.26933715 0.15966207 -1.4732081 0.9617751 -0.4203354 1.7229106

q2_.2.weight f4 [256, 256]
00000000: f77b 34be 59ad 0f3e fad6 b23e e7b1 f4be
00000010: 4313 8a3f d584 09bf 64b5 373f 1086 2c40
00000020: f69c 993e 366c 9b3f 9708 263f 939b 35bf
00000030: e940 a4be 32b5 63bf c38f 1b3e 00d3 c8be
00000040: fca0 b13e 1f4a 853f 14de 65bc f967 9bc0
00000050: 1b85 7abf c951 883f f0b7 00be fa03 7bbf
00000060: 080f 89bd 1d9e 6cbd 26a5 0e3f 15b1 08c0
00000070: 72e4 4740 f962 cd3f 76d5 553e 6d15 c23e
00000080: bdf7 bb3f 5e5c e43e 2056 203f 9a57 f63f
00000090: a44c be3f 6978 4d3f 366b 4dbf e2c3 a6bf
000000a0: 6fc7 8e3f 194f 2740 b2cb a93f ad3d 30bf
000000b0: 3604 8abf e3ab 73bf e80c 1a40 6a97 36bf
000000c0: 0732 3e40 118a 7fbf 1fbf 933f 99a8 58bf
000000d0: 2916 6c3e f8d2 de3f 0182 dd3f 05de 903f
000000e0: d043 603f e4c1 0f3c 1a4c 223f 88e3 b3bf
000000f0: 6aca 953f 9e23 d13f 3834 223f 5a61 b03f
00000100: 55ae 97bf b5ef 35bd c50f 393c 8809 553d
00000110: 8414 dfbf 345c e8be e579 ae3f 1d73 ba3c
00000120: 1fc3 0a3f f8f8 9c3d edf6 e9bf 84a7 6a3d
00000130: acec 51bf 0070 613c 6f37 0b40 97dc b1bf
00000140: e069 8fc0 0673 7bbf 33ee a63f 989f e0be
00000150: a7ca b2bd e161 e9be c8e4 1f3f aec1 f43f
00000160: f622 1c40 313a 9f3f 0eda c2bf 2ea7 af3f
00000170: 0442 ae3f 9cc5 99be c7df f73f 2360 5d3e
00000180: d6b1 653f 12bc 0840 5e80 acbf 447b 1740
00000190: 85cf 71bf 6f75 f4bf b6a9 13bf 7fab 7b40
000001a0: b570 2d3f ebac 4940 9dbe 4cbf c617 6a3f
000001b0: 8636 0fbf 73e4 c6bf 5c18 68bf 3bab e63f
000001c0: d179 1440 f6c7 bb3e 3859 1a3f 568c 0640
000001d0: adbb 3cbf 5f35 ff3f e00e 16bf fe89 893f
000001e0: 0838 63be 7114 873f 067b 2cc0 c50b 90bf
000001f0: b5e7 72c0 19c6 f1bf 1fae 953f 1818 fcbf
00000200: c421 763f 381d 7dbf bcc9 41bf 5818 d03d
00000210: b32c bc3e e1ac 683f 806a 383f 22ac 4a3f
00000220: d863 8c3f f4c6 fbbf 4360 c23e 3ead 7d3e
00000230: 59ba 02bf 00cf 78be 27ef 8cbf aca2 0f3f
00000240: f2d9 25bf a72a 653f 954f 483f becc 4f3f
00000250: 3556 80bf 4799 823f 1d94 d33f 6263 1fbf
00000260: a309 4e3e 9d0a 463f bedc 79bf 223a 50bf
00000270: 2ac7 9b3e 2b0c 483f 46db 80bf e3f5 0940
00000280: 1572 1c40 6ceb 34bf 3dcf 2440 ed71 983c
00000290: c1f4 f73f 587c b2bf 5e55 97bc 8150 0dc0
000002a0: da4f a43f 8592 fc3e 7d8c 3dc0 b9c2 11bf
000002b0: 96ba 8dbf 35fd 24bf ec35 5b3f 8d5b afbd
000002c0: d331 a3bd a254 c0be 4e6b 0440 a912 27bf
000002d0: 41fc 283f 7e31 88bf 9f3d 663e 1138 ee3f
000002e0: 7954 8d3f 18ab 643f 885c 963f 70fc 3dbe
000002f0: 4122 c4bf 5dde 8140 8f89 2540 72f5 333e
00000300: 978b 9b3f 8f02 3540 88c2 95be 8307 803f
00000310: 1718 92bd 01d5 6fbf a2b5 923f 6971 6fbe
00000320: 85b1 cf3f 1813 47c0 73c2 953e 647f bdbf
00000330: ca97 033f 0882 453f a721 a33f 97b8 c9bf
00000340: 4917 fdbf a45a 04c0 44ae ca3f 3960 86bf
00000350: b150 3240 d3d6 593f 346c e23e 7e4c a83f
00000360: 8a7b 0cc0 7d3d 21bb 70a3 383f 1eff 793f
00000370: db6c 08bd ba07 f03f b06a 1a40 137c 973f
00000380: 6f16 2ebf a58d 37bf f732 c0bf 3080 c33d
00000390: be39 e23e 1a84 b73f 0424 003f ffee db3e
000003a0: b6bd 5d3e 3cfb 9dbf 6c25 45bf 16f5 76bf
000003b0: df74 7f40 4d61 d9bf c8d3 d33f f85f 543e
000003c0: 8dbd 45be bbf5 923e 6643 113f bd1b bbbf
000003d0: c688 82bf 689c 70bf 508d 1b3d f64e 633f
000003e0: b2da 8bbd b3f4 0d3f f3d7 1f40 c8da 0ebd
000003f0: ef6b c43f cabf 2cbf c872 51bd c1c7 4e3f
-0.17625414 0.1403097 0.3492964 -0.4779198 1.0787128 -0.5371831 0.71761155 2.6956825
0.30002564 1.2142398 0.6485686 -0.7094051 -0.32080773 -0.8894836 0.1519156 -0.3922348
0.34693134 1.0413245 -0.014029998 -4.856442 -0.9785935 1.0649959 -0.12570167 -0.9805294
-0.0669232 -0.057767976 0.55720747 -2.1358082 3.1233182 1.6045829 0.2088221 0.37906972
1.4684979 0.4460172 0.62631416 1.9245484 1.4867139 0.80261856 -0.80241716 -1.3028529
1.1154612 2.6142027 1.3265288 -0.6884411 -1.0782535 -0.95184153 2.4070377 -0.7132479
2.9718034 -0.9982005 1.15427 -0.8463226 0.23055328 1.7408133 1.7305299 1.1317755
0.87603474 0.0087742545 0.6339737 -1.4053812 1.1702397 1.6338995 0.6336093 1.3779709
-1.1850077 -0.044418056 0.011295264 0.052011043 -1.7428136 -0.45382845 1.3630949 0.022759968
0.5420398 0.076646745 -1.8278481 0.05728866 -0.8200176 0.013759613 2.1752584 -1.3895444
-4.481674 -0.98222387 1.3041443 -0.4387176 -0.08730059 -0.45582488 0.6245847 1.9121606
2.4396338 1.2439634 -1.5222795 1.3722894 1.3613896 -0.30033576 1.9365166 0.21618704
0.8972448 2.136479 -1.3476675 2.3668985 -0.94457275 -1.9098338 -0.57680833 3.9323423
0.677501 3.151179 -0.7997835 0.91442525 -0.5594257 -1.5538467 -0.9066217 1.8021005
2.319935 0.36675996 0.60292387 2.1023154 -0.7372387 1.9938163 -0.5861645 1.0745237
-0.22189343 1.0553113 -2.6950088 -1.1253592 -3.7953923 -1.888858 1.1693763 -1.9694853
0.9614527 -0.9887271 -0.7569845 0.10160893 0.36752853 0.9088879 0.72037506 0.79168904
1.096797 -1.9670091 0.37964067 0.24773118 -0.51065594 -0.24297714 -1.1010484 0.5610759
-0.64785683 0.8951821 0.7824643 0.81171787 -1.0026308 1.0203027 1.6529576 -0.6226102
0.20120864 0.77359945 -0.9760245 -0.81338704 0.30425388 0.78143567 -1.0066917 2.1556327
2.444463 -0.70671725 2.5751488 0.018609012 1.9371568 -1.3944197 -0.018473323 -2.2080386
1.2836869 0.49330536 -2.9616997 -0.5693775 -1.1072567 -0.64448863 0.85629153 -0.08562384
-0.079684876 -0.3756457 2.0690494 -0.6526285 0.6600991 -1.0640104 0.22484444 1.861086
1.1041404 0.8932357 1.1746988 -0.18553329 -1.5322953 4.058394 2.586521 0.17574099
1.2151974 2.8282812 -0.29249978 1.0002292 -0.07133501 -0.93684393 1.146168 -0.23383106
1.622605 -3.1105404 0.29249915 -1.4804502 0.51403487 0.77151537 1.2744645 -1.5759457
-1.9772731 -2.0680323 1.5834432 -1.0498115 2.786175 0.8509342 0.44223177 1.3148344
-2.1950402 -0.00246033 0.72124386 0.976549 -0.033306938 1.8752358 2.4127617 1.183474
-0.6800298 -0.7170051 -1.5015553 0.09545934 0.4418468 1.4337189 0.50054955 0.42955777
0.216544 -1.2342296 -0.77010226 -0.9646772 3.9915082 -1.6982819 1.6549006 0.20739734
-0.19310589 0.28703102 0.56743467 -1.461784 -1.019799 -0.93988657 0.037976563 0.8879236
-0.06828822 0.55451506 2.4975555 -0.034876615 1.5345439 -0.67480147 -0.051134855 0.8077355
