online_weights/spot_hopper_medium/critic_target_s1000000.pth (torch, 581843 bytes, 10 tensors)

q1_.0.weight f4 [256, 23]
000000 af 2d 1f be ba 98 fe 3e 71 74 83 3f e9 23 b6 bd
       -0.1554477 0.49725896 1.026991 -0.08893568
000010 7d 40 ea bd 66 7d c4 be d3 45 68 3d 53 fc 70 bc
       -0.114380814 -0.3837692 0.056707215 -0.014708596
000020 f1 ff c1 3d 3d 90 34 3e 8b 17 1c 3f 5c a0 00 40
       0.09472645 0.17633148 0.60973424 2.0097876
000030 8c d2 5e 3f 00 af ed 3d fd a5 83 be ac 8b 15 3c
       0.8704002 0.11605644 -0.25712577 0.009127539
000040 7a 88 05 bd 2c 59 b9 be 35 70 39 be da 98 3f 3d
       -0.032600857 -0.36200845 -0.1810921 0.04677663
000050 90 2f f1 3d 1b 1a 55 3d 15 6e f7 3b 2e a9 29 3d
       0.1177665 0.05202685 0.0075509646 0.041421108
000060 ef 58 95 be 65 a6 16 3c f3 27 9b bd f9 f1 d5 bd
       -0.29169413 0.009194945 -0.07575979 -0.10446543
000070 22 bc 9f 3f 96 4b 2c 3e 30 91 40 3e f4 3b ac bc
       1.2479289 0.16825709 0.18805385 -0.021024682
000080 a4 ef 83 3e 49 fb 23 bf 5c ab 9e bf 52 34 01 bf
       0.2576877 -0.64055306 -1.2396045 -0.5047046
000090 34 d3 2c bd e8 5b 1c 3f c4 8e 4b be 1c 37 f3 bc
       -0.042193606 0.6107774 -0.1987868 -0.029689364
0000a0 85 07 07 be 34 f2 ab 3d b8 68 9a bd 4d a1 37 be
       -0.13186462 0.08395806 -0.07539505 -0.17932625
0000b0 75 fb b1 be ad c6 b2 bd 81 2f 17 3d f0 72 0d 3e
       -0.3476216 -0.08729301 0.036910538 0.13813376
0000c0 83 dc 80 be 84 17 8c 3c 90 fc 87 3e 0a a8 a0 3d
       -0.25168237 0.017101057 0.26559877 0.07844551
0000d0 49 5d 13 3e a7 c2 e4 3d 0e 89 8e bf d4 61 8a 3d
       0.14391054 0.111699395 -1.1135576 0.067569405
0000e0 5b 77 a4 3e 2d ec d5 3e c4 e7 6d 3e 3f 4d d6 3d
       0.3212231 0.4178175 0.23232943 0.10463952
0000f0 33 85 00 3f 29 69 5f 3e 6b 49 12 3e 05 25 9f bd
       0.50203246 0.21817459 0.14285819 -0.07770733
000100 07 67 3f be 72 fc 95 3d 40 c1 92 bd 35 08 ae bd
       -0.18691646 0.07323541 -0.07165766 -0.08497659
000110 b9 5c be bd 4f c6 22 3f 4e 32 3a be df ca 09 3f
       -0.09295029 0.63583845 -0.18183252 0.5382518
000120 4d 85 e6 3d c7 81 82 3e e6 23 96 3e e4 97 66 be
       0.11255894 0.25489637 0.29324263 -0.22518879
000130 5e 8c be 3d 06 97 63 3c be c6 22 bf 5a 51 41 be
       0.09304117 0.013890987 -0.63584507 -0.1887869
000140 99 33 0e 3f d9 45 e2 3e f0 54 21 3e 78 fa 06 be
       0.5554748 0.44193915 0.15755057 -0.13181484
000150 c9 50 27 be d3 ee 23 3e b7 c3 00 3f 1e da 02 3f
       -0.16339411 0.16009073 0.5029864 0.5111407
000160 d2 9c 38 3e 9a ca 18 3f 5c bc 23 bf bb f2 d2 3e
       0.18028572 0.59684145 -0.6395929 0.41200814
000170 2b 57 23 bf c0 3d f9 bf 10 50 57 3f d9 85 7a be
       -0.6380488 -1.947197 0.8410654 -0.24465121
000180 a5 23 18 bd d2 3a a8 be 7a 11 e1 bd c1 fc dc bc
       -0.03714337 -0.32857376 -0.109896615 -0.026975991
000190 57 c5 2e bd 0a 58 0b bf 33 56 3e bf e4 d9 a3 bf
       -0.042668667 -0.5443121 -0.7435028 -1.280087
0001a0 19 c0 63 bf 23 70 7d bd 2a c4 af be b3 70 d6 bd
       -0.8896499 -0.06187452 -0.3432935 -0.104707144
0001b0 c6 a4 fb bc b0 b0 05 be 65 f4 21 be 6a 26 60 bd
       -0.030718219 -0.13055682 -0.15815885 -0.054724135
0001c0 7a 91 86 3d 99 aa 8d 3d 99 ba 87 bc 48 a4 82 bf
       0.06570716 0.069173045 -0.016568469 -1.0206385
0001d0 3a f1 b5 3e 6e f3 0a bc d2 81 e6 be 3e b9 c8 bc
       0.35535604 -0.00848089 -0.4502092 -0.024502393
0001e0 dd 4a 52 3d 76 b3 da 3b a7 c5 e7 bd a0 67 78 3d
       0.051340926 0.0066742254 -0.11316996 0.0606457
0001f0 0c 77 d4 bd 51 69 98 3e 2e 7a ce 3e d1 88 a4 3d
       -0.10374269 0.2976785 0.4032759 0.08033908
000200 ac f9 3b be b2 e4 12 bf bf f4 21 3f 03 f1 7f 3e
       -0.18356961 -0.5738021 0.6326408 0.24994282
000210 dd 1d 2a bd b7 b8 af be c7 d5 9a be fe 4f da bd
       -0.041532386 -0.34320614 -0.30241224 -0.106597885
000220 84 f8 e5 3e e3 0e 10 3d 6d 35 9f be 6c c1 31 3e
       0.44916165 0.035170447 -0.31095448 0.17358941
000230 0a fb 2b bf 9c 99 49 3e 92 98 cd 3b ef d6 a4 3e
       -0.6717993 0.19687504 0.0062742913 0.3219523
000240 ad f2 bd bd 4b fa 15 bc ce 8f 2d bf f6 28 53 be
       -0.09274802 -0.009153913 -0.67797554 -0.20621094
000250 8e c5 7d 3e 06 9a 9c 3e b4 83 d9 3e db 97 9d bd
       0.24782392 0.3058626 0.42483294 -0.0769498
000260 b7 ef eb bc 27 36 98 be bd cd 31 3c 63 29 9e 3c
       -0.028800828 -0.29728815 0.0108522745 0.019306844
000270 f7 81 42 bd 41 14 df 3e f0 16 8d 3d d6 71 bd 3d
       -0.047487225 0.4357014 0.068891406 0.09250228
000280 9a ce 2f be b2 bd 3c be 68 d2 8e be 0a 6a 82 3f
       -0.17168656 -0.18431738 -0.27894902 1.018861
000290 89 a0 44 3e 45 f0 29 3e 90 98 79 be ca 1d 3e be
       0.19201864 0.16595562 -0.24374604 -0.18566051
0002a0 cc 1a 18 3e d4 6d 6d bc 42 fc eb 3e 09 33 a2 3e
       0.14853972 -0.014491517 0.46090895 0.31679562
0002b0 c3 f0 8f be 18 13 52 3d a5 4d 17 be c6 b9 2b 3f
       -0.28113374 0.05128774 -0.14775713 0.6708034
0002c0 f9 35 f6 3d 58 1c e2 bc d1 2d b7 be d8 39 95 be
       0.12022013 -0.027601406 -0.35777143 -0.29145694
0002d0 fc b2 38 be f6 61 91 3d bc cd 42 3f 7d d1 80 be
       -0.18037027 0.07098763 0.76095176 -0.25159827
0002e0 31 bb e9 3e 8a c7 c6 bf 8e ba ae be 04 8c a6 3c
       0.45650628 -1.5529644 -0.34126705 0.020330437
0002f0 c0 d7 9e bb 46 e0 66 be 50 f8 46 be 47 36 73 be
       -0.0048474967 -0.22546491 -0.19430661 -0.23751174
000300 14 20 94 bd 6e 3a 93 3d a5 a7 5e bd 3a 7f f1 3d
       -0.07232681 0.07188879 -0.054359097 0.11791845
000310 69 24 11 bd 4b f2 15 be 38 3d 50 be 8e de 1b be
       -0.035435114 -0.14643209 -0.20335853 -0.15221617
000320 10 89 d7 bc d1 f9 13 3d 11 0f 54 3e f0 ab e6 3d
       -0.026310474 0.036126915 0.20708872 0.11263263
000330 18 f0 a5 3e 6c 7f 36 bf 8f 02 18 3d 8f fe be 3e
       0.3240974 -0.7128818 0.037111815 0.37303588
000340 3b 82 a1 3f 5f 9b 19 3f 4f e6 82 3d 79 1d db 3c
       1.2617868 0.600027 0.06391584 0.026747452
000350 ad d0 fa be 38 0b 76 bd 21 f7 87 bc 53 93 50 3e
       -0.48987332 -0.060069293 -0.016597332 0.203687
000360 fb ce 79 3e 47 c2 dc 3e bc 8b 52 bd 68 a6 d3 3e
       0.24395363 0.43116972 -0.051402792 0.41337895
000370 ec 7d bd 3d a2 30 19 3f c8 66 33 3e 14 f7 75 3d
       0.09252533 0.5983983 0.17519677 0.060050085
000380 3b 8d b4 3b a0 5b a8 3e 77 b1 64 bd 3e 3f 86 be
       0.00551 0.32882404 -0.055833306 -0.26220125
000390 8f 78 04 be ad b1 07 3e eb e7 1c 3f 29 75 76 bf
       -0.12936614 0.13251372 0.6129138 -0.9627252
0003a0 dd 46 a2 3c a7 70 9f bb 11 dd 7b 3d d2 b3 6a 3f
       0.01980918 -0.004865724 0.061490122 0.91680634
0003b0 cf 3d e3 bd 44 5e d1 bc 91 3e 1e bf f4 ea 9f 3e
       -0.110957734 -0.025557645 -0.6181422 0.31233943
0003c0 cb c3 8e bd 1c 6b 49 3e 26 31 63 bd d2 e4 05 3e
       -0.06970938 0.19669765 -0.055466793 0.1307557
0003d0 de 41 56 3f ba 47 72 3d cc 91 14 be 8c 8b 82 be
       0.83694255 0.059150435 -0.14508742 -0.2549709
0003e0 f7 59 08 3e e9 b5 1a 3e 08 48 93 3e e7 0e ab 3e
       0.13315569 0.15108456 0.28765893 0.33409807
0003f0 b2 3c 47 bd 1f cd 92 be 89 aa 49 3f 92 7e 40 bf
       -0.048641868 -0.2867212 0.7877584 -0.7519313

q1_.0.bias f4 [256]
000000 4f c3 41 bf 6c d1 c9 bf 06 a6 14 3e c2 27 b5 bf
       -0.7568864 -1.5767035 0.14516458 -1.4152758
000010 fe eb 46 be 9d 0e 26 bf 6a d5 84 bf 91 94 b9 bc
       -0.19425961 -0.6486605 -1.0377629 -0.02265385
000020 9e 94 b2 3e dd 1f eb bf fc 93 16 be db 4b 4a be
       0.3487901 -1.8369099 -0.14704889 -0.19755499
000030 cc a4 80 3d e0 af 8e 3e a0 f8 7f 3e 7a 47 b0 3e
       0.062814325 0.27868557 0.24997187 0.34429532
000040 02 e9 76 3d ed bf 1f bf 10 13 18 bf 71 97 12 3e
       0.060280807 -0.6240223 -0.5940409 0.14315583
000050 ca b8 a6 bd ec f5 e0 be cf 29 92 bf 9e af fc bd
       -0.081407145 -0.43937624 -1.1419009 -0.12338184
000060 c4 a1 5e be 36 fa 21 bf 3e 17 99 bf 99 46 8c bd
       -0.21741396 -0.63272417 -1.1960218 -0.06849403
000070 10 4f ba be ab d9 21 bf f8 31 ee be fa 69 96 bf
       -0.36388445 -0.6322276 -0.46522498 -1.1751091
000080 71 bf 84 bd 8f 57 a4 3d 59 bf 73 3d e0 fb 5f 3f
       -0.06481827 0.08024513 0.059508655 0.87493706
000090 b0 f3 5a bf 28 0e 2b bf 4a de 09 bf 43 1f 39 3e
       -0.8552809 -0.66818476 -0.5385481 0.18078332
0000a0 86 83 03 bf d8 e8 94 bf 67 ed d2 be 88 11 a7 bc
       -0.51372564 -1.1633558 -0.4119675 -0.020394102
0000b0 95 70 f0 3e 62 ae 4e be 98 3f cf be d3 21 b4 bf
       0.46960893 -0.2018371 -0.40478206 -1.4072822
0000c0 69 b1 a9 be a2 61 1a be 7f 72 8b bf 6d 14 c3 be
       -0.33143166 -0.15076306 -1.0894316 -0.3810152
0000d0 f9 ca 3e 3f 0b d9 db be d0 21 1f bf a9 16 18 bf
       0.7452846 -0.42939028 -0.6216097 -0.59409577
0000e0 bd 0f 4e be 23 c5 1e 3e 96 48 79 bf f1 ac a1 3e
       -0.20123191 0.15504889 -0.9737638 0.31577256
0000f0 d9 55 70 3d fe 0b 27 bc a3 08 da 3e ad a5 b7 be
       0.05867562 -0.01019573 0.42584714 -0.35868588
000100 4e 87 af be 9e 05 5a bf 7b 1f 3c be 22 8f 3e bf
       -0.34282917 -0.8516482 -0.18371384 -0.74437153
000110 4a 59 db be c0 fd 81 bf f5 5b 13 3f 5a a7 77 3e
       -0.4284156 -1.0155563 0.5756219 0.24184933
000120 14 58 31 bf 3e d7 9a bf 1c 28 70 3f aa 32 e5 3e
       -0.6927502 -1.2096937 0.938112 0.44765216
000130 b5 9c 26 bf 02 9d 59 bf 6d 62 24 be f3 45 d4 3e
       -0.65082866 -0.850052 -0.16053171 0.41459617
000140 f9 8b 73 be 0f e5 2c bf 85 91 3f 3f 25 74 a0 be
       -0.23783864 -0.67537016 0.7483142 -0.3133861
000150 d2 13 7a bc 86 e5 d5 be 44 6a 9d 3e 85 e4 4b bf
       -0.015263515 -0.41776675 0.30745137 -0.7964557
000160 d0 04 54 3f be 60 3f bf 34 11 40 bf a2 2a a4 3e
       0.82819843 -0.7475699 -0.7502625 0.32063776
000170 3b 72 d9 be 1e 80 47 bf 12 a3 00 3e f3 09 2b bf
       -0.42469963 -0.77929866 0.12562206 -0.66812056
000180 60 f7 47 bf 7c 51 7c bf c4 90 72 3e 7b cd 69 be
       -0.7811184 -0.98561835 0.23688036 -0.22832291
000190 0b cc 14 3e e8 b7 93 be 91 a3 39 3e 05 e2 0a be
       0.14530961 -0.28851247 0.18128802 -0.13562782
0001a0 ec a7 c1 be f1 56 01 3f 5d fe b1 bf 1a e1 a5 3e
       -0.37823427 0.5052329 -1.390575 0.323983
0001b0 b0 83 68 bf c4 5c 1e bf 70 a8 31 be e3 5a 1b bf
       -0.9082594 -0.618603 -0.1734941 -0.6068556
0001c0 3b 22 20 bf bf e9 6b be 3f 69 05 bf 7d 9f c9 be
       -0.6255223 -0.23038386 -0.5211372 -0.39379492
0001d0 37 ec 53 be 60 2f a4 be 85 4b 4c bf 12 c1 e5 be
       -0.20695578 -0.32067394 -0.79802734 -0.44873863
0001e0 ef 84 47 3e 8d 46 ef 3e 75 ef a9 3e b7 aa cb 3d
       0.19484304 0.46733513 0.33190504 0.09944671
0001f0 11 e6 a5 be bc d6 71 bf 50 c5 ba be 95 fc 8a bf
       -0.3240209 -0.94468284 -0.36478662 -1.0858332
000200 08 48 cc 3e a5 12 5e be 50 f6 3f bf 5b 9b 88 3e
       0.39898705 -0.216868 -0.7498522 0.26681027
000210 c4 86 a1 be 21 38 0b bf 5f 42 d6 be 05 48 6f be
       -0.3154813 -0.5438252 -0.41847512 -0.23367317
000220 b8 38 42 3f 99 7f 07 bf f8 72 93 be 42 ef 04 3f
       0.75867796 -0.52929074 -0.28798652 0.5192758
000230 d3 c5 44 bf 23 eb b2 be 86 f8 95 3e d5 b4 35 bf
       -0.76864356 -0.3494502 0.2929117 -0.7097905
000240 b0 84 de be 85 7f c0 3e 21 51 1e bf 95 a8 93 3e
       -0.43460608 0.3759729 -0.6184254 0.28839555
000250 91 94 06 bf 5f 55 54 bf cc 3d e3 3e 3c 5f ee 3d
       -0.52570444 -0.82942766 0.44383085 0.11639258
000260 88 f1 72 bf 6d a9 a9 3e 1c 97 af be b9 5d 17 bf
       -0.948998 0.33137074 -0.34294975 -0.59127384
000270 f2 6d b7 bc 9c d0 bc be 3d 9f b0 bf f4 91 75 bf
       -0.022391293 -0.36877906 -1.3798596 -0.9592583
000280 07 ba 81 bf 19 20 8c bd a2 b5 16 3e b9 a1 3f bf
       -1.0134896 -0.0684206 0.14717725 -0.74856144
000290 d8 1d 87 bf 81 2f 4d 3f b7 91 10 bf 2d 56 58 bf
       -1.0555983 0.8015061 -0.56472343 -0.84506494
0002a0 bd f0 2f 3f 0f f1 68 bf 44 88 7b bd d0 87 bf 3e
       0.6872671 -0.90992826 -0.06140925 0.37408304
0002b0 f5 c2 43 bf ea 7a 63 be 6e 10 0e bf 9b 64 09 bd
       -0.76469356 -0.22214857 -0.5549382 -0.03354321
0002c0 84 f8 84 bd 4e 46 3f 3d 76 69 a4 3e 31 28 41 bf
       -0.06492713 0.046697907 0.3211171 -0.7545195
0002d0 04 86 e9 be f2 e4 2a 3f 89 ac 67 bd 13 1d 0c 3f
       -0.45610058 0.6675559 -0.056561027 0.54731864
0002e0 eb 79 06 c0 72 fd 20 bf 03 f4 42 3e 80 8d aa bf
       -2.1011913 -0.62886727 0.19038396 -1.3324432
0002f0 b6 52 9a be fb 52 c8 3e 93 4f fe be 87 ce f1 bf
       -0.30141228 0.3912581 -0.49670085 -1.8891152
000300 77 16 ad be 18 8c 3b bf d4 69 2d 3f ac 40 cd be
       -0.33806202 -0.7326064 0.67739606 -0.40088403
000310 29 5d 80 bd 15 5c 72 3e 44 88 53 bf bf 15 1d bf
       -0.06267769 0.23667939 -0.826298 -0.61361307
000320 90 33 d6 bf 95 a7 34 bf 42 55 80 be 48 b7 75 be
       -1.6734486 -0.7056821 -0.25065047 -0.23995697
000330 d1 25 22 bf 18 10 ec be 91 dd dd be 9d eb a5 3e
       -0.63338953 -0.4610603 -0.43333104 0.3240632
000340 ac b1 ac bf 8f fb a9 3c 35 25 8c bf 9b 77 46 bf
       -1.3491721 0.020749835 -1.0948855 -0.77526253
000350 b0 05 af 3e 36 bf 1c 3f 44 f6 8d 3d 80 94 41 bf
       0.34184027 0.61229265 0.06931737 -0.7561722
000360 e6 cc 0e bf 29 1b f2 3c fe 88 f3 be 99 57 13 3f
       -0.557814 0.029553967 -0.47565454 0.5755554
000370 3d 3c 33 bf 41 43 ad bf e2 a8 ce 3e 4b fd 8c bf
       -0.7001379 -1.3536149 0.40363222 -1.1014799
000380 fe 8b 5a bf 23 02 ae 3e 5f e9 a4 be 7f f1 1e bf
       -0.8536986 0.33986005 -0.32209298 -0.62087244
000390 2f bc ed be d3 98 64 bf 83 47 97 be 62 84 ea be
       -0.46432635 -0.8929569 -0.29546747 -0.45804125
0003a0 60 e5 81 3e a6 a2 0c bf ed dc 3a 3e 9d 08 0c bf
       0.25370312 -0.5493568 0.18248339 -0.5470064
0003b0 88 b0 0d 3f 32 de c1 bd 24 b3 89 bb ef 25 7e 3d
       0.5534749 -0.094662085 -0.0042022634 0.062047895
0003c0 c4 66 02 c0 bd 66 e0 bc 55 f3 05 3f 61 f7 d3 bd
       -2.0375223 -0.02739274 0.5232442 -0.10349918
0003d0 e0 1f 08 bf 15 d9 95 bf 4b a6 33 bf 6b c9 b0 3e
       -0.5317364 -1.1706873 -0.7017562 0.3452867
0003e0 0b b1 07 be b6 93 20 be 5c 9d b5 3e ab 93 2d bf
       -0.1325113 -0.15681347 0.35471618 -0.6780345
0003f0 3f 02 bb be 57 11 dc be f6 6f 83 bf ca d9 a9 bf
       -0.3652515 -0.4298198 -1.0268543 -1.3269589

q1_.2.weight f4 [256, 256]
000000 04 e9 79 bd df fc 26 bb bd 28 82 be e9 83 4c bd
       -0.061013237 -0.0025480313 -0.25421706 -0.049930487
000010 69 da 48 bd ca 06 58 bc c9 55 4f bd d5 ee 8a bd
       -0.049036417 -0.013185212 -0.05061892 -0.06783835
000020 d6 74 16 be 3e b6 92 bd d7 c6 b2 bd 3b 3c 6c 3d
       -0.14693007 -0.07163666 -0.08729332 0.057674628
000030 71 64 c8 bc 34 aa fe 3a 34 a8 76 bd ce d9 9d be
       -0.024461957 0.0019429387 -0.060219005 -0.30830234
000040 bc ed 8f bd 76 7c a8 3c 40 3d 3b be f1 97 4e bd
       -0.07027766 0.02056716 -0.18285084 -0.05043787
000050 62 49 5f bc ac 23 74 bd 8f d4 21 bd 89 ab 48 bc
       -0.013628336 -0.05960433 -0.039509352 -0.012247928
000060 01 59 5f 3d 46 52 28 be 8d fe 01 bd cc 77 8c 3b
       0.05452824 -0.16437635 -0.0317369 0.004286742
000070 47 db 26 be ef a2 2f be 0b 96 ef bd cb f4 73 3d
       -0.16294585 -0.17151998 -0.1169854 0.059559625
000080 18 15 c0 3b af 11 29 be b1 89 47 bd 68 09 bd bb
       0.0058618896 -0.16510652 -0.048715297 -0.0057689436
000090 f6 13 16 be b9 bf 54 3e 7d 9d 93 bd f0 bf bf bd
       -0.14656052 0.20776261 -0.07207773 -0.09362781
0000a0 2f 7c aa bd 4c 5c 82 3d 68 b5 4a 3c 48 de 32 bd
       -0.083244674 0.063652605 0.012372352 -0.043669015
0000b0 a5 c0 93 3c 06 09 16 be fd 00 92 3d ff 13 2c bc
       0.018036196 -0.1465188 0.07129095 -0.010502814
0000c0 15 66 0d bc ee 3d 92 bd cd 4f 1b 3d ec 3a 06 3d
       -0.008630295 -0.071407184 0.0379179 0.032771036
0000d0 37 63 27 bb ce b9 1a be 81 93 cf bd ce 2c a5 3c
       -0.0025541314 -0.15109941 -0.10135556 0.020162966
0000e0 b2 c0 5b be 82 da d8 bc d4 48 7c bd 60 db b6 bc
       -0.21460226 -0.02647138 -0.06159289 -0.022321403
0000f0 da ef d9 bc fc 2b f6 bd bf 76 a7 bd 20 20 b7 bd
       -0.026603628 -0.12020108 -0.08176946 -0.08941674
000100 e7 d3 2e bc ae 80 a3 3c 93 1d 65 be d4 51 87 3d
       -0.010670639 0.01995882 -0.22374563 0.06607404
000110 1b 30 7a bd 52 ce d3 bd 5e cc ac 3c 3c 2d fb bd
       -0.061081033 -0.10342087 0.021093544 -0.12264487
000120 10 2c 3b bd 6a a5 55 bc 82 f8 d3 bd ed d5 81 bd
       -0.04569632 -0.013039926 -0.103501335 -0.06339631
000130 f4 d3 0f 3e 2c 8d 71 bd 21 99 c0 bc e1 1c c3 be
       0.14045697 -0.058972523 -0.023510518 -0.3810797
000140 9c 0f 8e 3d 4d 00 57 be 77 a5 b6 3d c8 a1 ba b9
       0.06936571 -0.20996208 0.08918279 -0.0003559722
000150 d7 10 2f be 34 a3 e2 bc 37 b2 b7 3c 16 34 26 bd
       -0.17096268 -0.027665712 0.022423847 -0.040577017
000160 9f 3a bd 3d f1 83 c9 bc 0d 51 07 be 18 f3 34 be
       0.09239697 -0.024599047 -0.13214512 -0.17670858
000170 29 1d 41 be fe 99 9e bd 1d 17 13 3e 0d d3 82 3d
       -0.1885878 -0.077442154 0.14364286 0.06387911
000180 cc f4 73 be 03 be fc 3c 63 2b e4 bc 5f 14 21 bd
       -0.23823851 0.030852323 -0.02785272 -0.039326068
000190 c5 de 02 bd 24 24 79 bd 84 73 fe bc 50 3c 4a 3d
       -0.03195073 -0.060825482 -0.031060942 0.049373925
0001a0 f5 13 96 3d b5 12 91 3c d6 9f 93 bc 27 eb a7 bc
       0.07328025 0.017709116 -0.018020552 -0.020497872
0001b0 9b 78 70 3d d5 fc 10 be 65 36 90 bc 10 55 30 bc
       0.05870877 -0.14158948 -0.017604062 -0.010762468
0001c0 fe e3 9a be ac ad 76 3c df cf ba 3a 6a 42 59 be
       -0.3025207 0.015056055 0.0014252624 -0.21216741
0001d0 bf 07 ad 3d 08 a0 b3 bd e9 c2 ce bd d9 81 ca bc
       0.08448743 -0.08770758 -0.1009577 -0.02472012
0001e0 9e 24 97 bc 3d 2d 94 3c d3 04 7f 3d 7a 38 5d be
       -0.018450078 0.018087978 0.06226046 -0.21603575
0001f0 db 48 60 bd 8f 10 b1 3d 6f cd 2a bd 5d f8 14 3d
       -0.05475698 0.086457364 -0.041699823 0.03636967
000200 40 76 be bd 10 29 48 bd cc 30 83 3c 06 f2 1d bd
       -0.09299898 -0.048867285 0.01601448 -0.03856089
000210 0d 89 9f 3d 2e 14 1a be 5e 9c 1b bd 94 08 8e 3c
       0.07789812 -0.1504676 -0.03799092 0.017338075
000220 1f e7 b3 3d 11 f8 4b be 2f a6 bc 3d 65 4c 84 bd
       0.08784317 -0.19918849 0.092113845 -0.064598836
000230 44 aa f8 bd c3 b7 63 bc 59 96 d1 3c fb 7e 64 bd
       -0.121418506 -0.013898793 0.025584387 -0.05578516
000240 2d 6c 9c 3d 9b 30 7c 3b 67 e9 39 3d 8f 9d bf 3c
       0.076378204 0.003848112 0.045388605 0.02339056
000250 0b b3 ff 3c 4c 1f 08 bc e6 81 ab bc 9a 6a ea 3b
       0.031213304 -0.008308243 -0.020935964 0.007153821
000260 94 8c f8 bb a1 67 c2 bd ed 6a 97 bc 5e f7 90 bd
       -0.0075851176 -0.09492422 -0.018483603 -0.070784315
000270 f6 b6 98 bd fd ca 81 bd 01 5a ca bd 88 34 47 be
       -0.07456772 -0.06337545 -0.09880448 -0.19453633
000280 2b bd 69 be b2 99 d5 bd 9d db 05 bd 7e 83 a8 3c
       -0.22826068 -0.10429706 -0.032680143 0.020570513
000290 3c 14 fb bd 69 b0 cf bd dd 92 8e bd 80 10 b7 bd
       -0.12259719 -0.101410694 -0.06961606 -0.08938694
0002a0 6f b3 3f 3d 81 28 cc bd 95 6e 16 3d d5 51 07 be
       0.04680198 -0.09968663 0.036726553 -0.1321481
0002b0 67 b6 35 3d 8b 44 6e bd 39 a7 d6 bc 27 24 2b bd
       0.044363406 -0.058170836 -0.026202785 -0.041782524
0002c0 c5 8f 0b bc 95 e8 0a bd dd 61 12 3e 71 cc d8 3d
       -0.008518164 -0.033913214 0.14295144 0.10585869
0002d0 ce 66 13 be cd e5 02 bd 71 3a 4f be 72 eb d7 bd
       -0.14394686 -0.031957436 -0.20237137 -0.105429545
0002e0 fa 04 57 bd 84 16 01 3d a7 4a af bc 03 24 ec 3c
       -0.05249498 0.031515613 -0.021397902 0.028825765
0002f0 2a 69 de bd 37 4b ab bc 03 16 66 bc 36 f8 23 3e
       -0.10859902 -0.020909889 -0.014043334 0.16012654
000300 ae 29 a5 bd 21 7d 4d be 6a bf d9 bd 5c 3e 01 be
       -0.080645904 -0.20067264 -0.106322125 -0.12621444
000310 0a 5d 6c bd ba 62 d7 bd 1b ae 65 bb c1 aa c8 bc
       -0.057705916 -0.105168775 -0.0035046402 -0.024495484
000320 9c e1 84 3c 6b b3 74 3e 7b ba f1 3b ae 2c 18 be
       0.01622086 0.23896568 0.0073769665 -0.14860794
000330 46 19 25 3e ac ef 84 bd 4b cd eb bc 91 d1 c7 bd
       0.16122922 -0.06491026 -0.028784415 -0.097567685
000340 14 78 0a 3d ad 41 88 bd 96 f7 2d 3d f0 9b c5 3c
       0.03380592 -0.06653152 0.042472444 0.024122208
000350 8d 64 0a bc 5b 36 61 bc ed ad 90 3d 74 b6 7d bb
       -0.008446825 -0.0137458695 0.07064424 -0.0038713487
000360 8c e8 8d 3d 61 95 4a be 54 d6 73 be c1 66 cb bd
       0.069291204 -0.19783546 -0.23812228 -0.09931708
000370 1e e1 1b 3e 47 11 b7 3d c6 f5 13 3d 23 70 e4 bd
       0.15222594 0.08938842 0.03612306 -0.11154201
000380 b8 ea 38 be 39 4d cc bd 4b 2d 75 3d 2f 59 34 3b
       -0.18058288 -0.099756666 0.059857648 0.0027518978
000390 59 e8 54 be 79 1f 44 be ad 7e 82 3d 6f 04 a6 bd
       -0.20791759 -0.19152631 0.06371818 -0.081063144
0003a0 0b 0a 65 bd 26 b6 9b bd 5f 1a 39 3d b2 73 d3 bd
       -0.05591778 -0.076031014 0.045191165 -0.103248015
0003b0 d6 19 a1 3d 8e fc 92 bc 36 4d 9a bc e7 48 28 be
       0.07866256 -0.017942693 -0.018835645 -0.1643406
0003c0 b6 01 98 bd 4a 0f 61 3c 3d 3f 91 3d 3d 7a 83 be
       -0.07422201 0.013736555 0.0709214 -0.25679198
0003d0 ce f7 18 be b2 dd 52 be 5e 3c 2b bc 1f 60 24 be
       -0.1493828 -0.20592383 -0.010451404 -0.16052292
0003e0 03 bd 78 bd 7d d7 81 bd c9 d5 42 bd 4a a2 55 bd
       -0.06072713 -0.06339929 -0.047567163 -0.052156724
0003f0 cf 92 ad bd 50 0b 35 bd 7a 17 56 bd 9a 48 df bc
       -0.08475267 -0.04420024 -0.052268483 -0.027256299

q1_.2.bias f4 [256]
000000 1e a6 29 3d e9 83 37 bf 50 d6 41 3e c6 34 2f 3a
       0.041418187 -0.71685654 0.1892941 0.0006683584
000010 56 60 a5 be 54 f7 12 bf 41 c3 97 be bf 9e b1 3d
       -0.3230006 -0.5740864 -0.29641154 0.086728565
000020 4d 43 9b 3d 82 24 ee 3b aa 99 85 be 96 79 fb 3d
       0.07581196 0.0072675357 -0.260938 0.1227905
000030 79 3a 3a 3f f0 0f 1e be 76 bf 05 be 48 b9 4d 3d
       0.7274547 -0.15435767 -0.13061318 0.050225526
000040 de d4 e2 3e 45 54 1f be ef 5b a0 be 4a f4 d6 3d
       0.4430303 -0.1555949 -0.3132014 0.10495813
000050 33 90 08 be 35 a9 93 3d 16 8a 20 be 3e 77 a9 3d
       -0.13336258 0.07210008 -0.15677676 0.08274697
000060 44 e3 b2 bd 84 75 8f be 82 80 1e bf 42 50 c1 3c
       -0.08734754 -0.28019345 -0.6191484 0.02359784
000070 99 d1 dd 3d 11 00 d3 3d cd 1b 21 bf 13 85 f3 3d
       0.10830993 0.10302747 -0.62933046 0.11890616
000080 23 b3 4c bd 57 ea f3 be c5 3f 90 3d e8 e6 37 bf
       -0.049975526 -0.47639725 0.07043413 -0.7183671
000090 a4 91 18 bc 5e 17 2d 3c 84 f4 0e 3e d2 96 6f 3d
       -0.009312067 0.010564653 0.13960463 0.058493443
0000a0 c8 1b 44 bd b2 14 67 3d 06 20 82 3e 73 3a 08 bf
       -0.047878057 0.05641622 0.25415057 -0.53214186
0000b0 89 a3 b9 3b 85 fd 33 be bb 56 72 3d 90 5a 90 3d
       0.005665247 -0.17577179 0.059164744 0.070485234
0000c0 95 b1 8f bc 40 e2 35 bf 53 f8 04 bc 04 48 9a 3d
       -0.017540732 -0.71048355 -0.008115846 0.07533267
0000d0 e6 9e 26 be a4 ec 2e bf 88 56 30 be 7f 89 82 be
       -0.16271552 -0.68329835 -0.17220509 -0.25495526
0000e0 2e c9 a5 be bc b6 53 3e 90 f0 3b be a4 25 9a be
       -0.3238005 0.20675176 -0.18353486 -0.30106843
0000f0 46 26 17 3f 37 c0 81 3f 7a 40 68 bf cc a8 6e bf
       0.59042776 1.0136784 -0.90723383 -0.93226314
000100 85 39 90 3d f8 0c 82 bf 1c fa 02 3e cc 7e 55 3e
       0.07042221 -1.0160208 0.12790722 0.2084915
000110 a9 0b 2c bf 14 a4 30 bf 45 4f ba 3e 38 39 00 3f
       -0.6720529 -0.69000363 0.36388603 0.5008731
000120 74 9d fd b8 e9 31 a0 bf 8b 78 f6 3c 2b 45 64 bd
       -0.00012093308 -1.2515231 0.030086776 -0.055730026
000130 90 93 a8 3d ad 9a 75 3d c9 fb 7d be 6c 36 8d 3e
       0.0823127 0.059961963 -0.2480308 0.27580583
000140 91 e0 1c bf 77 e4 b8 3d 2a 69 fb be b0 3c 7a be
       -0.6128016 0.09027951 -0.4910367 -0.24437213
000150 85 ad 85 bc 38 3c 5c be 16 ee a0 3d f1 e0 3e 3e
       -0.016318092 -0.21507347 0.07857911 0.18640496
000160 fa 53 e7 3c 1f ff e8 bd 1d c9 86 bc 12 65 df be
       0.028238285 -0.113767855 -0.01645332 -0.43631798
000170 2a 3e ff 3d 4d 85 52 3e 85 c5 ab be 7c 06 76 bc
       0.12463029 0.20558663 -0.33549133 -0.015016194
000180 83 73 ac be 55 21 1e 3f d1 b7 15 3f 1e ce bd be
       -0.33681878 0.6176961 0.58483607 -0.37071317
000190 2b fa 3b bf 1a 78 2a 3f 25 3e 96 3d ca 05 a5 3e
       -0.734286 0.6658951 0.07336072 0.3223098
0001a0 8a 4d 80 3d b5 3e ac 3d 93 f1 07 bf 94 93 cf be
       0.062647894 0.08410398 -0.5310299 -0.4054228
0001b0 45 06 46 be 1b 2b 7f 3d 6d da 93 3e 7b f5 59 bf
       -0.19338329 0.062296968 0.28877583 -0.851402
0001c0 50 98 02 bf e0 5c 49 3c ab 56 f8 3c d1 13 2a bf
       -0.5101366 0.0122902095 0.030314764 -0.6643649
0001d0 b3 04 f2 3e 25 0c 96 3c 28 bb 8b be 1b 3b 1c 3f
       0.4726921 0.018316338 -0.27291226 0.6102769
0001e0 d6 20 24 3d 1a e7 68 3e a7 e1 33 3d 2d 37 90 3d
       0.040070377 0.22744408 0.04391637 0.07041774
0001f0 17 4a 7a 3d fa 5a 1c bf 71 19 90 bd 5b 79 82 3d
       0.061105814 -0.6107632 -0.070361026 0.06370803
000200 df 2d bc 3c 28 47 06 be 23 8d fb 3d 0d 09 37 bf
       0.022971092 -0.13113081 0.12282779 -0.71498185
000210 ce af 1f be f7 6a 91 be c2 b4 57 bb c6 7b c1 bd
       -0.15594408 -0.2840192 -0.0032914137 -0.09447436
000220 0b 2c 76 3d 42 63 8b be de d7 9c be 35 97 96 3d
       0.060100596 -0.27224165 -0.30633444 0.07353059
000230 a1 69 70 bd eb 9f a3 bd 53 c6 0a 3f b1 62 bd bd
       -0.058694486 -0.07989486 0.5420887 -0.092473395
000240 38 b0 c8 3d d7 cb 48 3f a4 f6 68 3d 6e bf 84 3d
       0.09799236 0.78436035 0.05687584 0.06481825
000250 78 3e 1e 3e 05 e3 0a bf 7a aa 30 bd 83 02 85 be
       0.15453517 -0.54252654 -0.04313133 -0.2597848
000260 89 71 5a 3d 4c e6 16 3f 3c 95 0b 3d f7 6b 31 3d
       0.05333093 0.58945155 0.034077868 0.043315854
000270 cd b4 2d bf de 8b a4 3d 8d 31 9f 3d 37 d1 a3 be
       -0.67854005 0.0803449 0.07773123 -0.31995556
000280 bf f3 7a 3c 8a d3 d9 be 2b d1 e3 3d 6b 03 70 3d
       0.015316903 -0.42544204 0.1112388 0.05859701
000290 36 45 84 be b7 0e 2a be 11 65 d7 3d e8 b5 b9 3e
       -0.25834054 -0.16607176 0.10517324 0.36271596
0002a0 28 4a 9c bc 56 0a f2 bd 0c 64 08 3e 20 9d 1a 3f
       -0.01907833 -0.11818378 0.13319415 0.60396004
0002b0 a0 16 c3 3d 6f fe 26 bc 6f 8d 24 bd 01 08 b3 be
       0.095258 -0.010192498 -0.040173944 -0.34967044
0002c0 19 1e 0e bf a6 0c 18 bd ae b6 1a bd bb da cd be
       -0.55514675 -0.037121437 -0.037771873 -0.4020594
0002d0 c3 5b 08 3e 05 66 93 3d f0 11 f8 3b 86 a5 97 bd
       0.13316254 0.07197193 0.0075704977 -0.07404618
0002e0 85 d7 f2 be 5f 1e 36 bf af a5 5b 3d b8 1a 4a 3d
       -0.47430053 -0.7114009 0.053624805 0.049341887
0002f0 82 eb e7 3d e3 e3 71 3d f7 15 f0 3e 15 74 d0 3e
       0.113242164 0.05905522 0.46891758 0.40713564
000300 a7 ef 24 bf 46 18 14 3f 09 7c d2 3d af a3 27 be
       -0.6442818 0.5784954 0.10277564 -0.16371034
000310 43 38 e5 be 02 29 b3 3d a6 10 28 3d 52 5f 5d 3d
       -0.44769487 0.08748056 0.041031502 0.054045983
000320 75 51 9c be ef a7 e7 be 90 22 20 bf 67 ab 13 3f
       -0.30530897 -0.4524531 -0.6255274 0.57683414
000330 ec 1c 0b 3d 64 19 87 bf 50 10 08 bf b1 41 87 bf
       0.03396313 -1.0554624 -0.5314989 -1.0566922
000340 d4 5a 05 bf 15 d5 fe 3e 1b 40 dd bc 4c 89 0c bf
       -0.5209172 0.49771944 -0.027008107 -0.54897
000350 a7 66 bb 3c ee 04 09 3e e3 96 47 3f 2b b9 9e 3e
       0.022876097 0.13380787 0.7796461 0.31000647
000360 ce ad 42 3f 78 4d cd 3d 2c 3a ef 3e 8e f6 96 be
       0.76046455 0.100245416 0.4672407 -0.2948498
000370 aa cc 5c bd 0c ee 8a 3d 5d 9b 11 be e0 09 8b be
       -0.05390612 0.06783685 -0.14219423 -0.27155972
000380 69 a1 5e 3d 61 dd 29 bf b4 0f 03 3e 41 85 0f 3f
       0.05435315 -0.6635342 0.12798959 0.56062704
000390 ec 9e 91 bd ad 44 db 3d 9f 82 01 bf 99 2c 5a 3f
       -0.0711039 0.10706458 -0.50589937 0.852243
0003a0 dc 23 08 3e e1 77 d1 3d 60 1c 05 be af d6 26 bf
       0.1329493 0.10227943 -0.12999105 -0.6517133
0003b0 73 4c fe 3d 5b 98 a0 3e 31 f9 c3 bb b5 41 0e 3f
       0.12416925 0.31366238 -0.0059806337 0.5556901
0003c0 32 80 53 bb ba b6 e7 be 95 e0 37 be 97 84 5e bf
       -0.0032272455 -0.45256597 -0.17956765 -0.86921066
0003d0 76 7f 1d be db 49 7d 3d b2 d4 60 3d 1d d0 1a 3f
       -0.15380654 0.061838012 0.054890342 0.60473806
0003e0 50 79 60 bf 33 ae af 3e c3 55 02 3f c8 ab 39 3f
       -0.8768511 0.3431259 0.5091211 0.7252774
0003f0 ed 39 87 bd a1 ee 51 3d 7c e1 77 bd 79 b3 10 3f
       -0.06602845 0.051252965 -0.060517773 0.56523854

q1_.4.weight f4 [1, 256]
000000 ff 60 34 bb e8 25 b5 bf b3 ab eb 39 ed 03 8b ba
       -0.0027523634 -1.4152193 0.0004495062 -0.0010606028
000010 10 36 9f be 8e b7 09 bf c5 40 54 bf aa e5 dc 3b
       -0.31095934 -0.5379571 -0.8291133 0.0067412453
000020 53 f3 ea bb a7 a4 00 3c 7c 4a c1 bf be b6 dd 3e
       -0.00717012 0.007851756 -1.5100856 0.43303484
000030 c3 8d d4 3d 42 c6 db be 37 a9 b3 3f 5f 00 35 bc
       0.103786014 -0.42924696 1.4036015 -0.011047452
000040 3c 30 16 3e 56 b5 6f bf 28 a2 25 bf 93 54 ed be
       0.14666837 -0.9363607 -0.64700556 -0.46353588
000050 8c 5a 8f bf 73 97 fe bc 95 28 92 be 6d 0f 07 3b
       -1.1199508 -0.031078076 -0.28546587 0.002060856
000060 26 0c ff be ad e5 9d bf 4c 37 46 be 63 49 57 be
       -0.49813956 -1.2335716 -0.19357032 -0.21024089
000070 ab be ef bb 91 09 47 bb fc 32 f0 be 2c 42 8a ba
       -0.0073164306 -0.0030370692 -0.46913898 -0.0010548285
000080 2d ff 8c bf 35 27 6e be 68 80 be 3b d2 3e 7d be
       -1.1015373 -0.23257144 0.005813647 -0.24730995
000090 b4 1e 30 3f 50 9f 46 3c d6 b3 18 3c 08 3b c8 38
       0.6879685 0.012122944 0.00932022 9.5477386e-05
0000a0 2e 27 19 bf 95 08 0e bb 2b 15 15 3f 1a 75 82 be
       -0.5982541 -0.0021672596 0.58235425 -0.25479966
0000b0 ee 2f c8 be 6b bb 02 c0 ca 57 57 bb c2 ec bb 3f
       -0.39099067 -2.042689 -0.0032858723 1.4681628
0000c0 e2 81 e0 3c 18 f1 8a be 95 ad b2 bf 8a 18 05 3e
       0.027405683 -0.27137065 -1.3959223 0.12997642
0000d0 a1 55 56 c0 27 b0 ca be 25 33 15 be 5d 2f 35 bf
       -3.3489764 -0.3958752 -0.14570291 -0.70775396
0000e0 a8 8a b8 be 87 f4 cc be e7 76 b6 bf c1 c8 7c bf
       -0.36043286 -0.4003031 -1.4255036 -0.98743826
0000f0 68 ca b4 3d ae 74 a8 3e 19 be 82 be 7e 9e 99 be
       0.088276684 0.3290152 -0.25535658 -0.30003732
000100 de c0 17 bc 8d c2 db be 1b 30 61 bb 86 4b 48 bf
       -0.009262292 -0.42921868 -0.0034360948 -0.7824024
000110 37 6c d3 be dd 90 87 be 5d d0 02 3e d4 1f 72 3c
       -0.412935 -0.2647771 0.12774797 0.014778096
000120 86 21 94 bb 82 54 bc be 62 9f d9 3b b5 3a 82 bb
       -0.004520598 -0.36783224 0.0066413144 -0.0039742836
000130 7e a5 e6 3f b4 db cf 3e 19 47 1b c0 37 61 b8 3a
       1.8019254 0.40597308 -2.4262145 0.0014067058
000140 35 db 08 bf e0 c7 33 3b f8 17 d5 be 03 8a a8 be
       -0.53459483 0.0027432367 -0.4161985 -0.32917795
000150 95 a8 84 ba 78 43 40 bf 26 11 11 bc 1d e1 96 3e
       -0.0010121042 -0.7510295 -0.008854186 0.29468623
000160 fa 54 6b bd 68 01 69 3f a0 3a bd bb db fb f5 be
       -0.057454087 0.9101777 -0.005774811 -0.48043713
000170 e9 e5 2d 3f 3a d9 2f 40 ee e7 11 bf e9 ec c7 ba
       0.6792894 2.7476335 -0.5699452 -0.00152531
000180 4b a8 98 be d9 fc 8c 3d f2 a6 cf 3e 81 59 4b be
       -0.29815897 0.06884164 0.40557057 -0.19858362
000190 3a 1d 92 be 02 8a d9 3d 05 cd 86 3b 4d a9 a2 be
       -0.28537923 0.10622026 0.0041137957 -0.3176979
0001a0 1c ab f2 3b d8 c1 dd be 0b 7a 83 be d0 00 20 bf
       0.0074056517 -0.43311954 -0.2567905 -0.6250124
0001b0 de 67 d0 be d7 f4 a2 ba 86 b6 29 bb 51 86 8a bf
       -0.40704244 -0.0012432587 -0.0025896146 -1.082224
0001c0 1f 8c 95 be dc f5 8a bc de a7 97 3b 6e 6a b1 be
       -0.29208466 -0.016962938 0.0046281656 -0.34651512
0001d0 f8 7c 86 3e 83 57 f2 3c c3 d8 01 bf d3 30 8b 3d
       0.2626722 0.029582744 -0.5072138 0.06796422
0001e0 c3 c9 79 3c 5a 46 56 b7 75 3d 0d 3c 06 22 16 3c
       0.015245858 -1.2771774e-05 0.0086206095 0.009163385
0001f0 de b3 88 bf 95 dd a9 be 46 41 26 bf b8 45 2f be
       -1.0679891 -0.33176866 -0.6494335 -0.1711644
000200 a5 0e 87 3b 96 b3 1d be 01 4b ca be 60 ee e0 bf
       0.004121619 -0.15400538 -0.39510348 -1.7572746
000210 e3 e6 c9 be 46 0f a8 be ae 35 a3 bc e5 a0 81 3f
       -0.39433965 -0.32824153 -0.019923057 1.0127226
000220 f1 88 a3 3f c3 6e 95 be 88 99 a8 3f 4a e9 de 3a
       1.2776166 -0.29186067 1.3171854 0.0017006781
000230 34 69 e2 be 96 b2 91 be 67 0d 6b 3d dd 80 2c 3f
       -0.4422089 -0.28456563 0.05738583 0.6738413
000240 36 78 17 bc c5 68 28 3e f7 f2 62 3f 73 54 aa 3f
       -0.009244969 0.16446216 0.88651985 1.3307022
000250 48 ac 28 3f fe 56 55 be fe c1 02 bf 46 86 66 be
       0.6588788 -0.20833966 -0.5107726 -0.22512159
000260 8c 39 0d 3b bd 24 5c 3d 45 bb 0a bb 72 4d d0 bb
       0.0021549193 0.053745974 -0.002116875 -0.0063568885
000270 55 e4 f8 be 8b 73 62 3b 5e f2 15 bc 1a a8 b6 be
       -0.48611704 0.0034553732 -0.009152023 -0.35675126
000280 b7 df 9b 3f a6 42 95 3f f6 5c 48 bf af 4e bc ba
       1.2177647 1.1660964 -0.7826685 -0.0014366711
000290 6a 3f 16 be 8a 62 c2 be 3c 88 09 3b 1c a0 c4 3d
       -0.14672628 -0.37965804 0.0020985743 0.09600851
0002a0 fa 08 d7 be c9 e1 aa be de 48 12 3c 97 2b 27 3e
       -0.41999036 -0.33375385 0.008928506 0.16325222
0002b0 97 40 3f bd 1d be 8c ba 64 59 86 bc 26 51 29 c0
       -0.046692457 -0.001073781 -0.016400047 -2.645578
0002c0 4d 6d 9b be 1f c4 a4 bb ce e5 1b 3c 0b 3a e9 be
       -0.30356827 -0.0050282623 0.009515239 -0.45552096
0002d0 5a 83 33 bf ae 57 95 3b 6e ae 83 bf 67 89 30 bd
       -0.701223 0.0045575714 -1.0287607 -0.043099787
0002e0 c3 ce 5b c0 f0 32 56 bf dc 63 9b 3f 4a c0 d0 bb
       -3.4344947 -0.83671474 1.213985 -0.006370579
0002f0 e2 87 7d bf d8 a4 c0 ba 8d 12 14 3e e6 7b ec 3d
       -0.99035466 -0.0014697565 0.14460202 0.11547069
000300 f8 89 f2 be d3 a8 64 bf 28 1a b5 bb 10 88 8d be
       -0.47370887 -0.89320105 -0.0055267997 -0.2764287
000310 5c 48 01 bf 1b 33 48 3f 15 f3 82 3b b3 08 7c 3e
       -0.50501037 0.7820298 0.003996263 0.24612693
000320 b7 ab 96 3f 20 5d 95 be f1 42 c5 be c8 41 f9 3d
       1.1771153 -0.2917261 -0.38527635 0.1217075
000330 65 a9 9a bb 23 2c 48 bf 27 ff 9d be e5 23 df be
       -0.0047199004 -0.7819235 -0.30858728 -0.43582073
000340 ca 98 28 bf 7a 44 af 3d 13 be 7c 3f 77 b3 ff be
       -0.6585814 0.08557983 0.9872753 -0.49941608
000350 01 5c d2 bc 99 a8 b4 be 65 8a 70 3e b5 f1 c6 be
       -0.025678637 -0.3528488 0.23490293 -0.38856283
000360 77 93 4d 3e 14 3a f3 ba 00 09 93 3e 81 56 95 be
       0.20075785 -0.0018556737 0.28717804 -0.2916756
000370 e8 f3 ca bc a6 df 12 bc 8a fb 1b be 39 37 8d be
       -0.024774507 -0.008964455 -0.15232673 -0.27581194
000380 65 35 0c 3c 63 39 b8 be 75 f8 be be b8 df dd 3d
       0.008557652 -0.35981283 -0.37298933 0.108336866
000390 5f c6 9c be e4 ae 18 bf e6 7e 88 bf 9b 85 65 3e
       -0.30620095 -0.5964186 -1.0663726 0.22414248
0003a0 7f 22 8c be e1 88 4a 3b 0e 1e ec bf 60 21 4b bf
       -0.27370068 0.003090434 -1.8446672 -0.793478
0003b0 7d ce 0f 3c 12 db 26 3e 24 1a 83 3c d7 3d f0 3d
       0.008777258 0.16294506 0.016003676 0.11730545
0003c0 dd 37 19 ba f9 0d 1e bf d7 66 a1 bf d5 2f 52 bf
       -0.0005844811 -0.6174007 -1.2609509 -0.82104236
0003d0 64 07 70 3f 5d fa 83 bb 15 31 01 3c e9 f3 91 3d
       0.9376128 -0.0040276484 0.007885237 0.071266
0003e0 59 3f 83 bf bc 74 16 3f be a0 01 3e 99 01 2e 3f
       -1.0253707 0.5877187 0.12658975 0.6797119
0003f0 7a 40 37 3f 97 12 36 bd ca 8c 63 bc a2 99 f7 3d
       0.7158276 -0.044451322 -0.013888547 0.1208985

q2_.0.weight f4 [256, 23]
000000 43 e6 f3 be 17 0a 88 3e 86 a4 ae 3e 8e de e5 3e
       -0.47636613 0.26570198 0.34109896 0.44896358
000010 46 94 2f bf f2 cd de 3d 49 70 56 3e 33 3d 87 3e
       -0.6858562 0.10879125 0.20941271 0.2641388
000020 4e 11 15 3e 1d f3 0c be 25 50 13 bf 0d b8 a4 be
       0.14557382 -0.13764615 -0.57544166 -0.3217167
000030 61 8a 02 bf 4f c0 8b 3e d1 82 a4 be 25 05 ca bc
       -0.509924 0.27295157 -0.32131055 -0.024660656
000040 a7 b2 c5 3d cb 1b 50 3e d6 47 f8 be 85 ff ed bd
       0.09653216 0.20323102 -0.48492306 -0.11621002
000050 8b b3 84 3e 2e c8 2c be 5c ba 9d 3d 3c 8f 49 3f
       0.2591823 -0.16873237 0.07701561 0.78734183
000060 41 4a 27 3f bf 03 15 be 8d 95 95 3e b7 46 05 be
       0.6534768 -0.1455221 0.2921566 -0.13015257
000070 69 81 38 bf 33 b3 db bb 87 ad c5 bd de b2 f7 3c
       -0.72072464 -0.006704712 -0.09652238 0.030236658
000080 e7 69 51 be 68 62 5a be 6a 76 3f bf 59 6b 0e bf
       -0.20450555 -0.21326602 -0.7479006 -0.5563255
000090 0c f1 f7 bc d6 21 c2 3e c2 2f 54 be dd 65 d5 bd
       -0.030266307 0.3791644 -0.20721343 -0.104198195
0000a0 1b d7 b3 3e 10 b9 71 be e7 43 51 be 39 bc 82 bb
       0.3512505 -0.23605752 -0.20436059 -0.003989723
0000b0 2a 1c 62 be e4 da 94 bd 4b 1c 3b bf 72 b1 20 c0
       -0.22081056 -0.072683126 -0.73090047 -2.5108304
0000c0 2b 3a c1 3d 1d a8 aa bd 3c c9 29 be 7a ff 94 be
       0.09434923 -0.08332846 -0.16580671 -0.29101163
0000d0 71 9f 83 bd 79 3d 04 bd a3 34 8e bd b2 a1 fd be
       -0.064268954 -0.032285187 -0.069436334 -0.49537426
0000e0 76 ca 03 bf 75 4d 39 bf b7 43 30 bf 19 fe 2b bd
       -0.51480806 -0.72383815 -0.68853325 -0.041990373
0000f0 15 ce f8 bc 44 10 02 bc 5e 33 81 bc ac 41 21 be
       -0.030371705 -0.007938448 -0.015771564 -0.15747708
000100 97 e4 f3 be 72 f0 38 bd 21 6b 9b 3e 23 99 07 bd
       -0.47635338 -0.04515118 0.3035517 -0.033105027
000110 95 88 36 bc da ac c0 3d ec 63 93 bf 5f 30 a2 be
       -0.011140962 0.09407969 -1.1514869 -0.3167753
000120 12 37 1e be 3a 89 58 3e f0 86 80 bd 8a e7 be bc
       -0.15450695 0.21146098 -0.06275737 -0.023303766
000130 b8 ce c6 3e ce b7 b4 be 04 46 20 bd 1b 93 05 bb
       0.3882959 -0.35296482 -0.039129272 -0.002038187
000140 1c cd d9 be 16 0a 9a 3c cb a3 6e bd be f4 d9 bd
       -0.425393 0.018803637 -0.058261674 -0.10642384
000150 3a 80 8e 3c c2 79 1e 3e b4 5e 9c be 66 09 3a bf
       0.017395128 0.15476134 -0.30541003 -0.7267059
000160 0d 7b b4 3d c2 cc 23 3e 30 2e fb 3d 07 6d 21 bb
       0.088125326 0.15996078 0.12264669 -0.0024631636
000170 2a 58 6c bc 9e bc 5e 3e b8 8b 58 3e 3e 34 5b 3e
       -0.014425317 0.21751639 0.21147048 0.21406648
000180 77 aa 53 3d f5 5e 2c bf bb 25 85 be d0 ee 6d be
       0.05167624 -0.6733239 -0.2600535 -0.23235631
000190 f0 28 8a 3d f2 ad 5c be f1 ee 5f 3e c9 2a d2 bc
       0.067460895 -0.2155073 0.21868493 -0.025655167
0001a0 ba 04 23 3e 6a b1 97 be 81 c5 f6 3c cd d6 10 3e
       0.15919772 -0.29627544 0.030123474 0.1414444
0001b0 5c 39 81 be e7 79 ab be 4e 84 0f 3e 11 44 9e bd
       -0.25239074 -0.33491442 0.14015314 -0.077278264
0001c0 02 1f 84 3e 99 aa 8e 3d c6 f9 0f 3e 0c 60 81 3e
       0.25804907 0.06966133 0.14060125 0.2526859
0001d0 a3 63 fa bd 64 9e fe bd 44 a7 6c 3e b3 f5 e4 bc
       -0.122260354 -0.12432554 0.23110682 -0.02794919
0001e0 5b 9e d4 be 3f 3e e6 bc 03 c5 33 bd 7a f5 37 3f
       -0.41527066 -0.028105853 -0.043889057 0.7185894
0001f0 e5 fa ab 3e f1 2b 1a 3e 91 80 0a bd ed 52 05 3f
       0.33589855 0.15055825 -0.033814017 0.5207966
000200 c8 f2 0e be ca b6 91 bd 4c f4 d2 3d b7 f6 f3 3c
       -0.13959801 -0.07114942 0.10300502 0.029780729
000210 25 2f 80 be fa 27 48 be e6 77 ec bd 8c b4 af 3e
       -0.25035968 -0.195465 -0.11546306 0.34317434
000220 24 9b c5 bd 89 5b 66 be ac 12 3e bf 37 e7 47 40
       -0.09648731 -0.22495855 -0.7424724 3.1234872
000230 1b 74 7c bd 2f 3d d1 3c 26 75 ab 3b e7 05 31 3f
       -0.061634164 0.02554187 0.005232471 0.6914963
000240 b0 6c 99 3e 8b ff de 3d c9 3d ac bc 3e fb 71 be
       0.29965734 0.10888585 -0.021025555 -0.23630998
000250 29 de 97 3e 90 ad 81 bc d5 99 90 3c 68 8b 18 3d
       0.29661682 -0.015829831 0.017651478 0.037242323
000260 a7 1e 3d 3f c6 0d c8 3e 33 e5 fb 3d c6 74 64 3d
       0.73874897 0.39073008 0.12299576 0.055775426
000270 a9 1e 06 bc 0c 6a 4e 3c 07 7e ac 3d a6 c4 a2 3e
       -0.008186021 0.012598526 0.08422475 0.31790656
000280 32 2f 06 3e 6e ff 58 bf 77 3a 2b 3e d6 3e 6e 3e
       0.13103941 -0.84764755 0.16721521 0.23266158
000290 30 d3 45 bf a7 db 62 be 46 7e 21 be 8f 0f 0d bd
       -0.7727537 -0.22154103 -0.15770826 -0.034438666
0002a0 92 70 73 3d 9d b6 de be c5 6a bb 3d 57 90 d9 3d
       0.059433527 -0.43498698 0.09151224 0.10623234
0002b0 16 4b b0 3f 73 7b 4d 3f f8 96 67 3e 08 3b 88 be
       1.3772914 0.80266494 0.22616184 -0.26607537
0002c0 34 91 b8 3d 2e 77 1a 3c 0b 9c e9 3e 42 54 02 be
       0.0901207 0.009427829 0.45626864 -0.12727454
0002d0 77 b9 e3 bd a4 3f 82 bd c1 63 f4 3e 86 45 15 3d
       -0.11119359 -0.06359795 0.47732356 0.036443256
0002e0 f4 6c 0c bf a1 2d 25 c0 b2 ea 76 be a7 8d c6 be
       -0.5485375 -2.58091 -0.24112967 -0.38779947
0002f0 8b 95 48 bc d5 2c 10 be 6f fa 9e bd 14 b2 87 bd
       -0.012242685 -0.14079602 -0.0776261 -0.066257626
000300 30 67 a2 bd ae 73 12 bf 5b 84 f1 be 36 d4 10 bf
       -0.07929838 -0.57207763 -0.47171292 -0.5657381
000310 77 8f 1c bf 8e 72 bf bd 3d e3 92 be a1 1e af bc
       -0.6115641 -0.093480214 -0.28688994 -0.02137691
000320 5b 48 5d bd 39 8d 95 be 27 42 00 be 0d b2 03 3d
       -0.05402408 -0.29209307 -0.12525235 0.032152224
000330 83 a3 d5 3b 5f 57 d0 bd 1d 8f 0a bd 57 33 ca bd
       0.0065197363 -0.10172915 -0.03382789 -0.098730735
000340 ec 25 f4 3d 5c 1b a7 3d e5 1e 16 bf 65 b3 66 be
       0.119212955 0.08159515 -0.5864089 -0.22529371
000350 47 d1 4e 3d ae d6 b3 3d cc 7e 63 3d 74 20 f4 3e
       0.05049255 0.08781181 0.055540845 0.4768101
000360 ae bd c8 3d 73 93 aa bd e3 61 14 bf fe f7 9c 3e
       0.098018035 -0.08328905 -0.57961863 0.30657953
000370 65 48 e0 3d 75 4e 92 3e 46 40 87 3d 54 a2 b9 bd
       0.10951308 0.28575483 0.06604056 -0.09064165
000380 e4 b8 19 be 77 ed 1a 3f 74 0b 63 3d 59 ae 81 3d
       -0.15011936 0.6051859 0.055430844 0.06332082
000390 82 fa de bd a5 9f 4e bc f3 f8 6e 3f 8b 2e 5c 3f
       -0.10887624 -0.012611304 0.93348616 0.8600852
0003a0 11 f5 ba bd ca 6c e9 3e 5a 26 81 3e 44 cf 5f be
       -0.09128774 0.45590812 0.25224572 -0.2185641
0003b0 cb 6d 54 be 52 c7 2b 3b 87 d2 62 3e 8d f1 a5 3e
       -0.20745008 0.0026211333 0.22150622 0.3241085
0003c0 d1 db cc be ac 89 51 bd 90 82 27 be c7 cb 19 be
       -0.40011457 -0.051156685 -0.163584 -0.15019141
0003d0 02 66 f9 be 0e 78 3f be 18 7e 23 bd 5d a3 bc 3e
       -0.48710638 -0.18698141 -0.039915174 0.36843386
0003e0 e7 0f ec 3d ea 50 25 bc 7b 34 ba 3d 79 34 bb 3d
       0.11526471 -0.010090092 0.09092041 0.09140868
0003f0 77 98 cc bd c2 1a 09 3f 94 c3 44 3f b1 e8 45 bd
       -0.09990018 0.53556454 0.7686093 -0.048317615

q2_.0.bias f4 [256]
000000 10 88 9f be 46 f6 c7 be f7 f9 03 3d c0 01 c2 be
       -0.31158495 -0.3905508 0.032220807 -0.3789196
000010 12 e0 e5 3d ee 85 d4 3e f0 6e 82 3e 32 08 1d 3c
       0.11224379 0.4150843 0.25475264 0.009584473
000020 e6 0d ed bb d2 13 27 be 04 3c 26 bd cf 10 6d be
       -0.007234323 -0.16316155 -0.04058458 -0.23150943
000030 71 08 65 be 0b d1 11 bf 3e a7 b1 ba 45 d8 e4 be
       -0.22366501 -0.569596 -0.001355387 -0.4469625
000040 2f 2d 95 3e 69 bf 24 bf 02 1b 06 bf db f6 a6 be
       0.29136035 -0.6435457 -0.5238496 -0.3261021
000050 f9 e1 7b bf bf ba a8 be 8c 35 32 bf 4c df 85 3d
       -0.9839168 -0.32954976 -0.69612956 0.06536731
000060 2e eb 32 3f a4 b4 83 be eb 7a 16 bf 19 42 aa be
       0.69890106 -0.25723755 -0.5878131 -0.33253554
000070 a9 66 88 bf b5 f8 a4 bf da 6d 08 bf 6a b1 99 bf
       -1.0656329 -1.2888399 -0.5329262 -1.2007267
000080 f6 4e b9 3d 1f bd 8a bf 58 d8 f0 be b1 bd 63 bf
       0.09048264 -1.0838965 -0.47040057 -0.8896132
000090 78 b5 25 bf 89 61 bc 3d 87 c1 75 3e 14 13 7c 3f
       -0.64730024 0.09198291 0.23999606 0.9846661
0000a0 42 04 50 bf 02 1f 47 be d2 23 8d bf f4 9d ab bd
       -0.81256497 -0.19445422 -1.1026556 -0.083797365
0000b0 94 09 84 bf 98 82 49 bf 6b 68 7f 3e ae 2c d6 be
       -1.0315423 -0.78714895 0.24942176 -0.41830963
0000c0 75 b9 e9 be b2 40 c8 3e e8 96 88 bf 36 a9 84 bf
       -0.45649305 0.3911186 -1.0671053 -1.0364139
0000d0 d7 9c 1a 3e 42 1a 71 be c3 46 1c bf f1 70 f7 bd
       0.15098892 -0.23545173 -0.61045474 -0.12082089
0000e0 27 ea 13 bf 03 55 2d bf 60 b8 7a 3f b0 71 6f be
       -0.57779163 -0.6770784 0.97937584 -0.23383212
0000f0 40 42 ab bf 19 6e 37 bf 33 ab 2b bf 93 d9 4e be
       -1.3379593 -0.7165237 -0.67058104 -0.20200185
000100 9f 3e b4 be 2e c8 80 be 15 84 91 3e 2c c2 0c bf
       -0.35204026 -0.25152725 0.28421083 -0.5498378
000110 8c 30 66 3f d0 94 b8 be d2 d2 0e bf ea b4 17 be
       0.89917827 -0.36051035 -0.55790436 -0.14815107
000120 34 d1 23 bf 2e 26 a3 bf c9 e1 24 bd cc 58 e9 be
       -0.63991094 -1.2746027 -0.040254388 -0.4557556
000130 e7 b3 b8 bf 89 e9 ce be 1a 07 56 bf 82 e4 5f bf
       -1.4429902 -0.40412548 -0.83604586 -0.8745805
000140 66 7a 3c bf 7f e8 4b 3e ee cf 1d be 52 c1 9c bf
       -0.73624265 0.19912909 -0.1541135 -1.2246497
000150 f6 77 91 bf ef ac 86 bf 65 71 c4 be 0a 7b 0f be
       -1.1364734 -1.0521525 -0.38367763 -0.1401178
000160 08 82 e5 3e 01 a7 45 bf 62 5e 1d bf 7a 19 88 3e
       0.44825768 -0.7720795 -0.6147214 0.26581937
000170 d3 d7 0c 3e 79 52 d9 3e ba b5 3b 3e 95 f1 2d 3f
       0.13754205 0.42445734 0.18331042 0.6794675
000180 cd 21 5f bd 43 19 23 3e 66 87 84 bf 00 29 90 3d
       -0.054475594 0.15927605 -1.035382 0.0703907
000190 ab 07 71 be 0f 66 c1 3e a1 84 9a be 86 ff 15 bf
       -0.23538081 0.37773177 -0.30179313 -0.5859302
0001a0 fa 12 ec be bd d4 a2 bd eb b7 5c 3d e0 bc bb 3e
       -0.46108228 -0.07950733 0.053886335 0.36667538
0001b0 81 78 fe bd ec 41 ad bf 8c 58 5c bf 79 e5 cd be
       -0.12425328 -1.3535743 -0.8607261 -0.40214136
0001c0 50 56 42 3e 9e 0a 3b be 63 e8 e7 3e 42 11 17 3f
       0.18978238 -0.18265769 0.45294484 0.5901071
0001d0 70 a5 67 3e 66 f2 59 bf c7 29 bc 3e ac 31 3a 3f
       0.22621703 -0.85135496 0.36750624 0.72732043
0001e0 18 ee 6c bf 2f 6c 8a bf bd 06 71 3d 46 34 84 3e
       -0.925508 -1.0814265 0.058844317 0.2582113
0001f0 29 43 de bd 8e 98 36 bf 7c 3c f6 3e 85 9e 11 bf
       -0.108526535 -0.7132653 0.4809302 -0.56882507
000200 ce c8 d7 be 1f a4 bf be cf ee 02 bf 4a 17 a3 3e
       -0.4214539 -0.37429902 -0.51145643 0.31853706
000210 9e ea fe 3e 86 38 a7 bf 30 bb 13 bf 07 42 73 bf
       0.49788374 -1.3064125 -0.577075 -0.95022625
000220 89 80 9e bf 61 50 69 3e 51 67 4a bf 77 2c 9d 3e
       -1.2382976 0.22784568 -0.790639 0.30697986
000230 3d a4 dc 3d fc 74 b6 bf 63 75 8a be ae de 67 bf
       0.107735135 -1.4254451 -0.27042684 -0.9057416
000240 05 09 a8 be 32 78 17 3f d7 a7 00 bf 6b 46 95 bf
       -0.3281938 0.5916778 -0.50256103 -1.1662115
000250 c4 ea 9b 3e e5 fd 15 bf 36 b8 f9 3e c6 4c 56 3c
       0.3045255 -0.5859054 0.48773354 0.013079828
000260 0a 93 7c be 12 f0 b8 bd b9 e3 d8 bd 9e 17 0a be
       -0.24665466 -0.09030165 -0.1059031 -0.13485572
000270 61 c0 0c 3e 36 38 04 3e a9 51 93 bf 30 0f 08 c0
       0.13745262 0.12912068 -1.1509296 -2.125927
000280 11 35 1d be 95 54 64 bc c6 8f 9b 3e f7 53 9b bd
       -0.15352274 -0.013936182 0.30383128 -0.075843744
000290 6b aa 8c be ec 24 81 3f 29 b7 3b bf 23 e0 50 bf
       -0.2747377 1.0089393 -0.73326355 -0.81592005
0002a0 2e 18 04 bf 15 ca 97 be f7 ec 49 bf eb 33 31 bf
       -0.51599395 -0.29646364 -0.78877205 -0.69219846
0002b0 36 0b ef be c0 e8 20 3e a0 6a 90 bf 08 ad 13 3e
       -0.4668824 0.15713787 -1.1282539 0.14421475
0002c0 89 01 b3 bf 98 8e 40 3e e9 80 66 bf 93 db ec bd
       -1.3984843 0.18804395 -0.9004045 -0.11565318
0002d0 77 75 80 bf 83 94 83 bd e1 bc ab be 7f 42 6b 3d
       -1.0035847 -0.06424811 -0.3354254 0.057436462
0002e0 98 f9 2c 3f 5e ca 92 bf ae f5 43 bf be 27 03 bf
       0.6756835 -1.1468008 -0.7654675 -0.51232517
0002f0 07 78 05 bd 86 20 8d bf 43 e5 0c 3f 5f b1 0f 3f
       -0.03258517 -1.102555 0.55037326 0.5613002
000300 e4 2f 04 c0 3f 94 4c bf 4d 15 3b 3e 73 50 fe bf
       -2.065423 -0.79913706 0.18269844 -1.9868301
000310 ca 38 20 bf eb 07 13 bf cc a3 46 bf 37 56 49 3e
       -0.62586653 -0.57433957 -0.77593684 0.19661795
000320 1d b7 18 bf 72 98 87 3e d5 3b 2b be f3 82 78 bf
       -0.5965441 0.26483494 -0.16722043 -0.9707481
000330 9d 8d 8f bf 2c 25 3b bf 5a 9e 4e 3c 5d f6 31 bf
       -1.1215092 -0.73103595 0.012610996 -0.69516546
000340 e7 70 0c bf 6f 1c 9e bd d6 d5 97 be 02 4b 4e be
       -0.54859775 -0.07720267 -0.2965533 -0.201458
000350 15 02 fa be 14 c4 a3 bf c9 d8 8f be 6a 07 23 be
       -0.48829713 -1.2794213 -0.2809508 -0.15920797
000360 a9 33 b3 be 7e 9b 3d be 97 30 c7 be 17 e4 ec bd
       -0.3500035 -0.18516347 -0.3890426 -0.11566942
000370 d3 03 6e bf 24 f2 2c 3f 47 e4 d0 3e ce dd 2a 3d
       -0.92974585 0.6755698 0.40799162 0.041715436
000380 cf 10 87 3e 7a 12 ac be 5e da 14 bd 5c 51 86 bf
       0.2638001 -0.33607846 -0.036341064 -1.0493579
000390 f5 3c 67 be 40 29 99 bf 75 7b 42 3e 2d 84 28 bf
       -0.22581847 -1.1965714 0.18992408 -0.65826684
0003a0 6c 65 36 bd 43 06 0d bf ec 65 e2 3d 92 25 e5 3e
       -0.044530317 -0.5508768 0.11054596 0.44755226
0003b0 d1 48 b3 3c 11 a9 35 3e 32 4f c1 be 55 e8 82 bf
       0.021885308 0.17740275 -0.37755734 -1.0227152
0003c0 fe 41 1e bf b0 87 bf be 4b e4 a8 3e 72 67 ee bb
       -0.61819446 -0.3740821 0.32986674 -0.0072755152
0003d0 37 b0 cd bf 8f fa 13 bf 71 c1 63 3f a0 61 1b bf
       -1.6069402 -0.578042 0.88967043 -0.6069584
0003e0 99 b9 c2 be 15 c9 41 3e 71 9c 81 3d bd dd 8e be
       -0.38032225 0.18924363 0.06328667 -0.27903548
0003f0 08 ae 31 bf 43 a1 2a 3f 69 0e d4 3d b8 ea ce be
       -0.69406176 0.66652316 0.10354311 -0.4041345
