online_weights/spot_hopper_medium/critic_s1000000.pth (torch, 563249 bytes, 10 tensors)

q1_.0.weight f4 [256, 14]
00000000: b884 57bd 54ca 603c 14c0 6a3b 503c 613f
00000010: 4854 13bf c76f 823f 3f93 32bf 9e65 783f
00000020: 1c5e 03c0 abba 69bf 205c a8bf f398 4fbe
00000030: ba63 113e 95ef 253d 51cf 2c40 3f36 b6bf
00000040: 9fe2 fe3f 712f 22c0 7bfc ccbf 1e09 92bf
00000050: f9c8 87bf 6698 a73f 201d 863f f42a 0340
00000060: d463 1fbf 6368 c23f a8d7 0b3f e58e f2be
00000070: 9414 a83f a732 953f 5223 0840 391f 9dbe
00000080: 2bb5 0240 1e6e adbf 6ce9 2e40 5ebd a5be
00000090: b350 84be cc51 0540 727d a0bf a404 07bf
000000a0: 14c8 cc3e b41f c4be b72b 363f 7e22 a8bf
000000b0: 0645 2ec0 ae96 4740 ecc2 53c0 571c 9840
000000c0: e8d5 9fbf 9600 0540 fef2 eebf dc75 a3be
000000d0: f014 3b3f 2a19 ad3f 71a5 9b3f 7b39 38be
000000e0: 1b08 413f 3de3 c53e 702a 4bbe c631 903f
000000f0: 4422 10c0 e9bc 99bf 7fcc 1a40 40a9 7b3e
00000100: 435a 783f dbd9 2f3f e750 8e3f d062 4f3f
00000110: d796 65bd 3043 27be a573 61be 8eca 9ebe
00000120: dae8 643f d60f 89bf 410e 0f3f 5ee9 94bf
00000130: 8829 75bf e1d5 9e3e 73c3 003f 9950 6abf
00000140: d115 2e40 5343 3a3f 69bf 53bf a268 bc3e
00000150: 3a7b da3e ba37 213f 4f0c 253f d7c4 2b3f
00000160: b3d0 8a40 1baf 02c0 4edf 9b3f f224 b13f
00000170: 9299 34bf a10d 84be c7bc 69c0 71ed 513f
00000180: e64a 3fbc 07f3 86bf 8287 0bbf bbee 49bf
00000190: 6b3b 7040 3be2 3140 7d87 923f e4bc 10c0
000001a0: 6850 2a3f 1a00 9bbe ce59 853f d221 c43f
000001b0: f859 553f c93f 303e a81d 1abe 53ad 3e3d
000001c0: 91d7 3b3d 6c54 883f 169c a2bf 8e8d a7bf
000001d0: fcc2 59bf cc67 2f3f b6c6 6bbf 20de a43f
000001e0: b21c 53bf 8730 fabe 96a5 53be 0bee 5f3f
000001f0: 50b3 9d3e 9a68 2ebd 7fa0 3a3f 2de5 febe
00000200: 8693 9d3f 46e1 473f 158f 4b3f 7502 a9bf
00000210: 9c45 6c3f e95f 58be 9fb7 483e f172 a33f
00000220: e1d1 9d3e b59d dbbe a0cf 803e 5a65 663e
00000230: 9ed7 11bf 4f74 60bf 0feb 123f bd65 6340
00000240: 68f2 fdbd fd5d 063f 2cf7 debf f9b8 9abe
00000250: d9d3 a73e 9882 253f bb0f ac3f 47b0 7a3e
00000260: 5a99 8c3f efb6 26bd a496 fbbf 193e 8b3d
00000270: ecf9 1f40 e586 373f 6509 36bf 5b73 8a3f
00000280: 7725 97bf d015 42bf 0374 873f ab34 393f
00000290: 6f6a 203e 5bd8 18be 465b f53d 522f 00be
000002a0: 864c dfbf 833d 37bf e044 25be a631 12c0
000002b0: 6ce3 0140 c80c 6cbf 89e1 39c0 87c1 cdbe
000002c0: a1c5 6abf 4a93 8d3f b50a 0fbf 95a0 8ebf
000002d0: 4e6e e33e 8a3e 873e 8622 1c40 d573 eb3f
000002e0: 95ff 0640 e6f1 4640 d547 4cbf c582 ca3d
000002f0: ce11 543f 5a0a 3f3e b6d6 1b3f 5985 f6be
00000300: 2da5 34bf 3882 0b3f 840e 2abd 7f58 80be
00000310: 41cd ee3d 6bbb 47be 9f0e 963f 00a2 25bf
00000320: 2687 e83f 8c85 c2bf 142f 0d40 5594 92be
00000330: 7c74 2640 7562 bfbf f451 0440 d8ce 413f
00000340: 4b59 c6be 3cd1 4c3e 9250 53c0 3431 e93f
00000350: 5823 103d fc74 46be bdf9 713e d830 debf
00000360: f90e 143c 8f9d 8f3f 2509 b6bc 2e47 b0be
00000370: 9d9b 7bbf 2408 883f fff1 e23d b9e6 d0be
00000380: 4790 12c0 2952 26c0 21c0 9d3f 463f 1cbf
00000390: 6a61 7a3f f456 59bf 33c9 5bc0 d287 ca39
000003a0: 2e8f ebbf fb56 4f3e 7a3d f2bf 51c1 fdbf
000003b0: f278 4ebf 2f59 99bf ffcb c73f c6fe f9bf
000003c0: 62f1 efbd 84d6 913f 6fc5 1bbf f895 703e
000003d0: 01a3 19c0 5677 b7bd 5879 1d3f 7bbd c63f
000003e0: 6c2f 0840 5448 babe 750f 8f3f e8ee 2b3f
000003f0: ff9d 583f 6149 e8be 653c a2bf d5c6 f63d
-0.052616805 0.013720114 0.0035820054 0.87982655 -0.5755048 1.0190362 -0.6975593 0.97030056
-2.052619 -0.9130046 -1.3153114 -0.20273189 0.14198199 0.040511686 2.7001536 -1.4235305
1.9912909 -2.5341456 -1.6014551 -1.1409032 -1.0608207 1.3093383 1.0477638 2.0494967
-0.622617 1.5188106 0.5462594 -0.47374645 1.313128 1.1656083 2.1271558 -0.30687883
2.0423076 -1.354923 2.732997 -0.32371038 -0.2584282 2.0831175 -1.2538283 -0.52741456
0.39996397 -0.38305438 0.71160454 -1.3135526 -2.7229629 3.1185718 -3.308772 4.7534595
-1.2487154 2.0781608 -1.8667905 -0.31925857 0.73078823 1.3523304 1.2159864 -0.17990677
0.7540299 0.38649932 -0.19840407 1.126519 -2.2520914 -1.2010776 2.4187315 0.24576283
0.9701273 0.68691796 1.111844 0.8101015 -0.056052055 -0.16334224 -0.22016771 -0.31013912
0.89417803 -1.0707958 0.55881125 -1.1633718 -0.95766497 0.31022552 0.5029823 -0.9152923
2.7200816 0.7275898 -0.82713944 0.36798579 0.4267214 0.62975657 0.64471906 0.6709723
4.337976 -2.0419376 1.2177522 1.38394 -0.7054683 -0.25791648 -3.652147 0.8200293
-0.011675572 -1.0542916 -0.54503644 -0.788799 3.7536266 2.779433 1.1447598 -2.261529
0.6652894 -0.30273515 1.0418031 1.5322821 0.83340406 0.17211832 -0.15050375 0.046552014
0.045859877 1.0650764 -1.2703884 -1.3090074 -0.8506315 0.68517756 -0.92100084 1.2880287
-0.8246566 -0.48865148 -0.20668635 0.874726 0.30800867 -0.042580225 0.7290115 -0.49784222
1.2310646 0.78078115 0.795152 -1.3203875 0.92293715 -0.21130337 0.19601296 1.2769452
0.30824187 -0.42893758 0.25158405 0.224996 -0.5696963 -0.8767747 0.5738992 3.5530846
-0.12399751 0.52487165 -1.7419181 -0.30219248 0.32778814 0.64652395 1.34423 0.24481307
1.0984299 -0.040701803 -1.9655347 0.067989536 2.499629 0.7169021 -0.71108085 1.0816454
-1.1808308 -0.75814533 1.0582279 0.7234599 0.15665601 -0.14926283 0.119803 -0.12518051
-1.7445228 -0.71578234 -0.16139555 -2.2842803 2.0295057 -0.92207 -2.9043906 -0.40186712
-0.9170781 1.1060574 -0.5587571 -1.1142756 0.44420093 0.264149 2.4396071 1.8394724
2.1093495 3.1085143 -0.79797107 0.098882236 0.8283967 0.18656293 0.608745 -0.4814861
-0.7056454 0.54495573 -0.04151775 -0.25067517 0.11660243 -0.19505088 1.1723212 -0.6470032
1.8166244 -1.5197005 2.2059984 -0.28628793 2.6008596 -1.4951922 2.067502 0.75706244
-0.3874 0.20001692 -3.3017926 1.8218141 0.035189956 -0.19380563 0.23630424 -1.7358656
0.009036773 1.1219958 -0.022221157 -0.34429306 -0.9828432 1.0627484 0.11081313 -0.40801027
-2.290056 -2.5987647 1.2324258 -0.6103405 0.9780489 -0.84898305 -3.4341552 0.00038629636
-1.840307 0.20248024 -1.8925011 -1.982462 -0.806533 -1.1980342 1.560913 -1.9530876
-0.11715962 1.139359 -0.60848135 0.23494709 -2.400574 -0.089583084 0.6151328 1.5526575
2.1278944 -0.36383307 1.1176592 0.67161417 0.8461608 -0.45368484 -1.2674681 0.12049643

q1_.0.bias f4 [256]
00000000: 3d57 8f3f ee65 3f40 b576 d83e 9cbe 0a40
00000010: 5806 8c3f 9a95 983d 1c68 193f efe2 3e3c
00000020: 2711 0e40 16b7 0640 ba91 2f40 0855 1c40
00000030: 789c 7d3f 5615 b33f 9978 10c0 cd33 85bf
00000040: 1d04 b93f 2d8b 2b40 0f2b 3440 fad3 0ebf
00000050: 8f6b 943f 927c 7e3f 856c bdbf 3ee0 1a3f
00000060: 0570 fcbe d021 0b40 6d69 2140 aac3 d1bd
00000070: 7da2 afbf 1b6c a7bf d6e6 febd bb87 0640
00000080: eed5 0bc0 99c6 98bf 4a88 f2bf f772 16bf
00000090: eee0 c1bf 775e 75be a504 c1bf ffe5 ccbe
000000a0: c79b b83f 3708 f03e 05e6 4540 fb87 3940
000000b0: d003 0b3f c156 38bf 006a 3740 02d8 b33e
000000c0: 1e75 b83f d817 0e40 10d4 31c0 464a 9e3f
000000d0: 950b 02c0 98e3 74bf b156 7b3f 306b ccbf
000000e0: 4126 0340 6915 29bf c2cb 08bf 2d36 4b40
000000f0: 17e2 c93f 1799 3840 7fbd d5bd 276f bc3e
00000100: ae5c 9f3d a50b 0240 9e20 1cc0 5177 d6bf
00000110: 7fcd 27bf 72c2 ff3f bc40 1540 9e66 1fc0
00000120: 4a79 3140 6196 09bf 911d 943e 58c4 293f
00000130: 85bd 0ec0 53c9 533f 6fdd febf 183a 133f
00000140: 4ed6 1940 2f97 dbbf 695c 9d3f aade 0bbf
00000150: 58a8 163f aa56 833f 7208 5140 92eb e3bf
00000160: 3517 b93f 4463 823f 9282 8fbf 2342 bf3f
00000170: 74a0 f33e 3a2d 8bbf ebe7 4cbf 74c1 3940
00000180: b455 2c40 9b39 ac3f c7db c73f d05c 8fbf
00000190: 8729 2c40 0186 9fbf 61d2 393f b9ff 31c0
000001a0: 88f1 dcbf dadd 173f 4a78 dbbf f33a 7f3e
000001b0: 406f 1540 cfdf 0640 26ed 90bf 2f60 b8be
000001c0: 8bc9 7e3f 6ccf 463f 13ce df3f 0d0a 3c40
000001d0: edee 44c0 fe99 a4be 1be5 d93f 1442 533e
000001e0: 9068 1b3f a326 4ebf 829a a7bf 3640 953f
000001f0: 9dd8 f7bf 5426 81bf f3ab b1bf c2ea d1bf
00000200: 5b42 8cbf 277f b83f 8248 2c40 8b16 c73f
00000210: 4b7a cfbf 8d44 91bf d248 17c0 c472 1bc0
00000220: f895 0140 d599 9fbf d691 9d3f fc37 99bd
00000230: 962e acbf f583 a63f 62a8 0cc0 cc07 6840
00000240: 436d 1340 2bba d53f b46c 8cbe 55f8 bc3f
00000250: bc94 873f bcc4 22bf 1db2 a43e a37e 1bbf
00000260: 67a3 1740 6e94 0d40 dd58 d3bf 9ded 8cbe
00000270: 2a66 0740 8ae7 9c3f cc88 8e3f 09c5 4140
00000280: fa54 83bf e7eb 91be cb6e 09c0 caa5 04bf
00000290: bde8 a63f d20f db3e 4590 f33c b440 2b40
000002a0: 9d5d 06c0 d281 b33f e1e2 0640 a2c3 433e
000002b0: 5844 93bf c971 babf 24fe 4440 400e 213f
000002c0: a704 c8be 223e d83f c65d ae3e 351f d03f
000002d0: bb72 0f40 de21 95bf e681 a53f db54 a1be
000002e0: e566 de3e 5af4 d9bd 63f6 983f f2d4 5fbf
000002f0: b755 24c0 66a2 3540 8f94 443f 6b08 493f
00000300: de3e 81bf 08f9 a63f b78b 4cc0 f4a7 ba3f
00000310: 130a 27c0 ccc3 be3e 4bb9 3840 b60b 42bf
00000320: c6b0 7b3e bfbb 3640 5377 7d3f 5d21 0e3f
00000330: b910 873f 5237 4b3f df69 b53f 5527 0f40
00000340: d56a 7a3f f3de c0bf 5cbf cf3f 46ee 74bf
00000350: b4dc 5bc0 16d7 8a3f 313e 933f 7c39 96be
00000360: bf3c 33bf b4ba 0a3f ee1f 673e f77e 2c40
00000370: 3ec6 1b40 ef3f f83e df75 f5bf 552b db3e
00000380: 35f9 9e3e 4b86 b23f f1d6 9f3f 3dcf 1abf
00000390: 3b56 41bf 7311 cdbf ac37 eabf 88a3 5440
000003a0: 6bd8 cd3e 54e0 90c0 db6f 873f 4701 cbbe
000003b0: 5b57 ab3c 9cdd a73f f8e4 6440 af60 16c0
000003c0: 80db 0dc0 c9ec dc3f 9a0c aabf 7d65 c0bf
000003d0: 33c5 02bf b224 063f d43d 8e3f 64ed 93bf
000003e0: bdf7 653e 49b4 3cbe f38b 163f fd94 9bbf
000003f0: fd8e 913f 33e5 c9bf 4746 ab3f 4f5c 0cc0
1.1198498 2.9905963 0.42278066 2.1678839 1.0939436 0.07450409 0.59924483 0.011650785
2.219797 2.1049247 2.7432694 2.44269 0.9906688 1.3990886 -2.2573607 -1.0406433
1.445438 2.6803696 2.815128 -0.557922 1.1595324 0.9940883 -1.4798743 0.60498416
-0.49304214 2.1739388 2.5220597 -0.10242398 -1.3721462 -1.3079866 -0.12446372 2.1020343
-2.1849322 -1.1935607 -1.8947842 -0.5876917 -1.5146768 -0.23961817 -1.5079542 -0.40019223
1.442254 0.46881267 3.0921643 2.8989246 0.5430269 -0.72007376 2.8658447 0.35125738
1.4410741 2.2202053 -2.7785683 1.2366416 -2.031957 -0.9565978 0.98179156 -1.5970211
2.0492098 -0.66048294 -0.5343591 3.1751816 1.5772122 2.8843439 -0.10436534 0.36803553
0.07781349 2.0319607 -2.4394908 -1.6755162 -0.6554794 1.9981215 2.332076 -2.4906383
2.773028 -0.53745085 0.28928807 0.6631522 -2.2303174 0.8272907 -1.9911326 0.5751052
2.4037051 -1.7155513 1.2293826 -0.54636633 0.5885062 1.0260823 3.2661405 -1.7806265
1.4460207 1.0186543 -1.1211722 1.4942058 0.47583354 -1.0873177 -0.8004138 2.9024324
2.692731 1.345508 1.5613946 -1.1200199 2.6900346 -1.246277 0.7258664 -2.781233
-1.726121 0.59322894 -1.7146084 0.24924831 2.3349152 2.1074102 -1.1322372 -0.36010882
0.9952628 0.7766025 1.7484764 2.9381135 -3.0770829 -0.32148737 1.7023042 0.20630676
0.60706425 -0.80527705 -1.3094027 1.1660221 -1.936298 -1.0089822 -1.38806 -1.6399767
-1.095775 1.4413804 2.6919255 1.5553755 -1.6209196 -1.1349045 -2.3638196 -2.4288797
2.0247784 -1.2468821 1.2310131 -0.07481381 -1.3451717 1.300902 -2.1977773 3.625476
2.3035438 1.6697439 -0.27426684 1.4763285 1.0592265 -0.6358144 0.3216714 -0.6074011
2.3693483 2.2121844 -1.6511494 -0.27525035 2.1156106 1.225816 1.1135497 3.027651
-1.0260308 -0.28500292 -2.1473873 -0.51815474 1.3039776 0.42785507 0.029731879 2.6758242
-2.0994637 1.4023993 2.1075976 0.19117597 -1.1505232 -1.4565974 3.0780115 0.6291237
-0.3906605 1.6893961 0.34055918 1.6259524 2.2413776 -1.165096 1.2930267 -0.31510052
0.43437877 -0.106423095 1.1950191 -0.87434304 -2.5677316 2.838037 0.7678918 0.7852847
-1.009731 1.3044748 -3.1960275 1.4582505 -2.60999 0.37258756 2.8863094 -0.7579912
0.24579152 2.855209 0.990102 0.5551966 1.0551978 0.7938129 1.4172934 2.2367756
0.9781926 -1.5068039 1.6230273 -0.95676076 -3.4353456 1.0846889 1.1503354 -0.29340732
-0.70014566 0.54191136 0.22570774 2.6952493 2.4339747 0.48486277 -1.9176596 0.42806497
0.31049505 1.3947233 1.248747 -0.6047247 -0.755222 -1.602095 -1.829824 3.3224812
0.40204176 -4.527384 1.058101 -0.39649412 0.020915678 1.3114505 3.5764751 -2.349651
-2.2165222 1.7259761 -1.3285096 -1.5030972 -0.5108215 0.5239974 1.1112618 -1.1556821
0.22457786 -0.18428148 0.58807296 -1.2154843 1.1371762 -1.5773071 1.3380822 -2.193134

q1_.2.weight f4 [256, 256]
00000000: 6c79 93bd 315a 7abc bdf7 48bd b737 b83c
00000010: 1639 44bd fa12 083c 8fef 4fbd 12da 46bd
00000020: c315 05bb 3874 3c3d da5c 82bd 168c 9e3c
00000030: 2460 6fbd 23a8 3abc e5ad 10ba 42ab fc3b
00000040: d7e1 7ebc b410 5cbd a36f 373d eb01 413b
00000050: 37c2 093d c229 0cbd 5b64 fdbc 66fa 1dbd
00000060: f520 07bd 6802 38bd b5f3 37bd fc75 92bd
00000070: c3ac 21bc 0b3d 38bb 3447 af3c 3920 053b
00000080: 29b0 de3a 0ec4 443d 9fb4 1cbc c8e9 17bc
00000090: 989d 3d3c 4907 85bd d08b 033d c480 80bd
000000a0: d06a 3cbc d224 343d bcbf 1d3d 80cd 853c
000000b0: c2c2 1bbd 60b6 073d b126 b83c 19d8 413d
000000c0: cadf c9bb 8443 c03c e18b a03c f4fd 44bd
000000d0: 0232 e5bc fbf2 cb3c 95d0 313d 31ea 2dbd
000000e0: 453f c9bc 5e9b ddbc 5d2d c33c a666 25bd
000000f0: 3f0c f23c ace8 4c3b 6238 e13b 4925 53bd
00000100: c2be 283d 1932 82bd ec67 6c3c 599f ed3b
00000110: a548 9bbd 2ee2 4abd bf8f 863c 7c30 7cbc
00000120: ed7f 17bd c523 a3bc a126 7fbc b368 da3a
00000130: f90b c1bc acd3 25bd fc48 aa3c ac06 88bd
00000140: 18da e2bc 4951 80bd b1db 133b 43ed a83c
00000150: 5fab 89bd c4db 13bd 2f56 cc3c 65fe 7bbd
00000160: acc5 f2bc 5d95 333d eee1 023d a820 c33c
00000170: 8e6b dabc 99b4 c0bc ebd1 6e3c 7067 c3bc
00000180: 233a 2abd ebe6 6c3d 8a16 1ebd c712 90bd
00000190: a4f5 75bd bea5 8e3c c3c4 c53c c496 dcbb
000001a0: b523 1c3d 66d1 97bd a186 c4bb 7e32 11bd
000001b0: 5f37 06bc 40db ca3c d310 b83c 023d 4bbd
000001c0: ad21 213d f59b 9a3c d0b0 68bc 416f bfbc
000001d0: 86cd 03bd f1fd 25bc 4cb6 883c 2eb0 5cb8
000001e0: 4fa8 8dbc 0118 143d 19a3 d4bc 776f 453c
000001f0: f254 09bd c280 15bc 20e5 813c 6b23 4fbc
00000200: b364 4bbd 9d41 32bd ee0e 03bc e17b 45bd
00000210: e620 66bd 7519 fb3c 501a a7bc c749 a5bc
00000220: a511 d7bb 1490 7dbd 1857 55bd 696e 0fbd
00000230: be11 b6ba d364 033d 9c11 243d b12b 03bd
00000240: 1227 afbc 03ca 933c ecca f6bc 4460 363d
00000250: eaa7 5e3c 0537 553c 13bb 13bd c35b 323d
00000260: 7a9a 2b3d ab1f 47bd 3bc2 2abd 3b1a 1abd
00000270: 9456 c83c 0621 0438 7961 98bd db20 84bd
00000280: b150 67bd 667e 503c 02bc da3b 5914 6dbc
00000290: bdb3 51bd 801a ebbc b3ab 59bd 1253 bfbc
000002a0: e328 543b e571 f5bc 0e7e 3a3d 3f0d 1fbc
000002b0: bb94 c3bc 62dd 1fbd 2abf 28bd 39ec 803c
000002c0: 0ca2 1cbd 2db0 c03c c84c 21bc ffa7 7cbd
000002d0: 7978 d23c b034 76bd 85a8 aa3c c2b0 6abd
000002e0: 952f 18bd 106b 153d 3dd0 25bd c502 eabc
000002f0: fbe1 babc f6ed 15ba 31c1 3a3d a01e 24bd
00000300: 7400 9bbd 1c88 0ebd a093 8b3c 0868 fcbc
00000310: 127b 6b3d 624d 00bd 5b04 543d eea1 cc3b
00000320: a1e6 253c a197 2d3d 33b6 52bd 93c9 37bd
00000330: f958 023d 1568 0dbd 9ac5 32bd 6907 51bd
00000340: 5fcc b73c 74a1 6f3b cdee 58bd 6377 053d
00000350: 8651 2bbd dd35 3fbd ed3b c6bb 30a2 2dbd
00000360: e48b ca3c ee7d cabc 53cc 15bd 7fd3 cdbc
00000370: 302c 3c3d 0936 54bd a26d fa3c 9522 21bc
00000380: d583 bf3c 8239 cebb 2dd3 0e3d 3774 323d
00000390: b744 723d ef47 7a3c a60e bbbc 5768 0dbd
000003a0: 51ce 20bd 61cd 87bd 7677 1bbd 1ed0 60bd
000003b0: b3c2 1c3c ad0d cebb cc07 1b3d 3348 8dbd
000003c0: a0a2 0dbd 0930 86bd 66f9 0f3c 6e2a 80bd
000003d0: b864 0fbd 0f36 49bd 0589 e63c 6bf6 4bbd
000003e0: 2150 24bd b1c3 22bd 29eb 90bc 23cb 1c3d
000003f0: e31c d6bc e90a 9d3c 0184 f43c 3bf9 81bc
-0.07200894 -0.015280292 -0.049064387 0.022487504 -0.047906004 0.008305306 -0.05076557 -0.04854781
-0.002030716 0.046009272 -0.06365366 0.019353908 -0.058441296 -0.011392626 -0.00055190764 0.007710845
-0.015556774 -0.053726867 0.0447842 0.0029450606 0.033632483 -0.03421951 -0.030931642 -0.038568877
-0.032990415 -0.04492417 -0.04491015 -0.0715141 -0.00986785 -0.0028112556 0.021396257 0.0020313396
0.0016989756 0.048038535 -0.009564548 -0.009272046 0.011573218 -0.0649553 0.032115757 -0.0627456
-0.011500075 0.043980427 0.03851293 0.016333342 -0.038027532 0.03313291 0.022479387 0.047325227
-0.006160711 0.023469694 0.01959795 -0.04809375 -0.027977947 0.024896136 0.04341181 -0.04245967
-0.024566302 -0.027051624 0.023825342 -0.040381096 0.029546855 0.0031266613 0.0068731764 -0.05154923
0.041197546 -0.063572116 0.014429074 0.0072516617 -0.07582215 -0.049532108 0.016425965 -0.015392419
-0.036987234 -0.019914517 -0.015573175 0.0016663283 -0.02356528 -0.04048507 0.020786755 -0.066418976
-0.027691886 -0.06265504 0.0022561366 0.020620948 -0.067221396 -0.036098257 0.02494344 -0.061521906
-0.029635273 0.043843616 0.031953745 0.023819283 -0.026662614 -0.023523616 0.0145764155 -0.023853034
-0.04155935 0.057837408 -0.038595714 -0.070348315 -0.060048714 0.017413016 0.024141675 -0.00673184
0.03811999 -0.074129865 -0.0059974943 -0.035448544 -0.008191912 0.02476275 0.02246896 -0.04961873
0.039338756 0.018873194 -0.014202312 -0.02336848 -0.032178424 -0.010131345 0.016688488 -5.2616168e-05
-0.01729217 0.036155704 -0.025956677 0.012050501 -0.033528276 -0.009124937 0.015856326 -0.012642722
-0.04965658 -0.043519605 -0.007999165 -0.048213843 -0.05618372 0.030651787 -0.020398289 -0.020176781
-0.0065633827 -0.06190498 -0.052085012 -0.035017405 -0.0013890786 0.032078575 0.040055856 -0.03202409
-0.021380935 0.018040663 -0.030126058 0.0445254 0.0135898385 0.013013606 -0.03606708 0.043544542
0.041895367 -0.048614185 -0.04168914 -0.03762267 0.024455346 3.1502008e-05 -0.074404664 -0.06451579
-0.056473438 0.012725448 0.0066752443 -0.014470183 -0.051196802 -0.02869916 -0.05314226 -0.02335504
0.0032373003 -0.029961536 0.04553037 -0.009707748 -0.023874631 -0.039029486 -0.041197933 0.01573764
-0.038240477 0.023521507 -0.009844966 -0.06168365 0.025692211 -0.06010884 0.02083231 -0.057297476
-0.037154753 0.036479056 -0.040481795 -0.028565774 -0.022812834 -0.0005719358 0.045594398 -0.04006827
-0.07568446 -0.034797773 0.017038167 -0.030811325 0.057490416 -0.031323798 0.051761966 0.0062448895
0.010125787 0.042380933 -0.05144329 -0.04486997 0.031823132 -0.03452309 -0.04364548 -0.051032458
0.022436319 0.003656474 -0.052962113 0.03258456 -0.041825794 -0.046682227 -0.006049624 -0.042391002
0.024724908 -0.024718251 -0.036571812 -0.025125263 0.045940578 -0.051809344 0.030569855 -0.009834905
0.023378292 -0.0062934766 0.03486936 0.043567862 0.059147563 0.015275939 -0.022834133 -0.034523334
-0.03925926 -0.0663097 -0.037955724 -0.054885976 0.009567904 -0.0062882514 0.037849233 -0.068985365
-0.03457892 -0.06552131 0.008787489 -0.06258093 -0.035008162 -0.04912382 0.028141508 -0.04979555
-0.04011548 -0.039737407 -0.017690258 0.038279664 -0.026136821 0.019170241 0.0298481 -0.015865913

q1_.2.bias f4 [256]
00000000: b79e 92bc b871 0f40 27a0 af3f 37e4 7dbe
00000010: ca34 663d a42c d33d 3de6 18bc c0d7 5640
00000020: 290b 0d3b 4b2e a0be 2210 23bd a9f7 cfbd
00000030: 8f3c 80be ea79 383d f73d 823f 730e 65be
00000040: ce98 3340 8802 92bd dd82 d53d 2c3b 163e
00000050: 9d1e 07be e888 a03d 49f5 db3c 8f8b 4ebe
00000060: 9c40 d73f 049a 283c ff84 7e3e bce9 0c40
00000070: 5c52 ad3f a721 e83f 55e2 b4be cfa2 a7bd
00000080: 986b b9bc d6fc 1ebe f6f2 193d 27da e8bd
00000090: 0559 263f 1a17 0dbe b8e9 6a3e c8e9 043d
000000a0: ceb1 2cbe df49 0740 ee18 53be 0935 94bc
000000b0: 453d f2be 5844 80bd 84c0 3d3b c0b1 a4bc
000000c0: 6959 b13d 7d2f 81be 6c05 84bd 9c14 9a3e
000000d0: 080e 183d a506 ba3d 4f6e 29be e680 4040
000000e0: 9809 363e 86ca 41be 2504 abbd a8dd 5cbe
000000f0: 188e b9be 92a5 27be 4904 35be 34fa 9dbe
00000100: 977f 54be adf4 13be 87ab a1bd 9fc6 1740
00000110: b61d 973e c980 1040 3e2c ad3d cac8 ae3f
00000120: cb35 3bba 1c6c 253d 7edf 283f 6eec 7c3d
00000130: 1126 ccbd 70b3 2abd 1989 8b3d 706d ba3f
00000140: d138 423d 6acd 703d 6f43 4b40 5445 adbd
00000150: 9eb9 8a3f 19ee a33d cf7f 0d3d 2f2b 1cbe
00000160: f001 0d3d f523 1bbd 153d d5be a7c0 fcbc
00000170: 3f77 c1bd bba7 33be a34f f8bb 2349 7bbc
00000180: f451 2440 e577 e1bc 673a b03d 13e2 54be
00000190: aed3 1a3d 52cf 88bb 37ea 90bd dd7b edbd
000001a0: a228 0cbe 08ab c13c 3fd6 c0bd e5a6 0abd
000001b0: 445a c53e 7036 083e 1236 ec3f 6625 c53f
000001c0: 150d ab3d 8b11 ec3f 3ca2 143d 49f0 99bd
000001d0: bae2 3dbd ea88 2940 f419 2a3f 5cbe 00be
000001e0: 83d7 7abd e477 ed3f 941e c6bd 8fc2 2cbc
000001f0: 9cbf d7bd b65e 34bd a1ac b63d 3c8d b6be
00000200: b212 073b 30d4 c83c 1ed0 84bf 6c3c a2bc
00000210: 0981 963f ae6a 3bbd 721d 723f 7984 35bf
00000220: 4169 6a3e 8c77 1abe c6e0 7dbe 9caa 1bbe
00000230: bcf4 b63c d90b 943f 8214 5d3e 58d8 d03d
00000240: 3aca a1be 8b93 7c3e f2a4 99bd 65d5 2740
00000250: 90dd a4bb 5232 653d 30d9 9e3e dc34 9e3d
00000260: 8bcc 23bc 310d 0e3c a957 483e 7c3e 1940
00000270: 5956 943e 6baf 11be 6b74 9bbe c27d c2bc
00000280: 0eac 883f 7986 333d 370e 983c 5a7a a43f
00000290: 94a0 88bd edb2 4cbd e5fd a53d 9e49 babb
000002a0: 7c65 8a3e c326 95bd cd6e 45be ecef e9bd
000002b0: 8c86 09be d19d e03c ccd5 c03f 02a0 f2bd
000002c0: 050c 1ebc 7c02 763e 5969 fabb d918 d93f
000002d0: 475f 833e 385f 0b3e d8f8 c43d 5cf9 b53f
000002e0: f593 ec3f a230 0d3f fb1c 22bd 745e 2bbd
000002f0: b9c8 cc3f 0a5e f8bd ba8e 2c3b 5403 d0bc
00000300: 58fb 443d 61c5 ab3e d083 3fbe d8de 4840
00000310: eff4 45bd a63b e73d ce41 733f 63f8 86bc
00000320: 4b29 87be da3f 99bc be0d 7f3f 08dd e9bd
00000330: acbc e2be 4ffb c83c 6ba1 58be 4f20 fc3f
00000340: 780e af3d f7c4 803d 1fe2 1bbd bf51 7e3c
00000350: 22e7 f63d f14c 7bbe 755d 513d f8e7 7a3f
00000360: 1c61 673e c4c7 73bd 5cc2 9cbe 6466 39be
00000370: cae9 213c 3036 993f 9ae3 363c 011b 59bb
00000380: f072 873c 0935 b1bd cfa5 23be 338d b7bd
00000390: 0ee7 403c 6131 873e 8832 8fbe b143 01bd
000003a0: cfc0 cd3d ff59 23be 13e2 87bc c723 113e
000003b0: 4f49 66be 9419 2540 b38c f13f 5935 18be
000003c0: 2f3c 273d 5546 9a3d 9780 f8be c2b3 a9bc
000003d0: 875f 0ebe 74f5 2d3e 66bc 79bc 341e be3e
000003e0: 71f8 a03f c756 0c40 542a cbbd 8894 ac3f
000003f0: 1fcf a8bc a5df 99be 94e8 0abd 51d9 e6be
-0.017897947 2.2413158 1.372075 -0.24794088 0.056202687 0.10311249 -0.009332237 3.3569183
0.0021521545 -0.3128532 -0.039810307 -0.10154659 -0.25046203 0.04503814 1.017516 -0.22368793
2.8062015 -0.07129389 0.10425351 0.1467101 -0.13195272 0.07838613 0.02685036 -0.20170425
1.6816592 0.010290626 0.24855421 2.201766 1.3540759 1.813527 -0.35328928 -0.0818535
-0.022634313 -0.15526137 0.03758522 -0.11369734 0.64979583 -0.13778344 0.22940719 0.032449514
-0.16864702 2.1138837 -0.20614979 -0.018091695 -0.4731237 -0.062630355 0.002895386 -0.020104289
0.08659632 -0.25231543 -0.06446347 0.3009385 0.037122756 0.090832986 -0.16545986 3.0078673
0.17777097 -0.18924913 -0.083504 -0.2156893 -0.3624122 -0.16371754 -0.17677416 -0.30854952
-0.20751797 -0.14448805 -0.07894044 2.3714979 0.29514855 2.2578604 0.08455704 1.3655026
-0.00071414997 0.040386304 0.6596602 0.061748914 -0.09968198 -0.04167503 0.06813259 1.4564648
0.047417466 0.058789648 3.1759908 -0.08460489 1.0837896 0.08004398 0.034545716 -0.15250848
0.034425676 -0.03787609 -0.41648164 -0.030853583 -0.094465725 -0.17544453 -0.007577853 -0.015337261
2.567502 -0.02752299 0.08604889 -0.20789365 0.03779953 -0.004175105 -0.07075923 -0.11595891
-0.13687375 0.023641124 -0.09415864 -0.03385057 0.3854543 0.13302016 1.8454001 1.5402038
0.083521046 1.8442854 0.03628753 -0.07516534 -0.0463588 2.6489816 0.6644585 -0.12572616
-0.061240684 1.8552213 -0.09673801 -0.010544433 -0.105345935 -0.044035636 0.08919645 -0.35654628
0.0020610509 0.024515241 -1.0376012 -0.019804202 1.1758128 -0.045756035 0.9457618 -0.7090526
0.22891714 -0.15084666 -0.24792776 -0.15201801 0.022333495 1.1566116 0.21589854 0.10197514
-0.315996 0.24665658 -0.07502164 2.6223996 -0.005031295 0.055956192 0.31025076 0.07724926
-0.009997497 0.008670137 0.1956469 2.3944387 0.28972128 -0.14227073 -0.30362257 -0.023741607
1.0677507 0.043829415 0.018561466 1.2849839 -0.06671253 -0.049975324 0.08105067 -0.0056850454
0.2703055 -0.07282784 -0.19280548 -0.114227146 -0.13430232 0.027419003 1.5065246 -0.11846925
-0.00964642 0.24024385 -0.007641953 1.6960708 0.25658628 0.13610542 0.09617776 1.4216723
1.8482653 0.5515233 -0.03957842 -0.041838124 1.5998756 -0.121273115 0.002633019 -0.025392212
0.048091263 0.33549026 -0.18702626 3.1386013 -0.04832929 0.11290674 0.95022285 -0.016475862
-0.26398692 -0.018707205 0.99630344 -0.114191115 -0.4428457 0.024533896 -0.21155326 1.969736
0.085476816 0.06287568 -0.038057443 0.0155224195 0.12055804 -0.2454107 0.05111452 0.98010206
0.22595638 -0.059516683 -0.30617034 -0.18105465 0.0098824 1.1969662 0.011162663 -0.0033127668
0.016534299 -0.08652694 -0.1598122 -0.089624785 0.011773838 0.2640486 -0.2796824 -0.031558696
0.10046541 -0.159523 -0.016587293 0.14173804 -0.22488903 2.5796862 1.8871063 -0.148641
0.04082888 0.07532946 -0.48535606 -0.020715598 -0.13903628 0.16988164 -0.015242672 0.37132418
1.2575818 2.1927965 -0.09920183 1.3482828 -0.020606576 -0.3005344 -0.03391321 -0.45087674

q1_.4.weight f4 [1, 256]
00000000: 1d90 0bbd c148 dbc0 f035 7741 f030 0241
00000010: 3776 0341 213c 0c41 e7e9 91c1 fb45 b4c0
00000020: c460 11bd 53a6 0b41 b8e5 e240 18f9 d040
00000030: f8f8 0841 f160 01bd 2bc1 e341 b1d3 b5c1
00000040: 453c 81c1 5c11 993f f5ee dd40 b8fa 02c0
00000050: 13ae 1c41 7665 f33f 2570 b3bc ca50 db40
00000060: 0ea5 37c1 f1dd eb40 569c cc40 e8b0 38c1
00000070: 1741 92c1 29a6 03c1 71c0 7fc0 65be d7bc
00000080: 274a c040 812c c540 0728 a1bb c505 c240
00000090: d9e1 3341 6a51 dc40 2b66 f63f b580 d740
000000a0: 230d f440 fb65 5cc1 31d5 0c41 9d30 c340
000000b0: a599 0841 ed9b 2abd f245 babc 58bb d640
000000c0: 1365 e240 127a c740 1bf1 c440 44fd e240
000000d0: 3d92 143b 03fc f340 c0f8 c240 094e f8c0
000000e0: 47fc 0340 4f7f d140 f4e9 6f41 3039 a1bf
000000f0: 3587 a5bf d299 ed40 41c3 0741 5d27 fe40
00000100: c256 1141 b1a3 0041 e014 f440 9a99 c7c0
00000110: 5428 1341 dab0 dcc1 88c7 b740 92b1 66c1
00000120: b503 a0bc 9c11 9abc c360 c5c1 e3de fa40
00000130: da35 c940 6793 27bc 4f7a 70c0 e8e3 5bc1
00000140: 86f0 d0bc 1107 0741 0591 bdc0 4057 c040
00000150: 934d c5c0 713a cd40 d65e 0a41 cec7 0e41
00000160: e0fb 2ec0 03bd b640 46e5 e740 5251 7141
00000170: 1f76 0041 3b2c 63c0 ef5b 8cbc 3519 fcbb
00000180: ac68 2bc1 5cef c7bc a51a 2141 e042 f240
00000190: dc37 babc 4bea b1bc 7110 d740 4210 e940
000001a0: 40d0 d240 8d46 48bd b2ad a1c0 aa13 0ec0
000001b0: 556f 09c1 930a f640 8a10 a5c0 03d0 1ac1
000001c0: a486 0e41 68f5 5bc1 6ec3 c7bc d373 05bd
000001d0: 2bfd 57bb e82c afc1 dc5f c5c1 d5e6 86c0
000001e0: 2af1 0141 7984 76c1 1446 de40 6ead 12bd
000001f0: cce4 e040 b561 ba40 fc8c db40 1e11 2e41
00000200: 5a9d e9bc 2202 9d3f 4089 d3c0 14ab 12bb
00000210: bee8 34c1 f359 97bc e867 5041 52a6 ef40
00000220: 4ddd 0041 7370 d440 89d8 cc40 1939 f840
00000230: 7e13 053c 7ee8 a1c1 c395 f140 7771 39c0
00000240: e307 d040 051c f640 faa5 68bb 3068 1fc1
00000250: bda4 db40 42b7 da40 661f e440 2057 e340
00000260: ecfe c940 e6a5 c940 7857 e440 0c0c cfc0
00000270: 5d88 e340 2dc5 bb40 f297 32c0 ee5e cd40
00000280: 0229 d2c1 05f2 d440 257e 22c0 05a9 9cc1
00000290: 3a01 8bbc 1157 c940 15da 0041 f7de 34c0
000002a0: 9e5a 66c0 de05 1e41 ea89 8cc0 f30a cd40
000002b0: b30a e040 2cd0 17bb 44ba dbc0 4b1d ff40
000002c0: 00aa e340 3b23 d240 99c5 f6bc df59 ddc0
000002d0: df7f c340 b793 e340 a518 d440 a798 99c1
000002e0: da42 afc1 d7bb 8dc1 dd3d 0e3c 71a9 c1bc
000002f0: 1ec7 27c1 8403 f340 837c 61bc f939 54bc
00000300: 9a15 d8bf 620b 0841 88a3 fc40 ce0a 9cc0
00000310: 6b31 423b 9156 d240 3bd3 04c1 94a7 d9bc
00000320: d5ad ca40 0935 9dc0 66bd 48c1 bdce e040
00000330: 8459 3141 f616 ff40 9f75 5d41 b1cc d0c0
00000340: 5594 2ec0 e415 c640 0fce ea40 340f e6bb
00000350: 34ca d140 7031 23c0 c34f cc40 9b31 6ec1
00000360: e6be 0141 c532 cc40 5c2f fc40 bad3 f940
00000370: c634 89c0 578b ebc1 7d19 f640 d856 08bd
00000380: f6b4 13bd df93 d140 8d18 f840 14a2 d040
00000390: e753 d1bb 96a1 9ec1 1c17 c440 109b d440
000003a0: edfa e440 f313 f940 31bf 74c0 0dd3 1741
000003b0: 4493 e140 2eb5 6ec1 de51 8cc1 44cd d340
000003c0: d696 30bd 5b15 0bc0 f3e7 1d41 3e05 e9bc
000003d0: 1cd1 12c0 9210 65c0 1f1f bc40 7dde 80c1
000003e0: bad4 57c1 bd13 b4c1 0515 1941 01f1 9cc1
000003f0: eacc e640 26c4 fa40 f62c d640 9ceb e541
-0.034072984 -6.852631 15.450668 8.136948 8.216361 8.76468 -18.23921 -5.6335425
-0.035492674 8.7281065 7.090542 6.530407 8.560783 -0.03158659 28.46932 -22.728365
-16.154428 1.1958423 6.9354196 -2.0465527 9.792499 1.9015338 -0.02190406 6.853612
-11.477797 7.3708425 6.394084 -11.54319 -18.281782 -8.228066 -3.9961207 -0.026335904
6.009052 6.1616826 -0.0049181017 6.0632043 11.242639 6.8849382 1.9249929 6.7344613
7.6266036 -13.774898 8.802049 6.0996842 8.537511 -0.04165261 -0.02273843 6.710369
7.074838 6.233651 6.154432 7.093416 0.0022670173 7.624513 6.092865 -7.759526
2.0622728 6.5467906 14.994617 -1.2595577 -1.2931887 7.425027 8.485169 7.942305
9.083681 8.039964 7.627548 -6.2375 9.197346 -27.586353 5.743107 -14.418352
-0.019533018 -0.018807225 -24.672247 7.839708 6.2878237 -0.010228015 -3.7574651 -13.743141
-0.025505316 8.439225 -5.9239526 6.0106506 -6.1657195 6.413384 8.648153 8.92378
-2.7341232 5.7105727 7.2467375 15.082354 8.028838 -3.5495746 -0.017133681 -0.0076934346
-10.713055 -0.024406128 10.069005 7.5706635 -0.022731714 -0.021718165 6.720757 7.2832346
6.587921 -0.048895407 -5.052453 -2.2199502 -8.589681 7.688791 -5.158269 -9.675784
8.907871 -13.747414 -0.02438518 -0.03258116 -0.0032957296 -21.896927 -24.671806 -4.2156777
8.121378 -15.407342 6.9460545 -0.035809927 7.0279293 5.824427 6.86096 10.879179
-0.028517414 1.2266276 -6.610504 -0.0022379803 -11.306822 -0.018475508 13.025368 7.489053
8.0540285 6.6387267 6.4014325 7.75697 0.008122323 -20.238522 7.5495315 -2.8975503
6.5009627 7.6909204 -0.003549932 -9.962936 6.8638597 6.8348703 7.128833 7.1043854
6.3123684 6.3015013 7.1356773 -6.4702206 7.110396 5.8678193 -2.790524 6.417838
-26.270023 6.6545434 -2.5389493 -19.58253 -0.016968358 6.291878 8.053243 -2.8261087
-3.5992808 9.876432 -4.391835 6.4075866 7.001306 -0.0023164852 -6.8664875 7.972326
7.114502 6.5668006 -0.030123519 -6.9172206 6.1093593 7.1117816 6.6280084 -19.199537
-21.907642 -17.716719 0.008681742 -0.023640366 -10.486113 7.594179 -0.013762596 -0.012953275
-1.6881592 8.502779 7.8949623 -4.876319 0.0029631506 6.573067 -8.30157 -0.026569165
6.3337197 -4.912724 -12.54624 7.0252366 11.084354 7.971553 13.841216 -6.5249867
-2.7278035 6.190172 7.3376536 -0.0070208553 6.555933 -2.5498924 6.3847365 -14.887111
8.109106 6.3811975 7.880781 7.8070955 -4.287692 -29.443037 7.6906114 -0.033285946
-0.03606125 6.5493007 7.752997 6.519785 -0.0063881758 -19.8289 6.127821 6.6439285
7.1556306 7.783685 -3.8241694 9.489026 7.0492268 -14.919233 -17.539974 6.618807
-0.0431126 -2.1731784 9.869128 -0.028444882 -2.294013 -3.5791364 5.878799 -16.108637
-13.489435 -22.509638 9.567632 -19.617678 7.212514 7.836444 6.6929884 28.740044

q2_.0.weight f4 [256, 14]
00000000: 3de5 2140 838a 673e 9d67 a83e 2378 a13f
00000010: a3dd 44bf 69a0 93bf a4f5 6f3f cc27 82bd
00000020: 4b6c 853f 87d9 0640 6dcc ee3f 052f 24be
00000030: 068b fd3d baa7 7e3f ca51 373f 4432 6abf
00000040: ecc3 9abf fb89 003f c801 7540 e2c2 57be
00000050: d8b3 a3bf 7728 36bf 6fa3 36bf 7616 233f
00000060: d790 50c0 8cc8 cabf ec7a 7e3d a809 b9bf
00000070: eb8d 02c0 986d 963f 897e 613f a196 2140
00000080: 9be1 af3f 17d7 2540 80b1 b4bf 95f9 25bf
00000090: 69a6 fc3f bcad 963f b572 75bf 0e8a 1d3f
000000a0: d159 a53e e4a8 373e e8b6 dc3f adbf 05bf
000000b0: 2cab 5040 4dc7 bcbe 57d0 c43f 1d86 fa3d
000000c0: 164a e73f 4fbb 37bf 79ec e83f d9ec c13f
000000d0: 0584 e63f 69e6 6c3e 227e 2b3d 70bd 86bd
000000e0: fdcb 7dbe 83c8 ebbd 1485 0ebf b4dc e43f
000000f0: 1ae8 0e3e 258d be3e 8f87 0dbf 401e b73f
00000100: 550a 1cc0 daf8 22be 3bcf d2bf 6429 ed3c
00000110: dce1 ce3e f03c 6dbe 668e 01c0 259c 823b
00000120: 7c9a 6040 c6e6 133f dc08 9e3f 8055 b3bf
00000130: 0ca9 ea3e 9842 8fbe 27db 383f f07c c53d
00000140: c28f bebe 879e 473c a934 f2bd 2769 023d
00000150: 2672 22bf 0244 80bf 1f64 7340 7d8c 3140
00000160: 145e 0240 34ef b9bf 00de afbf e6e6 b43d
00000170: 4993 0cbe 46c2 183e 6e32 2940 a92d 9e3d
00000180: 7ed1 babd 618c 443f 1f88 15bf 9381 03be
00000190: 8832 153d 879c 8bbe 95c6 443f 5286 50bf
000001a0: 113b 4a3f 46b1 81bf 5561 1940 20ce ad3f
000001b0: 9ae8 c63f 91e1 153f 95ee 87be 9bd1 473e
000001c0: 2e4c 3bbf 1b92 313f d1ca 99bf 47c9 883f
000001d0: 3fa2 0b3f d82e 1640 69b8 60bf 272e 883f
000001e0: d88e c0bf 6be4 9bbf ee45 03c0 0152 fa3e
000001f0: 4fcb 9a3e b06e 88be cf6b f2bf 1cfe 2bbf
00000200: 9b7c b83f e76a 913f c665 4e3f 0028 1b3f
00000210: a218 09c0 4002 96bf 431f 0540 7881 c33f
00000220: 19ad 19bf ee5f 003e cf5b 9ebe e534 9dbe
00000230: 97c2 3abe d897 05bf f4ac 913f fd7b a93f
00000240: eec7 babe ebae 813f 4ff6 d33f 3bf2 25bf
00000250: df90 703f 9427 303f efc7 65bf 4cd8 723e
00000260: 7757 85bd b9d7 3fbe cb0d 083f 76b6 a63f
00000270: dd08 1d3f 8ec0 1a40 a545 5bbf 9aa1 e63d
00000280: c882 9e3e e276 283f 4ee5 2e3e b7ec f53f
00000290: a2af 4cbe e3bc 7b3f 3d13 af3f 1020 7bbd
000002a0: c54d 1b40 088e d1bc 3910 923e 7715 1540
000002b0: 9646 15c0 8124 d33d 01ce 8d3f 8532 18bf
000002c0: a98f 923f 03e2 d03f b83b afbd 34eb 5abe
000002d0: 01b9 673e 911c d73e 9e1f 3340 e9dc 3bbc
000002e0: 69ea d2be d340 2abe 8e83 aebf 7057 7e40
000002f0: e587 033f baf5 6d3e ebd6 2dbd 7092 ddbf
00000300: 3319 6bbf 9952 0c3f 53f8 c53b 9fb2 eebb
00000310: 0f97 20bf ce91 55c0 9f5c 333f 0245 0ec0
00000320: fdc3 0abf 3644 84bf 4c5b 3640 4380 3abe
00000330: 5e2b 2cc0 34e3 a73f e8b6 05bf d14d 0cc0
00000340: f8be 373f c3f4 9dbd 35a4 19c0 34f3 a23d
00000350: cd44 93bf 32a2 4e3f ca11 7e3f 577c 15c0
00000360: b1d0 3fbf 6de6 d2be e17d 923f 3f29 efbe
00000370: ed5c e73f 95d1 5a3f f4bc 88bf 68fb 493f
00000380: e1c3 c4bf 46ad 9dbc 55b8 16c0 728d e7bd
00000390: 9bf3 31c0 c56c 0f3f a5a0 f23f 9664 643f
000003a0: 45ab 65bf 929e d3bf c30b 66c0 ca4e 813e
000003b0: 1db5 103e a6f1 cdbf 3483 1d3f a61f 4abf
000003c0: c558 993f 6aab 4d3f b096 f63e 27b9 8fbe
000003d0: e741 1440 e56c 83bf 0c71 a53f 3ea9 f03f
000003e0: 3fde d83d 27fc 09bf 4c96 c3bd f42c c9bc
000003f0: 9408 0ebe fcb0 003f e441 0bc0 7177 323d
2.5296166 0.22611432 0.3289155 1.2614788 -0.7690069 -1.1533328 0.9373419 -0.06355247
1.0423673 2.1070268 1.8656136 -0.16033562 0.12380032 0.9947468 0.71609175 -0.9148295
-1.2091041 0.5021054 3.8282337 -0.21070436 -1.2789259 -0.71155494 -0.7134313 0.6370615
-3.2588403 -1.5842452 0.062128946 -1.4456072 -2.039912 1.1752195 0.880837 2.5248187
1.3740724 2.591253 -1.4116669 -0.64833957 1.9738284 1.177177 -0.95878154 0.6153878
0.32295087 0.1793552 1.7243319 -0.522456 3.2604475 -0.36870804 1.537608 0.12232611
1.8069484 -0.71770185 1.8197166 1.5150405 1.8009039 0.2313477 0.041868336 -0.06579101
-0.24784847 -0.11512854 -0.5567181 1.7879853 0.13955727 0.3721706 -0.5528497 1.4306107
-2.4381306 -0.15915242 -1.6469492 0.0289504 0.40406692 -0.23167777 -2.0243163 0.003985899
3.509429 0.5777401 1.2346454 -1.4010468 0.45832098 -0.27980494 0.722094 0.096429706
-0.37219054 0.012183792 -0.118264504 0.031838562 -0.63455427 -1.0020754 3.802986 2.7741997
2.036992 -1.4526124 -1.3739624 0.08833103 -0.1372806 0.1491786 2.643703 0.07723553
-0.09121989 0.767767 -0.5841083 -0.12842397 0.036425143 -0.27267858 0.7686551 -0.81454957
0.7899638 -1.0132225 2.3965657 1.3578529 1.5539734 0.5854731 -0.2654921 0.19513552
-0.73163116 0.69363564 -1.201502 1.0686425 0.5454444 2.346609 -0.8778139 1.0639085
-1.5043592 -1.2179083 -2.0511432 0.4889069 0.30233237 -0.26646948 -1.893915 -0.67184615
1.4413027 1.1360749 0.80624044 0.6060791 -2.1421285 -1.1719437 2.080033 1.5273886
-0.6002975 0.12536594 -0.3092942 -0.30704418 -0.18238293 -0.5218482 1.1380906 1.3240963
-0.3648066 1.0131506 1.6559542 -0.6482274 0.93971056 0.6881039 -0.897582 0.23715323
-0.06510823 -0.18734635 0.53146046 1.3024433 0.6134165 2.4180026 -0.85653144 0.11261292
0.30959153 0.658064 0.1707966 1.9212865 -0.19988874 0.98335093 1.3677746 -0.061309874
2.4266217 -0.025580421 0.28528002 2.329435 -2.3324332 0.10309697 1.1078492 -0.59452087
1.1450092 1.6318973 -0.08556312 -0.21378785 0.22629167 0.42013982 2.7988048 -0.011466243
-0.41194466 -0.16626291 -1.3633897 3.9740868 0.51379234 0.23238268 -0.04244129 -1.7310314
-0.91835326 0.54813534 0.0060415654 -0.007284477 -0.627305 -3.3370242 0.70063204 -2.222962
-0.54205304 -1.0333316 2.8493223 -0.1821299 -2.690147 1.3116212 -0.5223222 -2.1922495
0.7177577 -0.077127 -2.4006474 0.079565436 -1.1505371 0.8071624 0.99245894 -2.335714
-0.7492781 -0.41191426 1.1444665 -0.46711156 1.8075234 0.85476047 -1.0682664 0.7889924
-1.5372277 -0.019247662 -2.3550007 -0.113062754 -2.7804935 0.56025344 1.8955275 0.8921598
-0.8971446 -1.6532767 -3.5944679 0.25255424 0.14131589 -1.608937 0.61528325 -0.7895454
1.1980215 0.8033968 0.4816184 -0.28070948 2.3165224 -1.0267607 1.2925124 1.8801649
0.10589265 -0.5390038 -0.09550151 -0.024557568 -0.1387046 0.50270057 -2.1758966 0.04357094

q2_.0.bias f4 [256]
00000000: 0e5d ec3f d9fb 0540 c827 583f fe3f ef3d
00000010: f8a3 273f 1c2a 0e40 1da9 6e3f 8ef1 f1bf
00000020: d336 1c3f 460d e53f c7f0 36c0 60c1 0040
00000030: be07 983f f6f2 873f 5622 da3f fd54 80be
00000040: 41ba 5140 503c cdbf b5b3 fe3f 2a7e 03c0
00000050: 4d69 3f3f 5561 59bf 3f2c 9b3f db4d 1f40
00000060: 0dee f13f 08b2 54bc e5c5 f83f 41dc 9dbf
00000070: c644 10c0 ec60 c1bf 8b60 3240 1e62 1a40
00000080: e49c edbf 1cbe 473f 415c f2be 7da1 01bf
00000090: b1db 023f 658e 963f a6b7 2dc0 c693 ea3f
000000a0: 0c27 c5be fa06 dbbf 7f82 653f 1d02 803f
000000b0: 2d40 943f 6294 b8bf 5934 1dc0 380d 63be
000000c0: dea4 38c0 565a 2340 31ee 4f40 d4cb 4b40
000000d0: 2a1b 9e3f 68a4 c0be b401 01c0 96dd 16c0
000000e0: 29da 11c0 d74d 893f b87f c33c 7480 92bf
000000f0: 571e fd3f 4546 b2be f95f 963f 6f83 f9be
00000100: 650c b93f b342 1240 82de b8be 73a7 3340
00000110: 2d12 0b40 1051 dd3f c1b6 adbd d121 fa3c
00000120: 62ae 42bf 83ed ae3f b630 b43f b7cd d6bf
00000130: 374d 16bf 879d 123e 8b7a 11c0 06f0 333f
00000140: fcb4 ddbf 4917 0f3f 7d69 bdbf 34c6 1240
00000150: 1245 0640 9a69 a0be e6d9 6940 d4b4 cebe
00000160: f26f 8ebf 510c 0fbf ae89 93be ee04 fdbf
00000170: 33e7 f43f bc76 71be 0e19 01c0 d996 3c40
00000180: 3dbd 24c0 b140 b8be 5b4e 0cbf a608 35bf
00000190: 37f8 dc3f 7507 2fbd 7b8d 833e 0341 e6bf
000001a0: f050 05c0 5096 0dc0 2227 edbb e39d 2cbf
000001b0: 6f57 29bd 1252 d5bf 6d89 85be 547b e6bf
000001c0: 3992 fabf 9227 9b3f 5862 b3bf 2afd bebf
000001d0: 3223 1ac0 2870 0ec0 48b1 02bb c803 30bf
000001e0: dbee b63f f54d 3f40 6331 d93f 5769 84bf
000001f0: 4738 2fbf ae3b e53f 0605 0cbe 3888 c73e
00000200: ef99 55bf 7d27 19bf 5911 0040 42c0 72bf
00000210: 4fdb c53f 0185 7440 1674 e93f a112 503f
00000220: 0146 a43f 40f6 0040 2172 e3be c853 743e
00000230: acfc 173e 9f8f 4e3f 5787 bbbe cc55 05c0
00000240: a487 273f 5602 cf3f dce1 0a40 edad 2bc0
00000250: f9d5 d2bf 740e 0e3f d090 babe 4d80 40be
00000260: 80b5 45be 1f8a 01bf e016 16bf 5b08 aa3f
00000270: e1e9 d23d a807 e93f 93f0 c73f 5d04 c2bf
00000280: cb78 34bf e74c a23e e212 acbf b40b e0bf
00000290: 49b6 b5be 0983 f63f 7155 243f 9880 4b40
000002a0: e5eb 4c3f a2d4 873f 24bd cebf 685e 173e
000002b0: 08a0 bebf a086 0440 6365 093f 684b eb3e
000002c0: 74d6 5d40 944e df3f d504 b0bf fa0a a33e
000002d0: 7a27 24bf 6433 3940 95ef 3bbf 65c6 a6bf
000002e0: 3905 eb3f 8948 1e40 5b27 453f a7e2 fbbf
000002f0: 6f3b d1bf 2d09 473d f9eb b2bf b289 b5bf
00000300: 90d6 7f3f 4cd2 2f3d 493e fb3d bcab f03f
00000310: 7802 d53f 5a2a 82bf d1a6 033f 2807 91be
00000320: dd07 c4bf 4dd3 2ac0 4bfb 7bbe e832 e23f
00000330: b0c8 263e 74b3 323f 8c5f ac3d a301 d7be
00000340: b404 e2be 2b84 d2bf 95de be3f ce05 4e3d
00000350: 1d72 1dbf 1c58 9840 248a 41c0 6ad5 5abf
00000360: b16e 603e 2ea5 cd3e 402c 8ebf 0d27 26bf
00000370: a492 c1bf 0a86 f13d ff26 fdbf fed6 b1bf
00000380: f1fa 773f b331 11be 5f7f cbbf 9893 2340
00000390: 8482 1a40 6593 37bf 8d69 a33f 0e24 ad3d
000003a0: 356a f53f 4d62 023f eb25 86bf 23bf 973f
000003b0: 3da6 5cc0 204b 823f bed0 82bf fd15 e33f
000003c0: bbde 0a40 8fdd a33f ad7b 4f40 69db a2bf
000003d0: d57b ba3f 27fc 8abf 9135 c43f c2fb 373f
000003e0: faa8 153f aaca 06c0 b56f 8b3e abb8 223e
000003f0: 477c bcbf eeff 763f 915d d9be 7e76 dc3f
1.8465898 2.0934966 0.844357 0.116821274 0.6548457 2.2213202 0.93226796 -1.8901842
0.61021155 1.7894676 -2.858446 2.0118027 1.1877363 1.0621021 1.7041728 -0.2506484
3.276993 -1.6034031 1.9898592 -2.0545754 0.7477005 -0.8491414 1.2122878 2.489127
1.8900772 -0.012981899 1.9435393 -1.2332841 -2.2541976 -1.5107703 2.7871425 2.4122386
-1.8563504 0.7802446 -0.4733601 -0.50637037 0.5111647 1.1762205 -2.714334 1.8326347
-0.38506353 -1.7111504 0.89652246 1.0000645 1.1582085 -1.4420283 -2.45632 -0.22173011
-2.8850627 2.5523887 3.248913 3.1843157 1.235204 -0.37625432 -2.015729 -2.3572745
-2.2789404 1.072688 0.023864612 -1.1445451 1.9774884 -0.34819236 1.1748039 -0.48733088
1.4456908 2.285321 -0.3610726 2.8070953 2.1729844 1.7290363 -0.08482123 0.030533703
-0.7604734 1.3666233 1.4077365 -1.6781529 -0.5871157 0.14317904 -2.2731044 0.7028812
-1.7320857 0.55894905 -1.4797817 2.2933474 2.0979657 -0.31330568 3.6539245 -0.40372336
-1.1127913 -0.5587817 -0.2881598 -1.976713 1.9133056 -0.2358045 -2.0171542 2.946707
-2.5740502 -0.35986856 -0.5480706 -0.7071632 1.7263249 -0.04273172 0.2569388 -1.798859
-2.083065 -2.2122993 -0.007237331 -0.67428416 -0.04134315 -1.6665671 -0.2608141 -1.8006387
-1.9575874 1.2121451 -1.4014387 -1.492101 -2.4083982 -2.2255955 -0.0019942094 -0.6875577
1.4291643 2.9891331 1.6968197 -1.0344647 -0.6844525 1.7908838 -0.13673791 0.38971114
-0.8343801 -0.5982588 2.0010588 -0.9482461 1.5457553 3.820618 1.8238552 0.81278425
1.2833863 2.01503 -0.4442301 0.23860085 0.1484248 0.806879 -0.36626694 -2.0833616
0.65441346 1.6172588 2.1700354 -2.6824906 -1.6471549 0.55490804 -0.36438608 -0.18798943
-0.19307518 -0.5060138 -0.58628654 1.32838 0.10298515 1.8205462 1.5620292 -1.5157582
-0.70496815 0.31699297 -1.3443263 -1.7503572 -0.35490635 1.9258739 0.64192873 3.1797237
0.80047446 1.0611765 -1.6151471 0.14782107 -1.4892588 2.0707169 0.5367033 0.45955968
3.4662142 1.7445855 -1.3751475 0.31844312 -0.64122736 2.8937616 -0.7341245 -1.3029295
1.8360969 2.4731772 0.77013177 -1.9678544 -1.6346263 0.048592735 -1.3978263 -1.4182646
0.9993677 0.042925164 0.12267739 1.8802409 1.6641378 -1.0169175 0.51426417 -0.28325772
-1.53149 -2.6691468 -0.2460758 1.7671785 0.16287494 0.69805074 0.084166616 -0.41993436
-0.44144213 -1.6446584 1.4911677 0.050298505 -0.6150225 4.7607555 -3.0240564 -0.85481894
0.21917225 0.40165085 -1.1107254 -0.64903337 -1.5122876 0.11793144 -1.9777526 -1.3893735
0.9686728 -0.14179115 -1.5898246 2.5558834 2.414216 -0.7170928 1.2766587 0.084541425
1.9173037 0.50931245 -1.0480322 1.1855205 -3.4476464 1.0179176 -1.0219953 1.7741085
2.1698444 1.2801989 3.2419236 -1.2723209 1.456904 -1.0858201 1.5328847 0.71868527
0.5846096 -2.1061196 0.27233663 0.15890758 -1.4725426 0.9648427 -0.42454198 1.7223661

q2_.2.weight f4 [256, 256]
00000000: 665b 33be 1800 0d3e 6ffb b13e 1316 f4be
00000010: b60e 8a3f 3a99 09bf 98fb 373f 5483 2c40
00000020: f808 993e d041 9b3f 2df7 263f 9383 35bf
00000030: ded1 a3be f771 63bf 981b 1b3e fa1a c9be
00000040: 0508 b23e 2859 853f eea8 5bbc 1a38 9bc0
00000050: 6644 7abf df61 883f 413e 01be 1a1d 7bbf
00000060: 34e4 85bd 6ba5 63bd 3c95 0e3f 38a7 08c0
00000070: 7aee 4740 c66c cd3f 48f7 573e 40f6 c23e
00000080: aa4e bc3f 52b5 e43e 2a54 203f 2956 f63f
00000090: eb63 be3f 631a 4e3f fdee 4cbf 41a1 a6bf
000000a0: 00bf 8e3f 825b 2740 6011 aa3f 5f0f 30bf
000000b0: 7204 8abf 6ea9 73bf 771e 1a40 475a 36bf
000000c0: 9046 3e40 2e4d 7fbf 5816 943f 3d72 58bf
000000d0: b68b 6c3e 17b8 de3f bd8b dd3f c5fb 903f
000000e0: 8998 603f c965 173c e7ab 223f 58e0 b3bf
000000f0: e20e 963f a124 d13f 9459 223f 5d89 b03f
00000100: 219d 97bf 2304 34bd beea 113c 9aff 543d
00000110: a109 dfbf bc9b e8be 498b ae3f 8ecf b83c
00000120: c60d 0b3f 9cf2 a03d 33d7 e9bf df9a 693d
00000130: b615 52bf 0b3f 7b3c af3b 0b40 d8a6 b1bf
00000140: e84a 8fc0 1e43 7bbf f763 a73f 997a e0be
00000150: 8769 acbd 56d9 e9be 57fe 1f3f cec6 f43f
00000160: f12c 1c40 b937 9f3f 22d8 c2bf fd0d b03f
00000170: 6c5d ae3f c83b 99be cac1 f73f fcac 5e3e
00000180: 2435 663f 30b4 0840 44a2 acbf a68a 1740
00000190: c169 72bf 53b6 f3bf ceba 12bf 83d2 7b40
000001a0: 9fb3 2d3f 1bd5 4940 963e 4cbf ce2d 6a3f
000001b0: 5d38 0fbf 5f19 c7bf 6a23 68bf 392d e73f
000001c0: bb7c 1440 b486 bc3e ed48 1a3f 338c 0640
000001d0: e0fb 3cbf 86bb ff3f bfca 15bf 149c 893f
000001e0: d909 63be 7955 873f e269 2cc0 0e23 90bf
000001f0: 64b6 72c0 4dea f1bf b9dc 953f 49fc fbbf
00000200: 9c41 763f 5951 7dbf e86e 41bf 5805 d03d
00000210: 6017 bd3e 1c0b 693f b0e5 383f 7122 4a3f
00000220: 4c13 8c3f f8b2 fbbf e05a c23e 5c51 803e
00000230: 4e9a 02bf c2f4 7bbe b3d9 8cbf 4e72 103f
00000240: 243b 26bf bf4d 653f c319 493f 4bf7 4f3f
00000250: d339 80bf 4f71 823f f786 d33f ca1f 1fbf
00000260: 231b 503e 2cee 453f b070 79bf 3431 50bf
00000270: 2b9f 9c3e b671 483f cacb 80bf eb0f 0a40
00000280: 37a2 1c40 b8a7 34bf 53bb 2440 0b93 ab3c
00000290: 50db f73f d286 b2bf 77c5 96bc 8657 0dc0
000002a0: f249 a43f e0c1 fd3e b840 3dc0 cf46 11bf
000002b0: 57a5 8dbf 4cda 24bf 3af6 5a3f 49f9 b1bd
000002c0: 0c91 a8bd afa3 bebe 6e89 0440 489a 26bf
000002d0: 85ca 283f 3c5e 88bf dd5f 663e bd47 ee3f
000002e0: c15d 8d3f 03f7 643f f451 963f ec3b 3dbe
000002f0: d66d c3bf fee3 8140 db98 2540 cfc9 333e
00000300: f268 9b3f ce0c 3540 0d60 94be f7b8 7f3f
00000310: 98ba 90bd 63f9 6fbf 42cd 923f c024 6dbe
00000320: 75b2 cf3f 6902 47c0 139d 963e 6507 bdbf
00000330: 2cbe 033f ec8b 453f fc64 a33f 6a59 c9bf
00000340: 1320 fdbf 0e21 04c0 29ee ca3f 16fe 86bf
00000350: 2f54 3240 c512 5a3f b75f e23e 6caf a83f
00000360: 4546 0cc0 0c48 55bb b8db 383f 012b 7a3f
00000370: 673b 01bd 55f8 ef3f 1f82 1a40 a5a6 973f
00000380: a9e6 2dbf 9a39 38bf d313 c0bf 57b7 c43d
00000390: d448 e33e 6aaa b73f 0468 003f e2bd db3e
000003a0: 28f2 5e3e c4c1 9dbf 6ffb 44bf 54c3 76bf
000003b0: 65a6 7f40 2275 d9bf 4dca d33f 93de 513e
000003c0: 23ca 45be 986c 933e b33e 113f da08 bbbf
000003d0: fb85 82bf 75a1 70bf 3ee1 273d 811e 633f
000003e0: 4224 8dbd f53e 0e3f 24da 1f40 beaa 06bd
000003f0: ae60 c43f eb5c 2dbf 19be 50bd d2c2 4e3f
-0.17515334 0.13769567 0.3476214 -0.4767309 1.078574 -0.5374943 0.71868277 2.6955156
0.29889655 1.2129459 0.6522091 -0.7090389 -0.31996053 -0.8884577 0.15147245 -0.39278394
0.34771743 1.0417833 -0.013406975 -4.8505983 -0.9776062 1.0654868 -0.12621404 -0.9809128
-0.06537667 -0.055577677 0.55696464 -2.1352062 3.1239305 1.604882 0.21090424 0.380785
1.4711506 0.44669586 0.62628424 1.9245044 1.4874243 0.8050901 -0.8005217 -1.3017961
1.1152039 2.6149602 1.3286552 -0.68773454 -1.0782607 -0.95180404 2.4081094 -0.712315
2.9730568 -0.9972714 1.1569319 -0.84549314 0.2310017 1.739993 1.730827 1.1326834
0.8773275 0.009240576 0.6354355 -1.4052839 1.1723292 1.6339303 0.63417935 1.379192
-1.1844827 -0.043949258 0.008906065 0.052001573 -1.7424814 -0.45431316 1.3636256 0.022559907
0.5431789 0.07858774 -1.8268799 0.057032462 -0.8206438 0.015334855 2.1755178 -1.3879042
-4.477894 -0.9814929 1.3077382 -0.43843535 -0.08418565 -0.45673627 0.62497467 1.912317
2.440243 1.243888 -1.5222208 1.3754269 1.362226 -0.29928422 1.9356015 0.21745676
0.89924836 2.1359978 -1.348702 2.3678374 -0.9469262 -1.9040016 -0.5731629 3.9347236
0.67852205 3.153632 -0.79783 0.9147614 -0.5594538 -1.5554618 -0.9067904 1.8060676
2.320113 0.3682152 0.60267526 2.102307 -0.7382183 1.9979103 -0.5851249 1.0750756
-0.22171725 1.0572959 -2.6939626 -1.1260698 -3.7923822 -1.8899628 1.1707984 -1.9686366
0.9619386 -0.9895225 -0.75559855 0.10157269 0.36931896 0.91032577 0.72225475 0.78958803
1.0943389 -1.9663992 0.37959957 0.25062072 -0.510167 -0.24605086 -1.1003937 0.56424415
-0.6493399 0.89571756 0.78554934 0.81236714 -1.0017647 1.0190829 1.6525563 -0.6215788
0.20322852 0.77316546 -0.9743757 -0.8132508 0.30590186 0.7829851 -1.0062191 2.1572216
2.4474008 -0.7056842 2.5739334 0.020944139 1.9363804 -1.3947394 -0.018404705 -2.208467
1.2835066 0.49561977 -2.957075 -0.5674867 -1.1066083 -0.64395595 0.8553196 -0.086901255
-0.082307905 -0.37234256 2.070888 -0.65079165 0.6593402 -1.0653758 0.22497506 1.8615643
1.1044236 0.8943941 1.174376 -0.1847989 -1.5267894 4.059081 2.5874546 0.17557453
1.2141402 2.8289065 -0.2897953 0.9989161 -0.0706684 -0.9373991 1.146889 -0.2315855
1.6226336 -3.109522 0.29416713 -1.4767882 0.51462054 0.7716663 1.2765193 -1.5730412
-1.9775413 -2.0645175 1.5853931 -1.0546291 2.7863882 0.8518489 0.4421365 1.3178535
-2.191789 -0.0032544164 0.72210264 0.9772187 -0.03155079 1.874766 2.414192 1.1847731
-0.67930084 -0.71962893 -1.500605 0.09605282 0.443915 1.4348881 0.50158715 0.42918307
0.21772063 -1.2324758 -0.7694616 -0.963918 3.994531 -1.6988871 1.6546112 0.20495062
-0.1931539 0.28793788 0.56736296 -1.4612076 -1.0197138 -0.93996364 0.040986292 0.8871842
-0.06891681 0.55564815 2.4976892 -0.032877676 1.5342004 -0.67719907 -0.05096254 0.8076602
