online_weights/spot_walker2d_medium/actor_s1000000.pth (torch, 290191 bytes, 6 tensors)

actor.0.weight f4 [256, 17]
00000000: a8f9 d13d 9fd7 07be 71fc b93d c023 55bd
00000010: 97c8 ff3d 7b5c c7bd 685b 833e 7be3 f53b
00000020: 1736 9d3e af40 ea3d 0865 4f3e d4e6 adbe
00000030: eaf6 a3bd d6a1 e73d f1a2 c6bd accf b5bd
00000040: 0df2 a43d e690 bc3e d615 c83e 124a ba3c
00000050: 6646 13bd 824c cc3e 70c1 093e d88c 53be
00000060: 86ee 273f 39df e4be 6606 123e 7e6b 3d3b
00000070: 8f04 083e 6da5 aa3d 0e43 d83c 9625 13be
00000080: aee9 783d 21a9 bc3d 9c04 f4be 9c03 56bf
00000090: 4f9e 3e3d 7512 ed3d 0a70 333e 9e05 023f
000000a0: 00ed cd3e 9a4c a5be d230 853e 772c a0be
000000b0: 1c7c c4be 0bbc 4d3e c8cf 323d 75d3 a03d
000000c0: 6f2d 113e 30c1 8e3e d770 0f3d 20b2 9a3e
000000d0: 20d2 30bf 1422 2ebe 9271 163e ad4c 803e
000000e0: 1bb2 14bd 39d9 a73e 04e1 c23e 8ea7 633c
000000f0: 0f25 583d b3ca 493e a906 d93d da12 af3c
00000100: 9a54 5e3d aa89 56be 0a16 6fbe d6fe fa3d
00000110: 6d9e 503d fa70 7b3e 90d3 143e 080b 303e
00000120: 8343 f43d 3885 aabc 6977 91bd 31c4 a13e
00000130: 30fd c6be 8008 923d 50e0 a83c 8661 f2bd
00000140: d89a 8fbe c678 003e 348d 1c3e e735 d5bd
00000150: 0d70 243e 062c d33d 1398 83be 5a6a 44be
00000160: 6e19 fb3d 8dee 6dbe 2cb7 85bd a358 9bbb
00000170: 62fb ca3e 64bc 943e 0482 0cbf 0e9a b5bd
00000180: 9d9e 423e 965e 703d 0645 f03a b000 33ba
00000190: 7602 cebd beda 173e 6cc6 c2bd 8300 993d
000001a0: d775 a23e 3c18 8a3e c75d dbbd 765d 653e
000001b0: 545c 75be 3e90 e63d f06b 90bd 9486 bf3b
000001c0: 19be 953e 8613 1abe 751f dc3d 1e6d 603d
000001d0: e4c7 c9bd 3921 48be 59ab f9bc 9b06 92bd
000001e0: 81c1 0b3f 16ba b9bc 4902 83bb 3748 6b3d
000001f0: 89f1 d73c 04f4 973d 00c9 353e 4ec2 5c3e
00000200: a008 333e ff7d 943e d59c 62be c2bb e0bc
00000210: 9a60 563d f428 dabd 764e 0a3f fc56 06be
00000220: 7650 95be d45f c7be f43f 373e 73d5 82bd
00000230: 69f4 e3be f254 bc3e 9ae9 d23e 5bc0 d1be
00000240: 9187 9dbd c519 e23d 7b68 ad3e a88e 983d
00000250: d2a9 93bc 68a1 dc3d cd62 85be a7bc 4ebe
00000260: 9056 693c 800b d53d a55d c7be 61b9 82be
00000270: 4f58 873b b4cf cdbd f0d9 dfbd cd0f a0bc
00000280: 675a d73e 8fdf cdbc cf32 9f3d d7cd e93c
00000290: 34d8 473c d452 763e 1604 bf3c 97a5 86be
000002a0: 548f 42bc a647 053f 8a30 0bbd 55da 0a3f
000002b0: af6b fc3c 0056 04bd f8b9 bebc 7e36 15be
000002c0: 41f7 b7be 6054 bf3e 9f73 51be 3e69 5f3d
000002d0: fe90 c13e 2ae7 0fbe ffa7 bfbd 926b 1c3e
000002e0: c9c2 21be 7044 2cbe 1feb 853d d19b 0fbe
000002f0: 20e4 513e ee08 febd 8222 4abd be8e 9c3d
00000300: 4752 85be 6242 71bd dd6c 64be c6ce 8dbe
00000310: 9228 303e 4b33 083d d6cd b63d 0dfe 0e3e
00000320: eb7b 56bd 9eb8 e5bd c1b6 10bf 4e7b 69be
00000330: 895d 9c3d 37f4 ef3e 2156 b33d 71f0 e0bb
00000340: 12a4 113e 0736 a3be 093c 56bd 39de 9dbc
00000350: f60b 34bd a388 b9bc b700 463e bf17 9cbe
00000360: e56b 5f3e a6fe e1bd e284 f53d e6f8 bd3d
00000370: 1971 5d3d 3211 0a3d a391 98be 513c c63c
00000380: 6a33 83be 7c65 a13d 5a51 3f3e 6924 1e3e
00000390: ef1b 9dbd 77c5 12bf 3a1e 9b3c 5f96 493e
000003a0: 040b dbbe bc73 88bd aec3 823b abb8 9e3e
000003b0: ae16 6f3e f724 d13d f4ba bb3d 66c2 a23d
000003c0: f7a9 10be 0005 543e f123 103d 87c3 a93e
000003d0: 4626 2e3f 6182 61be 6d9e 1abc 32d8 223e
000003e0: 9e93 083f dfe9 d4be dffe 50be 45db a13d
000003f0: 4820 e0bd 623f 4fbe fc91 933d 9737 283d
0.10252696 -0.13265847 0.090813525 -0.052036047 0.12489431 -0.09734436 0.25655675 0.0075039244
0.3070533 0.11438119 0.20253384 -0.3396517 -0.080060795 0.11310165 -0.09699047 -0.08877501
0.0805398 0.368293 0.3907916 0.022740398 -0.03595581 0.3990212 0.13452697 -0.20659196
0.6559833 -0.44701555 0.14260253 0.0028903182 0.13282989 0.08332334 0.026399162 -0.14369807
0.06076973 0.09211946 -0.47659767 -0.8359926 0.046537694 0.11575786 0.17523208 0.5078982
0.4021988 -0.32285005 0.2601381 -0.31283924 -0.38375938 0.20091264 0.043655187 0.07852832
0.14177488 0.27881765 0.03501972 0.30214024 -0.69070625 -0.17005187 0.14691761 0.250585
-0.036302667 0.32782915 0.38062298 0.013894929 0.052769717 0.1970623 0.105969734 0.021371294
0.0542799 -0.20950952 -0.23348251 0.12255637 0.050932337 0.24554816 0.1453383 0.17191708
0.11926939 -0.020815477 -0.07102854 0.31594995 -0.38865042 0.071305275 0.020614773 -0.11835007
-0.28047824 0.12546071 0.1528824 -0.10410672 0.16058369 0.10311131 -0.2570196 -0.19181195
0.1226071 -0.23235531 -0.06529078 -0.004740791 0.39644915 0.2904998 -0.5488589 -0.08867274
0.19005819 0.058683954 0.0018331117 -0.00068284106 -0.10059063 0.14829537 -0.09510502 0.07470801
0.3173053 0.26971614 -0.10711246 0.22398934 -0.23961002 0.11257981 -0.070518374 0.0058449004
0.29246596 -0.1504651 0.107481875 0.054791562 -0.09852579 -0.19543923 -0.030477213 -0.07130166
0.5459214 -0.02267174 -0.003998075 0.057441916 0.02636029 0.07419589 0.17752457 0.21558496
0.17483759 0.29002377 -0.22130139 -0.02743328 0.05233822 -0.106523424 0.5402597 -0.1311912
-0.2916295 -0.389403 0.1789549 -0.063883685 -0.44522408 0.36783558 0.4119385 -0.40967068
-0.07691873 0.110400714 0.33868775 0.074490845 -0.018025313 0.10772973 -0.26051942 -0.20189153
0.0142418295 0.10402584 -0.38938633 -0.25532058 0.0041304003 -0.10049382 -0.1093024 -0.019538784
0.4206116 -0.025131015 0.07773363 0.028540535 0.012197543 0.24055034 0.023317378 -0.2629821
-0.011874992 0.5206245 -0.033981837 0.542394 0.030813066 -0.03230858 -0.023282036 -0.14571568
-0.35930827 0.3736906 -0.20454262 0.054543726 0.37805933 -0.14053026 -0.093582146 0.1527541
-0.15796961 -0.16822982 0.065389864 -0.14024283 0.20497179 -0.12404047 -0.049349315 0.076444134
-0.26039335 -0.0589012 -0.22307153 -0.27696818 0.17202976 0.03325204 0.08925979 0.139641
-0.05236427 -0.112168536 -0.5652886 -0.22800943 0.07635028 0.4686601 0.08756662 -0.0068646003
0.14222744 -0.31877157 -0.052303348 -0.019271003 -0.04395672 -0.022648161 0.1933621 -0.30486867
0.21818502 -0.110348985 0.11988236 0.09275989 0.054062936 0.033707805 -0.29798612 0.024198683
-0.25625163 0.07880685 0.18683377 0.15443577 -0.076713435 -0.5733256 0.018935312 0.19686268
-0.42781842 -0.066626996 0.003990612 0.31000265 0.23348495 0.102121286 0.09166518 0.07947235
-0.14127336 0.20705032 0.035190526 0.33156988 0.6802715 -0.22022392 -0.009437186 0.15902784
0.53350246 -0.4158468 -0.20409726 0.079031505 -0.10943657 -0.20239022 0.07205579 0.04106864

actor.0.bias f4 [256]
00000000: 7e4a 7abd b4a5 86bf 8867 3fbf 2601 37bf
00000010: 9022 e7be 0944 ddbe 678f 80be 8bbf d7be
00000020: 109c 27bf 8c29 3fbf 0b48 5cbe a447 93bf
00000030: 4178 f7be 7b59 32bf 9e11 57bf 8750 5dbf
00000040: d2a6 11bf c18a e5be eaf9 04bf f1e6 08bf
00000050: 5957 12bf 1611 05bf cdc6 59bf 2448 27bf
00000060: 7858 b7bf f8e3 fbbe 55a2 37bf 7f55 c2be
00000070: 098f 31bf 71c6 48bf 5b1e 22bf a58a f7be
00000080: b550 debe e488 d8be ca43 37bf f82d 80bf
00000090: 5447 c7be bcbe 33bf 6ac6 06bf be66 1cbe
000000a0: d3d6 0fbf 6d97 b5be 00ec b4be 6284 15bf
000000b0: 6431 e8be 7224 1cbf e0df a6be cf68 e4be
000000c0: 5ccd b3be 1901 28bf b704 7fbf f604 7bbf
000000d0: 933e 1abf d98e abbd afd4 f4be 0373 2fbf
000000e0: c8a3 41be 1d44 90be c7ba 2cbf cdf3 07bf
000000f0: d0de dfbe 65d0 cdbe a1a6 85be 53a9 2abf
00000100: e2b3 10be 184b ebbf a240 c2be aad6 77bf
00000110: 5eea 4cbf 72a6 85bf 23b9 f7be 02ac 81be
00000120: 9bc4 febe 3e0e efbe 6d13 afbf 07c6 04bf
00000130: dd32 05bf 9fdf 24bf 0dff 38bf 09fe cdbe
00000140: caf4 10bf 9da2 a1be a88b 19bf 0a28 abbe
00000150: 6644 4dbf 5f41 7abf 8b2a 02be 447f 3dbf
00000160: bfa1 05bf 2dcd 61be 6a1a 0abf bfeb 24bf
00000170: c410 c8be cb63 d9bc 7420 2fbf 10a4 c0be
00000180: 003f 6fbd 4351 90bf 4cbe ffbe a11e d4bf
00000190: b3b2 19be d53a 48bf 0d1b 31bf 70af 35bf
000001a0: 9639 0dbf 2933 28bf c752 50bf 1794 95bf
000001b0: 00af 84be 1923 93bf 9fc4 73bf bcd2 e8be
000001c0: f1da cfbe 2874 36bf 9a8c 15bf 96a1 6cbe
000001d0: 94cd edbe ec2d a7bd ab14 d5be 54da afbf
000001e0: be60 9fbe c726 96be 598b 22bf dc9a c3bf
000001f0: 351d 39be 5a53 6bbf ca0d 4fbe 314e babe
00000200: bdcd 16bf 8449 82bf d9ce 10bf edb4 2dbf
00000210: 1d5f dfbe 9f29 26bf 0dc2 29bf 1af7 0bbe
00000220: cd53 ebbe f138 dcbe 51d4 75bf 6775 8bbf
00000230: 78b6 6abf 1b17 40be 724a 2fbf 6ec1 2bbf
00000240: 29ca 2bbf c16e 2ebf 8a1a 65bf c4e0 b4be
00000250: b7de 3abf c553 13bf 0b33 c2be 28c0 17bf
00000260: d406 28bf 2320 42bf 26a0 24bf ec58 d9be
00000270: 78e6 34bf 838b d2be 3526 56bf bf86 27bf
00000280: 7755 40bf 90e7 e1be 4583 81bf 7d6b e4be
00000290: 7c20 1ebf e9bd adbe 3e6a f2be d8de 16bf
000002a0: 67be e2be f547 0ebf defd 96bf 1e30 2abf
000002b0: 9d0a 87be c6fe 5bbf 33b4 84be a461 c1be
000002c0: 4853 c9be ef6a 92bf 2eb8 03be f917 20bf
000002d0: 9e56 febe 83ab 25bf 2a6c 91be c281 9fbe
000002e0: 4cb0 dfbe 588f 5dbf 5eca 56bf 1141 4abe
000002f0: f5d1 8fbf 61d2 15bf f92b 2abf c200 13bf
00000300: 9ae2 29bf bbb2 24bf bcbc 98be 6ea0 1bbe
00000310: 9397 b0be f3fb 2dbf f224 9bbf 9e9f b4be
00000320: 7ab3 17bf 2df2 b6be ecfa c0be 3680 1abe
00000330: 5557 d3be ac45 50bf c112 25bf d2f8 0cbf
00000340: f494 d8bd 9a3f 48bf 1a71 94bf cfc0 0ebf
00000350: 7d93 c0be ea15 37bd b36e 64bf 089c a7bd
00000360: 990c 0abf 13a5 a6bf 056c 47bf 254f b0be
00000370: de0e 34bf 25f2 28bf d9fc 10bf 36ee c9be
00000380: df5a 82be f701 e6be aada 07bf 1f6b 90be
00000390: f31b edbe 2685 0abf 1691 b0be 05ae 02bf
000003a0: 77b6 febe 7783 61bf fb4a c43d 2fe7 91bf
000003b0: 3a3a 09bf e41e 2ebf b212 6fbe 4c5f 3bbf
000003c0: c308 46bf e2a7 4bbf 1dc2 e8be a6a2 1bbf
000003d0: 9fc5 82bf 142c 3bbf 2b23 0cbf 8573 b7bf
000003e0: a058 81bf 3610 56bf b324 f9be 26f8 2ebf
000003f0: d7f3 e5be 3b23 0dbf b538 9abf 4104 28bf
-0.061106198 -1.0519319 -0.7476735 -0.7148613 -0.45143557 -0.4321597 -0.25109407 -0.42138323
-0.6547251 -0.7467277 -0.21511857 -1.1506238 -0.48333934 -0.69667786 -0.84011257 -0.86451
-0.5689517 -0.44832423 -0.5194384 -0.5347739 -0.5716453 -0.51979196 -0.8506897 -0.6534445
-1.4323874 -0.49197364 -0.71732074 -0.37955853 -0.6935888 -0.784278 -0.6332757 -0.48347965
-0.4342095 -0.4229194 -0.7158781 -1.0014029 -0.38921607 -0.7021291 -0.52646506 -0.15273568
-0.5618717 -0.3546709 -0.35336304 -0.58405125 -0.45350182 -0.6099311 -0.32592678 -0.44611213
-0.35117614 -0.65626675 -0.9961657 -0.98054445 -0.6025173 -0.083768554 -0.47818515 -0.6853487
-0.18910134 -0.28176966 -0.674725 -0.53106385 -0.4372468 -0.40198055 -0.2610369 -0.6666462
-0.1413112 -1.8382292 -0.37939936 -0.96811926 -0.80045116 -1.044142 -0.48383436 -0.25326544
-0.49759373 -0.46690553 -1.3677803 -0.51864666 -0.52030736 -0.6440372 -0.72264177 -0.40232876
-0.5662352 -0.31569377 -0.59978724 -0.33428985 -0.8018249 -0.97756 -0.12711541 -0.74022317
-0.5219993 -0.22050925 -0.53946555 -0.6442222 -0.3907529 -0.026536843 -0.68408895 -0.3762517
-0.05840969 -1.1274799 -0.49949872 -1.6571847 -0.15009575 -0.7821477 -0.691819 -0.7097082
-0.55165994 -0.65703064 -0.8137631 -1.1685818 -0.25914764 -1.1495086 -0.95221895 -0.45473278
-0.40596727 -0.7127099 -0.58417666 -0.23108515 -0.46445906 -0.08163056 -0.4161733 -1.3738503
-0.31128496 -0.2932646 -0.6349388 -1.5281634 -0.18077548 -0.9192406 -0.20220104 -0.3638778
-0.5890768 -1.0178685 -0.56565624 -0.67854196 -0.43627253 -0.6490726 -0.66311723 -0.1366848
-0.45962372 -0.43012193 -0.96027094 -1.0895203 -0.91684675 -0.18758814 -0.6847297 -0.67092025
-0.67105347 -0.6813775 -0.8949362 -0.35327733 -0.72996086 -0.575497 -0.37929568 -0.5927758
-0.6563542 -0.75830287 -0.6430687 -0.42450655 -0.7066417 -0.41122064 -0.8365205 -0.6543998
-0.7513041 -0.4412198 -1.0118185 -0.44613257 -0.6176832 -0.33933952 -0.4734668 -0.5893378
-0.4428589 -0.5557855 -1.1796224 -0.6647967 -0.26375285 -0.8593563 -0.2591873 -0.37769806
-0.3932135 -1.1438884 -0.12863228 -0.6253658 -0.4967546 -0.6471483 -0.28402835 -0.31153685
-0.4368919 -0.8654685 -0.8390254 -0.19751383 -1.1235949 -0.5852414 -0.66473347 -0.5742303
-0.6636139 -0.6433522 -0.29831493 -0.15197918 -0.34490642 -0.6796257 -1.212065 -0.35278028
-0.59258235 -0.3573164 -0.37691438 -0.15087971 -0.41277567 -0.8135631 -0.6448174 -0.5506717
-0.105752856 -0.7822205 -1.1597016 -0.5576295 -0.37612525 -0.044698633 -0.89231414 -0.081840575
-0.5392547 -1.3019127 -0.778992 -0.34435382 -0.70335186 -0.65994483 -0.56635815 -0.39439553
-0.25459954 -0.44923374 -0.5306803 -0.28206727 -0.46310386 -0.5410942 -0.34485692 -0.5104678
-0.49748585 -0.88091224 0.09584614 -1.1398677 -0.5360447 -0.68015885 -0.23346975 -0.73192286
-0.7735712 -0.79553044 -0.45460597 -0.60795057 -1.0216559 -0.7311413 -0.5474116 -1.4332129
-1.0105171 -0.83618486 -0.48660812 -0.68347394 -0.44912598 -0.5513188 -1.2048556 -0.6563149

actor.3.weight f4 [256, 256]
00000000: b38c 413e 6e62 29c0 99c3 34be 4afc b4be
00000010: d109 6abf 2986 a4bc 737f edbc 1e1d 3dbd
00000020: 4d50 fcbe c72e 93bd 031a ffbe 88b3 da3d
00000030: 8863 d53e d05c fa3d a5ca 11bd 604f 07be
00000040: af7d 6a3e f927 423e c306 9cbe eff1 563e
00000050: d6c9 5a3e e534 453e 2d30 09bf 3d43 963d
00000060: 9c95 18bf 9c24 a13c 6534 7ebe 209b 18be
00000070: 9f04 a63e 3be1 80bd bc17 d2bc e1f9 bf3c
00000080: 88a3 ad3d 6d77 9e3e c701 463e 1d4f 15be
00000090: 63f1 7abd 1b34 25be 668c 20be 40d0 a6bd
000000a0: d388 9f3c 2dbf 28bd dd6c 9cbd f531 1cbe
000000b0: 1219 673d 09ea 82be b2db f4be ac90 8abe
000000c0: 32a3 043e c084 bb3c 5ca9 1b3e f1d6 e2bd
000000d0: 6b39 fc3d 92c4 8bbc b43d 64be bc06 17be
000000e0: dd6e a9ba 5b21 573e 523e c93f 376f b0be
000000f0: f3ee 9fbf dd4a c13e 5bba 863d c0ba 27bd
00000100: be50 d8be 0e54 fb3b 8cda 9b3d 71f1 34bd
00000110: 7d4b c5be 9b33 68be 44cc 433d 6d6c 48be
00000120: b75d 563e 9d1e 17be c7f2 a2be e03f 93be
00000130: 896f 57be 66e3 aa3d 1afe 40bd 382d a83d
00000140: 951d 843d 2edf cdbd aa11 373e 2366 e23d
00000150: a860 af3e 08fe c6bd 30d8 c93d a5a0 9d3e
00000160: 09bd 083e 3982 a53c c8ba 0dbd f552 20be
00000170: e652 cfbd d225 91be fb22 93be c4fa 423e
00000180: a8b7 a1be 49ce 9a3b 6e3f 47be 430f bdbe
00000190: 51ba 7dbd 447b 60bf fdfe f63e 6285 003e
000001a0: 5fcb 95bc f51c 5cbf 1691 7fbd 408d c7bf
000001b0: a988 79bd 9db5 033e efcb 0a3e c634 bbbc
000001c0: c982 6dbd ffa6 04be 4765 d5bd c57c 4dbd
000001d0: b918 0a3e fea3 333d 948d 52bd 6f0c dc3e
000001e0: dedf 8f3d cab4 bebc 9d9e f5bd 52cd 47be
000001f0: 94be 613e 88d7 c53d 83a5 673c 49a0 463d
00000200: e82b 85bf a566 34bd ada0 ba3c 43af c4be
00000210: e403 13bf cf0e 39bf 1a4e d03e 34b3 15be
00000220: 3eaf 843c b419 d73e 5e09 f0be 9025 383b
00000230: 9f30 24bf 2045 29be 2084 32bd 7188 14bf
00000240: 61aa fa3d e31c 8cbf 9788 6ebe bf81 ca3d
00000250: 4434 793e 359a d9bf 93c1 9b3d fe16 5d3d
00000260: 9058 74bd 98a4 663e 46ab b3be 2481 d8bd
00000270: 0908 cabd 08dd 19be ab3b b03d 68ac a2be
00000280: 9ef2 a63e 4d65 093e 1577 683d 8dae 133b
00000290: e772 f23d bdcf 3bbe ef14 483e 93c8 5abe
000002a0: db16 b7bd 3c4a 173e dd63 c03e 2766 a63a
000002b0: d69c 05be 4fac b9bc 42fe e83d 7fae 8dbf
000002c0: fda9 c23d a36f b33e 8f20 79be 6f13 773b
000002d0: 2e1a b43e 74f8 3cbe fde8 483d 92b4 32be
000002e0: a56e 98be ffac 3dbf d158 983d 4f13 96be
000002f0: 75b9 be3e 4e1f 01bf b93e 233d 08a2 a8bd
00000300: bcc4 61be fe42 1ebf 1dd8 66be 0679 58bd
00000310: 6241 6e3e 6251 37be 92cd c03e deb6 c33e
00000320: a667 e33b fa0f f93c 3acd 11be bb0e 06bd
00000330: cce7 7fbd 940f bfbc def8 ad3d 08cb d1bd
00000340: bf0f 003e 49c8 b13d d95f 0c3e 40f3 5bbe
00000350: 59d8 a8bf 29d6 febc bea3 443d 13af cebe
00000360: 72a2 72bd a2c1 cfbe 688e 9abd 7fe0 763d
00000370: 13ea f23d 35fa c5bd 4690 fd3e 1064 a7be
00000380: 7893 31bf d51e 11bf d9d9 b0bb 0a0c 4cbc
00000390: 18d9 f63c f812 403b 33e7 37be 9977 a6be
000003a0: 9058 7fbd c19f 6ebe d215 0cbe 4c50 72be
000003b0: 20ce 083e 20cc 09be b1c3 983a 60d1 07bd
000003c0: 9a6e 44be 5043 13bf a1da d3bd 60fa 2f3d
000003d0: 0cd7 ecbe 3611 3d3d bd10 57be 6c8a ccbd
000003e0: a87b 693e ff9e babd 6bff e1be 7ccf 95bd
000003f0: 9635 373e 97be 09bf 00ff 743e 2e16 dfbd
0.18901329 -2.6466327 -0.1765274 -0.3534873 -0.9142123 -0.020083504 -0.028991437 -0.046170346
-0.49280015 -0.071866564 -0.49824533 0.10678774 0.416775 0.12224734 -0.035593648 -0.13213873
0.22899507 0.18960561 -0.3047391 0.20990728 0.21366057 0.19258459 -0.53589135 0.073370434
-0.59603286 0.019670777 -0.24824674 -0.14902925 0.324254 -0.06292959 -0.025646083 0.023434581
0.08478457 0.3095049 0.19336616 -0.1458096 -0.06126536 -0.16133158 -0.15678558 -0.08145189
0.019474423 -0.041197944 -0.076379515 -0.15253432 0.056420393 -0.2556918 -0.47823864 -0.270635
0.12952879 0.022890449 0.15201324 -0.11076153 0.12315639 -0.017061505 -0.22289163 -0.14748663
-0.0012926717 0.21008818 1.5722144 -0.3445985 -1.2494797 0.3775243 0.06578513 -0.040949583
-0.422491 0.007669932 0.07610044 -0.04417557 -0.38534155 -0.22675936 0.047802225 -0.19572611
0.20934187 -0.14757772 -0.3182585 -0.2875967 -0.21038641 0.08344154 -0.04711733 0.0821175
0.06450955 -0.10052334 0.17877832 0.11054637 0.3425343 -0.09716421 0.098556876 0.30786625
0.13353361 0.020203697 -0.034601957 -0.15656646 -0.101232335 -0.28349167 -0.28737625 0.19040972
-0.3158543 0.004724298 -0.1945779 -0.36925706 -0.061945263 -0.8768809 0.48241416 0.12550882
-0.018285451 -0.85981685 -0.062394224 -1.5589981 -0.060921345 0.12862249 0.13554357 -0.022852313
-0.057986055 -0.12954329 -0.10419708 -0.050167818 0.13485993 0.043857567 -0.05140455 0.42978236
0.07025121 -0.023279566 -0.11993144 -0.19511917 0.22045356 0.0966025 0.014138582 0.048492704
-1.0404024 -0.044043202 0.022781694 -0.38414964 -0.5742781 -0.7228822 0.40684587 -0.14619142
0.016196843 0.42011797 -0.46882147 0.002809856 -0.6413669 -0.16530275 -0.043583035 -0.58020693
0.122395284 -1.0946316 -0.23294292 0.09888028 0.24336344 -1.7000185 0.07605281 0.053977005
-0.059654772 0.22523725 -0.3509161 -0.105715066 -0.09864814 -0.15025723 0.08605131 -0.3177216
0.32606977 0.1341755 0.05675419 0.002253446 0.11838322 -0.18340965 0.19539236 -0.21365575
-0.08939906 0.14774412 0.3757619 0.0012695239 -0.1304811 -0.022665171 0.11376621 -1.1068877
0.09505079 0.3504611 -0.24328826 0.0037700792 0.35176224 -0.18454152 0.04905032 -0.17451695
-0.29771915 -0.74092096 0.074388154 -0.29311606 0.37250867 -0.5043839 0.03985474 -0.0823403
-0.22047704 -0.6182097 -0.22543378 -0.052849792 0.23267129 -0.17902139 0.37656838 0.38225454
0.006939846 0.030403126 -0.14238444 -0.03272889 -0.062476918 -0.023322858 0.08494733 -0.10243803
0.12506007 0.086807795 0.13708438 -0.21479511 -1.3191024 -0.031107979 0.04800772 -0.40367946
-0.05923695 -0.40577418 -0.07546693 0.06027269 0.11861052 -0.09666864 0.49524134 -0.3269353
-0.69365644 -0.5668767 -0.005397063 -0.012454042 0.030132815 0.0029308181 -0.17959289 -0.3251312
-0.06234032 -0.23303129 -0.13680199 -0.23663443 0.1335988 -0.13456774 0.0011655 -0.03315866
-0.19182816 -0.57524586 -0.103444345 0.042963386 -0.46257818 0.04615899 -0.21002479 -0.099873394
0.22801077 -0.09112357 -0.4414018 -0.07314965 0.17891535 -0.5380644 0.239254 -0.10892902

actor.3.bias f4 [256]
00000000: 7ab5 56be 098b 983d 2081 523e c9db bd3d
00000010: 461c c43e dfc5 ad3e 1d52 34bf ab87 233f
00000020: 56c8 1d3f 19ff a03d 56c2 cebe b9b5 9dbd
00000030: 17e5 083f 0350 d73b 6e75 433e 1057 903e
00000040: cf32 693e d4e7 d1bd 4aba 123f db49 90be
00000050: 70c3 96bc 86f1 1e3f 82d9 b33d 7253 a0be
00000060: a293 e63e 3ea1 d13e aae6 47bc f141 693e
00000070: 0a85 dd3e 4f5d 323e d98c 8f3d adfa 223c
00000080: 7002 38bf e61b 8d3e e24c 803e 2e42 003e
00000090: 709e 063f 6d6c 7e3e f815 c93e 488d 9dbd
000000a0: 7240 12bc 3ee9 cd3e f51c d3bd a740 a13e
000000b0: 91e8 f5be b898 f33e 279a d6be 3a27 ebbd
000000c0: baca 27bc 452b ca3e 3873 ebbc b519 343e
000000d0: ceb5 f13e 3762 a13e 7c25 163f bf46 ec3e
000000e0: 1f18 bbbd bdd7 02bd 0e0a 90be 4fba 01bf
000000f0: 0a92 f7bd 52ba 263d 9e52 2b3f 9c57 813e
00000100: eaca 0e3e a875 d03e 77c1 c7bc d5c1 c43e
00000110: a6db 19bf 8f43 c23e 4ec6 033f 6944 553e
00000120: f9a5 d23d 8934 c73e d9c4 0a3f 5c0a 6a3e
00000130: 2fae 0cbf 33f0 97bf ba82 febd 2a91 da3e
00000140: d63c eb3d 565d c13e c6da cfbe c2f5 973e
00000150: 4ba3 113f d3e7 f13e 93cb 033f 039f 3a3e
00000160: 51e3 ee3e bcad 40bf 9746 05bf 5ddf fbbe
00000170: 6915 98bc 467b 0d3f 95e2 043e d8cd fe3d
00000180: 2add fe3e 05b2 313f ee9b 0f3f 5027 a73d
00000190: 396a 30bf c55e 2c3e 7a8a 1b3d ec8b 1a3f
000001a0: acc1 a63d 34c0 4abe 5fda a13e 3fe1 dc3e
000001b0: abbf c8bd 6ae2 07bf b772 243f f577 c83d
000001c0: 5834 2f3e 3c63 82be 6456 763e 8192 df3e
000001d0: 648d 163e 01cc 2fbf 5ef1 623e e3a7 cbbb
000001e0: fccd 94be cda1 89be 6732 4d3f 8bf2 90be
000001f0: 954b 7a3e f4dd 583e 356a 17bf 1ad0 dc3d
00000200: 7e99 9b3e d223 ec3c f7f9 a73c b8cf c03e
00000210: 3fd4 0f3f 8ef9 a83e 6df0 d4bd 53f3 94be
00000220: c3c4 35bd baa6 f63e 3421 093f 6b2d 7f3e
00000230: bc3e 123e 26af 0e3f 638c af3e 7ef3 093f
00000240: f48b c53e 5335 d3bd d1ac 0a3f 4ca0 c33e
00000250: e8c0 02bc eab7 cfbd d2a9 a73e 0a58 15bf
00000260: f79f b53e 31cd 87bf 6f4d 3fbe df99 9fbe
00000270: 8e74 38be 351e 873c aefe dbbd 3fdd ab3e
00000280: 313f 08bf 69fa f23e 0a3f 80be 055e e3be
00000290: 128a e63e 092d cf3e 79e8 10bf ea07 3abf
000002a0: 8913 00be ba16 d93e d658 15be 3503 8e3e
000002b0: 46b4 9dbe d068 cd3e 909f efbe 0274 6a3e
000002c0: 6ba1 b73e d9b1 f53e 90b5 88be 8588 f33d
000002d0: 3437 1d3f a61f 95be 8193 60bc ca08 8f3e
000002e0: fac8 85be cc74 58be 9625 613e 9b7c 093f
000002f0: 9315 b03e 798e 153f 304c e43e 47db 1fbe
00000300: d667 9fbf e371 74bf 9ac4 56bf a233 113f
00000310: 9322 123d e0f0 1a3f 5801 453d d100 97bc
00000320: 4baf dc3e eb70 643e 3e8a af3e c2a8 1f3f
00000330: f569 113d a5e9 08bf 176a 0abf 2da9 80bf
00000340: 0c22 393f 104b 013e 882f 653e bd57 d83e
00000350: 7689 a93d 1d98 cdbe 37ab 0a3d cf5c b83e
00000360: 1019 113f 4cca e93e 41a3 9abe 6da0 ae3e
00000370: 58d6 103f d330 b83d 97a5 43be edc1 d7bb
00000380: 4632 e73e aca5 273e ef92 dd3d abca ae3e
00000390: d9d9 2d3f b0e3 c73d 1a6a 323d fae2 54bd
000003a0: baed 8c3e a76d fe3e c8ef d93e 0c7f 92be
000003b0: 34ad c13e fe9f a93e a90a 38bf 52ed ce3d
000003c0: 856c a53e 48f4 303e 23f4 443f f9e4 003d
000003d0: a5df 443e a892 9f3e fe1d d8bd e062 77be
000003e0: e955 353e 5ce7 babe 99c0 02bf 35c7 5a3e
000003f0: 7151 b93e 6517 a43d 78a7 2d3f 82aa e9be
-0.20967665 0.07448394 0.2055707 0.09270436 0.3830282 0.33940026 -0.70437795 0.6387889
0.61633813 0.07861156 -0.40382642 -0.077006765 0.53474563 0.0065708174 0.19087765 0.28191423
0.22773288 -0.10249296 0.57315505 -0.28181347 -0.018403739 0.62087286 0.08781721 -0.31313664
0.4503451 0.4094333 -0.012200991 0.22779061 0.43265563 0.17418407 0.070092864 0.009947461
-0.7187872 0.27560347 0.25058657 0.12525246 0.52585506 0.24846049 0.39274573 -0.07692963
-0.008926498 0.40217012 -0.103082575 0.31494638 -0.48028997 0.47577453 -0.41914484 -0.11482091
-0.010241205 0.39486137 -0.028741464 0.17587931 0.47209018 0.31520244 0.58650947 0.46147725
-0.0913546 -0.031944025 -0.2813267 -0.5067491 -0.120884016 0.040705033 0.6692294 0.25262153
0.13944593 0.40714765 -0.024384243 0.38429132 -0.6010078 0.37942168 0.51474464 0.20826878
0.10285563 0.3890727 0.54206616 0.22855514 -0.54953283 -1.1870178 -0.12427278 0.42688876
0.11486213 0.37766522 -0.40596598 0.29679686 0.5688979 0.4724718 0.51482505 0.1822472
0.46657804 -0.752651 -0.52060837 -0.4919385 -0.018564897 0.55266225 0.12977059 0.12441605
0.4977811 0.6941226 0.56097305 0.08161795 -0.6891208 0.16833027 0.03797386 0.60369754
0.08142409 -0.19799882 0.31611916 0.431406 -0.09802183 -0.53079855 0.6423754 0.09788505
0.17109811 -0.25466335 0.24056393 0.4366646 0.14702374 -0.6867066 0.22162387 -0.006215082
-0.29063404 -0.26881257 0.8015503 -0.28310046 0.24442895 0.21178418 -0.59146434 0.1078188
0.30390543 0.028825674 0.020504935 0.37658477 0.56183237 0.33002895 -0.1039742 -0.29091892
-0.0443771 0.48174077 0.5356629 0.2491967 0.14281744 0.55736005 0.34286794 0.53887165
0.38583338 -0.10312905 0.54169947 0.38208234 -0.007980563 -0.10142501 0.3274675 -0.5833746
0.35473606 -1.0609494 -0.18681882 -0.31172082 -0.18013212 0.016493896 -0.10741936 0.33567235
-0.5322142 0.47456673 -0.25048095 -0.4440767 0.45027214 0.40464047 -0.56604725 -0.72668326
-0.12507452 0.42400151 -0.1458467 0.27736822 -0.308016 0.40119028 -0.46801424 0.22895816
0.3586534 0.4798725 -0.2670102 0.118912734 0.6141236 -0.29125708 -0.013707043 0.27936393
-0.26129895 -0.21138304 0.21986994 0.5370576 0.3439146 0.5842052 0.44589376 -0.15610991
-1.2453563 -0.9548628 -0.8389374 0.5671941 0.035677504 0.60523796 0.048096985 -0.018433006
0.43102488 0.223087 0.34285158 0.6236688 0.03550144 -0.53481513 -0.5406813 -1.0051628
0.72317576 0.1262629 0.22381413 0.4225444 0.08278172 -0.40155116 0.03385469 0.36008307
0.5667887 0.45662153 -0.30202678 0.3410677 0.5657706 0.089936875 -0.19106136 -0.006584397
0.45155543 0.16371793 0.10819041 0.34138998 0.67910534 0.09760225 0.043558218 -0.051974274
0.2752512 0.49693033 0.4256575 -0.28612554 0.37827456 0.33129877 -0.71891266 0.10103859
0.32309356 0.17280686 0.76935023 0.031468365 0.19225939 0.31166577 -0.105525956 -0.24158812
0.17708553 -0.36504638 -0.5107513 0.21365054 0.36194947 0.08012275 0.6783366 -0.456379

actor.6.weight f4 [6, 256]
00000000: c599 d13b e356 87bb 023e 49bc 0213 b53c
00000010: 397e febc fc5d 0cbd 8a3b 123c 22a4 88bc
00000020: 6f94 b43d 8065 23bd 7a20 133e 4bc6 a3bc
00000030: d3c8 483d 4f15 443e 3de9 afbb 374a 57bc
00000040: 9568 9bba d089 c03c a7d8 d4bb 33eb a1bd
00000050: c87e 8f3d e7ac 363d 1ce1 823d 1d0d 81bc
00000060: 5334 bb3d 1117 07bd 6775 7bbc 32ed 243e
00000070: f9f4 35bc cdc1 61bd 90d1 8d3d 8e56 1cbd
00000080: 0049 9cbd 5653 4c3c 40af 01bd b3a0 003d
00000090: e818 ddbc ff31 6ebc 03e8 1ebd d0cc 8dbd
000000a0: 5537 d0bc d84f c73d 956d 243a 9b75 c8bd
000000b0: 0e96 1f3e 4243 4c3d 47ba 20bc b387 1bbc
000000c0: 61df cebd 843f f2bc 0868 f43c 5a10 81bd
000000d0: be90 c63c f345 45ba ca13 d13d 51be c03a
000000e0: 84d6 213c 9b77 f7bc e31a 0b3d eae6 873a
000000f0: fa4a edbd 9d54 8cbc 07ec 60bd a025 27bb
00000100: c0a1 2ebb 6eb4 54bc 0e6b 153b 4f8c 373e
00000110: b701 61bc 2253 0abd 7bb9 48bd 8abd 12bd
00000120: 0492 20bd 48b1 2d3e 95ad af3c 6f73 0f3d
00000130: 8fea 8abd 51e3 e23d 989a e5bc 0f15 67bb
00000140: c232 c2bc df1f f8bc 8e05 1abc c036 17be
00000150: 2461 893d 7de8 bf3d 2591 a93d 3781 b93d
00000160: e287 d3bc 5dc6 ebbd 20c9 0dbd 43d0 0c3c
00000170: 6b30 78bc ccb4 da3c 4905 48bc 2f74 803a
00000180: f046 86bc 3b7c abbb 7e0d 833c 72bc 8d3d
00000190: df2b dc3d f132 dabc faf0 0fbc 4a4f 183d
000001a0: a023 03bc 6c72 6dbc 4f0d 09bd 6fcf f3bd
000001b0: 4e8f ba3d 17ea c9bb cfa1 ad3b c9d1 3a3b
000001c0: 6e21 853c 5744 593d 87fc 823c 1d0a d9bb
000001d0: 2dce 07bc 6f88 b4bd b5e7 08be e85a 09bc
000001e0: 6511 bcbd 06c5 acbd 4fbb 6cbb 9c84 443d
000001f0: f428 cb3a a988 b6bb e8ee 60bb 187a f8bb
00000200: c1c3 4abc 7e77 893d 7ed0 90bc 508e 193e
00000210: bb6c ac3b d33e 8bbd e4d2 d9bb 4344 a2bd
00000220: d310 213b 421b c03c 68b5 833b a037 a3bd
00000230: b9b1 843d c3a9 d43d 646a dfbc 3f80 293c
00000240: af6b fa3d 08d1 a13c d8e7 113e 60e6 143d
00000250: 56ab 05bd ce3e 973c 4761 7e3d d1db c8bd
00000260: 9177 bc3c 5a33 53bd a813 603d 39a2 7abd
00000270: 0ef4 a03c 3471 51bd 9e30 013c f6a9 1abb
00000280: 0136 63bd 8976 88bc e951 0e40 c9df ea3c
00000290: 29c3 f7bc 0b54 253e aeb3 a83c 4969 a4bb
000002a0: 9f2f ad3d 8cb8 503c f714 80bb a558 87ba
000002b0: 7026 a1bc f7a2 29bc 7567 253c 1b4f 113e
000002c0: 3a28 5ebd 1f77 cfbb 3f64 45bc b50c 8bbd
000002d0: 1dfb 2eb8 7527 f73c 3a87 2cbd a9dd a4bd
000002e0: 1447 b1bc aed1 08bc c809 c6bc 16fd 3a3d
000002f0: ceb2 6e3a 1187 85bd 0eac 0cbd 43c1 3abd
00000300: fbea 01bf 911b 1f3d 4070 53bd 517f 6a3d
00000310: 14be 06bd e127 b0bc 1ce4 fc3d 8d35 9c3c
00000320: 79e9 e7bd 416d 05bd 968b 313d 032d 533c
00000330: e2e2 cf3c 01d6 60bd 2e04 b1bb a982 433d
00000340: 61df abbc 77cc 81bc 1059 de3d e0cb 52bc
00000350: 0291 f93b 6050 8b3d b1f3 9e3d 1f17 103e
00000360: bf85 6a3d 6237 453d f2ae f4bc 9181 f93d
00000370: 9195 a9bd c59e bb3d 3105 debc 63d6 12bc
00000380: 3455 cdbb c422 853d 6377 223d fd37 15bd
00000390: 99e6 5abd 0b7a fbb9 a53c 013d 3d8d 70bc
000003a0: 1fd0 253e 565c 2abc 3e23 b83d 05d4 a3bd
000003b0: efd5 adb8 3ef2 3abd 7efd 863d 6351 76bc
000003c0: 17f6 fe39 fd7f 863d 5647 07be 0cf3 1fbd
000003d0: afdc 6a3d d841 903d 0243 b23c 0ef1 153c
000003e0: 4e6c b8bd 57a2 bd3c adb9 8e3c c922 3539
000003f0: 34c8 a0bd 9162 81bc 0816 5c3d 9b24 1cbc
0.0063965046 -0.0041302308 -0.01228285 0.02210379 -0.031066047 -0.034269318 0.008925328 -0.016679827
0.08817374 -0.03989172 0.14367858 -0.019992014 0.049019646 0.19148754 -0.0053683803 -0.013140253
-0.0011856729 0.023503214 -0.0064955535 -0.07906189 0.070066035 0.044598486 0.063905925 -0.015753323
0.091408394 -0.032980982 -0.015347815 0.16106108 -0.011105769 -0.055116463 0.069247365 -0.038168482
-0.07631111 0.012471041 -0.031661272 0.031403255 -0.026989415 -0.014538287 -0.038795482 -0.069238305
-0.02541701 0.09732026 0.00062724325 -0.097880565 0.15584585 0.04986883 -0.009810037 -0.009492802
-0.101012 -0.029571302 0.029834762 -0.06301947 0.02423894 -0.0007525377 0.102088526 0.0014705156
0.009877805 -0.0302084 0.033961188 0.00103685 -0.11586566 -0.01713019 -0.054912593 -0.0025504604
-0.0026646703 -0.012982471 0.0022799405 0.17924617 -0.013733319 -0.033770688 -0.049005013 -0.03582529
-0.03920175 0.16962159 0.021445075 0.035022195 -0.0678302 0.110785134 -0.028027818 -0.0035260355
-0.023705844 -0.030288635 -0.009400738 -0.14766979 0.06707981 0.093705155 0.08279637 0.09057849
-0.02582163 -0.11512444 -0.034615636 0.008594575 -0.0151482625 0.026697539 -0.012208291 0.000980025
-0.016391248 -0.0052333153 0.015997645 0.06920709 0.10750555 -0.026635619 -0.008785481 0.03718499
-0.008004099 -0.014492612 -0.033459958 -0.11904799 0.091093644 -0.006161939 0.00529883 0.002850639
0.016251292 0.05304369 0.015989555 -0.00662352 -0.008288902 -0.08815085 -0.13369639 -0.00838349
-0.09183005 -0.08436017 -0.0036122387 0.04797803 0.0015499876 -0.0055704904 -0.0034322087 -0.007582914
-0.012375773 0.067122445 -0.017677542 0.14995694 0.005261985 -0.06799092 -0.0066474546 -0.07923176
0.0024576678 0.023450498 0.004019428 -0.07969594 0.064792104 0.10383942 -0.02727241 0.010345518
0.1222757 0.019752994 0.14248598 0.036352515 -0.0326341 0.018462565 0.06210449 -0.09807552
0.023006232 -0.051562645 0.054706246 -0.061189864 0.019647624 -0.05113335 0.007885126 -0.002359984
-0.055471424 -0.016658084 2.2237494 0.028671162 -0.030244427 0.16145341 0.02059349 -0.005017434
0.08456349 0.012739312 -0.003908749 -0.0010326101 -0.019671649 -0.010353795 0.010095467 0.14190333
-0.05423758 -0.006331339 -0.012047826 -0.06789533 -4.17187e-05 0.030170182 -0.04212115 -0.08050091
-0.021640338 -0.008350773 -0.024174586 0.045651518 0.00091056235 -0.065199025 -0.03434377 -0.045594465
-0.50749177 0.03884465 -0.05162072 0.057250325 -0.032896116 -0.02150339 0.12348196 0.019068504
-0.11323828 -0.032574896 0.04334601 0.01288915 0.02537674 -0.05489159 -0.0054021096 0.04773203
-0.020980539 -0.015844567 0.10856831 -0.01286599 0.007616163 0.0680244 0.07761324 0.1407132
0.057256456 0.04814852 -0.029868577 0.12182916 -0.08280481 0.09161142 -0.027102085 -0.008962247
-0.0062662605 0.06500772 0.039664637 -0.036430348 -0.05344257 -0.0004796538 0.031551976 -0.014682111
0.16192673 -0.010397991 0.08991097 -0.07999424 -8.289131e-05 -0.045641176 0.065913185 -0.015034053
0.00048630006 0.065673806 -0.13210806 -0.039050147 0.057339367 0.07043809 0.021760467 0.00915171
-0.090050325 0.023148699 0.017422521 0.00017274464 -0.07850686 -0.01579407 0.053731948 -0.009530212

actor.6.bias f4 [6]
00000000: 06fc ab3e 120d 123e eb4f 8a3e 3cda 043f
00000010: d18e c43d a79f e23d
0.33590716 0.14262798 0.27014098 0.518955 0.095975526 0.110656075
