online_weights/spot_walker2d_medium/actor_target_s1000000.pth (torch, 290247 bytes, 6 tensors)

actor.0.weight f4 [256, 17]
0	0x3dce12df	0.10062193
1	0xbe07e04f	-0.1326916
2	0x3db830cd	0.08993683
3	0xbd5bf0f4	-0.053696588
4	0x3dfd15fb	0.12357708
5	0xbdc62072	-0.09674157
6	0x3e81698f	0.25275847
7	0x3c1cd650	0.00957258
8	0x3e9f8536	0.3115632
9	0x3de5d915	0.11223046
10	0x3e52d961	0.20590736
11	0xbead8e26	-0.33897513
12	0xbd9c2b51	-0.076254494
13	0x3dee4bd3	0.11635556
14	0xbdc23b9c	-0.09484026
15	0xbdb1a986	-0.08674912
16	0x3da36b8b	0.079794966
17	0x3ebad1d2	0.36488205
18	0x3ec841fe	0.39112848
19	0x3cccb7a5	0.024989912
20	0xbd13d49a	-0.036091425
21	0x3ecc6224	0.39918625
22	0x3e0d9f4c	0.13830298
23	0xbe5405de	-0.20705363
24	0x3f27d85f	0.6556453
25	0xbee4689e	-0.44611067
26	0x3e12ba89	0.1432897
27	0x3b7051aa	0.003666977
28	0x3e0675d3	0.13130884
29	0x3dafe14a	0.08587892
30	0x3cd2234e	0.0256516
31	0xbe1384d4	-0.14406139
32	0x3d6eae7a	0.058271863
33	0x3dbc3fbc	0.09191844
34	0xbef39290	-0.47572756
35	0xbf56287f	-0.8365554
36	0x3d49b9b6	0.049249373
37	0x3dec85d9	0.11548967
38	0x3e34427f	0.17603491
39	0x3f01fcdc	0.5077646
40	0x3ece07a8	0.40240216
41	0xbea31669	-0.31853035
42	0x3e8577d6	0.2606799
43	0xbea15b11	-0.3151479
44	0xbec43d8b	-0.38328204
45	0x3e4c63fa	0.19960013
46	0x3d326db1	0.04356164
47	0x3da2b724	0.079450876
48	0x3e0f95a5	0.14021929
49	0x3e8f5bcc	0.27999723
50	0x3d23d5cc	0.039998814
51	0x3e9af1dc	0.3026265
52	0xbf313f76	-0.6923746
53	0xbe2d827f	-0.16944312
54	0x3e159e82	0.14611247
55	0x3e7f367e	0.24923131
56	0xbd1c287c	-0.038124546
57	0x3ea6f1cf	0.3260636
58	0x3ec2adff	0.38023373
59	0x3c4a0fe1	0.012332887
60	0x3d5351da	0.05159173
61	0x3e471b7b	0.19444077
62	0x3dccd474	0.1000146
63	0x3cb18f1d	0.021674687
64	0x3d56b979	0.052422974
65	0xbe589ee3	-0.2115436
66	0xbe6ed1db	-0.23322241
67	0x3e009917	0.12558399
68	0x3d53f50d	0.05174737
69	0x3e79970f	0.2437403
70	0x3e17814e	0.1479542
71	0x3e30a3ce	0.17249987
72	0x3df01f67	0.117247395
73	0xbcb6f231	-0.022332283
74	0xbd9a470f	-0.075330846
75	0x3ea313b7	0.3185098
76	0xbec711e8	-0.3888085
77	0x3d92227d	0.07135484
78	0x3ca9abb7	0.020711763
79	0xbdef8987	-0.11696153
80	0xbe8fef88	-0.28112435
81	0x3dfe3954	0.12413278
82	0x3e1cc684	0.15310103
83	0xbdd52157	-0.1040675
84	0x3e262fc5	0.1622916
85	0x3dcde831	0.100540526
86	0xbe82821d	-0.25489894
87	0xbe482a85	-0.1954747
88	0x3df9ac33	0.121910475
89	0xbe709274	-0.23493367
90	0xbd826538	-0.06366962
91	0xbb23f951	-0.002502043
92	0x3ec8d718	0.39226604
93	0x3e94c8ad	0.29059353
94	0xbf0d15f9	-0.5511165
95	0xbdb1f5e6	-0.086894795
96	0x3e453f6c	0.19262475
97	0x3d79ddc3	0.061002504
98	0x3b822d41	0.00397268
99	0x3b45e7ea	0.0030198046
100	0xbdd60ae3	-0.10451295
101	0x3e1967b6	0.14980969
102	0xbdc97ab7	-0.09837859
103	0x3d9c2d88	0.07625872
104	0x3ea44c9e	0.32089704
105	0x3e8a72ff	0.2704086
106	0xbdd94014	-0.10607925
107	0x3e649cec	0.22325486
108	0xbe7289c2	-0.23685363
109	0x3deaac39	0.1145863
110	0xbd8d46f3	-0.06898298
111	0x3c1eb204	0.009685997
112	0x3e94b2c8	0.2904265
113	0xbe1a8cf2	-0.15092829
114	0x3ddb58d0	0.10710299
115	0x3d5e362a	0.054250874
116	0xbdcf5d21	-0.10125185
117	0xbe47882e	-0.19485542
118	0xbd051b65	-0.03249683
119	0xbd90de62	-0.07073666
120	0x3f0cd5ca	0.55013716
121	0xbcc9da63	-0.024640268
122	0xbb5f8001	-0.0034103396
123	0x3d60a580	0.054845333
124	0x3cdc24f9	0.026873099
125	0x3d9ae207	0.075626425
126	0x3e37ac94	0.17936927
127	0x3e5fd636	0.21859059
128	0x3e317bc7	0.17332374
129	0x3e93dda6	0.28880042
130	0xbe665864	-0.22494656
131	0xbcc209cf	-0.023686318
132	0x3d47458b	0.048650306
133	0xbdd44f6c	-0.10366711
134	0x3f09ddda	0.53854144
135	0xbe06be59	-0.1315855
136	0xbe95ae9b	-0.29234776
137	0xbec81942	-0.3908177
138	0x3e39e0ff	0.18152235
139	0xbd816482	-0.063179985
140	0xbee55fa2	-0.44799525
141	0x3ebc725d	0.36806002
142	0x3ed28938	0.41120315
143	0xbed1a1df	-0.4094381
144	0xbd9a7543	-0.07541897
145	0x3dde41e8	0.10852414
146	0x3eaf2fe3	0.34216222
147	0x3d9cdb9a	0.07659073
148	0xbc84f4b1	-0.01622996
149	0x3de0bf3b	0.10973974
150	0xbe848ab5	-0.25887075
151	0xbe4c2e83	-0.19939618
152	0x3ca957fa	0.020671833
153	0x3dce9b1d	0.10088179
154	0xbec79e99	-0.38988188
155	0xbe83c7be	-0.2573833
156	0x3b0c41ce	0.0021401527
157	0xbdc8a9af	-0.097979896
158	0xbde3b009	-0.111175604
159	0xbca1e8ec	-0.019764386
160	0x3ed68fe4	0.41906655
161	0xbcc4c351	-0.024018915
162	0x3d9d7612	0.07688536
163	0x3cdd9474	0.027048327
164	0x3c2c9c39	0.010535293
165	0x3e7916ac	0.24325055
166	0x3cbeb081	0.023277523
167	0xbe880391	-0.2656522
168	0xbc12c453	-0.00895794
169	0x3f04af06	0.51829565
170	0xbd15c465	-0.03656425
171	0x3f0a4908	0.54017687
172	0x3d07d9de	0.03316676
173	0xbcf71264	-0.030160137
174	0xbcedf9ab	-0.029049715
175	0xbe1affcb	-0.1513664
176	0xbeb718a1	-0.35760978
177	0x3ec1581e	0.3776254
178	0xbe50f966	-0.20407638
179	0x3d7027aa	0.058631577
180	0x3ec0b5a7	0.3763859
181	0xbe0f4127	-0.13989697
182	0xbdc564fa	-0.096384004
183	0x3e1e9c43	0.15489297
184	0xbe22da5c	-0.1590361
185	0xbe2ad5ed	-0.16683169
186	0x3d766144	0.060151353
187	0xbe104277	-0.14087854
188	0x3e509d7e	0.20372579
189	0xbdfbf548	-0.12302643
190	0xbd44b310	-0.04802233
191	0x3d9f2581	0.07770825
192	0xbe84c77c	-0.25933444
193	0xbd7acd84	-0.06123115
194	0xbe6610a8	-0.22467291
195	0xbe8e9574	-0.278484
196	0x3e2de1dc	0.1698069
197	0x3d09f03f	0.033676382
198	0x3db86d2f	0.090052
199	0x3e126366	0.1429573
200	0xbd576a76	-0.052591763
201	0xbde32eba	-0.11092897
202	0xbf10e19b	-0.56594247
203	0xbe6656fe	-0.22494122
204	0x3d9ee6da	0.07758875
205	0x3eed45b1	0.46342233
206	0x3db0a7e2	0.08625771
207	0xbc1b5a3c	-0.009481963
208	0x3e129283	0.14313702
209	0xbea43bf0	-0.3207698
210	0xbd6529c5	-0.055948038
211	0xbc91dfea	-0.017806966
212	0xbd353d4d	-0.044247914
213	0xbcbf8e10	-0.02338317
214	0x3e490a61	0.19632865
215	0xbe9b5c33	-0.3034378
216	0x3e60656e	0.21913692
217	0xbde35e66	-0.111019894
218	0x3dfd0416	0.12354295
219	0x3db495ac	0.0881761
220	0x3d681ce1	0.056668166
221	0x3d01d1cc	0.03169422
222	0xbe978503	-0.29593667
223	0x3cce0a37	0.025151355
224	0xbe83ed48	-0.2576697
225	0x3d9bb4f3	0.07602873
226	0x3e3f06c3	0.18654923
227	0x3e22de9a	0.15905228
228	0xbd9a62a0	-0.075383425
229	0xbf11faf1	-0.5702353
230	0x3ca6143d	0.020273322
231	0x3e4c6d51	0.19963576
232	0xbed9ef15	-0.42565218
233	0xbd8a5891	-0.06755174
234	0x3c1a1570	0.009404525
235	0x3ea03e1d	0.3129739
236	0x3e701835	0.23446734
237	0x3dd0e237	0.10199397
238	0x3db8d102	0.0902424
239	0x3d9e4a76	0.07729046
240	0xbe107d35	-0.14110263
241	0x3e529d62	0.2056785
242	0x3d02b9b1	0.03191537
243	0x3ea8ce41	0.3296986
244	0x3f2e3e58	0.6806388
245	0xbe650a0c	-0.22367114
246	0xbc45dbee	-0.012076361
247	0x3e22e3e1	0.15907241
248	0x3f080ae9	0.5314165
249	0xbed40b35	-0.414148
250	0xbe538fc8	-0.20660317
251	0x3da163e1	0.078803785
252	0xbde4d900	-0.11174202
253	0xbe4f398b	-0.20236795
254	0x3d9c35b5	0.07627431
255	0x3d3b708c	0.04576163

actor.0.bias f4 [256]
0	0xbd7b0778	-0.06128642
1	0xbf86d4a7	-1.0533646
2	0xbf3f66c6	-0.74766195
3	0xbf36e358	-0.7144065
4	0xbee6a1e8	-0.450454
5	0xbedcdd67	-0.43137667
6	0xbe804618	-0.25053477
7	0xbed74f5a	-0.42052728
8	0xbf26fff8	-0.6523433
9	0xbf3ebfc2	-0.7451135
10	0xbe5b6c06	-0.21427926
11	0xbf9347b2	-1.1506255
12	0xbef76063	-0.48315725
13	0xbf328abb	-0.69742936
14	0xbf5769e3	-0.84145945
15	0xbf5d52ae	-0.86454284
16	0xbf11c663	-0.5694334
17	0xbee59b03	-0.44844827
18	0xbf04a6b2	-0.51816857
19	0xbf09486f	-0.5362615
20	0xbf120ef0	-0.5705404
21	0xbf04fc99	-0.51947933
22	0xbf5aa04f	-0.8540086
23	0xbf278c70	-0.65448666
24	0xbfb78dc4	-1.4340138
25	0xbefc7d70	-0.4931445
26	0xbf36f510	-0.71467686
27	0xbec1cdaa	-0.37852222
28	0xbf317894	-0.6932461
29	0xbf494749	-0.786244
30	0xbf211999	-0.62929684
31	0xbef66532	-0.4812408
32	0xbee0b3e4	-0.43887246
33	0xbeda173d	-0.42595854
34	0xbf37eb22	-0.7184316
35	0xbf7fb12e	-0.9987973
36	0xbec789a2	-0.38972193
37	0xbf340a92	-0.7032863
38	0xbf067f2a	-0.52537787
39	0xbe1c2cfe	-0.15251538
40	0xbf108912	-0.5645915
41	0xbeb56450	-0.35428095
42	0xbeb5d7f0	-0.3551631
43	0xbf1614e0	-0.586256
44	0xbee8c67c	-0.45463932
45	0xbf1ba493	-0.60797995
46	0xbea82f31	-0.32848504
47	0xbee32307	-0.4436266
48	0xbeb35eed	-0.3503336
49	0xbf27f8a6	-0.6561378
50	0xbf7f72fd	-0.99784833
51	0xbf7afa9f	-0.9803867
52	0xbf1ada5a	-0.6048943
53	0xbdaadf4b	-0.08343371
54	0xbef5269c	-0.4788102
55	0xbf2f83fb	-0.6856076
56	0xbe435b40	-0.19077778
57	0xbe91f907	-0.28510305
58	0xbf2d2dca	-0.67647994
59	0xbf09279a	-0.5357605
60	0xbede46c3	-0.43413362
61	0xbecdb98d	-0.40180627
62	0xbe85c3d9	-0.26125982
63	0xbf2b3cab	-0.66889447
64	0xbe0ef6c7	-0.13961326
65	0xbfeb9ba7	-1.8406876
66	0xbec47e3b	-0.38377556
67	0xbf77bbd7	-0.96770996
68	0xbf4c9251	-0.7991076
69	0xbf85a124	-1.0439801
70	0xbef66328	-0.48122525
71	0xbe7f7b9b	-0.24949495
72	0xbefe5480	-0.49673843
73	0xbeef599a	-0.46748048
74	0xbfaf39fc	-1.368957
75	0xbf049a5a	-0.5179802
76	0xbf04767e	-0.51743305
77	0xbf255697	-0.6458525
78	0xbf388422	-0.7207662
79	0xbecd9e9d	-0.40160075
80	0xbf1163f5	-0.5679315
81	0xbea0ab7f	-0.3138084
82	0xbf194d87	-0.5988392
83	0xbeaac23a	-0.33351308
84	0xbf4de9a7	-0.8043465
85	0xbf7ab242	-0.9792825
86	0xbe01e7a3	-0.12686019
87	0xbf3cf386	-0.7380909
88	0xbf058c8f	-0.521676
89	0xbe60f59a	-0.2196869
90	0xbf0a22be	-0.5395926
91	0xbf256d9c	-0.64620376
92	0xbec7fdb4	-0.39060748
93	0xbcc46410	-0.023973495
94	0xbf2ec3b8	-0.68267393
95	0xbec0b743	-0.37639818
96	0xbd6db8ec	-0.058037683
97	0xbf907e00	-1.1288452
98	0xbefeadaa	-0.4974187
99	0xbfd421f3	-1.657286
100	0xbe18f2cb	-0.14936368
101	0xbf487163	-0.78298014
102	0xbf30c5dc	-0.6905191
103	0xbf364180	-0.71193695
104	0xbf0d8a72	-0.55289376
105	0xbf285bba	-0.65764964
106	0xbf5150a2	-0.8176366
107	0xbf95ac31	-1.1693174
108	0xbe83d279	-0.25746515
109	0xbf934175	-1.1504351
110	0xbf73bda7	-0.9521126
111	0xbee8f6b4	-0.4550072
112	0xbed0d191	-0.40784886
113	0xbf35ed8a	-0.7106558
114	0xbf15e43c	-0.58551383
115	0xbe6d1d1a	-0.23155633
116	0xbeebea89	-0.46077374
117	0xbda915c5	-0.08256105
118	0xbed3932c	-0.4132322
119	0xbfafcc9b	-1.3734316
120	0xbea03e75	-0.3129765
121	0xbe93c9d9	-0.28864935
122	0xbf222048	-0.6333051
123	0xbfc3c086	-1.5293128
124	0xbe3a53b5	-0.18195994
125	0xbf6ba250	-0.92044544
126	0xbe4c3fc7	-0.19946204
127	0xbebb4e5e	-0.36583227
128	0xbf16d2a1	-0.58915144
129	0xbf827d82	-1.0194552
130	0xbf115c4d	-0.56781465
131	0xbf2cf582	-0.67562115
132	0xbedfb656	-0.436938
133	0xbf267e7b	-0.65036744
134	0xbf29ab9d	-0.66277486
135	0xbe0f2a69	-0.13981022
136	0xbeec81eb	-0.4619287
137	0xbedcdaac	-0.43135583
138	0xbf759c76	-0.95941865
139	0xbf8ba64a	-1.0910122
140	0xbf6aefec	-0.9177234
141	0xbe43c701	-0.19118883
142	0xbf2f2946	-0.68422353
143	0xbf2b51d9	-0.66921765
144	0xbf2c5e65	-0.67331535
145	0xbf2e0579	-0.679771
146	0xbf653efb	-0.89549226
147	0xbeb573a1	-0.3543978
148	0xbf3a81d3	-0.72854346
149	0xbf13168c	-0.5745628
150	0xbec35427	-0.3815014
151	0xbf17df2e	-0.5932492
152	0xbf2817a9	-0.656611
153	0xbf420d87	-0.7580189
154	0xbf248a6c	-0.64273715
155	0xbed9babf	-0.42525288
156	0xbf34fa26	-0.70694196
157	0xbed349de	-0.41267294
158	0xbf565358	-0.8372092
159	0xbf276c3e	-0.6539954
160	0xbf40131e	-0.7502917
161	0xbee28037	-0.44238445
162	0xbf813e77	-1.0097188
163	0xbee46228	-0.44606137
164	0xbf1e8109	-0.6191564
165	0xbead9b7e	-0.33907694
166	0xbeefa48f	-0.46805236
167	0xbf16fa07	-0.5897526
168	0xbee31065	-0.44348446
169	0xbf0e9349	-0.5569349
170	0xbf96c1c0	-1.1777878
171	0xbf2a3821	-0.66491896
172	0xbe861335	-0.2618653
173	0xbf5b9b90	-0.85784245
174	0xbe84b268	-0.25917363
175	0xbec1ebdf	-0.37875268
176	0xbec90cca	-0.3926757
177	0xbf926394	-1.1436639
178	0xbe027741	-0.12740804
179	0xbf20040d	-0.6250618
180	0xbefe2ca5	-0.49643436
181	0xbf250ac6	-0.64469564
182	0xbe90bbb1	-0.28268197
183	0xbe9eb113	-0.30994472
184	0xbedf21b6	-0.43580407
185	0xbf5d2658	-0.8638663
186	0xbf57000d	-0.8398445
187	0xbe489882	-0.19589427
188	0xbf902b72	-1.1263258
189	0xbf16a403	-0.5884401
190	0xbf2a571a	-0.66539156
191	0xbf13f547	-0.5779614
192	0xbf29d99f	-0.6634769
193	0xbf248ef7	-0.6428065
194	0xbe9815ce	-0.29704136
195	0xbe19c097	-0.15014873
196	0xbeb0e67a	-0.3455084
197	0xbf2d77f6	-0.6776117
198	0xbf9afb58	-1.2107954
199	0xbeb473ce	-0.35244602
200	0xbf187377	-0.59551185
201	0xbeb5d8e0	-0.35517025
202	0xbec301f2	-0.38087422
203	0xbe1ad4e0	-0.15120268
204	0xbed2d36b	-0.41176924
205	0xbf50a467	-0.8150086
206	0xbf24ee03	-0.6442568
207	0xbf0cb392	-0.549615
208	0xbdd2b984	-0.102892905
209	0xbf48c34e	-0.7842301
210	0xbf9472ee	-1.1597574
211	0xbf0ed1aa	-0.5578867
212	0xbec07b90	-0.3759427
213	0xbd391b20	-0.045191884
214	0xbf65254f	-0.89510053
215	0xbda2c4f6	-0.079477236
216	0xbf0a31e1	-0.5398236
217	0xbfa6513b	-1.299354
218	0xbf47ddc7	-0.7807278
219	0xbeaf19be	-0.34199327
220	0xbf348879	-0.7052074
221	0xbf28e1ea	-0.6596972
222	0xbf11fa07	-0.57022136
223	0xbec94771	-0.39312318
224	0xbe81cebb	-0.25353035
225	0xbee704ef	-0.45120952
226	0xbf07c4be	-0.5303458
227	0xbe90166f	-0.28142115
228	0xbeebc2ef	-0.4604716
229	0xbf09e053	-0.53857917
230	0xbeb0b169	-0.34510353
231	0xbf026e0c	-0.5094917
232	0xbeffcc5e	-0.49960607
233	0xbf61bda4	-0.88179994
234	0x3dd03999	0.10167236
235	0xbf91dc7f	-1.1395415
236	0xbf090d0a	-0.5353552
237	0xbf2d6eef	-0.67747396
238	0xbe6f8e1f	-0.23394059
239	0xbf3b79e7	-0.73232883
240	0xbf4569ed	-0.77114755
241	0xbf4b429c	-0.7939851
242	0xbee907d3	-0.45513782
243	0xbf1be524	-0.60896516
244	0xbf8283ea	-1.0196507
245	0xbf3bd82e	-0.7337674
246	0xbf0abf46	-0.5419811
247	0xbfb78acd	-1.4339234
248	0xbf81530a	-1.0103467
249	0xbf55f455	-0.83575946
250	0xbef99f23	-0.48754224
251	0xbf2f2179	-0.6841045
252	0xbee6d0df	-0.4508123
253	0xbf0d8c54	-0.5529225
254	0xbf99c2d3	-1.2012581
255	0xbf26fe9f	-0.6523227

actor.3.weight f4 [256, 256]
0	0x3e487e90	0.1957953
1	0xc0293d7d	-2.644378
2	0xbe391ece	-0.18078157
3	0xbeb751cc	-0.35804594
4	0xbf6a89dc	-0.91616607
5	0xbca9ebb9	-0.020742284
6	0xbce0db47	-0.02744831
7	0xbd264622	-0.040594228
8	0xbefee1f9	-0.49781778
9	0xbd9384d1	-0.07203067
10	0xbeff6348	-0.49880433
11	0x3ddccc87	0.10781198
12	0x3ed76f4d	0.42077103
13	0x3dfcc407	0.12342077
14	0xbd0bf2d8	-0.03416714
15	0xbe08f346	-0.13374051
16	0x3e68c0b5	0.22729762
17	0x3e4192fc	0.18903726
18	0xbe9c7c53	-0.30563602
19	0x3e567f0e	0.20946905
20	0x3e5bd9be	0.21469781
21	0x3e439ab8	0.1910199
22	0xbf085c5c	-0.5326593
23	0x3d90d9ba	0.07072778
24	0xbf18910b	-0.5959632
25	0x3ca4c47e	0.020113226
26	0xbe805bf9	-0.2507017
27	0xbe19b385	-0.15009888
28	0x3ea50d73	0.32236823
29	0xbd729dc9	-0.059232507
30	0xbcc63885	-0.024196872
31	0x3ccffb71	0.025388451
32	0x3dae7410	0.08518231
33	0x3e9f5a84	0.31123745
34	0x3e45c771	0.19314362
35	0xbe16bcc3	-0.14720444
36	0xbd71657d	-0.058934677
37	0xbe23e83d	-0.1600656
38	0xbe1b611d	-0.15173765
39	0xbd9f4c22	-0.07778193
40	0x3c9b8cce	0.01898804
41	0xbd1b7820	-0.037956357
42	0xbd90a150	-0.07062018
43	0xbe194081	-0.14966013
44	0x3d624eee	0.055251054
45	0xbe82e93b	-0.25568566
46	0xbef4bb2c	-0.4779905
47	0xbe8c6b01	-0.27425388
48	0x3e04d62b	0.12972324
49	0x3cc659b3	0.024212694
50	0x3e1cbbba	0.15305987
51	0xbdde199a	-0.10844727
52	0x3df9dc0b	0.12200173
53	0xbc8403df	-0.016115127
54	0xbe600fec	-0.21881074
55	0xbe139c79	-0.14415158
56	0xbb023df8	-0.0019873362
57	0x3e5730f7	0.21014772
58	0x3fc9191f	1.5710791
59	0xbeaf2af6	-0.34212464
60	0xbf9ffc06	-1.2498786
61	0x3ebff41d	0.3749093
62	0x3d891c75	0.06694881
63	0xbd227ad0	-0.039667904
64	0xbed6345f	-0.4183683
65	0x3c19013b	0.009338672
66	0x3d96d7cb	0.07365378
67	0xbd2e878f	-0.042609747
68	0xbec86792	-0.39141518
69	0xbe66b757	-0.22530876
70	0x3d4ee5be	0.050512068
71	0xbe479cb1	-0.19493367
72	0x3e5b368a	0.21407524
73	0xbe154b60	-0.14579535
74	0xbea1e0e3	-0.31616887
75	0xbe91a829	-0.2844861
76	0xbe5680dd	-0.20947595
77	0x3daae15a	0.08343764
78	0xbd398a8c	-0.045298144
79	0x3daa905d	0.08328316
80	0x3d8bf425	0.06833676
81	0xbdd43c2a	-0.10363038
82	0x3e366f1a	0.1781582
83	0x3de77b14	0.11302772
84	0x3eae1583	0.34000787
85	0xbdbd2810	-0.09236157
86	0x3dc9e39d	0.09857867
87	0x3e9f6795	0.31133714
88	0x3e0e8134	0.13916475
89	0x3cad66ca	0.021167178
90	0xbcfc92c1	-0.030831696
91	0xbe1fcc74	-0.15605336
92	0xbdd02d4c	-0.1016489
93	0xbe925784	-0.28582394
94	0xbe90f42e	-0.28311294
95	0x3e402f42	0.18768027
96	0xbea03c76	-0.31296128
97	0x399db44e	0.0003007971
98	0xbe46bd67	-0.19408189
99	0xbebf0274	-0.3730656
100	0xbd6e4761	-0.05817354
101	0xbf607acd	-0.8768738
102	0x3ef715f0	0.48258924
103	0x3dfe28cd	0.12410126
104	0xbc591fd7	-0.01325222
105	0xbf5c4824	-0.8604758
106	0xbd786cb6	-0.06065055
107	0xbfc7f2f0	-1.5621014
108	0xbd7656c2	-0.060141332
109	0x3e01e92f	0.12686609
110	0x3e077d91	0.13231494
111	0xbcbaa914	-0.0227857
112	0xbd6d00e7	-0.05786219
113	0xbe05d053	-0.1306775
114	0xbdd61f47	-0.104551844
115	0xbd41971f	-0.04726326
116	0x3e0b1e03	0.13585667
117	0x3d2e88ab	0.042610805
118	0xbd494794	-0.049140528
119	0x3edb8b6e	0.42879814
120	0x3d98b664	0.07456663
121	0xbccd2329	-0.02504118
122	0xbdf8ccc5	-0.12148432
123	0xbe4ea502	-0.20180133
124	0x3e6007c5	0.21877964
125	0x3dc90cd4	0.098169
126	0x3c916143	0.017746573
127	0x3d5699f1	0.052392904
128	0xbf858bb3	-1.0433258
129	0xbd2fdcc7	-0.04293516
130	0x3c8ef1d9	0.017449306
131	0xbec6b4cf	-0.3880982
132	0xbf13e078	-0.5776439
133	0xbf38f895	-0.72254306
134	0x3ed10593	0.40824565
135	0xbe1513ff	-0.14558409
136	0x3c419ff4	0.011817921
137	0x3ed75d17	0.4206321
138	0xbeef1229	-0.46693543
139	0x3c032744	0.008004967
140	0xbf24bfb6	-0.6435503
141	0xbe295f8c	-0.16540354
142	0xbd13ccf0	-0.036084116
143	0xbf1453a1	-0.5794011
144	0x3df744ba	0.120736554
145	0xbf8b6cb9	-1.0892555
146	0xbe6b2785	-0.22964294
147	0x3dc99fa9	0.09844906
148	0x3e7d8809	0.24758925
149	0xbfd9a942	-1.7004778
150	0x3d9be307	0.076116614
151	0x3d68b6dc	0.056815013
152	0xbd6f6975	-0.05845018
153	0x3e686c84	0.22697645
154	0xbeb46fde	-0.35241598
155	0xbdd9b940	-0.10631037
156	0xbdc9692b	-0.09834512
157	0xbe18db0b	-0.14927308
158	0x3daf6786	0.085646674
159	0xbea2915e	-0.3175153
160	0x3ea7b16b	0.32752547
161	0x3e0cddc2	0.13756469
162	0x3d6dd97e	0.058068745
163	0x3bbcaff5	0.0057582804
164	0x3dee3b87	0.11632448
165	0xbe3d340b	-0.18476884
166	0x3e42d4c7	0.1902648
167	0xbe59d879	-0.21273984
168	0xbdb7c974	-0.08973971
169	0x3e1bdb2e	0.15220329
170	0x3ebdc96f	0.37067744
171	0x3bbd23a7	0.0057720724
172	0xbe0451a3	-0.12921767
173	0xbcacad95	-0.021078864
174	0x3deb7c37	0.114983015
175	0xbf8d7ca7	-1.1053666
176	0x3dc15741	0.094404705
177	0x3eb2e233	0.349382
178	0xbe7c26a7	-0.2462412
179	0x3b9503bd	0.004547565
180	0x3eb3b1d7	0.3509662
181	0xbe3a326f	-0.18183301
182	0x3d4c6980	0.0499053
183	0xbe383840	-0.17990208
184	0xbe988d37	-0.29795238
185	0xbf3e0afc	-0.7423551
186	0x3da0b685	0.07847313
187	0xbe98350b	-0.2972797
188	0x3ebeee6d	0.3729128
189	0xbf006288	-0.50150347
190	0x3d2b1215	0.04176529
191	0xbda5b45d	-0.08091042
192	0xbe610590	-0.21974778
193	0xbf204de3	-0.62618846
194	0xbe64ccaa	-0.22343698
195	0xbd3d47d4	-0.04621108
196	0x3e71c45b	0.2361006
197	0xbe362463	-0.17787318
198	0x3ec1489a	0.37750703
199	0x3ec41068	0.38293767
200	0x3be5e6d1	0.007016041
201	0x3d089e7a	0.03335426
202	0xbe113616	-0.14180788
203	0xbcee4111	-0.02908376
204	0xbd842070	-0.064514995
205	0xbcce668f	-0.025195388
206	0x3dac5249	0.08414132
207	0xbde5d73a	-0.11222692
208	0x3e027416	0.12739596
209	0x3daf4ee8	0.08559972
210	0x3e0fadc7	0.14031135
211	0xbe59be7f	-0.21264075
212	0xbfa9174c	-1.3210235
213	0xbcfb840b	-0.030702611
214	0x3d39f384	0.04539825
215	0xbed205b9	-0.4101999
216	0xbd6f4bee	-0.05842202
217	0xbecdfd98	-0.4023254
218	0xbd913a39	-0.07091183
219	0x3d77daba	0.06051133
220	0x3deaf0c9	0.114717074
221	0xbdc2de48	-0.09515053
222	0x3efd592c	0.49482095
223	0xbea6a09d	-0.32544413
224	0xbf30da43	-0.6908304
225	0xbf10f987	-0.5663075
226	0xbbdc522c	-0.006723663
227	0xbc4f2499	-0.012643003
228	0x3d03c77e	0.032172672
229	0x3b85a1aa	0.0040781097
230	0xbe352bef	-0.1769254
231	0xbea655cc	-0.32487333
232	0xbd6307e5	-0.05542745
233	0xbe698668	-0.22805178
234	0xbe08a5d2	-0.13344505
235	0xbe72c2e9	-0.23707165
236	0x3e11765d	0.14205308
237	0xbe08f059	-0.13372935
238	0x3bc0642d	0.005871317
239	0xbd0aa9d2	-0.03385336
240	0xbe3fbf47	-0.1872531
241	0xbf125907	-0.57167095
242	0xbdc7f0ef	-0.09762751
243	0x3d3c067b	0.045904618
244	0xbeed8fea	-0.4639886
245	0x3d4d34ca	0.05009917
246	0xbe52ee46	-0.20598707
247	0xbdc6acf2	-0.097009555
248	0x3e661312	0.22468212
249	0xbdc34594	-0.09534755
250	0xbee084e4	-0.43851388
251	0xbd94a8c6	-0.072587535
252	0x3e3c1182	0.18366054
253	0xbf0a134e	-0.53935707
254	0x3e77560d	0.2415392
255	0xbddf2a10	-0.10896695

actor.3.bias f4 [256]
0	0xbe55e3ad	-0.20887633
1	0x3d939bfe	0.072074875
2	0x3e50baea	0.20383802
3	0x3dbc1778	0.09184164
4	0x3ec3f30d	0.3827137
5	0x3eae5c0f	0.3405461
6	0xbf346309	-0.70463616
7	0x3f24aba1	0.64324385
8	0x3f1d724e	0.6150254
9	0x3da66828	0.08125335
10	0xbece0842	-0.40240675
11	0xbd9d1c68	-0.07671434
12	0x3f087ae9	0.53312546
13	0x3bb0791a	0.00538553
14	0x3e44f6b7	0.19234739
15	0x3e8fd4fc	0.28092182
16	0x3e675c5e	0.22593829
17	0xbdcf96e4	-0.10136202
18	0x3f12dbe3	0.5736677
19	0xbe90e356	-0.28298444
20	0xbc945150	-0.01810518
21	0x3f1ebf51	0.62010676
22	0x3db101e2	0.08642937
23	0xbea05b44	-0.3131963
24	0x3ee713c9	0.45132282
25	0x3ed12076	0.40845078
26	0xbc1bc590	-0.009507552
27	0x3e6628cc	0.224765
28	0x3edcc2c3	0.4311734
29	0x3e30e0d0	0.17273259
30	0x3d8ee375	0.06976978
31	0x3c2c5afc	0.010519739
32	0xbf37d5b3	-0.71810454
33	0x3e8d0115	0.27539888
34	0x3e812c6a	0.25229198
35	0x3e0039e9	0.12522091
36	0x3f06b8a7	0.5262551
37	0x3e7f9718	0.24959981
38	0x3eca0043	0.39453325
39	0xbd9d9c2f	-0.07695805
40	0xbc334ac4	-0.0109431185
41	0x3ecd87e4	0.4014274
42	0xbddb36a7	-0.107037835
43	0x3ea12907	0.31476614
44	0xbef7b042	-0.48376662
45	0x3ef3827c	0.4756049
46	0xbed67687	-0.41887304
47	0xbdea3cf6	-0.114374086
48	0xbc556d60	-0.013026565
49	0x3eca3bf2	0.3949886
50	0xbcce5de5	-0.025191257
51	0x3e35e303	0.1776238
52	0x3ef0157b	0.46891388
53	0x3ea196e9	0.31560448
54	0x3f15885d	0.584112
55	0x3eebf1c3	0.46082887
56	0xbdba2689	-0.09089381
57	0xbd02604a	-0.03183011
58	0xbe903cc1	-0.28171352
59	0xbf01a6ca	-0.50645125
60	0xbdf611b6	-0.12015097
61	0x3d239e1c	0.039945707
62	0x3f2bd795	0.6712583
63	0x3e81354a	0.2523597
64	0x3e1215bb	0.14266102
65	0x3ed08d51	0.40732816
66	0xbcc6390b	-0.024197122
67	0x3ec399f0	0.38203382
68	0xbf1a4727	-0.6026482
69	0x3ec26728	0.37969327
70	0x3f032de0	0.51241875
71	0x3e547216	0.20746645
72	0x3dd4b759	0.10386533
73	0x3ec7c0f5	0.39014402
74	0x3f0b7ef0	0.54490566
75	0x3e6de6d3	0.23232584
76	0xbf0d1202	-0.551056
77	0xbf97d183	-1.1860813
78	0xbdfccae2	-0.12343384
79	0x3ed9b27d	0.42518988
80	0x3deef760	0.11668277
81	0x3ec2a932	0.3801971
82	0xbecf8bbf	-0.40536305
83	0x3e97df2d	0.29662457
84	0x3f11d4a3	0.5696508
85	0x3ef26a9f	0.4734697
86	0x3f035159	0.51296
87	0x3e39c5dc	0.18141884
88	0x3eef1230	0.46693563
89	0xbf410978	-0.75405073
90	0xbf050bc7	-0.51971096
91	0xbefb05e3	-0.4902793
92	0xbcac5cf5	-0.02104042
93	0x3f0d3890	0.5516443
94	0x3e06e757	0.13174187
95	0x3dfc35fe	0.12314986
96	0x3eff1815	0.4982306
97	0x3f3284a5	0.6973365
98	0x3f0f8917	0.5606856
99	0x3da4841f	0.080330126
100	0xbf305d86	-0.68892705
101	0x3e2b8c4c	0.16752738
102	0x3d134612	0.035955496
103	0x3f1b0ef5	0.605697
104	0x3da119b1	0.07866228
105	0xbe4c04ec	-0.19923753
106	0x3ea17943	0.31537828
107	0x3edb383d	0.42816344
108	0xbdcbd555	-0.09952799
109	0xbf079a6b	-0.5297
110	0x3f249770	0.64293575
111	0x3dcc7bff	0.09984588
112	0x3e2c3a1e	0.16819045
113	0xbe81f07a	-0.25378782
114	0x3e769b6c	0.24082726
115	0x3eddcabc	0.43318737
116	0x3e164421	0.14674427
117	0xbf2fdf3d	-0.6870001
118	0x3e5d8511	0.21632792
119	0xbc02f642	-0.007993283
120	0xbe963d53	-0.29343662
121	0xbe89185b	-0.26776394
122	0x3f4ca235	0.7993501
123	0xbe8fb65e	-0.28068823
124	0x3e7a4933	0.24441986
125	0x3e585c99	0.21129073
126	0xbf16e1bf	-0.5893821
127	0x3ddb6e8e	0.10714446
128	0x3e9b98a3	0.3038989
129	0x3ce61e51	0.028090628
130	0x3c9b0cc9	0.018926995
131	0x3ec05653	0.3756586
132	0x3f0fa097	0.56104416
133	0x3ea96a99	0.3308914
134	0xbdd816bc	-0.10551211
135	0xbe94c3aa	-0.2905553
136	0xbd3911ba	-0.04518292
137	0x3ef6f97e	0.48237222
138	0x3f0899c0	0.53359604
139	0x3e802468	0.25027776
140	0x3e114785	0.14187439
141	0x3f0ef5f8	0.5584407
142	0x3eaf25ee	0.34208626
143	0x3f0a17e8	0.5394273
144	0x3ec50c31	0.38485864
145	0xbdcec8ec	-0.100969166
146	0x3f0b1320	0.5432606
147	0x3ec4af5e	0.38415045
148	0xbbccfd67	-0.006255794
149	0xbdcdf83a	-0.10057111
150	0x3ea79572	0.32731205
151	0xbf15f4f5	-0.585769
152	0x3eb5eea6	0.35533637
153	0xbf87c316	-1.060641
154	0xbe41c44e	-0.1892254
155	0xbe9e84d8	-0.30960727
156	0xbe3779cd	-0.17917557
157	0x3c7fe4eb	0.015618543
158	0xbde1a641	-0.110180385
159	0x3eac2059	0.3361843
160	0xbf07d002	-0.5305177
161	0x3ef20a49	0.47273472
162	0xbe80c8a9	-0.25153092
163	0xbee2dba3	-0.44308195
164	0x3ee6aad8	0.45052218
165	0x3ecea7ba	0.4036234
166	0xbf11aa00	-0.56900024
167	0xbf3a723f	-0.72830576
168	0xbe00a389	-0.12562384
169	0x3ed94692	0.42436653
170	0xbe1742af	-0.14771532
171	0x3e8e29e6	0.2776634
172	0xbe9ce684	-0.3064462
173	0x3ecd2a43	0.40071306
174	0xbeef848b	-0.4678081
175	0x3e66bb19	0.2253231
176	0x3eb90d8b	0.36143145
177	0x3ef513ca	0.4786666
178	0xbe874f86	-0.2642786
179	0x3df49ace	0.11943589
180	0x3f1c3074	0.61011434
181	0xbe950932	-0.29108578
182	0xbc8eb0b6	-0.017418247
183	0x3e8eadb8	0.27866912
184	0xbe8581c1	-0.26075557
185	0xbe592227	-0.21204434
186	0x3e65ae93	0.22429876
187	0x3f095e24	0.5365927
188	0x3eb0f8a7	0.34564707
189	0x3f159a3a	0.58438456
190	0x3ee5af54	0.44860327
191	0xbe20eaf9	-0.15714635
192	0xbf9f5ecb	-1.2450804
193	0xbf74cbb2	-0.95623314
194	0xbf568d2e	-0.83809173
195	0x3f1117b0	0.5667677
196	0x3d1776e8	0.036978632
197	0x3f1b0b44	0.60564065
198	0x3d3d5626	0.046224736
199	0xbc929652	-0.017893944
200	0x3edc8752	0.4307199
201	0x3e63b04a	0.22235218
202	0x3eaf673b	0.34258446
203	0x3f1f5562	0.6223966
204	0x3cfe672a	0.031055052
205	0xbf08f010	-0.53491306
206	0xbf0a6024	-0.5405295
207	0xbf807dc8	-1.0038385
208	0x3f393c91	0.7235804
209	0x3e00930c	0.12556094
210	0x3e659d5c	0.22423309
211	0x3ed7b0f2	0.42127186
212	0x3dac78e5	0.08421496
213	0xbeccec43	-0.40024003
214	0x3d19dc61	0.037563685
215	0x3eb829a1	0.3596926
216	0x3f112886	0.5670246
217	0x3eea7a20	0.457963
218	0xbe9b606c	-0.30347002
219	0x3eacfc58	0.33786273
220	0x3f114b7f	0.5675582
221	0x3db891e8	0.090122044
222	0xbe41ec79	-0.18937863
223	0xbbb492d3	-0.005510667
224	0x3ee6e759	0.4509838
225	0x3e2663c0	0.16248989
226	0x3ddeed41	0.10885096
227	0x3eaf005d	0.34179965
228	0x3f2d8130	0.6777525
229	0x3dc71274	0.097203165
230	0x3d31affb	0.04338072
231	0xbd5a48f2	-0.053292222
232	0x3e8c81bb	0.27442726
233	0x3eff8e48	0.4991324
234	0x3ed96887	0.4246256
235	0xbe91f7a7	-0.28509256
236	0x3ec1151f	0.37711427
237	0x3ea95661	0.33073714
238	0xbf378c6a	-0.7169863
239	0x3dd1028a	0.102055624
240	0x3ea427e7	0.32061693
241	0x3e2e2809	0.1700746
242	0x3f452f0c	0.7702491
243	0x3d043b91	0.03228337
244	0x3e3f7266	0.18695983
245	0x3e9f78e2	0.31146914
246	0xbddc18bb	-0.107469045
247	0xbe76af2c	-0.2409026
248	0x3e38fdbb	0.1806554
249	0xbebbd2ff	-0.36684415
250	0xbf02bae6	-0.51066434
251	0x3e5b5ba0	0.21421671
252	0x3eb9d480	0.36294937
253	0x3da2ca44	0.07948735
254	0x3f2cf013	0.67553824
255	0xbeea22c1	-0.4572964

actor.6.weight f4 [6, 256]
0	0x3c07bfb8	0.008285455
1	0xbba5bff5	-0.0050582835
2	0xbc2bab30	-0.010477826
3	0x3cb84a52	0.022496376
4	0xbcf923f6	-0.030412655
5	0xbd16908a	-0.036758937
6	0x3bd91a7c	0.0066254716
7	0xbc97bf34	-0.01852379
8	0x3db9eaf2	0.090780154
9	0xbd247a34	-0.040155604
10	0x3e155f59	0.14587153
11	0xbc995704	-0.01871825
12	0x3d489dc5	0.048978586
13	0x3e43ee85	0.19133957
14	0xbba32b74	-0.0049795453
15	0xbc3dd4d6	-0.011586389
16	0xbad21ae0	-0.0016029738
17	0x3ccf4205	0.025300035
18	0xbc0eb41e	-0.0087099355
19	0xbd9bdc0c	-0.0761033
20	0x3d90a9fe	0.070636734
21	0x3d3bc0c0	0.045838118
22	0x3d78cec0	0.060744047
23	0xbc7097b9	-0.014684611
24	0x3db35a87	0.08757501
25	0xbd0379ab	-0.032098453
26	0xbc7ebd1a	-0.015548015
27	0x3e227a73	0.15867023
28	0xbc59f9b6	-0.013304165
29	0xbd59f720	-0.053214192
30	0x3d90516e	0.070467815
31	0xbd1614a7	-0.03664079
32	0xbd9bf027	-0.07614165
33	0x3c50ac0d	0.012736333
34	0xbd06a970	-0.032876432
35	0x3d02b21c	0.03190814
36	0xbcc1ad8c	-0.023642324
37	0xbc7bfc6c	-0.015380006
38	0xbd13733d	-0.03599857
39	0xbd918195	-0.07104794
40	0xbccd65a9	-0.02507289
41	0x3dc39131	0.095491774
42	0x3b7e5096	0.0038805357
43	0xbdcba6e6	-0.09943943
44	0x3e1e197d	0.1543941
45	0x3d501add	0.05080687
46	0xbbd9b80f	-0.006644256
47	0xbc1bcd43	-0.009509387
48	0xbdd06f6d	-0.10177503
49	0xbcea386a	-0.028591353
50	0x3cf8c999	0.030369567
51	0xbd827a1e	-0.06370948
52	0x3cc0a266	0.023514938
53	0x3a116594	0.00055464474
54	0x3dd176c0	0.10227728
55	0x3ae80997	0.0017703053
56	0x3c6608c6	0.014040178
57	0xbd001020	-0.031265378
58	0x3cfe15a4	0.031016178
59	0x3b04eeb7	0.0020283887
60	0xbdedee76	-0.116177484
61	0xbc964a6b	-0.018346032
62	0xbd5a4933	-0.053292464
63	0xbae972ae	-0.0017810666
64	0xbb43fbed	-0.0029904798
65	0xbc411789	-0.011785396
66	0x3b1defce	0.0024099234
67	0x3e3805f4	0.17971021
68	0xbc56aa4b	-0.013102124
69	0xbd0a1e68	-0.033720404
70	0xbd495978	-0.04915759
71	0xbd1af7b2	-0.037833877
72	0xbd220658	-0.03955683
73	0x3e2dd917	0.16977344
74	0x3ca0f576	0.019648295
75	0x3cf7297e	0.030171152
76	0xbd84c547	-0.0648294
77	0x3de40450	0.11133635
78	0xbcef4658	-0.029208347
79	0xbad16fda	-0.0015978769
80	0xbcc8334a	-0.024438519
81	0xbcf425c3	-0.029803162
82	0xbc0cb9ce	-0.008589221
83	0xbe17ceea	-0.14825025
84	0x3d861566	0.0654705
85	0x3dbafe72	0.09130563
86	0x3da65962	0.08122517
87	0x3dbca510	0.09211171
88	0xbccfac80	-0.02535081
89	0xbde82a74	-0.11336222
90	0xbd095656	-0.033529602
91	0x3c69aa5c	0.014261808
92	0xbc719101	-0.014744044
93	0x3cde1e3f	0.027114032
94	0xbc2f00c1	-0.010681332
95	0xb81c1e0f	-3.7221293e-05
96	0xbc8b80bb	-0.017029157
97	0xbb8b3a75	-0.004248912
98	0x3c6485b8	0.013947897
99	0x3d8c14a6	0.06839876
100	0x3de01c9d	0.109429576
101	0xbcdca612	-0.026934657
102	0xbc03a61b	-0.008035208
103	0x3d1c97db	0.03823076
104	0xbc2b8c20	-0.01047042
105	0xbc66d5e4	-0.014089081
106	0xbd049a22	-0.032373555
107	0xbdf6cca8	-0.12050754
108	0x3db95916	0.09050195
109	0xbbd1352f	-0.006384514
110	0x3bc8fbbb	0.0061335242
111	0x3b1960d8	0.002340367
112	0x3c8c24e4	0.017107435
113	0x3d564b2d	0.052317787
114	0x3c99edf3	0.01879022
115	0xbbb32ae0	-0.0054677576
116	0xbba7568a	-0.005106752
117	0xbdb43b88	-0.08800417
118	0xbe073d13	-0.13206892
119	0xbbffdf26	-0.007808584
120	0xbdb77152	-0.08957161
121	0xbda80602	-0.08204271
122	0xbb96e716	-0.0046051843
123	0x3d491aec	0.04909794
124	0x3ac580a9	0.0015068251
125	0xbbb06f5d	-0.0053843693
126	0xbb7c6148	-0.0038510133
127	0xbbb453a1	-0.0055031334
128	0xbc6973d4	-0.014248807
129	0x3d8695c8	0.06571537
130	0xbc641979	-0.013922089
131	0x3e17f1c2	0.14838317
132	0x3bb867be	0.0056276014
133	0xbd851740	-0.06498575
134	0xbbf4eb36	-0.0074743284
135	0xbd9fca14	-0.07802215
136	0x3adbf0ec	0.0016780174
137	0x3cac40a5	0.021026919
138	0x3b5c13ef	0.0033581217
139	0xbd9d80b1	-0.076905616
140	0x3d88a84c	0.06672725
141	0x3dd32bae	0.103110656
142	0xbcf0c44d	-0.029390479
143	0x3c306bbb	0.010767872
144	0x3dfb30d4	0.122651726
145	0x3ca992df	0.020699916
146	0x3e113c20	0.14183092
147	0x3d21eb4a	0.03953103
148	0xbcf29204	-0.029610641
149	0x3c88a65f	0.016680894
150	0x3d7aea94	0.061258867
151	0xbdc8b571	-0.09800232
152	0x3cb6f519	0.022333669
153	0xbd4812ac	-0.048845932
154	0x3d7206a5	0.059088368
155	0xbd76d5e5	-0.06026258
156	0x3ca9c1a5	0.02072222
157	0xbd54ed84	-0.051984325
158	0x3bf0226b	0.0073283217
159	0xbae49cde	-0.001744177
160	0xbd5b9230	-0.053606212
161	0xbc8011e5	-0.015633533
162	0x400e3737	2.22212
163	0x3ce1e72e	0.027576055
164	0xbce6256e	-0.02809402
165	0x3e255e5c	0.16149276
166	0x3ca99dd0	0.020705134
167	0xbb88cc5a	-0.004174751
168	0x3da813f4	0.08206931
169	0x3c0da591	0.008645431
170	0xbb21bee0	-0.002468042
171	0x39522980	0.0002004262
172	0xbc9e44f1	-0.019319983
173	0xbc3fb2a8	-0.01170031
174	0x3bc8ec57	0.0061316895
175	0x3e11ad75	0.14226325
176	0xbd7280af	-0.059204753
177	0xbc115fd7	-0.008872948
178	0xbc5260fe	-0.012840508
179	0xbd8e7d78	-0.06957525
180	0x39752bc2	0.00023381322
181	0x3cf039fd	0.029324526
182	0xbd253913	-0.040337633
183	0xbda60e47	-0.08108192
184	0xbcb1f6da	-0.021724153
185	0xbc1ec4dc	-0.00969049
186	0xbcb67b39	-0.022275554
187	0x3d36bffd	0.044616688
188	0xba0881f5	-0.00052073534
189	0xbd876d76	-0.06612675
190	0xbcfce34b	-0.0308701
191	0xbd3c3e94	-0.045958117
192	0xbf03309b	-0.5124604
193	0x3d1bd9b4	0.038049415
194	0xbd65bb2e	-0.05608671
195	0x3d69f578	0.057118863
196	0xbd090c21	-0.033458833
197	0xbcabf1de	-0.020989355
198	0x3df72350	0.12067282
199	0x3c92287d	0.017841572
200	0xbde3ddda	-0.11126299
201	0xbd021acb	-0.031763833
202	0x3d3879ab	0.045037907
203	0x3c32d82a	0.010915795
204	0x3c99f457	0.018793268
205	0xbd6923be	-0.056918852
206	0xbb9c2b2e	-0.0047658896
207	0x3d59b887	0.053154495
208	0xbca09e33	-0.019606685
209	0xbc8b262c	-0.016985975
210	0x3de50f30	0.111845374
211	0xbc7ac100	-0.015304804
212	0x3c3df5d6	0.011594256
213	0x3d988496	0.07447164
214	0x3d9f5169	0.077792
215	0x3e107ace	0.14109346
216	0x3d576de8	0.05259505
217	0x3d3ac5d4	0.04559882
218	0xbcd34393	-0.025789058
219	0x3df2b788	0.11851412
220	0xbda79a63	-0.08183744
221	0x3dbb8812	0.09156813
222	0xbce1ead4	-0.027577795
223	0xbc19dfe5	-0.0093917595
224	0xbb8e8e16	-0.004350434
225	0x3d862090	0.065491796
226	0x3d1f88d8	0.038948864
227	0xbd105045	-0.0352328
228	0xbd597ae5	-0.053095717
229	0x392afd76	0.00016306885
230	0x3cfaa8e4	0.030598111
231	0xbc688760	-0.014192432
232	0x3e234f68	0.1594826
233	0xbc3864c7	-0.011254496
234	0x3db4322a	0.087986305
235	0xbda60b9c	-0.08107683
236	0xb8dd1dfe	-0.00010543688
237	0xbd419f2d	-0.047270942
238	0x3d8b3064	0.06796339
239	0xbc86dd37	-0.016462905
240	0x3a47aa43	0.00076166185
241	0x3d88c036	0.06677286
242	0xbe071e69	-0.13195194
243	0xbd1c681a	-0.038185216
244	0x3d7b1786	0.06130173
245	0x3d8d09f8	0.06886667
246	0x3cbf8fa6	0.023383927
247	0x3c338021	0.010955841
248	0xbdb6ba15	-0.08922211
249	0x3c9ed167	0.01938696
250	0x3c93fc7c	0.01806473
251	0x3ac25a11	0.0014827867
252	0xbda33090	-0.07968247
253	0xbc8507ca	-0.016239066
254	0x3d6371b8	0.055528373
255	0xbbcfc129	-0.006340165

actor.6.bias f4 [6]
0	0x3eabb40d	0.33535805
1	0x3e132a57	0.1437162
2	0x3e89f6a5	0.26945987
3	0x3f049935	0.51796275
4	0x3dc424cb	0.0957733
5	0x3de24926	0.11049108
