online_weights/spot_walker2d_medium/critic_target_s1000000.pth (torch, 581843 bytes, 10 tensors)

q1_.0.weight f4 [256, 23]
0.2740637 0.46932954 0.8503236 0.076579735 -0.32220894 -0.14463581 -0.31417578 -0.6428011
0.66438085 -0.18982582 -0.09851684 0.4818228 -0.09425828 0.010824189 -0.30891734 -0.34212565
0.09493087 0.17314243 -0.15805703 0.09497764 0.14382596 -0.086949475 0.0056562 -0.72156376
-0.32642436 0.16726458 0.2506352 -0.6310109 -0.20166656 -0.2425306 -0.58342236 1.0187755
-0.95015997 -1.265298 0.4617531 -0.18696073 -0.17139353 0.36026925 0.08222048 -0.14097703
0.06702781 -0.23985878 -0.20029786 -0.1485715 0.008404226 -0.01527551 0.22354662 -0.45218542
-0.30608368 1.1743513 1.5474268 0.54032093 -0.19700116 -0.29059088 0.2861189 0.070459194
0.14267588 0.24377239 0.24686414 0.17561251 -0.176099 -0.18661973 -0.040719796 0.10108945
0.22041559 0.04213403 0.116118304 0.026803395 0.12559603 0.20124787 -0.99580926 0.89846545
0.7722163 -0.04734486 -0.27729443 -0.18444562 -0.045471538 -0.08760594 -0.25320786 -0.07168639
-0.01879744 0.27942166 0.09745239 -0.008824419 0.059696 0.013726622 -0.0012019159 -0.068993695
-0.05904531 0.07101975 -0.11184825 -0.089186005 -0.41592795 0.2507203 0.12866636 0.66158473
0.27909645 -0.19740391 -0.6283966 -0.87202215 0.33902043 -0.39162645 -0.49118128 0.354734
0.25973508 0.17234074 0.015258802 -0.2007997 -0.112061344 -0.055046156 0.09695761 0.093003415
0.053681485 -0.23350136 -0.026138395 -0.07643706 -0.31793666 -0.48867786 -0.5906442 0.062619574
-0.2890746 -0.16288498 0.15116145 0.24579313 0.11472559 -0.95734096 -0.21663855 -0.07763771
0.011328863 -0.048873335 0.5452511 0.32988837 0.101075895 -0.106115334 -0.06560348 -0.008412453
0.039901275 0.28916636 0.22399406 0.632122 -0.34906554 -0.1135593 -0.08957695 -0.050300222
-0.04574725 0.07172399 0.31468618 -0.15624827 0.85091776 -0.06526675 -0.13557108 0.0063080187
-0.9236665 -0.6954164 0.72901714 0.16739559 0.031045573 0.0022754811 0.047680475 -0.04155683
0.058059268 -0.5187553 -1.5967183 1.6169019 2.109142 -0.11123647 0.025762651 0.044486225
0.08937593 -0.10821554 -0.09363899 -0.20255502 0.16231985 0.25333077 -0.085044906 0.057970524
0.022874825 -0.0007033316 0.014230505 0.04198132 -0.09566183 0.0071252487 -0.014510653 0.056204967
-0.04706895 -0.48613223 0.22179891 -0.006268138 -0.20731708 -0.24677019 -0.3741676 0.28040823
-0.3105374 -0.23790137 0.29763222 -0.037262604 -0.009468158 0.03987748 -0.2171815 -0.31615955
-0.027609825 -0.09179369 -0.0566639 -0.078078695 0.037207317 -0.17298622 -0.024357485 0.066527985
0.49953955 -1.1998574 0.16186827 0.21974227 0.34825617 0.06804091 0.40350816 0.13896497
0.95967793 -0.096797645 -0.1802349 0.8623544 0.15307531 0.08082758 0.033161998 0.08884318
-0.14981908 0.10444822 0.35051215 -0.1458879 -0.1061691 -0.14601526 0.0041491054 -1.0933131
-0.02670493 0.6807865 0.37891254 0.15388687 -0.055523623 0.24691968 -0.86831546 0.7509073
-0.38968492 0.37492773 0.19304904 0.10909516 -0.021316787 0.35507217 0.22538444 -0.010388677
0.151655 -0.014246224 -0.119862534 -0.08426631 -0.1254516 -0.23742117 -0.3068443 0.64555454
00000000: 1452 8c3e f64b f03e cfae 593f d6d5 9c3d
00000010: 92f8 a4be 691b 14be a6db a0be 9d8e 24bf
00000020: dd14 2a3f b361 42be 32c3 c9bd 7ab1 f63e
00000030: 7c0a c1bd f057 313c 6a2a 9ebe 182b afbe
00000040: 1e6b c23d 404c 313e b4d9 21be a383 c23d
00000050: 1d47 133e 9112 b2bd a557 b93b 67b8 38bf
00000060: 1821 a7be 6847 2b3e 4253 803e ee89 21bf
00000070: ae81 4ebe f159 78be 2b5b 15bf 3c67 823f
00000080: af3d 73bf 49f5 a1bf e76a ec3e a272 3fbe
00000090: c981 2fbe 3675 b83e 3663 a83d 485c 10be
000000a0: e045 893d 8a9d 75be e21a 4dbe 2123 18be
000000b0: e1b1 093c 2246 7abc 68e9 643e d984 e7be
000000c0: 00b7 9cbe 2551 963f 1512 c63f 7952 0a3f
000000d0: acba 49be 54c8 94be 2d7e 923e e94c 903d
000000e0: a019 123e 789f 793e f4c9 7c3e c4d3 333e
000000f0: 4c53 34be 3e19 3fbe cdc9 26bd fc07 cf3d
00000100: a0b4 613e bc94 2c3d 6fcf ed3d cb92 db3c
00000110: 3f9c 003e ec13 4e3e 5bed 7ebf d501 663f
00000120: f8af 453f afec 41bd 89f9 8dbe 50df 3cbe
00000130: 5d40 3abd be6a b3bd 76a4 81be 50d0 92bd
00000140: 17fd 99bc 5b10 8f3e 1e95 c73d 4c94 10bc
00000150: cb83 743d a0e5 603c 9b89 9dba 914c 8dbd
00000160: 7fd9 71bd cd72 913d b210 e5bd 27a7 b6bd
00000170: 82f4 d4be 695e 803e 1dc1 033e 9e5d 293f
00000180: bbe5 8e3e 4024 4abe 99de 20bf d83c 5fbf
00000190: 1694 ad3e 4383 c8be 1d7c fbbe b29f b53e
000001a0: fffb 843e 177a 303e 0e00 7a3c 709e 4dbe
000001b0: 6b80 e5bd 1478 61bd b691 c63d 9378 be3d
000001c0: 1ee1 5b3d fb1a 6fbe 3020 d6bc 098b 9cbd
000001d0: 98c8 a2be fc33 fabe 7534 17bf b13e 803d
000001e0: 9601 94be 52cb 26be 11ca 1a3e 32b1 7b3e
000001f0: 40f5 ea3d 4c14 75bf 7fd6 5dbe 8500 9fbd
00000200: b29c 393c 682f 48bd 9395 0b3f 21e7 a83e
00000210: e100 cf3d ff52 d9bd 1e5b 86bd 63d4 09bc
00000220: 856f 233d 9d0d 943e b35e 653e bfd2 213f
00000230: b8b8 b2be c791 e8bd 1f74 b7bd 9b07 4ebd
00000240: 7861 3bbd 07e4 923d 8c1e a13e 8cff 1fbe
00000250: bfd5 593f 93aa 85bd 25d3 0abe 7fb3 ce3b
00000260: 6875 6cbf cf06 32bf dea0 3a3f c069 2b3e
00000270: 4953 fe3c 3d20 153b 9a4c 433d 7f37 2abd
00000280: 8ecf 6d3d 26cd 04bf 4461 ccbf a4f6 ce3f
00000290: 2ffc 0640 f2cf e3bd 320c d33c 3037 363d
000002a0: ba0a b73d 1ca0 ddbd ccc5 bfbd 956a 4fbe
000002b0: 2d37 263e 92b4 813e 062c aebd 8072 6d3d
000002c0: fc63 bb3c c95f 38ba 1027 693c 9bf4 2b3d
000002d0: 59ea c3bd eb7a e93b 17be 6dbc 2e37 663d
000002e0: 5fcb 40bd 53e6 f8be 411f 633e f464 cdbb
000002f0: ee4a 54be 53b1 7cbe e592 bfbe ab91 8f3e
00000300: c2fe 9ebe 6b9c 73be 4063 983e aca0 18bd
00000310: 5520 1bbc 9256 233d d464 5ebe aadf a1be
00000320: 002e e2bc 55fe bbbd 6818 68bd b9e7 9fbd
00000330: b366 183d 4d23 31be 5989 c7bc d33f 883d
00000340: a6c3 ff3e ed94 99bf ccc0 253e 1e04 613e
00000350: a24e b23e 0859 8b3d 9f98 ce3e d54c 0e3e
00000360: 74ad 753f d83d c6bd 7f8f 38be 42c3 5c3f
00000370: c6bf 1c3e ee88 a53d e0d4 073d 6af3 b53d
00000380: 2c6a 19be f3e8 d53d 5476 b33e a363 15be
00000390: 2f6f d9bd 0685 15be 38f5 873b aff1 8bbf
000003a0: 4cc4 dabc 0648 2e3f d300 c23e 8594 1d3e
000003b0: bd6c 63bd 83d8 7c3e ec49 5ebf 763b 403f
000003c0: c884 c7be 87f6 bf3e a6ae 453e 496d df3d
000003d0: 8ba0 aebc 05cc b53e 2ecb 663e 4535 2abc
000003e0: 734b 1b3e ff68 69bc 7d7a f5bd d193 acbd
000003f0: 6276 00be 891e 73be b21a 9dbe 1043 253f

q1_.0.bias f4 [256]
0.2382083 -1.0982112 -0.64319783 -1.6235951 0.48283353 -1.6498187 0.3301345 -1.1467557
0.5130963 -1.5081524 -1.0350724 1.1212081 0.7729751 0.23620974 -1.3244878 0.76577294
0.12690471 0.21958844 -0.37800068 0.51481885 0.46524745 -0.17109819 -1.0000243 0.5223328
0.37694073 -0.024641907 -1.569219 0.9951621 -1.0324266 0.43630984 -0.053220764 0.3197219
-0.4538035 0.96558934 1.5099158 0.57090026 -0.19695398 -1.909065 -0.3275456 0.097717024
0.6223087 -0.355336 -2.6553576 0.8137347 0.7802509 0.48303705 0.18221454 0.2347291
-0.2826896 -1.9176061 0.72986984 -1.2519997 1.302657 -2.209421 -0.538685 -0.18370034
-0.09232998 -0.7035927 -0.606013 0.085743316 0.059529662 0.06367676 -0.8444058 0.4090365
-0.11861776 -3.457827 -0.13158242 -1.361757 -2.9942982 -1.2880208 -0.68465775 -0.055908326
-1.1066965 -0.074662834 -0.7496191 0.5121294 0.16967078 -0.98713416 0.023203203 -1.565042
-1.4904743 -0.18784529 1.377405 -0.8018995 -2.104144 0.8781261 -0.75350773 0.0653998
0.27591342 0.14584659 -0.8837604 1.0423713 -0.5935941 -1.0062156 -1.5253918 -0.26241788
-0.5489324 -0.5068 0.0027879172 0.42752856 0.46805137 0.8934363 0.2060899 0.00047166573
0.36950615 -0.06983809 1.2339395 0.4522731 -0.22960201 -0.75742 -0.053968083 -0.8721292
-0.22960278 0.9015929 1.1707366 -0.5295346 -0.50051427 1.0213286 -0.17645854 -0.10122038
1.4152621 0.5818041 0.803302 -0.75710326 -0.13085735 -0.9193419 -0.20634572 1.1501265
0.4254333 -0.5184652 -2.1164804 0.36805126 -1.225765 -0.78282255 0.6393536 -0.99684936
0.35087073 -0.9563501 0.9393924 0.53112525 1.7199767 -0.15420054 0.20306027 0.39838707
-0.5526238 0.8929996 -0.3082961 -1.5451803 0.52443314 -0.87713045 -0.608604 1.0145992
-0.2622609 0.65949875 0.24916267 -1.0793778 -0.21780539 -1.6233851 -1.7047 -0.9236555
-0.31673333 0.4556443 0.67801136 -0.69551253 -0.12369851 0.13754886 -2.1141396 -1.2729286
1.592502 -0.68232167 0.65039253 -1.2302105 -0.6754409 0.4872942 0.19106176 0.88917184
0.04000098 1.061595 -0.77326715 -0.8961164 0.36617827 0.98230785 -1.4503285 -0.7463867
-0.4890938 0.8363287 0.9559918 -0.60391617 1.0757704 1.129639 -1.7777725 -0.43763703
-1.9994495 -1.3574536 0.8782446 -0.9140737 0.08538875 -0.28814584 -0.9040009 -0.36621898
0.35017806 -2.4762087 0.34048548 0.14388557 -0.8944309 -0.9795012 0.723587 0.8800835
-1.5005658 -0.6263806 -1.6002986 -0.8916569 1.0700967 0.47968718 0.28265768 -0.78937596
-0.9845729 -1.6377629 -1.0792085 -1.0363778 -1.099282 -0.1263109 0.9315957 -1.4683504
-2.1093402 0.40160513 -1.3786176 -0.44520447 -1.7851592 -1.1353226 0.52506346 -1.2660929
-0.5081067 -1.7309543 -1.3182302 -1.1245018 0.8234574 0.30139324 1.3194838 -0.600951
-0.40310517 -1.3126185 -0.15501446 -0.30418512 -0.45063767 -1.2035689 0.28418067 0.5978039
0.3204454 0.19294052 0.18439515 -0.28781447 -0.17327331 0.5361162 -0.71293783 -0.6658208
00000000: e0ec 733e 2f92 8cbf 9da8 24bf f7d1 cfbf
00000010: f535 f73e 422d d3bf 6407 a93e e4c8 92bf
00000020: 475a 033f 230b c1bf 417d 84bf bf83 8f3f
00000030: b2e1 453f f7e0 713e d188 a9bf b209 443f
00000040: 4ff3 013e cbdb 603e 4e89 c1be 2bcb 033f
00000050: ea34 ee3e 5d34 2fbe cc00 80bf 9ab7 053f
00000060: 60fe c03e d3dd c9bc 2bdc c8bf f2c2 7e3f
00000070: 8e26 84bf 0164 df3e 04fe 59bd 97b2 a33e
00000080: ef58 e8be dd30 773f ec44 c13f 8526 123f
00000090: 4eae 49be 3e5c f4bf 0fb4 a7be dd1f c83d
000000a0: 9f4f 1f3f 9aee b5be 61f1 29c0 eb50 503f
000000b0: 86be 473f a250 f73e 7396 3a3e d35c 703e
000000c0: b1bc 90be 1e74 f5bf c0d8 3a3f 8741 a0bf
000000d0: 77bd a63f 2767 0dc0 43e7 09bf f11b 3cbe
000000e0: 8017 bdbd a71e 34bf ab23 1bbf 319a af3d
000000f0: 60d5 733d f668 823d fa2a 58bf 3b6d d13e
00000100: deed f2bd 0a4d 5dc0 8bbd 06be 0e4e aebf
00000110: 95a2 3fc0 dedd a4bf bb45 2fbf 2100 65bd
00000120: 3ba8 8dbf d4e8 98bd 0ae7 3fbf ea1a 033f
00000130: 2dbe 2d3e d3b4 7cbf a514 be3c 4c53 c8bf
00000140: ddc7 bebf 845a 40be cf4e b03f 4949 4dbf
00000150: 4caa 06c0 dfcc 603f e2e5 40bf 55f0 853d
00000160: 8644 8d3e cf58 153e 1f3e 62bf 6c6c 853f
00000170: c8f5 17bf accb 80bf 0a40 c3bf a35b 86be
00000180: d586 0cbf a5bd 01bf 7db5 363b 06e5 da3e
00000190: 6ea4 ef3e 3eb8 643f 3b09 533e e749 f739
000001a0: e92f bd3e 4607 8fbd bbf1 9d3f 5790 e73e
000001b0: ca1c 6bbe 47e6 41bf a30d 5dbd dc43 5fbf
000001c0: fe1c 6bbe cbce 663f b2da 953f 948f 07bf
000001d0: b421 00bf e5ba 823f 8cb1 34be a14c cfbd
000001e0: 4f27 b53f 1df1 143f 33a5 4d3f 85d1 41bf
000001f0: 78ff 05be fe59 6bbf 4b4c 53be 5837 933f
00000200: 65d2 d93e 23ba 04bf 6a74 07c0 3771 bc3e
00000210: dee5 9cbf 0f67 48bf adac 233f 8531 7fbf
00000220: 54a5 b33e 5cd3 74bf 057c 703f d3f7 073f
00000230: 3228 dc3f bfe6 1dbe 08ef 4f3e 64f9 cb3e
00000240: c178 0dbf 9f9b 643f fdd8 9dbe 78c8 c5bf
00000250: 4041 063f 9f8b 60bf 79cd 1bbf 63de 813f
00000260: 1047 86be e9d4 283f 8024 7f3e 0d29 8abf
00000270: 6008 5fbe 15cb cfbf 9c33 dabf b074 6cbf
00000280: df2a a2be 364a e93e 2792 2d3f 1c0d 32bf
00000290: a555 fdbd 9cd9 0c3e 104e 07c0 53ef a2bf
000002a0: 1bd7 cb3f a2ac 2ebf 2080 263f 8a77 9dbf
000002b0: b2e9 2cbf a07e f93e b2a5 433e c4a0 633f
000002c0: 11d8 233d 58e2 873f d6f4 45bf e267 65bf
000002d0: b87b bb3e 8778 7b3f 5da4 b9bf 3313 3fbf
000002e0: 816a fabe a319 563f e1bb 743f 409a 1abf
000002f0: d8b2 893f 0398 903f 0d8e e3bf f611 e0be
00000300: f6ed ffbf 0ac1 adbf a3d4 603f bc00 6abf
00000310: 4ce0 ae3d da87 93be 9a6c 67bf 0e81 bbbe
00000320: 8a4a b33e 347a 1ec0 1d54 ae3e bd56 133e
00000330: 6cf9 64bf 97c0 7abf ff3c 393f 274d 613f
00000340: 8a12 c0bf 7b5a 20bf 96d6 ccbf a043 64bf
00000350: eef8 883f 8f99 f53e 82b8 903e 8b14 4abf
00000360: f80c 7cbf 37a2 d1bf 8123 8abf 07a8 84bf
00000370: 46b5 8cbf a557 01be 0e7d 6e3f e8f2 bbbf
00000380: 6eff 06c0 309f cd3e 8b76 b0bf d7f1 e3be
00000390: 1980 e4bf 4052 91bf 8f6a 063f 550f a2bf
000003a0: 4813 02bf e98f ddbf c4bb a8bf adef 8fbf
000003b0: 1bce 523f 3750 9a3e d8e4 a83f edd7 19bf
000003c0: cd63 cebe e203 a8bf 1cbc 1ebe 27be 9bbe
000003d0: fbb9 e6be 8c0e 9abf 2180 913e ad09 193f
000003e0: 6b11 a43e 3392 453e 15d2 3c3e 6b5c 93be
000003f0: 8f6e 31be e93e 093f 1883 36bf 3b73 2abf

q1_.2.weight f4 [256, 256]
0.09415921 0.3655637 -0.046503134 0.15906711 0.03699911 -0.09556454 0.5630215 -0.09521374
-0.05640943 0.04711512 0.113491625 0.077478155 0.0060788305 0.2632763 0.73853636 0.06357126
-0.27236813 0.31218496 0.2749564 -0.45823097 0.15055104 -0.24273407 -0.05224369 0.28591573
-0.055133175 -0.113785855 0.39625394 0.10155042 -0.28243202 0.19193652 -0.1468851 -0.31218454
-0.053705875 0.03246456 -0.06258819 -0.319232 0.25932208 0.14584722 -0.08525269 0.31224883
-0.15794821 -0.11952821 0.92094636 0.026004162 -0.2643827 -0.16525958 -0.15272686 -0.00012210212
0.17458914 -0.0568172 0.44836742 -1.1628972 -0.009081949 0.25438678 0.26237637 -0.2846356
0.22580889 -0.37798792 0.46436435 -0.19723397 -0.30702084 -0.31914264 0.07441762 0.032964144
-0.20455702 0.22693452 -0.05719356 -0.2722021 0.30616444 0.97298276 0.0487903 -0.30717927
0.06717158 0.35732865 -0.34241486 -0.25533134 -0.37564906 -0.39985532 0.24135686 0.42030907
-0.05207059 0.19418353 0.2770624 0.27563012 -0.1150991 0.13652045 0.029249495 -0.22148938
0.26398045 -0.35955685 -0.15941945 -0.21101865 -0.06958375 0.100732744 0.30538902 0.23934622
-0.09080131 -0.2073683 -0.65250635 -0.23912708 -0.20373748 0.15787253 -0.11833576 -0.1999683
-0.2293958 -0.064043045 0.049177106 -0.41823876 0.14027895 0.038301855 0.13226388 0.221323
-0.17416634 -0.0845465 0.04278479 -0.45265952 -0.20537643 -0.011919367 -0.1683271 0.8439068
0.11107765 -0.3763531 0.035119824 0.07234827 0.067444876 0.20366377 0.605827 0.23003398
0.051882617 0.25515404 0.45849285 -0.4858311 -0.024402276 0.10622582 0.33393183 0.22362433
-0.08038032 0.073742785 0.27952197 -0.29281247 0.118383385 0.14401051 -0.6836236 0.068846226
-0.35102588 0.053089645 0.3174516 -0.05899794 0.10002882 0.2822092 -0.19253522 -0.035838556
-0.57227975 -0.324598 0.06214087 -0.42394388 0.07556387 0.8950233 -0.21405509 0.09979335
0.3712786 -0.06362503 -0.123353824 0.4631274 0.13074489 -0.13706312 -0.43764934 -0.26185924
0.15012431 -0.0547505 0.3985149 0.6582031 -0.14530396 0.015310339 0.02406758 0.06777244
-0.07321949 0.15389761 0.46716622 -0.22667475 0.37477687 -0.53741145 0.039530598 -0.09029235
-0.110765256 -0.1909794 -0.07690173 -0.36139312 0.19402766 -0.038765 -0.52278906 0.20758249
0.20486276 0.34236193 -0.33885363 -1.4505095 0.1485051 -0.27483314 0.043444403 0.064003564
-0.09581027 -0.21758541 0.06264924 -0.27132747 -0.026342673 -0.0603265 0.28135934 0.0012157327
-0.5522984 0.05269231 0.54615617 0.08830119 0.12509172 0.5998709 -0.2594037 -0.047090746
0.48231286 0.0007801396 -1.2696589 -0.031684726 -0.16531688 0.28796613 0.12517408 -0.33858168
-0.31834513 -0.49549565 0.9531069 0.2199655 0.19162132 0.2478515 0.26692465 0.05348901
0.45913526 0.38685754 0.33812785 -0.055562332 0.14637738 -0.032008864 -0.047578808 -0.016545756
0.27075198 -0.3572087 0.23614247 -0.0072694016 0.27028432 0.251594 -0.17125224 -0.12672216
-0.2319349 -0.12939867 0.36961702 -0.2954846 -0.045288462 -0.005464723 0.46585307 0.050121516
00000000: 8bd6 c03d 2a2b bb3e 127a 3ebd 7de2 223e
00000010: 618c 173d 57b7 c3bd 2d22 103f 6cff c2bd
00000020: 930d 67bd c9fb 403d 4c6e e83d deac 9e3d
00000030: ed30 c73b 27cc 863e b810 3d3f a631 823d
00000040: d673 8bbe b5d6 9f3e 16c7 8c3e 409d eabe
00000050: 0d2a 1a3e 488f 78be 7bfd 55bd 8c63 923e
00000060: 53d3 61bd 8f08 e9bd cce1 ca3e abf9 cf3d
00000070: ee9a 90be 028b 443e 0c69 16be a7d6 9fbe
00000080: b1fa 5bbd 8ff9 043d 3d2e 80bd 6072 a3be
00000090: ddc5 843e f958 153e f698 aebd 14df 9f3e
000000a0: 2dbd 21be 35cb f4bd 24c3 6b3f ae06 d53c
000000b0: 2b5d 87be cf39 29be 6e64 1cbe 8a08 00b9
000000c0: 7fc7 323e 27b9 68bd 6a90 e53e d1d9 94bf
000000d0: 74cc 14bc fc3e 823e 3256 863e c2bb 91be
000000e0: 723a 673e a287 c1be 2ac1 ed3e b4f7 49be
000000f0: d631 9dbe aa66 a3be 4468 983d 6905 073d
00000100: 6577 51be 8661 683e cb43 6abd 135e 8bbe
00000110: 96c1 9c3e 6615 793f 56d8 473d 9a46 9dbe
00000120: 4191 893d c8f3 b63e 0051 afbe caba 82be
00000130: 1355 c0be d6b9 ccbe 4126 773e c032 d73e
00000140: f947 55bd 0cd8 463e 1fdb 8d3e 641f 8d3e
00000150: 14b9 ebbd 04cc 0b3e a39c ef3c 1dce 62be
00000160: 7228 873e d617 b8be da3e 23be 4615 58be
00000170: ed81 8ebd f84c ce3d f35b 9c3e 2d17 753e
00000180: 0af6 b9bd 5b58 54be a80a 27bf bbdd 74be
00000190: 8fa0 50be 56a9 213e 055a f2bd 7dc4 4cbe
000001a0: bce6 6abe 0029 83bd ef6d 493d 6423 d6be
000001b0: 49a5 0f3e 68e2 1c3d 2f70 073e 7fa2 623e
000001c0: a958 32be b726 adbd 1b3f 2f3d fdc2 e7be
000001d0: 334e 52be 7349 43bc f05d 2cbe 470a 583f
000001e0: ae7c e33d 5bb1 c0be ced9 0f3d 542b 943d
000001f0: 8a20 8a3d 3c8d 503e 7a17 1b3f 078e 6b3e
00000200: de82 543d 8da3 823e 93bf ea3e dbbe f8be
00000210: 48e7 c7bc ec8c d93d 1df9 aa3e c7fd 643e
00000220: 709e a4bd 7506 973d 811d 8f3e 84eb 95be
00000230: fd72 f23d 7e77 133e f501 2fbf 40ff 8c3d
00000240: aab9 b3be 8774 593d 0489 a23e d3a7 71bd
00000250: e9db cc3d b97d 903e f427 45be 73cb 12bd
00000260: ed80 12bf b631 a6be 6d87 7e3d 2c0f d9be
00000270: 3bc1 9a3d 3f20 653f 4231 5bbe 7560 cc3d
00000280: 3b18 be3e d74d 82bd eea0 fcbd 091f ed3e
00000290: fde1 053e 465a 0cbe 9313 e0be 6a12 86be
000002a0: 30ba 193e 0f42 60bd 250a cc3e 0080 283f
000002b0: 90ca 14be 37d8 7a3c 6029 c53c 47cc 8a3d
000002c0: 1af4 95bd 5697 1d3e 6930 ef3e 6d1d 68be
000002d0: c1e2 bf3e cc93 09bf d6ea 213d 32eb b8bd
000002e0: e5d8 e2bd 1b90 43be a77e 9dbd 8508 b9be
000002f0: 30af 463e 0cc8 1ebd 81d5 05bf 8190 543e
00000300: 8bc7 513e 104a af3e 397e adbe 4caa b9bf
00000310: b911 183e eeb6 8cbe c2f2 313d 4d14 833d
00000320: 2d38 c4bd b6ce 5ebe 3f4e 803d 6feb 8abe
00000330: 97cc d7bc ec18 77bd 550e 903e 3859 9f3a
00000340: 6e63 0dbf e4d3 573d e4d0 0b3f 41d7 b43d
00000350: 0b18 003e 2491 193f 90d0 84be 3ae2 40bd
00000360: b6f1 f63e 4882 4c3a 2f84 a2bf d8c7 01bd
00000370: d448 29be 4c70 933e a22d 003e 945a adbe
00000380: 22fe a2be 9bb1 fdbe d0fe 733f a33e 613e
00000390: 6138 443e c9cc 7d3e 59aa 883e 4b17 5b3d
000003a0: c713 eb3e 3112 c63e 181f ad3e 5495 63bd
000003b0: f4e3 153e ba1b 03bd ffe1 42bd f78a 87bc
000003c0: 01a0 8a3e 0fe4 b6be 55cf 713e 2934 eebb
000003d0: b562 8a3e eed0 803e bf5c 2fbe 74c3 01be
000003e0: 5880 6dbe 1681 04be 713e bd3e c249 97be
000003f0: 6580 39bd 6b11 b3bb 4b84 ee3e 384c 4d3d

q1_.2.bias f4 [256]
0.5739287 0.26256377 0.4581876 0.6352349 -0.046569526 -0.65473235 -0.66883564 0.45415023
0.53407234 0.52873605 0.03921068 -0.12516288 0.6984629 0.12918101 -0.02803033 0.16688648
0.39460254 0.9946366 -0.49529493 -0.17547078 0.46123606 0.5532493 -0.60478413 0.5915102
-0.26625487 0.48266613 -0.054042283 -0.61479414 0.5272904 0.2534574 -0.4390041 0.6864166
-0.5394576 -0.28666306 0.91887456 -0.019237604 0.447223 0.32609993 0.2545084 0.5984543
-0.07781766 1.1092055 0.634361 -0.34244883 -0.68118405 -0.37840956 0.5779642 0.95060116
0.33932617 -0.32467502 0.033451505 0.93853015 -0.1658382 -0.4760499 -0.19063945 -0.49587923
-0.2813523 0.40606105 -0.5352121 -0.22617672 0.46927205 0.30727586 -0.9588703 -0.5917559
1.0522538 -0.7712513 0.053099576 -0.60063857 -0.57461286 -0.34041035 0.4250858 0.83146185
0.44424874 -0.66815895 0.32568902 -0.052165665 0.20967844 1.2798034 -0.07262401 0.5615967
-0.96356046 0.76032865 -0.18276733 -0.4633787 0.31472772 -0.6995218 0.8872576 0.567298
-0.35611293 0.54650337 0.36446187 -0.044937614 -0.3993642 0.37607884 -0.58887637 -0.35551617
-0.33413154 0.5900534 0.43385366 -0.65924054 -0.47737208 0.8606105 0.65489703 -0.51453173
0.36352053 -0.7770183 -0.8123497 -0.3269803 -0.16631524 0.43379405 0.69837004 -0.18098393
-0.34910542 -0.18329605 0.32137582 -0.5514708 0.5318626 0.43394902 -0.7269759 0.5949208
0.6399055 0.38139305 0.34222946 1.074949 0.35252306 -0.23206164 1.2319534 -0.025000557
0.3962133 -0.03890436 -0.9235657 0.24179615 -0.19626181 -0.45272586 -0.2934187 0.08628641
0.37786144 -0.14548239 0.47691038 1.2387147 -0.46659774 -0.68838173 0.68618906 0.46708435
0.43446162 0.6328192 0.50510645 0.53298974 0.64235216 -0.7165969 -0.7421764 -0.72328377
0.48642525 0.4281482 0.61680245 0.34897488 -0.084264494 0.49736995 0.4569106 -0.22729057
0.40696824 0.39591947 0.1094467 0.36333555 -0.63832235 -0.46481147 0.6040484 0.7156093
0.21656154 -0.4744455 1.1851388 0.4264937 0.5867744 0.6819755 -0.15752706 -0.35830986
-0.43529832 -0.25342822 -0.49324626 -0.0017250091 -1.0154254 0.080037996 -0.27342266 -0.33755037
0.52558875 -0.6285058 -0.18249843 0.2552886 -0.026824916 0.72151536 0.9297511 0.4406603
-0.40683323 -0.5674836 0.61447865 -0.5106445 -0.69862276 0.538971 0.38064456 0.5984899
-0.59017664 -0.320526 -0.66658044 0.5333171 0.33739862 -1.0400554 -0.76735157 -0.13083497
-0.8071359 0.067214735 0.5100684 -0.75042236 0.05819281 -0.11129883 1.1833656 -0.37558246
1.016346 0.13282712 0.4678293 -0.59545773 -0.058298986 0.44455272 -0.20610492 -0.91970485
0.43061712 -1.1378388 -0.9295074 0.6299989 -0.5409098 0.43782336 -0.144995 0.13986169
-0.40989077 0.5241146 0.59738046 -0.29775125 0.93962747 0.35177585 1.0301868 0.7378397
0.2906497 -0.553651 0.039347257 -0.3053402 -0.66065496 0.5996248 0.4631732 0.71770173
-0.4915541 0.51556164 -0.014919394 -0.39098486 0.4245613 0.043751713 0.023117641 0.95366913
00000000: feec 123f c26e 863e 9197 ea3e c19e 223f
00000010: b0bf 3ebd 8a9c 27bf d038 2bbf 6186 e83e
00000020: f7b8 083f 3f5b 073f 619b 203d b32a 00be
00000030: 77ce 323f 0748 043e dd9f e5bc 4ae4 2a3e
00000040: 5809 ca3e 81a0 7e3f 4c97 fdbe 9dae 33be
00000050: 2227 ec3e bfa1 0d3f 22d3 1abf 366d 173f
00000060: 8f52 88be 0420 f73e 715b 5dbd 2663 1dbf
00000070: 81fc 063f 2bc5 813e 25c5 e0be 00b9 2f3f
00000080: e519 0abf 80c5 92be 5d3b 6b3f 2e98 9dbc
00000090: 6afa e43e 92f6 a63e ed4e 823e 4d34 193f
000000a0: de5e 9fbd 72fa 8d3f 7c65 223f 7455 afbe
000000b0: 1462 2ebf e6be c1be 76f5 133f 995a 733f
000000c0: 29bc ad3e ce3b a6be 7204 093d 8343 703f
000000d0: 7dd1 29be d0bc f3be fd36 43be e2e3 fdbe
000000e0: 690d 90be 3ce7 cf3e a903 09bf df9a 67be
000000f0: 6d44 f03e 4353 9d3e 8678 75bf 517d 17bf
00000100: 41b0 863f ba70 45bf f17e 593d 73c3 19bf
00000110: d419 13bf 444a aebe d9a4 d93e afda 543f
00000120: 9274 e33e 770c 2bbf b6c0 a63e aaab 55bd
00000130: f2b5 563e 99d0 a33f e6bb 94bd cdc4 0f3f
00000140: e6ab 76bf e6a4 423f 5c27 3bbe f93f edbe
00000150: fe23 a13e dc13 33bf 5023 633f 713a 113f
00000160: 6f54 b6be a5e7 0b3f bf9a ba3e 8110 38bd
00000170: 7779 ccbe 688d c03e 9ac0 16bf 3706 b6be
00000180: 4a13 abbe bd0d 173f 1122 de3e fdc3 28bf
00000190: 1d6a f4be f850 5c3f 55a7 273f 5ab8 03bf
000001a0: 5d1f ba3e acea 46bf 26f6 4fbf f669 a7be
000001b0: 8b4e 2abe 411a de3e 61c8 323f da53 39be
000001c0: f2bd b2be f6b1 3bbe 5f8b a43e 312d 0dbf
000001d0: 2628 083f 912e de3e 181b 3abf bb4c 183f
000001e0: d9d0 233f f345 c33e b338 af3e ee97 893f
000001f0: e77d b43e 91a1 6dbe a6b0 9d3f f8cd ccbc
00000200: 78dc ca3e 2e5a 1fbd cd6e 6cbf 6999 773e
00000210: dbf8 48be afcb e7be fa3a 96be eeb6 b03d
00000220: 0e77 c13e 56f9 14be 992d f43e 348e 9e3f
00000230: e6e5 eebe c939 30bf 16aa 2f3f ae25 ef3e
00000240: c171 de3e 7000 223f a84e 013f 0472 083f
00000250: 3171 243f e572 37bf 46ff 3dbf 2029 39bf
00000260: bb0c f93e 3e36 db3e c4e6 1d3f d6ac b23e
00000270: dd92 acbd 46a7 fe3e 30f0 e93e dcbe 68be
00000280: 245e d03e f5b5 ca3e 9725 e03d 1e07 ba3e
00000290: 1869 23bf c5fb edbe eaa2 1a3f 2c32 373f
000002a0: 4fc2 5d3e 85ea f2be a1b2 973f 625d da3e
000002b0: d936 163f f295 2e3f c64e 21be 6474 b7be
000002c0: 6cdf debe 58c1 81be c68a fcbe b319 e2ba
000002d0: 76f9 81bf f6ea a33d 0efe 8bbe 67d3 acbe
000002e0: fc8c 063f c2e5 20bf dee0 3abe 30b5 823e
000002f0: edbf dbbc 3bb5 383f 2b04 6e3f 3a9e e13e
00000300: 724c d0be 9b46 11bf 794e 1d3f 99b9 02bf
00000310: f1d8 32bf 01fa 093f d8e3 c23e a236 193f
00000320: d115 17bf fc1b a4be 04a5 2abf 7887 083f
00000330: 83bf ac3e 8920 85bf 2771 44bf 9af9 05be
00000340: 75a0 4ebf e1a7 893d d893 023f ae1b 40bf
00000350: 955b 6e3d a4f0 e3bd 8678 973f 584c c0be
00000360: a017 823f d503 083e 5287 ef3e eb6f 18bf
00000370: ebca 6ebd 6a9c e33e 2b0d 53be c771 6bbf
00000380: d979 dc3e b4a4 91bf 32f4 6dbf 9c47 213f
00000390: 1179 0abf 622a e03e 9279 14be e737 0f3e
000003a0: 34dd d1be 602c 063f eded 183f da72 98be
000003b0: 6d8b 703f f71b b43e 29dd 833f 10e3 3c3f
000003c0: 0ad0 943e 12bc 0dbf 972a 213d 8d55 9cbe
000003d0: af20 29bf 0381 193f 0a25 ed3e 4dbb 373f
000003e0: fbac fbbe d9fb 033f 7970 74bc 2b2f c8be
000003f0: 1960 d93e ff34 333d 3561 bd3c a923 743f

q1_.4.weight f4 [1, 256]
0.47198793 -2.3874474 1.9467938 -2.8279154 -0.041876398 -0.5996439 -1.3301052 -2.5531802
1.0074764 0.70295155 -0.9258833 -1.1128836 0.073242605 -3.1548693 2.0935225 -1.1125176
-1.1463534 0.70045674 -3.3653934 -1.4954929 0.006380171 -2.067157 -1.5187702 2.052759
-1.0357819 1.5207741 -1.0555984 -0.8895533 -2.8516653 1.3597392 -0.71200234 -2.618425
-1.825747 -0.858437 0.8965453 -0.043102767 -0.0010512429 -4.126557 1.0837599 0.6818854
-0.04081767 0.3781005 1.1438653 -1.1784428 -4.0040927 -0.81751055 1.3139603 0.9337835
-1.2483574 -1.7794338 1.347303 1.0953733 -1.1545932 -0.9183628 -4.092121 -4.2172084
-0.87635136 1.9412374 -2.2415252 -0.99478614 0.08599657 -2.4607725 -1.1853511 -0.7817717
0.6849328 -0.6471686 2.4996142 -1.4902489 -1.024109 -3.809314 0.001550572 0.11875584
-0.010115197 -0.9501047 0.0050105667 0.0046934513 0.940561 0.94824624 -0.69675004 0.30654368
-0.7452435 0.43322405 -4.864371 -0.7825402 0.0012114772 -2.0413437 0.9275743 1.1498665
-4.13078 0.42433062 0.0026262621 -1.6206172 5.4371605 0.0012004643 -4.1423984 2.3128054
-1.1353693 1.9265984 -0.0017453817 -0.4759221 -2.8380203 1.1020538 0.034838364 -1.2201092
0.68053615 -1.0820984 -0.8531699 -0.88542354 -1.0326703 -0.0036157004 0.07892486 -0.98929906
-1.2575629 -1.1332628 -2.1358984 -2.3325596 1.90998 -0.006878057 -1.1473564 0.35229355
1.2921891 -0.9969501 -1.2845919 1.1058866 -0.0015349957 -1.2721558 0.6813659 -1.5012424
0.022876097 0.007502975 -0.9423763 -1.9021894 -0.66991967 -0.8750203 -5.380853 2.5047026
-1.2893041 -1.5926791 -1.4416964 0.79811835 -2.088315 -1.4093903 1.2181312 -1.1358604
0.00632364 0.99894327 0.61166716 0.36872122 0.03889516 -0.8024087 -1.5146409 -6.538176
-2.1446362 1.0390862 -1.8292406 -1.0009718 -1.0329359 1.58258 1.6630143 -1.2951295
1.5338005 2.4150052 1.5295913 0.709199 -0.92438644 -1.8123444 0.41873094 0.08107517
-1.1315799 -4.2210083 0.79635745 1.0546855 2.535255 0.7899317 -2.2882962 -0.8811871
-0.89705473 3.138223 -1.0627816 0.0007249713 -2.4383469 3.9341445 -0.88402766 -1.0118768
-4.050641 -1.3444595 2.8219726 -1.150268 -0.90539455 1.1945182 0.8880416 1.165275
-1.0294794 -1.0032575 0.7132801 -1.2984241 -0.9370271 0.59311926 -0.00014188277 0.7725286
6.04739 -5.9992967 -3.1215909 -0.49628243 2.1224813 -2.7979023 -2.142285 -1.5886978
-0.7386481 5.328297 0.42637748 -3.0146956 3.295236 -0.9158307 1.7563819 -0.8435424
0.8575275 -1.343375 1.3940779 -1.2525982 -0.017807463 -0.0039370307 -1.8164482 -2.297989
0.007404441 -2.6054525 -1.0038931 0.029107444 -1.1239351 -0.00063810206 -1.3678195 -1.2707826
-1.1945494 0.54385024 0.050980985 -1.9475627 0.79850847 0.77334064 0.86032206 0.09009379
-1.170839 -0.7634566 -1.3038417 -2.4754853 2.190314 0.67625004 -0.001204725 0.010591648
-0.760958 -1.409576 2.4335933 -4.426397 0.009443154 -0.034165785 1.3899006 1.2115159
00000000: 67a8 f13e f0cb 18c0 8a30 f93f 91fc 34c0
00000010: 9686 2bbd 4382 19bf e340 aabf 4e67 23c0
00000020: fdf4 803f a2f4 333f b006 6dbf f872 8ebf
00000030: 3800 963d 61e9 49c0 46fc 0540 fa66 8ebf
00000040: b5bb 92bf 2251 333f 9b62 57c0 506c bfbf
00000050: c110 d13b 4d4c 04c0 1067 c2bf 6760 0340
00000060: 8094 84bf baa8 c23f d91d 87bf c4b9 63bf
00000070: af81 36c0 ef0b ae3f c945 36bf 4694 27c0
00000080: 14b2 e9bf 87c2 5bbf fe83 653f 878c 30bd
00000090: dcc9 89ba c10c 84c0 a5b8 8a3f 0b90 2e3f
000000a0: 6e30 27bd 6496 c13e 2e6a 923f 37d7 96bf
000000b0: 8721 80c0 5f48 51bf da2f a83f 6f0c 6f3f
000000c0: 2dca 9fbf 7dc4 e3bf 6d74 ac3f 3135 8c3f
000000d0: b6c9 93bf d319 6bbf a8f2 82c0 5ff3 86c0
000000e0: 9058 60bf 787a f83f 2675 0fc0 4eaa 7ebf
000000f0: f81e b03d 4c7d 1dc0 96b9 97bf 3122 48bf
00000100: c257 2f3f d7ac 25bf aef9 1f40 7ac0 bebf
00000110: 0116 83bf cdcb 73c0 903c cb3a 4336 f33d
00000120: 36ba 25bc 103a 73bf ae2f a43b 86cb 993b
00000130: 9bc8 703f 44c0 723f 365e 32bf 4bf3 9c3e
00000140: 47c8 3ebf 8bcf dd3e eda8 9bc0 8e54 48bf
00000150: 6eca 9e3a 60a5 02c0 8275 6d3f d32e 933f
00000160: 5a2f 84c0 dd41 d93e 5e1d 2c3b 6270 cfbf
00000170: 38fd ad40 e658 9d3a 878e 84c0 0105 1440
00000180: c853 91bf c79a f63f 4bc5 e4ba 10ac f3be
00000190: 20a2 35c0 1910 8d3f acb2 0e3d 8a2c 9cbf
000001a0: 9e37 2e3f 3382 8abf 5869 5abf 1eab 62bf
000001b0: 8a2e 84bf 63f5 6cbb 5ba3 a13d b442 7dbf
000001c0: d2f7 a0bf c10e 91bf 8fb2 08c0 a848 15c0
000001d0: 3a7a f43f 5361 e1bb 93dc 92bf d25f b43e
000001e0: 7466 a53f 1f38 7fbf 826d a4bf b18d 8d3f
000001f0: e931 c9ba 00d6 a2bf ff6d 2e3f b628 c0bf
00000200: a766 bb3c 84db f53b 933f 71bf f17a f3bf
00000210: db7f 2bbf 5501 60bf f32f acc0 0c4d 2040
00000220: eb07 a5bf e9dc cbbf 8289 b8bf 7c51 4c3f
00000230: f4a6 05c0 e766 b4bf b9eb 9b3f e063 91bf
00000240: 8936 cf3b bfba 7f3f 3896 1c3f 07c9 bc3e
00000250: 8850 1f3d a86a 4dbf c1df c1bf bd38 d1c0
00000260: b841 09c0 c700 853f 8e24 eabf d81f 80bf
00000270: 3e37 84bf fb91 ca3f a7dd d43f cec6 a5bf
00000280: 9353 c43f 728f 1a40 a6c9 c33f 118e 353f
00000290: 97a4 6cbf e7fa e7bf e763 d63e bd0a a63d
000002a0: 9cd7 90bf 8012 87c0 15de 4b3f efff 863f
000002b0: 9e41 2240 f738 4a3f 7273 12c0 7a95 61bf
000002c0: 61a5 65bf a5d8 4840 3a09 88bf 000c 3e3a
000002d0: e00d 1cc0 06c9 7b40 a34f 62bf 2e85 81bf
000002e0: da9e 81c0 4017 acbf 339b 3440 fb3b 93bf
000002f0: f0c7 67bf f9e5 983f b256 633f bb27 953f
00000300: fbc5 83bf be6a 80bf 8699 363f c332 a6bf
00000310: 02e1 6fbf aad6 173f 5ec6 14b9 6fc4 453f
00000320: 3884 c140 3dfa bfc0 25c8 47c0 bb18 febe
00000330: bcd6 0740 d510 33c0 331b 09c0 735a cbbf
00000340: 0b18 3dbf 6981 aa40 264e da3e c6f0 40c0
00000350: 26e5 5240 e173 6abf 1fd1 e03f 65f2 57bf
00000360: ec86 5b3f b6f3 abbf 2571 b23f 2355 a0bf
00000370: f5e0 91bc 3502 81bb 6081 e8bf 4012 13c0
00000380: f4a0 f23b bcbf 26c0 927f 80bf bc72 ee3c
00000390: 1bdd 8fbf 4e46 27ba b614 afbf 01a9 a2bf
000003a0: ffe6 98bf c539 0b3f 70d1 503d bc49 f9bf
000003b0: 0d6b 4c3f a7f9 453f 113e 5c3f 1883 b83d
000003c0: 0dde 95bf e471 43bf 49e4 a6bf 5a6e 1ec0
000003d0: 1b2e 0c40 b91e 2d3f dde7 9dba 9788 2d3c
000003e0: 25ce 42bf fd6c b4bf febf 1b40 0ba5 8dc0
000003f0: 75b7 1a3c 6cf1 0bbd 43e8 b13f f412 9b3f

q2_.0.weight f4 [256, 23]
-0.003475381 0.20171894 -0.012930175 0.25421846 -0.82377386 -0.45645633 -1.0242069 -0.4048009
0.36529216 -0.16478632 -0.44856477 -0.4272589 -0.118965365 -0.15241358 0.83509475 0.074188024
-0.12847388 0.09095085 -0.036887474 -0.11554364 0.2651534 -0.21185526 0.01508463 0.2108727
0.06327187 -0.76750594 0.39751154 0.15187348 1.038365 1.0067233 0.28325108 -0.4746536
0.30982625 0.4116954 -0.31169683 -0.18959315 0.047964454 0.31923336 0.35069674 0.011633255
0.19013782 -0.14975178 0.004789274 0.10690573 0.0059556053 -0.032979853 -0.31145492 -0.9518695
0.9229876 0.57111096 0.45727578 0.6597497 1.0196335 -0.16766909 0.75102776 -0.554028
-0.8355876 0.86798817 0.27963275 0.054399993 -0.29061812 -0.14293517 0.10992055 0.10582488
-0.11157065 0.19771448 0.04976181 0.029877722 0.10800602 -0.040305454 -0.12093896 0.010292472
-0.22725281 0.07475363 0.09585468 -0.004009048 0.13872524 0.133625 -0.09079782 -0.62845045
-1.1940218 0.3817065 0.09215618 -0.10604423 -0.10012054 0.030829191 0.14055315 -0.029437056
-0.008167138 0.049450934 -0.022320656 0.08723608 -0.669721 -0.6473455 1.291276 1.5609773
-0.699606 -0.60540324 -0.23860937 -0.5626755 -0.24375081 -0.3148373 0.06466718 -0.10307244
-0.23746775 -0.194879 0.017180253 -0.053264357 -0.12627 -0.030169234 -0.11744314 0.06405779
-0.0014262664 -0.010733185 -0.06946895 -0.1721381 -0.26823455 0.2617272 -0.12547904 0.058870457
0.05151188 0.9400381 -0.006959115 0.46473214 0.041367996 0.12505552 0.032870542 0.0060172873
-0.07094647 -0.23325694 0.18407904 0.18904018 0.037916314 0.0965048 -0.039397858 -0.13868926
0.3482106 0.09323037 -0.57061285 -0.5364374 -0.112324566 -0.5774191 0.117137484 0.8488262
1.0573719 -0.16340593 -0.22015141 0.32502577 0.19646767 -0.23177882 -0.24257481 0.05070966
0.2023112 0.3857605 0.055438086 0.018851828 0.057276648 0.04570519 -0.053040426 0.33985424
0.07401783 0.4135765 0.40199375 0.44060922 0.23686376 0.008560305 -0.17238352 -0.23761691
0.32280076 0.018524336 0.65675944 -0.08477311 0.0770349 0.05522687 0.039905358 0.03704154
-0.12795988 -0.056204736 0.17938295 -0.1274038 0.07586242 0.29992068 -0.23531155 -0.115886904
-0.9389716 -0.43474582 0.7038869 0.57479304 -0.44236663 -0.6530225 -0.919244 -0.045429308
-0.20233335 -0.42001665 -0.32184002 0.09274452 0.011005777 -0.11343685 0.19099353 -0.06836451
-0.0656536 0.048911177 -0.13625124 -0.14094348 0.047391523 -0.20128092 0.02353291 -0.44868243
0.54533494 0.03296123 -0.37828836 -0.001645443 -0.42921564 -0.89595616 0.449042 1.4566153
0.06312809 -0.6341367 0.20583323 -0.052196518 0.062213775 -0.104853615 -0.40100414 0.2510767
-0.043636046 -0.045215495 0.13469657 -0.079905175 -0.19424988 0.043501 0.54547584 0.51680225
-0.2330018 1.1391468 0.81678 0.20701225 -0.1895487 0.26686972 -0.3688709 0.6940819
0.5292157 -0.13855404 0.06564945 0.051859885 -0.19404496 0.027126256 0.13922925 0.059311286
0.08141198 0.026656149 0.077358335 -0.0824634 0.047055062 0.66552186 1.0543084 0.51200104
00000000: 38c3 63bb 698f 4e3e 16d9 53bc ec28 823e
00000010: d8e2 52bf a5b4 e9be 3619 83bf 1042 cfbe
00000020: 9307 bb3e bfbd 28be 48aa e5be aec1 dabe
00000030: 1da4 f3bd 4e12 1cbe c5c8 553f e4ef 973d
00000040: a88e 03be 7044 ba3d 5217 17bd 25a2 ecbd
00000050: 30c2 873e 96f0 58be 8625 773c 03ef 573e
00000060: af94 813d 457b 44bf a286 cb3e b984 1b3e
00000070: 25e9 843f 4fdc 803f 4906 913e cc05 f3be
00000080: 8ca1 9e3e bdc9 d23e ba96 9fbe b524 42be
00000090: 6076 443d 8e72 a33e 868e b33e 6899 3e3c
000000a0: 7db3 423e 8858 19be 58ef 9c3b 64f1 da3d
000000b0: 3d27 c33b e215 07bd 0577 9fbe b8ad 73bf
000000c0: ea48 6c3f 5434 123f 0d20 ea3e 5be5 283f
000000d0: 5a83 823f 72b1 2bbe 5b43 403f c7d4 0dbf
000000e0: 12e9 55bf 7934 5e3f 062c 8f3e 87d2 5e3d
000000f0: e6cb 94be 995d 12be 061e e13d b7ba d83d
00000100: 277f e4bd aa75 4a3e 0ad3 4b3d 20c2 f43c
00000110: 4332 dd3d 5517 25bd d8ae f7bd c2a1 283c
00000120: f6b4 68be 6e18 993d 754f c43d 555e 83bb
00000130: fd0d 0e3e fed4 083e 35f4 b9bd 21e2 20bf
00000140: b5d5 98bf 096f c33e 61bc bc3d b82d d9bd
00000150: ff0b cdbd 808d fc3c 2aed 0f3e fb25 f1bc
00000160: 76cf 05bc 108d 4a3d cfd9 b6bc d4a8 b23d
00000170: d672 2bbf 6fb8 25bf 8848 a53f 1bce c73f
00000180: 6119 33bf b5fb 1abf 0456 74be 800b 10bf
00000190: d099 79be 5b32 a1be 3a70 843d a517 d3bd
000001a0: bf2a 73be 5c8e 47be 9abd 8c3c ba2b 5abd
000001b0: ec4c 01be 7825 f7bc 0786 f0bd bb30 833d
000001c0: 8ff1 baba 3eda 2fbc bd45 8ebd f844 30be
000001d0: 0a56 89be 1c01 863e 947d 00be 2622 713d
000001e0: 1ffe 523d 56a6 703f 4a09 e4bb 5ff1 ed3e
000001f0: 7d71 293d 8e0e 003e 43a3 063d aa2c c53b
00000200: 624c 91bd e8da 6ebe 377f 3c3e c093 413e
00000210: 234e 1b3d 4fa4 c53d a65f 21bd 8f04 0ebe
00000220: a948 b23e 90ef be3d af13 12bf f653 09bf
00000230: 6c0a e6bd bdd1 13bf c7e5 ef3d ad4c 593f
00000240: f657 873f e253 27be 5f6f 61be c769 a63e
00000250: d22e 493e 6d57 6dbe 8865 78be efb4 4f3d
00000260: ab2a 4f3e 6682 c53e 0c13 633d 266f 9a3c
00000270: eb9a 6a3d 5e35 3b3d eb40 59bd 6001 ae3e
00000280: a996 973d 4dc0 d33e 20d2 cd3e 8897 e13e
00000290: 6a8c 723e 8640 0c3c 4e85 30be d951 73be
000002a0: 2446 a53e 59c0 973c 6321 283f 869d adbd
000002b0: 79c4 9d3d 9235 623d cd73 233d dfb8 173d
000002c0: ea07 03be f036 66bd 2ab0 373e 2476 02be
000002d0: c25d 9b3d 348f 993e 83f5 70be 1d56 edbd
000002e0: 7160 70bf 0197 debe ef31 343f a325 133f
000002f0: e17d e2be 7c2c 27bf 9353 6bbf 1514 3abd
00000300: 7930 4fbe 6c0c d7be 37c8 a4be d7f0 bd3d
00000310: 9351 343c 9451 e8bd cf93 433e b102 8cbd
00000320: 6575 86bd 1657 483d 7285 0bbe 7d53 10be
00000330: 9d1d 423d 961c 4ebe 17c8 c03c b4b9 e5be
00000340: 129b 0b3f 5b02 073d 03af c1be e8ab d7ba
00000350: 27c2 dbbe 625d 65bf d5e8 e53e 5f72 ba3f
00000360: 4d49 813d c856 22bf f2c5 523e 04cc 55bd
00000370: dfd3 7e3d 7ebd d6bd 6a50 cdbe 208d 803e
00000380: b6bb 32bd e233 39bd e6ed 093e 53a5 a3bd
00000390: 71e9 46be 1b2e 323d 4ea4 0b3f 274d 043f
000003a0: 0698 6ebe 90cf 913f 7e18 513f 05fb 533e
000003b0: 0e19 42be 26a3 883e a6dc bcbe 5aaf 313f
000003c0: ae7a 073f 1ce1 0dbe 3873 863d 086b 543d
000003d0: b9b3 46be e237 de3c 1d92 0e3e 64f0 723d
000003e0: 53bb a63d ff5d da3c 0c6e 9e3d 92e2 a8bd
000003f0: cfbc 403d a45f 2a3f 94f3 863f 8012 033f

q2_.0.bias f4 [256]
0.25920644 -0.29330194 -0.04054663 -2.781604 -1.369977 0.9636404 0.8159989 1.4021585
-1.6163851 0.44446418 0.124914825 -0.42688406 -1.751482 -1.4357555 0.2159564 -0.637432
1.3083059 -0.7805511 -1.194464 0.85921055 -0.2639719 0.7858584 -0.7247143 0.32829022
-0.026468636 0.5763915 -0.4042303 -0.95295006 -0.52084446 -0.5644419 -0.33296022 -0.28232425
0.30160668 -1.0749959 1.7129618 -0.22814976 0.4285306 -0.713732 0.28144374 0.9693003
-0.7350139 -3.5129302 -0.44718096 0.5355626 -0.7396036 -1.0937976 -0.34756878 -1.3921529
-0.6424958 0.031217743 1.0669988 -1.4348109 0.17595036 0.10330179 -1.1808097 -1.8070621
-1.7498114 -0.9569202 0.9879713 -0.8191876 -1.4146326 -0.94641846 -1.2952727 -0.104600035
-0.95556223 -0.9602018 0.96788305 0.084726304 0.84854335 -1.3577299 -0.15397535 -0.3841319
-0.83614016 -1.3253171 -0.32631665 -1.3346956 -0.9980084 -0.46043098 0.30907738 0.20521604
0.05417043 -0.8211688 0.26475456 -2.0853355 -0.17651877 0.07793441 -0.5391566 0.6843207
1.0552473 0.6596849 0.09093459 1.0140843 -2.364251 1.2277907 -0.57269937 0.17836325
-1.8657265 -1.2216842 0.13536085 0.63262254 -1.9982207 0.8966481 -0.07934493 -0.6496521
-1.7350866 1.2081783 -1.0041714 -0.16594476 -0.34283462 -1.9495658 -0.8805151 -1.1171088
0.8035691 0.38166577 0.7623528 -1.5815853 0.6904044 -1.3881719 0.69735634 1.4610472
-1.8562609 -0.873932 -0.79751766 0.28097466 0.41205624 -0.986098 -0.14635184 -1.1974919
-1.5282393 -1.7074524 -0.09327858 0.71537995 0.78159475 -0.59837085 0.18390232 -0.985317
-0.49016187 -0.0815347 1.1795646 0.42857325 -0.8532616 0.40828696 -0.39894012 0.004401835
0.398162 0.72885215 -1.1348588 -2.14542 0.7428184 -0.34973127 0.25339174 0.050062153
-0.44705954 -0.4576571 0.53613174 0.09793889 -0.003009193 0.91521215 -0.8172981 0.91151375
-0.8498862 -1.324412 -0.859201 0.09277843 -0.34909773 -0.021049423 -1.8856511 -0.7383376
-1.3796871 -1.1102687 -1.3244123 0.1317661 0.49068493 -0.32355022 -1.355581 0.3792308
-0.9105786 0.49091014 -0.6655461 0.25120112 0.47931373 -1.5153812 -0.82058644 0.6389044
0.69430834 -0.8049507 -0.8635698 -0.042659786 0.7950583 -2.229398 0.3152964 -0.048795246
0.67915064 -0.3580275 -1.2574952 0.03693466 0.2682476 -0.0026031993 -1.0955579 -2.393549
-0.65495896 -0.4593267 0.042794127 -1.4409891 -0.3499082 0.22151743 -0.96021235 -1.3789635
0.5928357 -0.16459736 0.047616236 0.51185805 -0.63752866 -1.6838526 -1.5794894 -2.1176372
0.10648639 -0.43220568 -0.3581098 0.58734107 -0.29683614 1.1532162 0.97073466 0.52940446
-0.57963204 -1.2346075 0.89324707 -2.2049277 -1.0061402 0.22718832 -1.1351243 0.6787224
-1.4781715 1.5196433 0.50373405 -0.21262974 -0.13371654 0.18771257 -0.108885124 -0.08544259
-0.11853151 -0.67548925 -0.25779977 1.1838051 0.5616732 -1.1976726 0.5217903 -0.65638417
-0.5539296 0.77789617 -0.06744704 0.35315186 -1.6353776 0.96667343 0.60305005 1.171891
00000000: b5b6 843e ac2b 96be 3914 26bd cd05 32c0
00000010: 685b afbf 23b1 763f 4ee5 503f ee79 b33f
00000020: b5e5 cebf cf90 e33e 58d3 ff3d 8c90 dabe
00000030: 9030 e0bf d6c6 b7bf ad23 5d3e be2e 23bf
00000040: 9176 a73f 32d2 47bf 32e4 98bf 39f5 5b3f
00000050: 5327 87be 042e 493f e086 39bf a815 a83e
00000060: c1d4 d8bc 658e 133f 46f7 cebe 89f4 73bf
00000070: 1056 05bf 447f 10bf c379 aabe ce8c 90be
00000080: 316c 9a3e 7799 89bf 5542 db3f 17a0 69be
00000090: 5d68 db3e 24b7 36bf 6519 903e 1124 783f
000000a0: df29 3cbf d9d3 60c0 e7f4 e4be a11a 093f
000000b0: a956 3dbf 8f01 8cbf 89f4 b1be 1132 b2bf
000000c0: 9b7a 24bf 5abc ff3c 6b93 883f e2a7 b7bf
000000d0: 552c 343e e48f d33d c624 97bf d04d e7bf
000000e0: d2f9 dfbf b9f8 74bf b0eb 7c3f 47b6 51bf
000000f0: ae12 b5bf 7b48 72bf 7fcb a5bf 8b38 d6bd
00000100: ba9f 74bf c9cf 75bf 2fc7 773f fc84 ad3d
00000110: 233a 593f 18ca adbf b7ab 1dbe f0ac c4be
00000120: 480d 56bf fea3 a9bf fa12 a7be 4ed7 aabf
00000130: 7a7d 7fbf 9cbd ebbe 643f 9e3e 2724 523e
00000140: d0e1 5d3d 1e38 52bf e98d 873e 2376 05c0
00000150: 56c1 34be 139c 9f3d 2b06 0abf a42f 2f3f
00000160: 5812 873f 1ce1 283f ea3b ba3d 84cd 813f
00000170: e34f 17c0 3f28 9d3f 6d9c 12bf dba4 363e
00000180: 20d0 eebf 2660 9cbf 099c 0a3e 8df3 213f
00000190: b2c5 ffbf bb8a 653f 987f a2bd 9a4f 26bf
000001a0: 5117 debf 96a5 9a3f b088 80bf 6ced 29be
000001b0: 0588 afbe 5f8b f9bf 7069 61bf 6cfd 8ebf
000001c0: b4b6 4d3f b269 c33e 8e29 433f 6371 cabf
000001d0: 58be 303f 9eaf b1bf f285 323f 9803 bb3f
000001e0: f599 edbf 02ba 5fbf 1e2a 4cbf e9db 8f3e
000001f0: 09f9 d23e eb70 7cbf 42dd 15be 6a47 99bf
00000200: 589d c3bf cd8d dabf d708 bfbd 2423 373f
00000210: 9816 483f d52e 19bf e450 3c3e bc3d 7cbf
00000220: 7ff6 fabe aafb a6bd f9fb 963f f46d db3e
00000230: 5a6f 5abf fd0a d13e e141 ccbe 453d 903b
00000240: e4db cb3e 0e96 3a3f 0e43 91bf 904e 09c0
00000250: 5929 3e3f fa0f b3be 90bc 813e f90d 4d3d
00000260: fde4 e4be 0852 eabe ee3f 093f 2f94 c83d
00000270: e235 45bb 584b 6a3f 733a 51bf f758 693f
00000280: 2492 59bf 5586 a9bf 99f4 5bbf 9e02 be3d
00000290: f0bc b2be d76f acbc 045d f1bf b103 3dbf
000002a0: 9699 b0bf 491d 8ebf 5886 a9bf b1ed 063e
000002b0: 0e3b fb3e 60a8 a5be ae83 adbf 8a2a c23e
000002c0: ae1b 69bf 9358 fb3e 3b61 2abf 6f9d 803e
000002d0: 9c68 f53e 03f8 c1bf f411 52bf 3d8f 233f
000002e0: 31be 313f 4011 4ebf e912 5dbf 07bc 2ebd
000002f0: f188 4b3f 75ae 0ec0 886e a13e 86dd 47bd
00000300: d1dc 2d3f 614f b7be 9af5 a0bf cc48 173d
00000310: c057 893e 709a 2abb 3e3b 8cbf e82f 19c0
00000320: 64ab 27bf df2c ebbe e548 2f3d 5572 b8bf
00000330: 2b27 b3be 77d5 623e 7ad0 75bf e081 b0bf
00000340: 15c4 173f 368c 28be 3e09 433d 2109 033f
00000350: 1435 23bf 7b88 d7bf b52c cabf 5e87 07c0
00000360: 8915 da3d 104a ddbe 2b5a b7be fc5b 163f
00000370: e8fa 97be 979c 933f 1182 783f 0d87 073f
00000380: c462 14bf 9e07 9ebf d7ab 643f 891d 0dc0
00000390: 34c9 80bf 0ea4 683e c14b 91bf c0c0 2d3f
000003a0: b934 bdbf ac83 c23f b7f4 003f 9cbb 59be
000003b0: fdec 08be b937 403e 2aff debd 86fc aebd
000003c0: a6c0 f2bd ddec 2cbf 55fe 83be ed86 973f
000003d0: d1c9 0f3f 564d 99bf 0d94 053f cb08 28bf
000003e0: 55ce 0dbf 3424 473f ac21 8abd 52d0 b43e
000003f0: 0e54 d1bf e977 773f 7d61 1a3f 8600 963f

q2_.2.weight f4 [256, 256]
-0.48280475 -0.3177636 0.23525113 0.1279698 0.54304934 0.16246381 -0.09710628 -0.12359636
-1.1783131 -0.3101552 0.355732 -0.6340916 -1.206603 -0.16805959 -0.14857644 -0.45119205
-0.39958316 -0.5804842 -0.5710813 -0.35139966 -0.9303521 -0.34527266 0.16981868 0.48884487
-0.36695072 0.09073633 0.02002631 -0.88066274 0.48192644 0.34502572 -0.0859383 0.2685316
-0.28809065 -0.094988324 -0.7550787 -1.2731327 -0.11431265 -0.205664 0.08230918 0.23210995
0.036342744 -0.58618146 -1.1541709 -0.45204636 -0.24990508 0.5567049 0.63717455 0.21443138
-0.15490222 -0.7076765 -0.1923665 -0.31778607 0.2708395 -0.23779978 -0.063867986 0.16570999
-0.4390888 0.4715718 -0.13790606 0.019959755 -0.7048724 -0.17659415 -0.4506311 0.21235394
-0.15012237 0.05042811 -0.036011763 0.32760778 -0.12306361 0.06293871 -0.26276323 0.24205558
1.267887 -0.8010856 -0.23524168 0.3832504 0.14281565 0.7735193 -0.24025284 -0.18946259
-0.28095096 -0.61070347 -0.20795347 0.097336374 0.54031134 0.10429572 -0.44677907 -0.35860562
-0.50664914 0.35911828 -0.7139889 0.21615516 0.35533968 -0.4837558 -0.31991905 0.35393623
0.088840894 -0.28126925 -0.5626446 -0.24577713 0.13683811 -0.48054755 -0.25944522 0.31551644
0.44810903 0.05176318 -0.36867267 -0.07193525 0.28537947 -0.9211434 -0.5754357 0.059997045
0.06074335 0.22074568 -0.22302422 -1.4993445 0.5357168 -0.15436901 -0.3180124 -0.32355586
-0.6246029 0.4839465 1.0854596 -0.52206224 0.06525931 -0.32063037 -0.45069215 0.0093550915
0.92618984 1.2298113 0.049847413 0.74363405 0.19538966 0.5015342 0.39024028 0.22646819
0.6351185 -0.08254092 0.028265651 -0.7136233 -0.6787789 0.1747875 -0.18579194 0.479297
0.37085712 -0.23381056 -0.24175742 -0.124768846 -0.051050294 -0.21501888 -0.37973493 0.9694469
0.5185136 0.41128495 -0.6920541 0.517239 0.35611776 -0.117483094 -0.3013198 -0.22362454
0.6778414 -0.2239937 0.3092177 -0.17836472 -0.2680882 0.1490892 -0.6037855 0.08672441
-0.05994693 1.2867899 1.2714891 -0.23518834 0.22958434 0.4760997 0.065821745 0.09101544
-0.21691304 -0.3122826 -1.2087332 -0.0757644 -0.11856203 -0.32225594 0.25762928 -0.28144312
0.11899262 1.4061984 -0.33596244 0.5514615 0.61309916 -0.884035 -0.5452432 0.5610952
0.37101045 0.2941447 -0.10272972 1.0162853 0.30187932 0.0358986 0.50214326 -0.12644668
0.24785654 0.0066471114 -0.19864161 0.5655714 0.24407217 0.057897393 0.9558996 -0.2928184
0.011037188 0.23132032 0.6531903 0.74756455 0.64268756 -0.13789411 -0.5519529 0.99971014
-0.6718448 0.18816622 0.026506392 -0.36856407 0.057608675 0.004491928 -0.01898362 -0.06920514
-0.51297736 -0.10356409 0.4386317 -0.07159817 0.22639245 0.15458845 0.40150887 0.66521126
1.0260856 0.34607103 -0.370753 0.31694257 0.014030872 -0.2669278 -0.1948788 0.2333369
0.31607687 -0.007723827 -0.15078084 0.11156258 0.13257065 -0.021881346 -0.037544023 0.107140005
0.08254935 0.104389034 0.39717007 -0.78482074 -0.90950704 -0.5184281 -0.031960145 -0.2150293
00000000: 2f32 f7be e9b1 a2be ace5 703e 840a 033e
00000010: 4805 0b3f ea5c 263e a8df c6bd 1720 fdbd
00000020: f7d2 96bf aacc 9ebe 8122 b63e d453 22bf
00000030: f871 9abf d017 2cbe 6c24 18be a502 e7be
00000040: 2a96 ccbe 9d9a 14bf 6232 12bf a8ea b3be
00000050: 8e2b 6ebf 94c7 b0be f3e4 2d3e e049 fa3e
00000060: f7e0 bbbe f8d3 b93d 370e a43c 1d73 61bf
00000070: 10bf f63e 36a7 b03e 6b00 b0bd f97c 893e
00000080: 9e80 93be 3d89 c2bd d64c 41bf 03f6 a2bf
00000090: c01c eabd 9599 52be b791 a83d 3bae 6d3e
000000a0: 21dc 143d fd0f 16bf dfbb 93bf 9f72 e7be
000000b0: 1ee7 7fbe 3684 0e3f df1d 233f e693 5b3e
000000c0: b09e 1ebe 492a 35bf b9fb 44be dbb4 a2be
000000d0: 7aab 8a3e c981 73be 38cd 82bd e1af 293e
000000e0: 3fd0 e0be dc71 f13e 3f37 0dbe a482 a33c
000000f0: 8572 34bf 19d5 34be 1fb9 e6be 5073 593e
00000100: aeb9 19be b58d 4e3d 1281 13bd 35bc a73e
00000110: c608 fcbd 03e6 803d e788 86be 6bdd 773e
00000120: 1f4a a23f f213 4dbf 32e3 70be 6539 c43e
00000130: 443e 123e 5c05 463f d704 76be 7b02 42be
00000140: ced8 8fbe 1057 1cbf c1f1 54be 4b58 c73d
00000150: d851 0a3f ff98 d53d 3ac0 e4be 289b b7be
00000160: c2b3 01bf 5ade b73e fac7 36bf c757 5d3e
00000170: 15ef b53e d7ae f7be 6ecc a3be 2137 b53e
00000180: 37f2 b53d 8602 90be 7a09 10bf 00ad 7bbe
00000190: 4a1f 0c3e 540a f6be 01d6 84be 5f8b a13e
000001a0: 8c6e e53e a105 543d aac2 bcbe ca52 93bd
000001b0: 421d 923e 0ed0 6bbf c14f 13bf 76bf 753d
000001c0: 05ce 783d 280b 623e 7660 64be 85ea bfbf
000001d0: bc24 093f e912 1ebe 85d2 a2be 1da9 a5be
000001e0: fae5 1fbf d6c7 f73e 57f0 8a3f dfa5 05bf
000001f0: aca6 853d aa29 a4be 1fc1 e6be 1946 193c
00000200: c71a 6d3f 756a 9d3f cd2c 4c3d cd5e 3e3f
00000210: 3a14 483e 8c64 003f 93cd c73e 47e7 673e
00000220: 2097 223f 370b a9bd 5e8d e73c 04b0 36bf
00000230: 74c4 2dbf 7ffb 323e 3e40 3ebe 6b66 f53e
00000240: fce0 bd3e 096c 6fbe 428f 77be cf86 ffbd
00000250: 1d1a 51bd e92d 5cbe 9e6c c2be ac2d 783f
00000260: 4fbd 043f f193 d23e 752a 31bf c669 043f
00000270: 1155 b63e fa9a f0bd 9746 9abe d5fd 64be
00000280: 0487 2d3f 9b5e 65be c851 9e3e 3ea5 36be
00000290: db42 89be d7aa 183e b091 1abf 919c b13d
000002a0: e98a 75bd 88b5 a43f 28c0 a23f 36d5 70be
000002b0: 2818 6b3e 57c3 f33e 8dcd 863d 4e66 ba3d
000002c0: 741e 5ebe 81e3 9fbe c5b7 9abf 5e2a 9bbd
000002d0: a6d0 f2bd bbfe a4be fce7 833e 5019 90be
000002e0: 67b2 f33d 4ffe b33f 4503 acbe 952c 0d3f
000002f0: 11f4 1c3f 1e50 62bf 0f95 0bbf efa3 0f3f
00000300: 15f5 bd3e 229a 963e f663 d2bd a315 823f
00000310: ed8f 9a3e 690a 133d 768c 003f 3d7b 01be
00000320: 1bce 7d3e 03d0 d93b b568 4bbe 4ac9 103f
00000330: 0eee 793e d125 6d3d d6b5 743f 4bec 95be
00000340: 52d5 343c 3cdf 6c3e 7b37 273f 6460 3f3f
00000350: 2c87 243f 1d34 0dbe c94c 0dbf 01ed 7f3f
00000360: 05fe 2bbf a5ae 403e ef23 d93c 6eb4 bcbe
00000370: 13f7 6b3d 0631 933b 8983 9bbc 6dbb 8dbd
00000380: 7c52 03bf 6919 d4bd 5694 e03e 10a2 92bd
00000390: 6cd3 673e 6f4c 1e3e 9292 cd3e 494b 2a3f
000003a0: c656 833f 3930 b13e 56d3 bdbe 4c46 a23e
000003b0: bee1 653c c3aa 88be 4f8e 47be deef 6e3e
000003c0: d4d4 a13e 2818 fdbb 4b66 1abe ec7a e43d
000003d0: 9ac0 073e 8240 b3bc c3c7 19bd 386c db3d
000003e0: a20f a93d ebc9 d53d e059 cb3e 03ea 48bf
000003f0: 74d5 68bf b4b7 04bf a4e8 02bd a430 5cbe
