online_weights/spot_walker2d_medium/critic_s1000000.pth (torch, 581681 bytes, 10 tensors)

q1_.0.weight f4 [256, 23]
000000 3b 04 90 3e 87 4c f0 3e 3a 8d 59 3f 09 d2 9f 3d
       0.28128228 0.46933386 0.8498112 0.07803733
000010 f4 27 a4 be 0c d4 11 be 12 02 a0 be 71 13 25 bf
       -0.32061732 -0.14241046 -0.3125158 -0.6448279
000020 06 7c 2a 3f 62 91 42 be 83 e8 c5 bd b1 dd f5 3e
       0.66595495 -0.19000772 -0.09663489 0.480207
000030 aa cc b2 bd 21 a6 c8 3b 5e 9d 9c be df ef ae be
       -0.08730443 0.0061233197 -0.30588812 -0.34167382
000040 eb 8f c3 3d fb 88 34 3e 8c 54 23 be 4c 74 c4 3d
       0.095489345 0.17630379 -0.15950221 0.09592494
000050 43 f5 0e 3e 1e 75 b0 bd 17 7c ab 3b 03 61 38 bf
       0.13960747 -0.08616088 0.0052332985 -0.7202303
000060 5b bc a6 be 4c ab 28 3e 91 24 7e 3e 64 0e 22 bf
       -0.3256558 0.16471595 0.24818636 -0.6330321
000070 b4 58 4c be 71 d5 79 be 6c 2f 15 bf 0e 9a 82 3f
       -0.19955713 -0.24397828 -0.58275485 1.0203264
000080 50 30 73 bf 8a b8 a1 bf 30 ce ec 3e 82 a6 3d be
       -0.94995594 -1.2634442 0.4625106 -0.18520549
000090 02 24 2f be 64 69 b9 3e c4 cb ac 3d 6b f0 10 be
       -0.1710358 0.3621322 0.08437303 -0.14154212
0000a0 d9 b7 83 3d a0 e4 71 be 10 5a 51 be 1d da 18 be
       0.064315505 -0.2362237 -0.20444512 -0.14926954
0000b0 48 9f 00 3c 1f 68 59 bc a6 fb 66 3e f9 02 e8 be
       0.007850476 -0.013269453 0.22556934 -0.45314768
0000c0 c7 51 9c be ae 2f 96 3f 58 4e c6 3f 3c dc 08 3f
       -0.3053114 1.1733301 1.5492659 0.5346105
0000d0 fc de 49 be 13 09 92 be db bf 91 3e 11 8d 9e 3d
       -0.19713968 -0.28522548 0.28466687 0.0774175
0000e0 47 85 11 3e aa 30 7c 3e 41 66 7b 3e 17 29 37 3e
       0.14210998 0.24627939 0.24550726 0.17886768
0000f0 5c d2 33 be 05 4e 3d be f3 de 2d bd ca ea ce 3d
       -0.17560714 -0.18486793 -0.04244895 0.10103376
000100 a1 8a 69 3e 40 20 35 3d 9e 52 e3 3d d8 2c e6 3c
       0.22806789 0.04422021 0.11099742 0.028097555
000110 b7 0a 02 3e 1e e3 49 3e f2 fb 7e bf 3f 2d 66 3f
       0.126994 0.19715545 -0.9960319 0.8991279
000120 41 9b 45 3f 4c 49 3e bd 89 6e 8d be 3e 93 3d be
       0.77190024 -0.04645662 -0.27623394 -0.185132
000130 57 28 39 bd 7e 39 b2 bd 9a e6 80 be 09 70 95 bd
       -0.045204487 -0.08702372 -0.25175935 -0.0729676
000140 4b a4 b3 bc ec e5 90 3e 53 75 c3 3d d9 0e 23 bc
       -0.021928927 0.28300416 0.09543862 -0.00995227
000150 26 cd 7f 3d c5 8b 28 3c 34 1b c7 3a cd de 8b bd
       0.062451504 0.01028723 0.0015190602 -0.06829605
000160 28 0d 7f bd c9 b4 8d 3d f5 27 e2 bd 9a b8 bc bd
       -0.062268406 0.06919248 -0.110427774 -0.092148975
000170 48 f6 d4 be 6b 7f 7e 3e 99 6b 02 3e 9f 98 29 3f
       -0.41594148 0.24853294 0.12736358 0.66248506
000180 45 7a 8e 3e e2 8b 48 be 25 e8 20 bf a9 41 5f bf
       0.2782766 -0.19584611 -0.62854224 -0.87209564
000190 cc 40 ad 3e 62 fe c9 be d5 27 fe be 91 09 b4 3e
       0.338385 -0.3945189 -0.49639764 0.3516355
0001a0 2d 70 85 3e f6 90 30 3e 08 4e d7 3b da 08 49 be
       0.26062146 0.17242798 0.0065705813 -0.19632283
0001b0 5b ce e0 bd 63 67 6f bd 70 14 c5 3d ec 8b be 3d
       -0.10976859 -0.058448207 0.09623039 0.09304032
0001c0 7f ba 6a 3d 11 d4 6f be 46 68 e3 bc fb 9c 9f bd
       0.057306763 -0.2342074 -0.027759682 -0.077936135
0001d0 30 e9 a2 be 60 63 f8 be db 95 17 bf 29 15 81 3d
       -0.31818533 -0.48513317 -0.59213036 0.06302864
0001e0 91 38 94 be 3b 35 29 be 2c 17 1b 3e 21 48 7b 3e
       -0.28949407 -0.16524212 0.15145558 0.24539234
0001f0 16 05 e6 3d eb 39 75 bf 72 fa 5d be 22 8d 9c bd
       0.11231439 -0.957915 -0.21677569 -0.076441064
000200 14 06 54 3c 26 42 50 bd 4d c8 0c 3f 84 e5 aa 3e
       0.012940902 -0.050844334 0.54993135 0.33378232
000210 d8 92 d6 3d 61 b9 d0 bd 75 25 8d bd 4d 4c e0 bb
       0.10477227 -0.10191608 -0.0689191 -0.0068450333
000220 b1 02 34 3d 27 55 95 3e d6 75 65 3e 65 84 21 3f
       0.04394788 0.2916653 0.22408232 0.63092643
000230 45 99 b2 be 92 13 e2 bd 0b 36 ba bd ea 58 55 bd
       -0.3488256 -0.11038889 -0.09092339 -0.05208675
000240 e6 9f 46 bd 18 1d 91 3d 8d 9e a0 3e 83 68 21 be
       -0.048492335 0.07085627 0.31370965 -0.15762524
000250 f5 dc 5a 3f ff d3 81 bd b4 04 07 be f2 04 0e 3c
       0.85493404 -0.06339263 -0.13185388 0.008668171
000260 15 1d 6b bf aa 18 33 bf cc e6 3a 3f b1 b6 27 3e
       -0.9184125 -0.6995951 0.7300842 0.16378285
000270 4f c2 0f 3d 14 1b bb b9 13 6c 3f 3d 9c b8 35 bd
       0.035097416 -0.00035687594 0.046733927 -0.04436551
000280 9c d1 7e 3d 57 98 05 bf 8e 68 cc bf f0 0f cf 3f
       0.062211618 -0.5218558 -1.5969408 1.6176739
000290 ca 0f 07 40 7a d7 eb bd 29 61 d9 3c fc d4 2e 3d
       2.1103387 -0.11515708 0.026535587 0.042683586
0002a0 de c4 bc 3d 5c 46 d7 bd 60 86 c4 bd bc 64 4d be
       0.09217237 -0.10511467 -0.095959425 -0.20057958
0002b0 ba 55 27 3e 62 4b 82 3e c3 2f af bd 06 32 79 3d
       0.16341296 0.25448138 -0.08554032 0.06083872
0002c0 19 80 b0 3c 9b 7a 12 bb d9 fd 4b 3c dc cf 1b 3d
       0.021545457 -0.002235091 0.012450659 0.038040027
0002d0 6b 1b c3 bd 27 0f fc 3b d2 06 85 bc 32 5b 5a 3d
       -0.09526714 0.007692236 -0.016238604 0.053309627
0002e0 3b 83 3c bd 61 60 f8 be 41 4f 65 3e e3 65 9f bb
       -0.04602359 -0.4851103 0.22393514 -0.0048644408
0002f0 d3 cb 59 be e3 c0 7a be c4 e2 be be 3e 1c 90 3e
       -0.21269159 -0.24487643 -0.37282383 0.28146547
000300 93 7e 9f be 64 2b 74 be 10 3c 99 3e d2 dd 12 bd
       -0.31151256 -0.23844677 0.29928637 -0.035856076
000310 14 15 4d bc 72 60 25 3d a1 65 5d be 98 ea a1 be
       -0.012517232 0.04037518 -0.216208 -0.31624293
000320 d8 fc ca bc a3 a9 b7 bd be 49 73 bd a2 85 a2 bd
       -0.024778768 -0.089679025 -0.059396498 -0.07935645
000330 71 76 18 3d f1 cd 2f be 44 43 ba bc 6f 5e 8c 3d
       0.03722233 -0.17168404 -0.022737153 0.06853949
000340 f4 9d fc 3e 52 71 99 bf 68 74 24 3e aa 88 5f 3e
       0.4933926 -1.1987708 0.1606003 0.21829477
000350 ac 0c ac 3e d9 73 88 3d 7f e8 ce 3e 7e e2 10 3e
       0.33603418 0.06662721 0.40411755 0.141489
000360 b9 b2 76 3f da ed bc bd 90 43 34 be 89 a6 5c 3f
       0.9636646 -0.09225054 -0.17603898 0.8619161
000370 ef 30 21 3e 21 0b ab 3d f4 33 09 3d c0 79 b1 3d
       0.15741323 0.08351732 0.033496812 0.086658
000380 ed 87 15 be 89 1a e1 3d f1 f5 af 3e 66 39 1a be
       -0.14602633 0.10991389 0.34367326 -0.15060958
000390 1d 5c da bd 6f 06 13 be 80 87 90 3b 13 bd 8b bf
       -0.106621005 -0.14357923 0.004410684 -1.0917076
0003a0 fa b6 c5 bc e8 39 2f 3f e9 cd c1 3e b6 1a 1d 3e
       -0.024135102 0.6844773 0.3785241 0.1534222
0003b0 fd ba 5d bd 81 b9 7d 3e 43 31 5e bf 6d 27 41 3f
       -0.054133404 0.24777795 -0.8679392 0.75450784
0003c0 2b 52 c5 be da 69 c3 3e 09 34 44 3e 1c 70 e3 3d
       -0.38539252 0.38166696 0.19160475 0.111053675
0003d0 45 34 91 bc 21 89 b6 3e 92 11 68 3e a0 0e 40 bc
       -0.01772512 0.35651496 0.22662953 -0.011722237
0003e0 6e df 1e 3e 4a 0e 57 bc b2 77 f5 bd 13 02 ac bd
       0.15514919 -0.013125965 -0.11985721 -0.08398833
0003f0 30 c2 f5 bd d5 df 74 be c0 63 9d be 31 c4 25 3f
       -0.11999929 -0.2391351 -0.30740166 0.6475249

q1_.0.bias f4 [256]
000000 07 67 73 3e 9b f2 8c bf 21 8e 24 bf 6b 01 d0 bf
       0.2376977 -1.1011537 -0.6427937 -1.6250433
000010 35 86 f6 3e ae 18 d3 bf 1e 72 a8 3e 93 69 92 bf
       0.48149267 -1.6491907 0.32899565 -1.1438469
000020 e9 99 03 3f bf 4b c1 bf 5e 45 84 bf b1 90 8f 3f
       0.51406723 -1.5101241 -1.0333669 1.1216031
000030 c8 b3 45 3f 6e 8f 71 3e e5 60 a9 bf e3 14 44 3f
       0.7722745 0.2358987 -1.3232695 0.7659437
000040 ab a0 fe 3d 86 93 5f 3e 11 f1 c3 be 1d 63 03 3f
       0.12432989 0.2183362 -0.38269857 0.5132311
000050 07 99 ec 3e bf 20 31 be 7d b2 7f bf a7 35 05 3f
       0.462105 -0.17297648 -0.99881727 0.5203499
000060 a9 7d c1 3e c3 c2 cd bc 42 be c8 bf 81 ea 7e 3f
       0.37791184 -0.025117284 -1.5683062 0.99576575
000070 b0 ea 83 bf 4b bf de 3e 53 09 51 bd f1 ef a3 3e
       -1.0305996 0.4350532 -0.051034283 0.32018998
000080 fc b4 e8 be 05 50 77 3f 90 24 c1 3f f6 2d 12 3f
       -0.4545058 0.96606475 1.5089283 0.5710138
000090 cb 30 47 be 40 38 f4 bf 65 a2 a8 be 76 60 ca 3d
       -0.19452207 -1.9079666 -0.32936397 0.0988168
0000a0 0b 27 1f 3f 76 10 b6 be ec 07 2a c0 71 75 51 3f
       0.6216895 -0.35559434 -2.6567335 0.81819826
0000b0 d4 1f 48 3f a7 2a f7 3e de cc 33 3e 27 92 75 3e
       0.78173566 0.4827473 0.1755862 0.23981534
0000c0 dc e7 8e be 2a 5c f5 bf 02 9c 3a 3f 4f 77 a0 bf
       -0.2791127 -1.9168751 0.728943 -1.253641
0000d0 2b a8 a6 3f 46 54 0d c0 05 79 08 bf 16 9f 3d be
       1.3020071 -2.2082686 -0.5330966 -0.18517718
0000e0 72 44 b6 bd a5 13 34 bf 5a 34 1b bf 63 a7 ad 3d
       -0.08899774 -0.70342475 -0.6062676 0.08479192
0000f0 34 9e 77 3d 59 51 81 3d bd f8 57 bf 71 06 d2 3e
       0.06045361 0.06314344 -0.8436392 0.4102054
000100 a9 46 f0 bd 62 30 5d c0 86 83 0c be 4b 36 ae bf
       -0.11732227 -3.456078 -0.13722047 -1.3610319
000110 68 9c 3f c0 ef 8c a4 bf 23 d4 2e bf 03 51 61 bd
       -2.9939213 -1.285551 -0.68292445 -0.0550089
000120 1e 87 8d bf 1d c3 95 bd 5c 8d 40 bf 68 74 02 3f
       -1.105686 -0.073126055 -0.752157 0.5095887
000130 e7 f0 2a 3e 05 d3 7c bf 70 4d b4 3c 14 f7 c7 bf
       0.1669346 -0.9875949 0.022009581 -1.5622277
000140 26 30 bf bf ea 7d 40 be fc 8a b0 3f 50 f4 4d bf
       -1.4936569 -0.18798032 1.3792415 -0.80450916
000150 ed 76 06 c0 4e f2 60 3f e1 af 40 bf 1f 9f 81 3d
       -2.1010087 0.8786973 -0.7526837 0.06329178
000160 63 df 8b 3e 69 3c 16 3e 0b f9 61 bf 87 75 85 3f
       0.27318868 0.14671482 -0.88270634 1.0426491
000170 9c 7a 17 bf b4 e4 80 bf 5a 19 c3 bf e7 78 83 be
       -0.5917146 -1.0069795 -1.5242112 -0.2567818
000180 77 3a 0d bf 25 b6 02 bf d1 f4 93 3b 2f 93 da 3e
       -0.55167335 -0.5105918 0.0045152684 0.42690417
000190 dc ee ef 3e 18 20 65 3f ec 69 56 3e cd 19 5b 3a
       0.46861923 0.89502096 0.20938843 0.00083580316
0001a0 e5 65 bc 3e 5b 3d 8c bd a2 ce 9d 3f 42 b1 e7 3e
       0.3679649 -0.0684764 1.2328684 0.45252424
0001b0 ac 61 6d be 1d a4 41 bf f2 8c 4f bd 85 76 5e bf
       -0.2318179 -0.7564104 -0.050671525 -0.86899596
0001c0 fa e3 6b be 8b 66 66 3f 55 c0 95 3f dd 5d 07 bf
       -0.23036185 0.9000022 1.169932 -0.528776
0001d0 66 81 00 bf 52 78 82 3f f9 f2 33 be 13 8c d0 bd
       -0.50197446 1.0192969 -0.17573155 -0.10182967
0001e0 ec 38 b5 3f d6 9c 14 3f e2 a2 4d 3f 5c cf 41 bf
       1.4157996 0.5805181 0.80326664 -0.7570703
0001f0 b5 97 05 be 87 1e 6b bf e8 d1 57 be 10 27 93 3f
       -0.13046153 -0.91843456 -0.21076167 1.1496296
000200 b8 99 d8 3e a4 87 04 bf 16 82 07 c0 d1 04 bd 3e
       0.42304778 -0.5176947 -2.1173148 0.36917737
000210 0b 68 9c bf 67 b6 48 bf 92 6e 23 3f a0 66 7e bf
       -1.2219251 -0.78403324 0.6384059 -0.99375343
000220 11 ec b3 3e d2 bd 73 bf fe 10 70 3f 07 59 08 3f
       0.35141042 -0.9521152 0.9377593 0.53260845
000230 d3 f0 db 3f fc a1 20 be 04 a3 4d 3e d9 63 cb 3e
       1.7182869 -0.15686792 0.20081717 0.39724615
000240 01 21 0d bf fe 69 64 3f 48 0e 9f be 2b c3 c5 bf
       -0.55128485 0.8922423 -0.31065583 -1.5450186
000250 ca 72 06 3f b6 b2 60 bf 7d 84 1c bf 0c ed 81 3f
       0.52518904 -0.8777269 -0.6113966 1.0150466
000260 70 4c 85 be 6a 74 28 3f 34 8e 80 3e c0 20 8a bf
       -0.2603488 0.65802634 0.25108492 -1.0791245
000270 b7 a2 5c be 60 cf cf bf 32 a3 da bf 54 ad 6c bf
       -0.21546446 -1.6235161 -1.7081053 -0.9245198
000280 8c 11 a3 be b7 d0 e9 3e e5 ff 2d 3f 04 de 32 bf
       -0.31849325 0.4566705 0.6796859 -0.6987002
000290 81 fa ff bd 57 25 0f 3e 28 47 07 c0 a9 de a2 bf
       -0.12498952 0.13979088 -2.113718 -1.27242
0002a0 7e 8d cb 3f 73 48 2e bf ff 48 26 3f 92 e3 9c bf
       1.5902555 -0.680793 0.64955133 -1.2256949
0002b0 9b 0f 2d bf ac c8 f7 3e bd 04 41 3e 83 59 63 3f
       -0.6760194 0.48395288 0.18849464 0.8880846
0002c0 5f 7e 24 3d 41 d8 87 3f 00 28 45 bf 7d 07 65 bf
       0.04015958 1.061287 -0.7701416 -0.8946455
0002d0 3d bd bc 3e f6 c4 7a 3f a4 61 b9 bf fe 6a 3f bf
       0.36863127 0.9795679 -1.4482923 -0.7477263
0002e0 40 5f f8 be 57 c6 55 3f 2d aa 74 3f e0 f8 1a bf
       -0.4851017 0.8350577 0.9557217 -0.60536003
0002f0 9c 62 89 3f be 80 90 3f c5 a4 e2 bf c9 f5 e0 be
       1.0733218 1.1289289 -1.7706534 -0.4393752
000300 f9 2f ff bf c9 dc ad bf f7 c8 60 3f d8 ab 69 bf
       -1.9936515 -1.3583003 0.8780665 -0.9127784
000310 3c 35 aa 3d a9 03 92 be e5 f6 67 bf 54 a1 ba be
       0.08310935 -0.28518417 -0.90611106 -0.3645121
000320 f4 23 b2 3e 00 30 1e c0 f9 c0 ad 3e c4 4c 16 3e
       0.34793055 -2.4716797 0.3393629 0.14677721
000330 0f 04 64 bf 05 2b 7b bf 57 2c 39 3f e6 d6 60 3f
       -0.8906869 -0.9811252 0.7233328 0.8782791
000340 40 23 c0 bf f6 ba 20 bf 3e bb cc bf a7 3f 64 bf
       -1.5010757 -0.6278528 -1.5994642 -0.89159626
000350 6d a7 88 3f 62 80 f7 3e 56 99 8f 3e b0 74 49 bf
       1.0676094 0.48340136 0.28046674 -0.78693676
000360 0e c7 7a bf 97 8a d1 bf 52 35 8a bf 83 a4 84 bf
       -0.97959983 -1.6370419 -1.0797522 -1.0362705
000370 85 d6 8c bf 23 ae 03 be 7f 7b 6d 3f 0d a3 bb bf
       -1.1002966 -0.12859397 0.92766565 -1.4659134
000380 0f 02 07 c0 67 11 ce 3e 15 a5 b0 bf 49 f5 e3 be
       -2.1095006 0.40247652 -1.3800379 -0.44523075
000390 50 84 e4 bf 7e 58 91 bf 6d b4 05 3f a7 47 a2 bf
       -1.7852879 -1.1355131 0.5222843 -1.2678117
0003a0 72 99 01 bf a2 a9 dd bf 9d 89 a8 bf 6e c1 8f bf
       -0.50624764 -1.7317393 -1.3166996 -1.1230905
0003b0 7e 14 52 3f e5 60 9a 3e 0e 0a a9 3f 5b 13 1a bf
       0.8206252 0.3015205 1.3206193 -0.60185784
0003c0 93 2d cd be ec 06 a8 bf 19 32 20 be 51 6e 9c be
       -0.40073833 -1.3127112 -0.1564411 -0.30552915
0003d0 a1 29 e7 be aa 82 9a bf 15 7e 90 3e c8 6e 19 3f
       -0.45148948 -1.2071126 0.28221193 0.59934664
0003e0 96 0b a3 3e 8d ea 44 3e 77 cf 39 3e 03 c8 93 be
       0.31844777 0.19230099 0.18145548 -0.28863534
0003f0 1d f2 33 be 02 25 09 3f 35 27 37 bf a9 df 2a bf
       -0.17572828 0.53572094 -0.715442 -0.6674753

q1_.2.weight f4 [256, 256]
000000 31 7d c2 3d e2 86 bb 3e 07 1f 3a bd 18 9c 24 3e
       0.094965346 0.36626345 -0.045439746 0.1607517
000010 86 53 1a 3d ad cc c4 bd a4 c4 10 3f 8f 09 c2 bd
       0.03767731 -0.09609351 0.5655005 -0.094744794
000020 71 a4 69 bd cc 3b 4c 3d 56 9e e9 3d 35 e7 9d 3d
       -0.05704159 0.049861714 0.11407153 0.07710115
000030 2d 19 ff 3b db 90 86 3e cd d4 3c 3f 9d 01 86 3d
       0.0077849836 0.2628239 0.7376221 0.065432765
000040 63 3a 8c be cd 31 a0 3e 19 f4 8c 3e 13 67 e9 be
       -0.27388296 0.31287995 0.27529982 -0.45586452
000050 70 c2 1a 3e c2 b9 7a be e1 f0 60 bd c7 ed 92 3e
       0.15113235 -0.24484923 -0.05491722 0.28697035
000060 61 cc 5c bd be 0d ea bd 0c 89 ca 3e 49 fe d0 3d
       -0.05390585 -0.11428402 0.39557683 0.10204751
000070 1d ad 90 be 22 64 43 3e 68 30 15 be 4b 99 a1 be
       -0.28257075 0.19081166 -0.14569247 -0.31562266
000080 88 6e 58 bd 44 2a 09 3d ef e3 7b bd 89 4a a3 be
       -0.052839786 0.033487573 -0.06149667 -0.31892803
000090 12 e2 84 3e a7 24 15 3e 6e 41 b2 bd 51 91 9f 3e
       0.25953728 0.14564763 -0.08703886 0.31165555
0000a0 bc 7a 21 be 8b 4d f3 bd df 1f 6c 3f dc 1a e1 3c
       -0.15769476 -0.118800245 0.9223613 0.027478628
0000b0 ea a9 87 be 68 f6 28 be e2 d1 1a be 6b 02 da 3a
       -0.26496822 -0.16500247 -0.15119126 0.0016632801
0000c0 62 c6 34 3e 11 9b 68 bd 84 c4 e5 3e 92 b5 94 bf
       0.17653802 -0.056788508 0.44876492 -1.1617911
0000d0 c5 5d dc bb 9c 20 86 3e 1e 28 86 3e 6f 49 91 be
       -0.0067250454 0.26196754 0.26202482 -0.28376338
0000e0 eb 0e 67 3e 21 f8 c1 be 4b 03 ec 3e 6d c5 47 be
       0.22564285 -0.3788462 0.46096262 -0.19508906
0000f0 68 21 9d be 63 1d a3 be c3 4d 99 3d f5 03 0a 3d
       -0.3068955 -0.31858358 0.07485535 0.03369518
000100 bc 2f 4e be 5b 64 68 3e 93 79 68 bd fe d6 8b be
       -0.20135397 0.22694533 -0.056756567 -0.27312464
000110 b1 c9 9c 3e 81 9f 79 3f 20 ac 3f 3d 8d ce 9c be
       0.30622628 0.9750901 0.04679501 -0.30626336
000120 26 82 89 3d 26 26 b7 3e 59 a0 ae be 12 17 83 be
       0.06714277 0.35771292 -0.3410671 -0.2560354
000130 1b d2 bf be d7 f6 cc be 2e d1 77 3e ff 13 d8 3e
       -0.37464985 -0.40032074 0.2420089 0.42202756
000140 a1 ad 61 bd 8c 9a 4b 3e 82 dc 8d 3e a3 31 8e 3e
       -0.055097226 0.19883174 0.27707297 0.27772245
000150 cd 9b ed bd f3 af 0c 3e d3 6f f9 3c e4 48 62 be
       -0.11601982 0.13738994 0.03044883 -0.22098118
000160 53 5c 87 3e 45 bb b7 be e8 6b 27 be b3 f1 56 be
       0.26437625 -0.35885063 -0.16349757 -0.20990638
000170 88 7e 8d bd 05 8e cc 3d f0 a7 9d 3e 4a 6f 76 3e
       -0.069088995 0.099880256 0.3079219 0.24065891
000180 a0 93 bd bd cd 03 56 be 8c 52 26 bf 7b 69 74 be
       -0.09256673 -0.20899887 -0.64969707 -0.23868363
000190 55 3f 4f be c6 28 22 3e 87 44 f1 bd 29 19 4d be
       -0.20239003 0.15835866 -0.11780649 -0.20029129
0001a0 25 a1 6a be bd 45 88 bd 61 75 47 3d 42 10 d6 be
       -0.22913034 -0.066539265 0.048695926 -0.4180928
0001b0 31 06 0f 3e d4 25 22 3d f8 07 09 3e fa 55 60 3e
       0.13967206 0.039586857 0.13381946 0.21907797
0001c0 0f 94 32 be 90 c6 ab bd 31 81 2b 3d f2 5e e7 be
       -0.17439292 -0.08387482 0.041871253 -0.45189625
0001d0 00 b2 51 be b9 13 40 bc b4 ea 2a be 22 69 58 3f
       -0.20478058 -0.011723452 -0.16691095 0.8453542
0001e0 c8 19 e4 3d 82 64 c0 be d4 5a 10 3d 4b 76 97 3d
       0.1113773 -0.3757668 0.03524287 0.073956095
0001f0 e6 a1 8a 3d 80 50 53 3e ff 0c 1b 3f 6c e3 6b 3e
       0.06769161 0.20636177 0.60566705 0.23035973
000200 6e 4b 56 3d bc cc 82 3e 53 0d ec 3e 75 9c f8 be
       0.05231803 0.25546825 0.46103916 -0.48556867
000210 9f 6b c4 bc 26 f3 d7 3d 36 3e ac 3e 3e a7 64 3e
       -0.023977099 0.10544424 0.33641213 0.22329423
000220 18 97 a5 bd fb de 96 3d 93 36 8f 3e 23 15 96 be
       -0.080854595 0.07366749 0.27971324 -0.29313
000230 19 01 f2 3d e5 34 16 3e e3 15 2e bf 52 22 8c 3d
       0.118166156 0.14668615 -0.68002146 0.068424836
000240 79 32 b4 be c6 e3 5a 3d 19 70 a2 3e 80 03 73 bd
       -0.35194758 0.053439878 0.3172615 -0.05932951
000250 87 e6 cb 3d 71 a6 90 3e 5b cc 46 be a6 01 16 bd
       0.09956079 0.28251985 -0.19413893 -0.036622666
000260 5a 79 12 bf 30 94 a5 be 92 6a 82 3d f1 6f d9 be
       -0.5721642 -0.3233962 0.06367983 -0.42468217
000270 5a b0 9c 3d fb 19 65 3f b0 e3 5a be af a3 ce 3d
       0.07650824 0.8949277 -0.21375918 0.10089814
000280 fe 23 bd 3e f6 94 81 bd 68 94 ff bd dd 4d ec 3e
       0.36941522 -0.0632724 -0.12479478 0.46153155
000290 ef 69 05 3e 4c c4 09 be 5a f8 df be f6 1c 86 be
       0.13028692 -0.13453788 -0.43744165 -0.2619397
0002a0 4c 2b 19 3e 13 6b 5f bd c1 0e cc 3e a4 fa 27 3f
       0.14957923 -0.054545473 0.39855006 0.6561682
0002b0 b2 df 12 be 6e fc 93 3c d8 fa c9 3c be e6 8c 3d
       -0.14343145 0.018064704 0.024655744 0.06879948
0002c0 15 35 96 bd 7c b3 1d 3e 25 1c ef 3e bb 1e 64 be
       -0.07334343 0.15400499 0.4670116 -0.22277348
0002d0 f8 9a c0 3e c6 25 09 bf 01 d0 12 3d 81 6e ba bd
       0.37618232 -0.5357326 0.0358429 -0.09103108
0002e0 c3 ee e2 bd 3b 17 44 be c8 36 98 bd 64 bb b8 be
       -0.110806964 -0.19149487 -0.07432324 -0.36080468
0002f0 2a 45 46 3e bd b2 22 bd 43 81 05 bf 09 7b 53 3e
       0.19362321 -0.03972124 -0.5215036 0.20652403
000300 67 5c 55 3e 30 f9 ae 3e a8 6c ae be 13 e1 b9 bf
       0.2083603 0.3417449 -0.34067273 -1.4521812
000310 96 14 17 3e 28 a7 8c be d1 30 37 3d 9b 35 88 3d
       0.14753947 -0.2747128 0.04472429 0.066508494
000320 b6 1a c4 bd 2c 0a 5d be 96 ec 7e 3d 13 2e 8b be
       -0.09575407 -0.21585912 0.062237345 -0.2718359
000330 d3 2c dd bc 9c 99 80 bd 05 fa 8f 3e ac 53 f0 3a
       -0.026998913 -0.06279299 0.28120437 0.0018335483
000340 c3 a7 0d bf a8 b3 58 3d 5e 44 0c 3f 76 fb b1 3d
       -0.5533411 0.05290571 0.5479182 0.086905405
000350 9a 74 ff 3d 93 87 19 3f 97 20 84 be 92 18 42 bd
       0.12473412 0.59972495 -0.25806114 -0.047386713
000360 c1 25 f7 3e 69 91 50 3a d4 ac a2 bf e0 f7 03 bd
       0.4827099 0.0007956238 -1.2708993 -0.032218814
000370 fc 1a 28 be 10 7b 93 3e 40 7b 00 3e 89 22 ae be
       -0.16416544 0.28804827 0.12547016 -0.34010723
000380 1a eb a1 be 56 f9 fc be 70 ac 73 3f 53 aa 5f 3e
       -0.3162468 -0.49408978 0.95184994 0.21842317
000390 5f 9c 44 3e ea 88 7d 3e 5f 36 89 3e 1f 68 5e 3d
       0.19200276 0.2475926 0.26799294 0.054298516
0003a0 4e f0 eb 3e e8 53 c7 3e 6b ff af 3e 7d 31 62 bd
       0.46081775 0.38931203 0.34374556 -0.055222977
0003b0 4f e6 16 3e 71 0e ea bc 36 7d 45 bd b8 84 8c bc
       0.14736293 -0.02857134 -0.048215114 -0.017153129
0003c0 48 48 8a 3e 05 53 b6 be bb 43 70 3e 2b 72 f1 bb
       0.2700827 -0.35610214 0.23463337 -0.007368346
0003d0 3f 9b 8a 3e 0e 0b 81 3e b5 8b 2f be c5 b9 01 be
       0.27071568 0.25203747 -0.17143138 -0.12668522
0003e0 14 6c 6c be 5a 4b 03 be be 59 be 3e e8 61 98 be
       -0.23088104 -0.12821713 0.37177843 -0.29762197
0003f0 a5 b6 2e bd a8 ac c1 bb 41 95 ef 3e 3f 65 50 3d
       -0.042654652 -0.005910475 0.4679356 0.050877806

q1_.2.bias f4 [256]
000000 77 17 13 3f e2 ee 86 3e 14 f5 ea 3e 2a ac 22 3f
       0.5745768 0.26354128 0.45890105 0.6354395
000010 3e c0 3e bd de a5 27 bf 88 0b 2b bf 3a 4a e9 3e
       -0.046570055 -0.6548747 -0.6681447 0.45564443
000020 3a 13 09 3f 4b a7 07 3f ed b6 1e 3d e6 1d ff bd
       0.5354496 0.52989644 0.03874867 -0.124568745
000030 b0 ff 32 3f 76 20 04 3e f5 93 dd bc 26 a7 2b 3e
       0.699214 0.12903008 -0.02704809 0.16762981
000040 0c 2d ca 3e 00 b1 7e 3f 6b ed fc be 23 0f 34 be
       0.39487493 0.9948883 -0.49399886 -0.17583899
000050 6a 26 ec 3e 99 ac 0d 3f 6f c2 1a bf c0 d7 16 3f
       0.46123058 0.5534149 -0.6045293 0.5892296
000060 64 1a 88 be aa ec f7 3e 2f cd 60 bd ee 98 1d bf
       -0.26582634 0.48422748 -0.05488318 -0.6156148
000070 32 31 07 3f c6 08 82 3e c6 76 e0 be 7a 85 2f 3f
       0.5280944 0.2539732 -0.43840617 0.68563044
000080 78 44 0a bf 37 f5 92 be ac 0f 6b 3f c6 98 9d bc
       -0.54010725 -0.2870271 0.9182079 -0.019237887
000090 2b fa e4 3e 1e 08 a7 3e 77 62 82 3e 2a 3c 19 3f
       0.44722113 0.3262338 0.25465748 0.5985743
0000a0 73 5f 9f bd 07 f7 8d 3f 43 7a 22 3f 85 a6 ae be
       -0.07781877 1.1091012 0.63467807 -0.3411142
0000b0 40 9d 2e bf d2 4f c2 be 19 58 14 3f f9 21 73 3f
       -0.68208694 -0.37951523 0.57946926 0.94973713
0000c0 e9 e1 ac 3e f9 dc a5 be eb aa 09 3d ea 69 70 3f
       0.33766106 -0.3239515 0.033610266 0.9391161
0000d0 05 37 2a be f7 c4 f3 be 83 5f 43 be e5 ef fd be
       -0.16622551 -0.4761121 -0.19079404 -0.49597088
0000e0 1f ca 8f be 67 e3 cf 3e cd 09 09 bf 78 c5 67 be
       -0.28083894 0.40603182 -0.5353058 -0.22633922
0000f0 38 22 f2 3e 55 89 9d 3e 1f 5f 75 bf 0a 6d 17 bf
       0.47291732 0.3076884 -0.9584827 -0.59150755
000100 68 ba 86 3f a4 7d 45 bf 2d cc 58 3d 7d 99 19 bf
       1.0525637 -0.7714484 0.052929092 -0.5999983
000110 e7 3c 13 bf ef 8b ad be 86 a4 d9 3e 71 0e 55 3f
       -0.57514805 -0.33895823 0.42508334 0.8322516
000120 71 74 e3 3e 36 f5 2a bf 30 c0 a6 3e 63 ac 55 bd
       0.44424775 -0.6678041 0.32568502 -0.052166354
000130 b8 3f 57 3e 27 c9 a3 3f 97 99 95 bd ad 54 10 3f
       0.210204 1.2795762 -0.073046856 0.56379205
000140 96 85 76 bf 86 e1 42 3f 82 b6 38 be f6 9c ed be
       -0.96297586 0.7612537 -0.18038371 -0.46408814
000150 ee 23 a1 3e 06 f0 32 bf 4e 1d 63 3f 93 50 11 3f
       0.31472725 -0.69897497 0.8871659 0.5676357
000160 b6 e3 b5 be b8 fa 0b 3f 86 9a ba 3e cf e3 38 bd
       -0.35525292 0.5467944 0.36446017 -0.04513913
000170 99 be cb be a8 8c c0 3e cc ab 16 bf d0 df b5 be
       -0.39793852 0.37607312 -0.5885589 -0.35522318
000180 99 8a ab be d9 4d 17 3f e1 21 de 3e 0d e8 28 bf
       -0.3350418 0.5910316 0.43385223 -0.6597908
000190 87 64 f4 be 08 81 5c 3f 1e b0 27 3f ae b8 03 bf
       -0.47732946 0.86134386 0.6550311 -0.51453674
0001a0 bd f9 b9 3e fe 23 47 bf fd fe 4f bf e3 52 a7 be
       0.36323348 -0.77789295 -0.81248456 -0.32680425
0001b0 67 52 2b be 18 1a de 3e 87 e4 32 3f d6 8b 38 be
       -0.16730653 0.43379283 0.69879955 -0.18022093
0001c0 6f dc b1 be da 48 3b be a4 67 a6 3e e1 b0 0d bf
       -0.3473849 -0.1828951 0.32500947 -0.5534802
0001d0 c2 40 08 3f 56 2e de 3e bb a5 39 bf cb a3 18 3f
       0.5322381 0.43394727 -0.7251851 0.5962493
0001e0 5d 03 24 3f 34 ea c2 3e c5 c5 ae 3e f3 99 89 3f
       0.6406763 0.38069308 0.3413526 1.0750107
0001f0 d0 7d b4 3e 44 57 6c be d9 99 9d 3f 19 50 cf bc
       0.35252237 -0.23080164 1.2312576 -0.025306748
000200 13 dc ca 3e 5d 5a 1f bd 5e 15 6c bf c9 4d 79 3e
       0.39621028 -0.038904537 -0.92220104 0.24346079
000210 2b 3c 49 be 51 ca e7 be d9 3e 96 be 27 71 ad 3d
       -0.19651859 -0.45271543 -0.29344824 0.08468848
000220 ca ce c2 3e 13 28 15 be 1d e9 f2 3e 29 8c 9e 3f
       0.38048393 -0.14566068 0.47443476 1.2386523
000230 1f 6d ee be 80 1c 30 bf 9c af 2f 3f e7 85 ee 3e
       -0.46567628 -0.6879349 0.68627334 0.46586534
000240 48 71 de 3e f6 59 22 3f 2b 58 01 3f a9 74 08 3f
       0.43445802 0.6341852 0.5052516 0.5330301
000250 3d 8a 24 3f 11 5e 37 bf 16 fa 3d bf 99 c8 39 bf
       0.64273435 -0.7162791 -0.74209726 -0.7257171
000260 1f b0 f7 3e 52 c5 da 3e 10 e5 1d 3f 97 b1 b0 3e
       0.48376557 0.42728668 0.61677647 0.3451049
000270 5f cc ad bd 08 f6 ff 3e ae bc e9 3e 26 54 68 be
       -0.08486246 0.49992394 0.45651764 -0.2268835
000280 d1 29 d0 3e 3e 1d cc 3e 73 d1 de 3d ae 64 ba 3e
       0.40656903 0.3986606 0.10879793 0.36404938
000290 c4 7f 23 bf c3 49 ee be 38 a5 1a 3f c5 2d 37 3f
       -0.6386683 -0.4654065 0.60408354 0.71554214
0002a0 b2 39 5d 3e 5d e3 f2 be 51 c0 97 3f bc ca d9 3e
       0.2160404 -0.4743909 1.1855565 0.42537487
0002b0 13 e2 15 3f 0e 1d 2e 3f 1e 64 21 be d8 ef b6 be
       0.58548087 0.68013084 -0.15760848 -0.3572986
0002c0 0b 66 df be 89 6e 82 be 04 05 fc be e3 19 e2 ba
       -0.4363254 -0.25474957 -0.49222577 -0.0017250146
0002d0 7c 1a 82 bf 61 d2 a6 3d 93 36 8c be 17 f0 ac be
       -1.0164332 0.08145595 -0.27385387 -0.33776924
0002e0 58 25 07 3f d6 b1 20 bf 69 fe 39 be 86 ee 81 3e
       0.5279136 -0.62771356 -0.18163456 0.2537729
0002f0 9f 29 e4 bc cd 47 38 3f e1 f7 6d 3f 91 af e1 3e
       -0.027851878 0.7198456 0.9295636 0.4407926
000300 87 2a cf be 44 6a 11 bf ea 3f 1d 3f 60 03 03 bf
       -0.40462133 -0.56802773 0.6142565 -0.51177025
000310 03 97 32 bf df 2b 0a 3f 6e e3 c2 3e 0b 2e 1a 3f
       -0.69761676 0.5397319 0.3806414 0.60226506
000320 c3 22 17 bf f3 8c a3 be 19 45 2a bf 69 c6 08 3f
       -0.5903742 -0.31943473 -0.66511685 0.5342775
000330 86 0d ac 3e 3f 40 85 bf a2 ae 44 bf 2b 98 06 be
       0.33604068 -1.0410231 -0.7682897 -0.13143985
000340 89 a6 4e bf f5 93 83 3d db a3 02 3f 48 d9 3f bf
       -0.8072286 0.06424705 0.51031274 -0.7494092
000350 50 dd 74 3d cb 2c e4 bd 12 9b 97 3f 18 8e c0 be
       0.059781373 -0.11141356 1.1844199 -0.3760841
000360 70 22 82 3f b5 27 07 3e fd 61 ee 3e a3 48 18 bf
       1.016676 0.13198741 0.46559134 -0.59485835
000370 e5 ca 6e bd a7 9b e3 3e 0b 8d 52 be b6 ae 6b bf
       -0.058298964 0.4445469 -0.20561616 -0.9206346
000380 55 79 dc 3e 26 2f 91 bf d4 0e 6e bf 23 4b 21 3f
       0.4306132 -1.1342514 -0.92991376 0.63005275
000390 d5 4f 0a bf 1b 2a e0 3e a1 f1 15 be 74 68 0f 3e
       -0.54028064 0.43782124 -0.14642955 0.1400469
0003a0 9f 1f d2 be 24 d9 06 3f dc 12 19 3f b9 f6 98 be
       -0.4103975 0.5267508 0.597944 -0.29875734
0003b0 2f 55 70 3f e5 75 b4 3e 28 e5 83 3f 02 fb 3c 3f
       0.9387998 0.35246196 1.0304308 0.7382051
0003c0 58 fe 93 3e 63 ac 0d bf 2f ef 1f 3d 1d c9 9c be
       0.28904986 -0.55341166 0.039046463 -0.30622187
0003d0 24 29 29 bf 65 89 19 3f ad 24 ed 3e 26 bb 37 3f
       -0.660784 0.5997527 0.46317044 0.7176994
0003e0 7a d9 fb be 7f a5 03 3f ee e1 7a bc e7 2c c7 be
       -0.4918936 0.514244 -0.015312655 -0.38901445
0003f0 4b 5f d9 3e d9 34 33 3d 56 fb b9 3c 27 ee 73 3f
       0.42455515 0.04375157 0.022702854 0.95285267

q1_.4.weight f4 [1, 256]
000000 39 c1 f1 3e 37 e6 18 c0 4a d5 f8 3f 1c fa 34 c0
       0.4721773 -2.3890512 1.9440091 -2.8277655
000010 f0 85 2b bd 7f 9c 19 bf aa 13 aa bf c9 7d 23 c0
       -0.04187578 -0.6000442 -1.3287251 -2.5545523
000020 84 69 81 3f 60 0a 34 3f 4b 9a 6c bf 72 45 8e bf
       1.0110326 0.7032833 -0.9242293 -1.1114943
000030 de 78 96 3d 47 16 4a c0 ee da 05 40 07 97 8e bf
       0.07347272 -3.1576097 2.0914874 -1.113984
000040 ac e2 92 bf ed 55 33 3f 68 91 57 c0 95 09 c0 bf
       -1.1475425 0.7005299 -3.36825 -1.5002924
000050 3e 10 d1 3b 71 55 04 c0 c1 85 c2 bf 0e 3d 03 40
       0.00638011 -2.067715 -1.5197068 2.0506015
000060 b1 9e 84 bf 35 26 c2 3f 59 06 87 bf ac e2 63 bf
       -1.0360929 1.516791 -1.0548812 -0.8901775
000070 bb 87 36 c0 93 09 ae 3f bb 6c 36 bf 12 7a 27 c0
       -2.8520343 1.3596672 -0.7125966 -2.6168256
000080 a0 1d e9 bf bf 81 5b bf 86 7c 65 3f 18 8c 30 bd
       -1.8212166 -0.8574485 0.8964313 -0.043102354
000090 8a c9 89 ba e2 0c 84 c0 87 de 8a 3f 5d b5 2e 3f
       -0.0010512334 -4.1265726 1.084916 0.6824549
0000a0 5a 30 27 bd 28 69 c1 3e f4 4f 92 3f ab f9 96 bf
       -0.040817596 0.3777554 1.143065 -1.1794943
0000b0 18 22 80 c0 7d 60 51 bf 07 15 a8 3f 88 f9 6e 3f
       -4.004162 -0.81787854 1.3131417 0.93349504
0000c0 a1 dd 9f bf 18 e9 e3 bf 52 8e ac 3f e8 2f 8c 3f
       -1.2489511 -1.780551 1.3480933 1.095212
0000d0 dc e0 93 bf 27 db 6a bf 08 d5 82 c0 36 f4 86 c0
       -1.1552997 -0.9174065 -4.088505 -4.217311
0000e0 7f 2e 60 bf c8 6b f8 3f c6 c9 0f c0 4e 95 7e bf
       -0.8757095 1.9407892 -2.2466903 -0.9944657
0000f0 74 0f b9 3d 8f 5b 1d c0 0c 30 97 bf a0 53 48 bf
       0.090361506 -2.4587133 -1.1811538 -0.782526
000100 cc 4a 2f 3f a5 9f 25 bf f3 e5 1f 40 da 2f bf bf
       0.68473506 -0.64696723 2.49841 -1.4936478
000110 28 a9 82 bf 6a ae 73 c0 49 3c cb 3a aa a6 f3 3d
       -1.0207872 -3.8075204 0.0015505637 0.11897023
000120 25 ba 25 bc 98 af 73 bf e8 2e a4 3b d9 cb 99 3b
       -0.010115181 -0.9518981 0.0050104745 0.00469349
000130 f5 a3 70 3f 1d d2 72 3f 69 0a 32 bf 82 ec 9d 3e
       0.9400018 0.9485186 -0.69547135 0.30844504
000140 3d bc 3e bf 63 7b de 3e ed a1 9b c0 49 28 48 bf
       -0.7450598 0.43453512 -4.8635163 -0.7818647
000150 7f ca 9e 3a 2a be 02 c0 02 88 6d 3f fc 39 93 3f
       0.0012114792 -2.0428567 0.92785656 1.150207
000160 93 3d 84 c0 cf 3e d9 3e aa 1c 2c 3b 71 81 cf bf
       -4.1325164 0.42430732 0.0026262202 -1.6211377
000170 03 e1 ad 40 04 59 9d 3a eb 88 84 c0 5a 00 14 40
       5.4337173 0.0012004678 -4.1417136 2.3125215
000180 5b 30 91 bf 67 fe f5 3f dd c5 e4 ba 56 08 f4 be
       -1.1342882 1.9218262 -0.0017453987 -0.4766261
000190 7c 74 35 c0 ed 1e 8d 3f bc 99 0f 3d 7e 42 9c bf
       -2.8352346 1.1025063 0.035058722 -1.2207792
0001a0 d5 26 2e 3f db 5c 8a bf 33 11 5a bf d7 34 63 bf
       0.68028 -1.0809587 -0.85182494 -0.887525
0001b0 98 00 84 bf 61 f5 6c bb 2e fc a1 3d 0f f7 7c bf
       -1.0312681 -0.0036157 0.079094276 -0.9881448
0001c0 59 ab a0 bf fc ff 90 bf 91 95 08 c0 57 1a 15 c0
       -1.2552291 -1.132812 -2.1341288 -2.3297327
0001d0 a2 65 f4 3f 84 61 e1 bb 19 b6 92 bf 85 51 b5 3e
       1.9093516 -0.00687808 -1.1461822 0.35413757
0001e0 56 6a a5 3f b8 01 7f bf 22 62 a4 bf 0b a0 8d 3f
       1.2923076 -0.99612 -1.2842448 1.1064466
0001f0 79 32 c9 ba 64 d7 a2 bf 34 4b 2e 3f 73 37 c0 bf
       -0.0015350125 -1.2721982 0.680835 -1.5016922
000200 97 66 bb 3c 03 dc f5 3b de 6c 71 bf 6e e5 f3 bf
       0.022876067 0.007503034 -0.94306743 -1.9054391
000210 c2 29 2b bf 96 cc 5f bf 3b 48 ac c0 7b 2b 20 40
       -0.6686059 -0.8742155 -5.383817 2.5026538
000220 3d 34 a5 bf 0f 05 cb bf 22 97 b8 bf d6 5d 4c 3f
       -1.2906567 -1.5860919 -1.4421122 0.7983068
000230 43 93 05 c0 f8 a8 b4 bf 1b c5 9b 3f 19 9b 91 bf
       -2.0871131 -1.4114065 1.2169527 -1.1375457
000240 b4 36 cf 3b 84 e2 7f 3f 1f 9f 1c 3f 23 d5 bc 3e
       0.00632366 0.9995501 0.611803 0.3688136
000250 22 62 20 3d 7c 61 4d bf ce b7 c1 bf 6b 27 d1 c0
       0.039156087 -0.80226874 -1.5134218 -6.536062
000260 ce 42 09 c0 04 72 85 3f 1d b6 ea bf 5a a7 7f bf
       -2.1447024 1.042542 -1.8336827 -0.99864733
000270 31 2c 84 bf 4f c9 ca 3f 04 9c d4 3f 6e 97 a5 bf
       -1.0325986 1.5842685 1.6610112 -1.2936838
000280 f0 23 c4 3f ac bf 1a 40 e2 90 c3 3f ad a1 35 3f
       1.5323467 2.4179487 1.527859 0.7094982
000290 59 cb 6c bf 68 12 e8 bf 3e 7f d6 3e c0 a2 a6 3d
       -0.92497784 -1.8130617 0.41893953 0.08136511
0002a0 07 b8 90 bf bc 3c 87 c0 c0 e0 4b 3f f2 c3 86 3f
       -1.1306161 -4.226164 0.79639816 1.0528548
0002b0 94 eb 21 40 a1 6a 4a 3f 27 50 12 c0 9c 47 61 bf
       2.5300035 0.7906895 -2.286142 -0.8799989
0002c0 4d 24 66 bf 9f cb 48 40 c1 e3 87 bf 28 0c 3e 3a
       -0.8989914 3.137428 -1.061638 0.0007249736
0002d0 59 ef 1b c0 38 10 7c 40 c8 42 62 bf df 5e 81 bf
       -2.4364836 3.93849 -0.8838315 -1.0107077
0002e0 42 b3 81 c0 31 33 ac bf 9e 66 34 40 bd 60 93 bf
       -4.053132 -1.3453122 2.8187633 -1.1513897
0002f0 5c 87 68 bf 82 c1 98 3f 4b 73 63 3f 41 39 95 3f
       -0.9083154 1.1934054 0.888478 1.1658098
000300 1a c9 83 bf 3e 52 80 bf 49 c1 36 3f 75 a3 a6 bf
       -1.0295746 -1.0025098 0.7138868 -1.3018633
000310 bd e7 6f bf 8a 24 18 3f 71 c6 14 b9 7d 26 47 3f
       -0.9371298 0.59430754 -0.00014188305 0.77793103
000320 fc 5a c1 40 34 05 c0 c0 07 c0 47 c0 24 78 ff be
       6.0423565 -6.000635 -3.1210954 -0.49896348
000330 f6 1d 08 40 6b f2 32 c0 45 45 09 c0 ba 56 cb bf
       2.1268287 -2.796046 -2.1448529 -1.5885842
000340 6d bd 3d bf 44 50 aa 40 93 62 da 3e bd 04 41 c0
       -0.74117166 5.322298 0.4265333 -3.0159142
000350 f3 cb 52 40 48 68 6a bf 03 f1 e0 3f 7f ca 57 bf
       3.293698 -0.9156537 1.7573551 -0.8429336
000360 70 b0 5b 3f 69 17 ac bf 66 52 b2 3f 74 6a a0 bf
       0.858161 -1.3444644 1.3931396 -1.2532487
000370 79 e0 91 bc 9c 02 81 bb 51 cd e8 bf e5 05 13 c0
       -0.017807232 -0.0039370786 -1.8187658 -2.2972348
000380 31 a1 f2 3b 12 c4 26 c0 9a 69 80 bf 89 f4 ef 3c
       0.0074044694 -2.6057172 -1.0032227 0.029291408
000390 89 b1 8f bf 91 45 27 ba 65 32 af bf d6 6f a2 bf
       -1.1226054 -0.00063809106 -1.3687254 -1.269038
0003a0 5d ca 98 bf 94 e3 0b 3f 1e 92 52 3d af 55 f9 bf
       -1.1936756 0.5464413 0.05140888 -1.9479274
0003b0 3f 56 4c 3f fd e3 45 3f 2e e1 5b 3f cc f2 b8 3d
       0.798191 0.7730101 0.8589047 0.09030685
0003c0 4e 45 96 bf 31 27 43 bf dd 06 a7 bf e1 89 1e c0
       -1.17399 -0.76231676 -1.304897 -2.4771655
0003d0 cf 43 0c 40 d1 52 2d 3f 1b e7 9d ba ef 16 30 3c
       2.1916387 0.6770449 -0.0012047024 0.010747655
0003e0 db 9a 42 bf e8 73 b4 bf a3 41 1b 40 73 b7 8d c0
       -0.7601754 -1.4097872 2.4258811 -4.4286437
0003f0 d3 b6 1a 3c fe f0 0b bd b3 d0 b1 3f 8e 1d 9b 3f
       0.009443003 -0.034165375 1.3891815 1.2118394

q2_.0.weight f4 [256, 23]
000000 ec 4f 83 bb f4 fd 4e 3e 6b fc 3b bc 35 74 83 3e
       -0.00400733 0.20214063 -0.011473755 0.25674596
000010 2b d0 52 bf a6 00 e9 be 3b ea 82 bf 47 51 cf be
       -0.8234889 -0.45508307 -1.0227731 -0.40491697
000020 d3 71 bb 3e df 88 27 be ae d7 e3 be e5 12 da be
       0.36610278 -0.16360806 -0.44500488 -0.4259254
000030 1c 03 f0 bd 21 a5 19 be c8 c9 56 3f ed 98 93 3d
       -0.11719343 -0.15004398 0.83901644 0.07206903
000040 0b 7c 00 be e4 c6 b8 3d 1d 2d 21 bd e5 f4 ec bd
       -0.12547319 0.090223104 -0.039349664 -0.115701474
000050 45 fa 87 3e 9d 16 59 be 5a 5c 58 3c 68 f1 53 3e
       0.26558128 -0.21200033 0.013205612 0.20697558
000060 8c d9 89 3d a3 7e 43 bf a4 69 ca 3e d9 0e 18 3e
       0.06730947 -0.7636511 0.39533722 0.14849414
000070 27 02 85 3f 36 ea 80 3f 43 95 91 3e a4 80 f2 be
       1.0391282 1.0071476 0.2843419 -0.4736377
000080 7a ec 9c 3e c7 94 d3 3e a0 c8 9f be 3f 12 44 be
       0.30649167 0.41324446 -0.31207752 -0.19147585
000090 5d 0d 41 3d a4 74 a3 3e b7 d1 b3 3e 94 37 31 3c
       0.047131885 0.31924927 0.35120937 0.0108164735
0000a0 6b a4 3f 3e 3f e0 1a be 81 23 cb 37 b6 c4 e9 3d
       0.18715064 -0.15124606 2.4216019e-05 0.11414473
0000b0 bb 8d 12 3c 1a f6 0c bd 6c a2 9e be 2f 10 73 bf
       0.008944924 -0.03441439 -0.30983293 -0.9494657
0000c0 f8 5d 6c 3f c0 05 13 3f 0e e5 e8 3e 51 cb 28 3f
       0.92330885 0.5743065 0.45487255 0.65935236
0000d0 4d 6a 82 3f fe ba 29 be f7 ea 41 3f 9f 22 0d bf
       1.018869 -0.16575238 0.7574915 -0.5513095
0000e0 b8 10 55 bf 1d 8b 5e 3f c1 05 90 3e de e6 67 3d
       -0.83228636 0.8693102 0.2812939 0.056616656
0000f0 ca 6e 94 be 7c df 0d be 4e b9 d7 3d e3 5d d0 3d
       -0.28990775 -0.13854784 0.10533391 0.101741575
000100 7c 2b e5 bd 71 30 49 3e 78 c9 32 3d 1d 36 f7 3c
       -0.111899346 0.19647385 0.043649167 0.03017717
000110 79 5c e3 3d 40 bd 17 bd d3 23 f8 bd 9d 50 10 3c
       0.11101622 -0.037045717 -0.12116208 0.008808282
000120 2a f2 69 be e4 bf a1 3d 44 01 c5 3d b6 b4 0f bb
       -0.22846285 0.07897928 0.09619382 -0.002192778
000130 17 db 0d 3e ae 1a 03 3e cd e0 b5 bd 94 60 21 bf
       0.13853107 0.12803146 -0.08880768 -0.6303799
000140 9d 2c 99 bf df 07 c5 3e b0 8e b7 3d d4 f2 db bd
       -1.196674 0.38482568 0.08962762 -0.10739675
000150 a1 8b c7 bd 2a 76 db 3c 90 57 14 3e 7d 07 fa bc
       -0.09743429 0.026789743 0.14486527 -0.030521149
000160 f7 a5 1f bc ca 24 53 3d 6b e0 9a bc 92 9a b1 3d
       -0.009744159 0.051548757 -0.018905839 0.0867206
000170 7e 63 2c bf 65 7c 26 bf 86 04 a5 3f 12 ab c7 3f
       -0.67339313 -0.6503356 1.2892005 1.5599082
000180 5b 88 32 bf e2 c9 1b bf b8 35 77 be 15 f9 0f bf
       -0.6973931 -0.60854924 -0.24141586 -0.56239444
000190 15 1f 79 be 99 04 a1 be 1f 5b 8d 3d 2c 7f cf bd
       -0.24328263 -0.3144882 0.069021456 -0.10131678
0001a0 92 0f 71 be 42 77 46 be 06 cd 9c 3c 88 ec 4b bd
       -0.23541096 -0.19381431 0.019140732 -0.04978612
0001b0 4d d2 05 be b7 9e 0d bd 32 a7 ed bd 30 75 83 3d
       -0.13068505 -0.03457519 -0.116041556 0.06418836
0001c0 10 f2 3f 3a 01 e2 27 bc fe 80 8a bd 4b 0f 32 be
       0.0007322142 -0.010246755 -0.067628846 -0.17388646
0001d0 02 e7 89 be 72 2b 88 3e bd c1 fd bd 6a 53 7c 3d
       -0.26934057 0.26595646 -0.12390468 0.061602987
0001e0 86 e1 55 3d fd 6f 70 3f d9 c8 86 bb 31 64 ed 3e
       0.05221703 0.9392088 -0.0041132984 0.46365502
0001f0 5c 80 2b 3d 75 b5 ff 3d 26 e8 16 3d c5 84 9d 3b
       0.04187046 0.12485782 0.036842488 0.004807087
000200 c9 31 92 bd 85 20 70 be a2 a8 3e 3e c6 bf 3b 3e
       -0.07138402 -0.23449905 0.18619016 0.18334875
000210 e5 1c 19 3d 02 07 bf 3d cf f4 12 bd d9 30 10 be
       0.03738107 0.093275085 -0.035878 -0.14081134
000220 2d 5d b0 3e 26 22 c6 3d ed 90 12 bf 8a ca 09 bf
       0.34446087 0.09674482 -0.5725239 -0.53824675
000230 ca ec e8 bd 98 bf 13 bf 69 7c f1 3d 03 4a 59 3f
       -0.11373289 -0.57714224 0.117913075 0.8487856
000240 ce 1d 87 3f bb e3 27 be 88 06 63 be 49 93 a7 3e
       1.0555971 -0.16395466 -0.2217046 0.32729557
000250 40 b2 49 3e 5e 49 6f be f8 02 75 be 25 78 56 3d
       0.19696903 -0.23367831 -0.23926914 0.052360673
000260 73 77 4e 3e aa ca c4 3e c3 0c 59 3d 62 85 b0 3c
       0.20162754 0.3843587 0.052990686 0.021547977
000270 7a 47 68 3d c9 2e 36 3d b1 1d 55 bd 1b 73 b0 3e
       0.05670879 0.04447821 -0.05203027 0.34462819
000280 26 d4 97 3d d1 91 d4 3e ac c7 cd 3e 3d a4 e1 3e
       0.07413511 0.415175 0.401914 0.44070616
000290 71 80 73 3e 2c 24 1e 3c 3f f7 2f be 42 a2 71 be
       0.23779465 0.009652179 -0.1718416 -0.23597053
0002a0 05 b8 a5 3e 17 41 9e 3c f6 3d 28 3f 21 27 ad bd
       0.32366958 0.019318147 0.65719545 -0.08454729
0002b0 e2 19 9f 3d 6e 7b 5e 3d f6 51 2a 3d bc 0d 11 3d
       0.07768609 0.05431693 0.04158207 0.03541349
0002c0 0d 53 03 be d8 84 67 bd b5 13 36 3e d9 9d 04 be
       -0.1282465 -0.056523174 0.17780955 -0.12950839
0002d0 9c 2d 9c 3d 54 11 9a 3e b6 4d 71 be 5a 56 eb bd
       0.07625887 0.30091345 -0.235648 -0.1149108
0002e0 e0 51 70 bf 24 df de be 2d 7d 33 3f fe 37 13 3f
       -0.9387493 -0.43529618 0.7011288 0.5750731
0002f0 4e 18 e2 be 91 40 27 bf db ab 6b bf 6b 46 42 bd
       -0.44159168 -0.65332896 -0.92059106 -0.047430437
000300 3d 93 52 be c5 13 d8 be fa b6 a5 be 87 76 ba 3d
       -0.2056398 -0.42202583 -0.32366163 0.091046385
000310 16 0b 62 3c f4 d1 e7 bd 43 b6 41 3e 6a 72 8c bd
       0.013796588 -0.11319342 0.18917184 -0.0685776
000320 d5 0d 82 bd 17 8e 3b 3d d8 3c 0b be 05 ee 0f be
       -0.063502945 0.045789804 -0.13597429 -0.14055641
000330 05 c1 35 3d e3 0c 4d be 99 92 b1 3c 26 bc e4 be
       0.04437353 -0.20024447 0.021676349 -0.44674796
000340 77 13 0d 3f f4 41 0e 3d 14 27 c0 be 20 aa b8 bb
       0.55107826 0.034730867 -0.37529814 -0.005635515
000350 51 71 d9 be 99 43 64 bf f4 95 e6 3e 31 7e ba 3f
       -0.42469266 -0.89165646 0.4503628 1.456976
000360 6f 7b 84 3d 54 93 21 bf ae a0 54 3e ce ed 4f bd
       0.064688556 -0.6311543 0.2076442 -0.050763898
000370 6c d0 83 3d 43 9b cb bd a6 c3 cf be 5f f3 80 3e
       0.06436238 -0.09941723 -0.40578955 0.25185677
000380 52 d7 4e bd e2 a1 29 bd 65 78 06 3e 0d b5 a4 bd
       -0.050498314 -0.04141415 0.13131864 -0.08042345
000390 5b 5f 48 be 2b 64 37 3d 65 67 0b 3f 6b bf 03 3f
       -0.19567625 0.044773262 0.5445464 0.51463956
0003a0 2d 71 74 be d4 bd 91 3f e5 2b 52 3f 9a eb 4e 3e
       -0.23871298 1.1386056 0.8209823 0.20207062
0003b0 ec 67 41 be 90 4e 87 3e bc 82 bc be 36 e1 31 3f
       -0.188873 0.26427126 -0.36818492 0.6948427
0003c0 af 34 07 3f 5d bc 0d be 6c a8 88 3d 92 9f 3f 3d
       0.52814764 -0.13841386 0.06672749 0.046783037
0003d0 83 a3 48 be bf f6 f1 3c 87 c9 0c 3e cd 15 77 3d
       -0.19593625 0.029536603 0.13748752 0.060323525
0003e0 3b 95 a8 3d 1e 32 f7 3c 87 7f a2 3d 5a f6 b1 bd
       0.082315885 0.030175265 0.0793448 -0.08689566
0003f0 68 d0 40 3d 50 7a 29 3f ee 13 87 3f b1 c9 03 3f
       0.04707375 0.6620226 1.0552957 0.5147963

q2_.0.bias f4 [256]
000000 d5 c3 84 3e 98 ec 94 be 35 ff 34 bd 33 e1 31 c0
       0.25930658 -0.29086757 -0.044188697 -2.77937
000010 48 18 af bf 85 29 76 3f 47 26 51 3f f1 78 b3 3f
       -1.3679285 0.96157104 0.8169903 1.4021283
000020 0f e8 ce bf 67 2a e4 3e 2e bd 00 3e b9 6b db be
       -1.6164569 0.445636 0.12572166 -0.42855623
000030 dd 6c e0 bf 3f 8e b7 bf 28 eb 5d 3e e2 42 23 bf
       -1.7533222 -1.4340285 0.21671736 -0.6377393
000040 bc 13 a7 3f 0d ec 46 bf ce af 98 bf 6f 28 5c 3f
       1.3052897 -0.77703935 -1.1928651 0.85999197
000050 b8 c7 87 be e9 b9 48 3f cf 87 38 bf 45 4a a7 3e
       -0.2651956 0.78408676 -0.7208223 0.3267385
000060 e6 74 d7 bc 43 1b 13 3f e0 b1 d0 be 31 70 73 bf
       -0.026300859 0.57463473 -0.40760708 -0.95093066
000070 8a 1f 05 bf 60 c7 0f bf 99 66 ab be c1 9d 8f be
       -0.5200125 -0.561636 -0.33476713 -0.28050044
000080 a5 4b 9b 3e 5d e2 89 bf 5d 13 db 3f 21 74 6b be
       0.3033115 -1.0772206 1.7115284 -0.22993518
000090 47 2d dc 3e 44 56 37 bf a5 5e 8e 3e b2 44 78 3f
       0.43003294 -0.71616006 0.27806583 0.9697982
0000a0 09 ff 3c bf 89 de 60 c0 b1 62 e3 be e3 65 09 3f
       -0.7382665 -3.5135825 -0.44411233 0.5367109
0000b0 a4 71 3c bf e8 f5 8b bf fa ee b1 be 15 03 b2 bf
       -0.736109 -1.093442 -0.34752637 -1.390719
0000c0 2f ff 24 bf 7d 54 0f 3d 9e 9d 88 3f 1d 71 b7 bf
       -0.6445188 0.034992684 1.0673101 -1.4331394
0000d0 45 50 31 3e 91 87 d3 3d 62 76 97 bf 3a bb e7 bf
       0.17315777 0.103285916 -1.1833003 -1.8104012
0000e0 83 f9 df bf 79 00 75 bf 3b 35 7d 3f 4e f8 50 bf
       -1.749802 -0.95703846 0.9890935 -0.8162888
0000f0 d0 0d b5 bf a5 8b 72 bf 4d c3 a5 bf 90 e9 d5 bd
       -1.414484 -0.9474433 -1.2950226 -0.10444939
000100 0e 43 74 bf d9 60 75 bf b2 5e 77 3f 1b 87 ab 3d
       -0.9541482 -0.958509 0.9662887 0.08375379
000110 8b de 58 3f 53 e8 ad bf cb 54 1c be 98 c7 c5 be
       0.84714574 -1.3586525 -0.15266721 -0.3862884
000120 11 07 56 bf a9 5e a9 bf cc 1f a6 be 99 b0 aa bf
       -0.8360453 -1.3232013 -0.32446134 -1.3335143
000130 04 37 7e bf 55 3e eb be d7 70 9d 3e 1b 3d 4f 3e
       -0.993027 -0.45945993 0.30750152 0.20238154
000140 94 14 5d 3d 85 bd 52 bf fd 1d 88 3e 14 c1 05 c0
       0.053974703 -0.82320434 0.2658538 -2.0899096
000150 37 a8 31 be 3d e8 9a 3d 8e 88 09 bf 85 6e 2f 3f
       -0.17349325 0.07563827 -0.5372399 0.68528014
000160 7b f5 86 3f fa 9b 29 3f 4e 18 b8 3d 3f aa 81 3f
       1.0543665 0.66253626 0.08989011 1.013008
000170 b3 51 17 c0 ea 0a 9d 3f 02 69 13 bf 43 6d 37 3e
       -2.3643615 1.2268956 -0.57582104 0.17912774
000180 e5 e1 ee bf 1a 69 9c bf 01 90 0b 3e 47 be 21 3f
       -1.8662688 -1.2219574 0.13629152 0.63180965
000190 7f c4 ff bf d3 92 65 3f 3d 9b 9e bd f3 a1 25 bf
       -1.9981841 0.8967716 -0.07744453 -0.6470024
0001a0 5a fd dd bf 40 81 9a 3f f5 38 80 bf ed 18 2a be
       -1.7342942 1.2070694 -1.0017382 -0.16611071
0001b0 2d 02 af be 0d d1 f9 bf 29 4e 62 bf 4e 69 8f bf
       -0.34181347 -1.9516922 -0.8840051 -1.1204011
0001c0 d1 de 4d 3f 33 0a c4 3e 35 1d 43 3f ab c6 ca bf
       0.80418116 0.3828903 0.7621644 -1.5841879
0001d0 24 7a 30 3f 7c 8f b1 bf 84 ce 31 3f 48 e6 ba 3f
       0.6893637 -1.3871913 0.6945574 1.4601526
0001e0 40 92 ed bf 88 13 60 bf c4 3d 4c bf d7 c4 8e 3e
       -1.8560257 -0.875298 -0.79781747 0.27884552
0001f0 48 f1 d0 3e b5 34 7c bf f5 48 13 be 11 08 99 bf
       0.40809083 -0.98517925 -0.143833 -1.1955587
000200 41 89 c3 bf 60 2f da bf 05 29 b9 bd 3d 4b 37 3f
       -1.5276262 -1.7045708 -0.09041027 0.7159918
000210 1f c7 48 3f bc 09 1b bf 0e 3f 3c 3e 49 91 7c bf
       0.78428835 -0.6056173 0.18383428 -0.9865919
000220 41 d0 f9 be 51 12 af bd f4 0c 97 3f bf b3 da 3e
       -0.48791698 -0.085484155 1.1800828 0.4271526
000230 39 34 5b bf f7 4e d1 3e 2d 6f ca be 01 4b 8c 3b
       -0.8562656 0.40880558 -0.39537945 0.004281402
000240 e1 24 cd 3e 90 92 3a 3f 77 05 91 bf e4 57 09 c0
       0.400672 0.72879887 -1.1329793 -2.1459894
000250 22 b7 3d 3f cf f7 b3 be 51 98 83 3e 64 2c 4c 3d
       0.74107563 -0.3515 0.25702146 0.04984702
000260 65 27 e5 be 62 90 eb be 39 0e 09 3f 8e 14 d2 3d
       -0.44756618 -0.46008593 0.5353733 0.10257827
000270 ab b4 42 ba 50 57 6a 3f b0 be 50 bf 28 46 69 3f
       -0.00074274343 0.9153948 -0.81540966 0.91122675
000280 6a 00 5a bf 44 04 a9 bf 4f 2d 5c bf 86 4a c3 3d
       -0.8515688 -1.3204427 -0.86006635 0.095356986
000290 ce 46 b2 be 46 fd b8 bc 0a 7f f1 bf b1 c1 3d bf
       -0.34819645 -0.022581708 -1.8866894 -0.74123675
0002a0 22 14 b0 bf 19 a6 8d bf 0f 2e a9 bf 0c e3 08 3e
       -1.3756144 -1.1066314 -1.3217181 0.13367862
0002b0 e4 38 fc 3e 43 dd a4 be 96 88 ad bf ab 12 c1 3e
       0.49262154 -0.3220006 -1.3557308 0.37709555
0002c0 48 73 68 bf 83 d9 f9 3e d1 80 2a bf 77 3e 7b 3e
       -0.90800905 0.4879876 -0.6660281 0.24535547
0002d0 0b fc f4 3e 13 16 c2 bf 91 bb 52 bf 85 e4 22 3f
       0.47848544 -1.5162987 -0.82317454 0.63629943
0002e0 cc de 30 3f da db 4d bf a9 4b 5d bf c1 54 24 bd
       0.6908996 -0.8041359 -0.86443573 -0.04011989
0002f0 2c c7 4b 3f d4 9e 0e c0 d2 16 a2 3e 35 2a 44 bd
       0.7960079 -2.228444 0.31658036 -0.047891814
000300 fe 47 2d 3f c0 9d b5 be 75 60 a1 bf b3 c1 0a 3d
       0.67687976 -0.35471916 -1.2607561 0.033876132
000310 77 8a 89 3e 38 f6 52 bb e1 63 8c bf 90 16 19 c0
       0.26863453 -0.0032190215 -1.0967981 -2.392002
000320 bb fc 27 bf 4f 75 eb be 0b 22 1d 3d ac 87 b8 bf
       -0.6562001 -0.45987937 0.038362544 -1.4416404
000330 59 e7 b3 be 7a 1a 63 3e a0 43 76 bf 11 43 b0 bf
       -0.35137442 0.22178069 -0.9619694 -1.3770467
000340 58 83 16 3f 2f 25 28 be b5 c6 4c 3d 1a 35 03 3f
       0.58794165 -0.16420434 0.04999419 0.512529
000350 2c 49 23 bf 51 eb d7 bf b6 a3 ca bf 1f 73 07 c0
       -0.63783526 -1.6868688 -1.5831211 -2.1164014
000360 cb 45 d7 3d 4d c4 dd be 72 15 b7 be e4 0c 16 3f
       0.10511359 -0.43313828 -0.3575855 0.5861342
000370 49 2a 97 be f5 98 93 3f 27 b1 78 3f 71 80 07 3f
       -0.2952445 1.1531054 0.97145313 0.5293036
000380 e7 f3 13 bf 43 24 9e bf d8 a8 65 3f 28 4c 0d c0
       -0.5779404 -1.2354816 0.8971076 -2.2077732
000390 ce 03 81 bf 98 80 6a 3e 71 68 91 bf 64 06 2e 3f
       -1.0079286 0.22900617 -1.1359998 0.679785
0003a0 4a 66 bd bf a1 60 c2 3f 78 2c 01 3f 68 75 5c be
       -1.4796841 1.5185739 0.5045848 -0.21529162
0003b0 af fa 05 be a2 30 41 3e 44 7e e6 bd c5 c2 b3 bd
       -0.1308391 0.18866208 -0.11254552 -0.08777384
0003c0 57 6b f6 bd 6b 76 2d bf 6b 34 83 be f2 a0 97 3f
       -0.12032192 -0.67758816 -0.2562593 1.1845992
0003d0 86 6d 0f 3f f4 b7 99 bf ac 07 06 3f 79 83 28 bf
       0.56026495 -1.2009263 0.52355456 -0.6582561
0003e0 a1 68 0d bf 07 0d 47 3f a3 19 8b bd e1 7b b4 3e
       -0.55237776 0.77754253 -0.06791999 0.35250762
0003f0 2c 70 d1 bf ea aa 77 3f 3f 2f 1b 3f bb d1 95 3f
       -1.6362357 0.9674517 0.60618967 1.170463
